weights/benchmark-two/flashkan_vit_8epochs.pth (torch, 48096 bytes, 15 tensors)

v_class f4 [1, 8]
0.8021805 0.32507318 0.67835 0.16619042 0.7245286 -0.1254409 0.77406764 0.29532686
00000000: b45b 4d3f fe6f a63e 58a8 2d3f d22d 2a3e
00000010: b57a 393f 9473 00be 4c29 463f 1535 973e

linear_mapper.base_weight f4 [8, 16]
0.36702394 0.23574911 0.07253117 0.40463036 0.07928107 0.18463914 0.049003176 0.3826674
0.2733366 -0.091270044 0.21935536 0.21543112 0.16153069 0.10494286 0.1578754 0.15800266
-0.0643052 -0.16651712 -0.2838364 -0.2567332 -0.2749605 -0.21313515 -0.28679225 -0.05344594
-0.3515517 -0.28792354 -0.3591811 -0.32963794 -0.1570266 -0.3575582 -0.017018816 -0.2529254
0.5759153 0.3283767 0.105217025 0.17141245 0.0071158526 0.3750821 0.16393207 -0.00043700752
-0.016532704 0.062160376 0.20104133 0.38234228 -0.04767553 -0.07250243 0.17166223 0.36069766
-0.05665113 -0.26171893 -0.27332664 -0.23999569 -0.256105 0.17657956 0.023884978 -0.00057101477
0.11720442 0.101973094 0.27307013 -0.05152571 0.17161752 0.04155236 0.2883338 0.26056737
0.32331145 0.07703564 0.19816552 0.090985425 -0.18201627 -0.23173042 0.14013405 0.1584977
0.07838114 -0.38004455 -0.24688894 -0.08730123 -0.24838063 -0.025205515 0.21845305 0.49723965
-0.31093407 -0.15840106 0.09944184 -0.15961455 0.056715634 -0.054619912 0.10884711 -0.25394621
-0.09496415 0.12691508 0.103500366 -0.15215777 0.10549503 0.18187296 -0.18568115 -0.20549017
-0.04687834 -0.38462394 -0.3476832 -0.6159265 -0.30715427 -0.34066707 -0.32248977 -0.48012242
-0.034292955 -0.35460055 -0.3142261 -0.145038 0.06786721 -0.030198678 0.33188 0.08369543
-0.42979947 -0.4474315 -0.26867115 -0.54833686 -0.04735968 -0.337717 -0.15432718 -0.47044414
0.17239244 0.023060352 -0.05025129 -0.40954792 0.29083833 0.12928908 -0.15449965 -0.31416532
00000000: 90ea bb3e 3768 713e 398b 943d b62b cf3e
00000010: 1d5e a23d 0b12 3d3e 8eb7 483d fbec c33e
00000020: c6f2 8b3e caeb babd b19e 603e fa99 5c3e
00000030: 4d68 253e 48ec d63d 17aa 213e 73cb 213e
00000040: 72b2 83bd 7783 2abe 0153 91be 8972 83be
00000050: 9fc7 8cbe 1a40 5abe 6fd6 92be 21ea 5abd
00000060: 96fe b3be b76a 93be 96e6 b7be 4ec6 a8be
00000070: 95cb 20be de11 b7be 0b6b 8bbc 707f 81be
00000080: 2f6f 133f fe20 a83e 067c d73d bf86 2f3e
00000090: 192c e93b c30a c03e cfdd 273e 281e e5b9
000000a0: 986f 87bc e19b 7e3d c7dd 4d3e 5ec2 c33e
000000b0: 6b47 43bd 277c 94bd 39c8 2f3e 5dad b83e
000000c0: 040b 68bd 0600 86be 78f1 8bbe 6ec1 75be
000000d0: 3220 83be 46d1 343e 6eaa c33c 27b0 15ba
000000e0: df08 f03d 45d7 d03d d9cf 8b3e 9f0c 53bd
000000f0: 81bc 2f3e cf32 2a3d 7da0 933e 1669 853e
00000100: 1489 a53e ddc4 9d3d e7eb 4a3e 9156 ba3d
00000110: 7962 3abe bd4a 6dbe 4d7f 0f3e 394d 223e
00000120: 4b86 a03d 3395 c2be 74d0 7cbe fdca b2bd
00000130: 7e57 7ebe cc7b cebc 28b2 5f3e 3296 fe3e
00000140: c032 9fbe e333 22be 2aa8 cb3d ff71 23be
00000150: a74e 683d 21b9 5fbd 3ceb de3d 3d05 82be
00000160: 907c c2bd 07f6 013e 00f8 d33d 3fcf 1bbe
00000170: c70d d83d e83c 3a3e 3323 3ebe 046c 52be
00000180: 8103 40bd 6eed c4be 8803 b2be 5cad 1dbf
00000190: 5343 9dbe ea6b aebe 611d a5be 9bd2 f5be
000001a0: c576 0cbd 348e b5be 3ee2 a0be d784 14be
000001b0: f7fd 8a3d 3863 f7bc 2dec a93e 8268 ab3d
000001c0: ad0e dcbe be15 e5be 448f 89be ce5f 0cbf
000001d0: 39fc 41bd 3ee9 acbe f207 1ebe 0ede f0be
000001e0: a587 303e 10e9 bc3c 4cd4 4dbd 44b0 d1be
000001f0: c3e8 943e 5b64 043e 2835 1ebe 47da a0be

linear_mapper.spline_weight f4 [8, 16, 8]
0.0022719635 0.010410162 -0.042117395 -0.031624664 0.009747177 0.26313984 -0.2839539 -0.36229706
-0.0037458295 -0.013104102 -0.04195107 -0.029156359 -0.021695046 0.33099848 -0.076561466 -0.17994952
-0.0025097078 -0.005170549 -0.029913422 -0.031696312 0.037094202 0.3247289 -0.22498953 -0.30132943
-8.359805e-05 -0.0010373174 -0.019527854 -0.016365765 -0.016341697 0.2863359 -0.1855355 -0.307286
0.0014045476 0.009948569 0.0044674533 -0.019891897 0.005137991 -0.122440934 0.14255916 0.24275796
0.0033316358 0.0065145674 -0.007093599 0.018717377 -0.026079992 -0.11793846 0.15533009 0.22916861
-0.002053704 -0.008711241 0.020478051 -0.004945669 -0.03927852 -0.31821075 0.23808858 0.34803775
0.0043688794 0.010960233 -0.024319189 0.005645981 -0.016585553 0.17426683 -0.18520638 -0.3093611
0.005234656 0.012899415 -0.03085889 0.011879999 -0.008986341 -0.14108226 0.07054472 0.12970236
-0.002386681 -0.01096419 0.007720711 0.00934589 -0.0033722315 -0.27088472 0.12922536 0.18284495
-0.00056191214 -0.003921186 -0.01162034 0.0011728834 -0.03565488 0.20602617 -0.008145136 -0.12365954
0.0032426626 0.0058853407 -0.03318333 0.016629845 0.02218928 -0.044848107 0.15507515 0.22509591
-0.005881454 -0.017384708 0.027240643 0.00054575375 -0.011713785 0.29845947 -0.026726631 -0.13527386
0.0036566874 0.0093053235 -0.020904327 0.012927191 0.0002510512 0.25713232 -0.104408816 -0.16425185
0.0042132377 0.009869642 -0.044591364 -0.017082391 -0.020591397 0.43066534 -0.0720201 -0.21807584
-0.001128882 -0.0044963215 0.020028032 0.019617436 -0.007638253 -0.28935707 0.2329187 0.35375172
0.0017169166 0.0005385859 0.06997036 0.06970279 -0.050327014 -0.38364387 -0.07345342 0.10998944
-0.0062539657 -0.018018322 0.040863838 0.005971744 -0.016977463 -0.21612784 -0.103284895 -0.0015610156
-0.00028150313 0.00091709325 0.043908242 0.01946274 -0.044852242 -0.1919125 -0.07610185 -0.014594366
-0.0015362788 -0.008673937 -0.11645859 -0.06695421 0.021898001 0.5087083 0.13818903 -0.016144942
0.0016617675 0.004192236 -0.024236087 -0.0028081797 0.010450132 0.069896355 0.0487143 0.029247105
-0.0021741856 -0.007910643 0.012240917 0.00035434324 -0.01694203 -0.10064618 -0.16819866 -0.12022226
-0.00026089724 0.0024954386 -0.03462553 -0.022485435 0.05177723 0.22170997 0.111637585 -0.00560164
0.002416528 0.007282812 -0.053432964 -0.010918161 0.010472853 0.32216534 0.10492831 -0.034831222
0.003221333 0.012739291 -0.03457356 -0.03714322 0.020001706 0.14188574 0.11057343 0.10986171
-0.00033187272 -0.0038604876 -0.0072036847 0.0115745105 -0.0041575427 -0.13060021 -0.14836222 -0.087582186
-0.00010256955 0.0028199 -0.0049361708 -0.022988643 -0.02486856 0.055593282 0.31791407 0.22701553
-0.00024445562 -0.0021569438 -0.007139453 -0.0036747735 0.0041427137 -0.10950277 -0.019054443 0.052534163
0.0008132637 0.007320741 0.042632688 0.017393397 0.04044916 -0.30788633 -0.12617089 0.009317528
0.0060555045 0.015691085 -0.037733056 0.012219956 -0.006726316 0.15459593 0.016597932 -0.116204225
-0.0011016475 -0.0064180377 -0.001434641 0.017197495 -0.024347804 0.070786476 0.18127051 0.05252525
0.0015336857 0.007429509 0.022490643 0.01071589 -0.0024156834 -0.16436122 0.008097667 0.089099854
00000000: 39e5 143b 628f 2a3c 4a83 2cbd dd88 01bd
00000010: a0b2 1f3c 44ba 863e 6862 91be 007f b9be
00000020: 977c 75bb 96b2 56bc e3d4 2bbd 51d9 eebc
00000030: cfb9 b1bc a278 a93e 42cc 9cbd b044 38be
00000040: e979 24bb b56d a9bb fe0c f5bc fed3 01bd
00000050: 17f0 173d de42 a63e a863 66be da47 9abe
00000060: 5d51 afb8 99f6 87ba e1f8 9fbc 7f11 86bc
00000070: 06df 85bc 9e9a 923e 05fd 3dbe 9754 9dbe
00000080: cc18 b83a 53ff 223c b763 923b 55f4 a2bc
00000090: 985c a83b 50c2 fabd 07fb 113e 8b95 783e
000000a0: 9357 5a3b 2778 d53b 6c71 e8bb 2f55 993c
000000b0: b5a5 d5bc b889 f1bd da0e 1f3e 2dab 6a3e
000000c0: 7097 06bb 98b9 0ebc 96c1 a73c 470f a2bb
000000d0: 83e2 20bd 85ec a2be 7ecd 733e 0132 b23e
000000e0: d128 8f3b 8d92 333c 0939 c7bc ec01 b93b
000000f0: 6dde 87bc 0173 323e bea6 3dbe 9464 9ebe
00000100: 7a87 ab3b 1158 533c c8cb fcbc 54a4 423c
00000110: 723b 13bc de77 10be c079 903d b2d0 043e
00000120: dd69 1cbb 25a3 33bc 05fe fc3b 811f 193c
00000130: a800 5dbb 67b1 8abe a753 043e b53b 3b3e
00000140: 494d 13ba 4b7d 80bb 3d63 3ebc 70bb 993a
00000150: da0a 12bd 86f8 523e 2d73 05bc 3741 fdbd
00000160: da82 543b d1d9 c03b 3eeb 07bd 503b 883c
00000170: 4bc6 b53c a6b2 37bd 05cc 1e3e 8b7f 663e
00000180: 36b9 c0bb 606a 8ebc c527 df3c ea10 0f3a
00000190: 2deb 3fbc aecf 983e cff1 dabc 3b85 0abe
000001a0: 09a5 6f3b 5b75 183c 8d3f abbc 92cc 533c
000001b0: 869f 8339 d9a6 833e 4ad4 d5bd a331 28be
000001c0: 330f 8a3b 47b4 213c 6fa5 36bd 5ff0 8bbc
000001d0: 4aaf a8bc 2b80 dc3e 467f 93bd 464f 5fbe
000001e0: fff6 93ba e155 93bb d411 a43c bfb4 a03c
000001f0: 4f4a fabb 9c26 94be 3d82 6e3e f21e b53e
00000200: 290a e13a e32f 0d3a 9f4c 8f3d 56c0 8e3d
00000210: b323 4ebd f86c c4be bf6e 96bd 2542 e13d
00000220: 11ee ccbb 299b 93bc d760 273d 9fae c33b
00000230: 5214 8bbc 9e50 5dbe 0887 d3bd fe9a ccba
00000240: b696 93b9 1669 703a 21d9 333d 5370 9f3c
00000250: fcb6 37bd b684 44be 49db 9bbd 351d 6fbc
00000260: f65c c9ba 211d 0ebc d781 eebd 4a1f 89bd
00000270: 7063 b33c b53a 023f 6d81 0d3e 6642 84bc
00000280: aacf d93a 065f 893b c28a c6bc 7009 38bb
00000290: 0837 2b3c d225 8f3d a588 473d a097 ef3c
000002a0: c87c 0ebb a49b 01bc 218e 483c 25c7 b939
000002b0: 03ca 8abc 961f cebd 453c 2cbe 1737 f6bd
000002c0: 09c9 88b9 838a 233b 80d3 0dbd 6033 b8bc
000002d0: 5c14 543d f007 633e 3fa2 e43d f68d b7bb
000002e0: 9d5e 1e3b a8a4 ee3b 86dc 5abd 16e2 32bc
000002f0: 5496 2b3c dbf2 a43e a7e4 d63d 2fab 0ebd
00000300: 001d 533b 76b8 503c 019d 0dbd 7d23 18bd
00000310: 9eda a33c 7f4a 113e 5374 e23d 2dff e03d
00000320: 34ff adb9 3c00 7dbb e30c ecbb 04a3 3d3c
00000330: ff3b 88bb 10bc 05be 44ec 17be 4a5e b3bd
00000340: 9c1a d7b8 12ce 383b 9abf a1bb ae52 bcbc
00000350: 26b9 cbbc c8b5 633d a2c5 a23e c276 683e
00000360: 472a 80b9 835b 0dbb 13f2 e9bb 78d4 70bb
00000370: 9abf 873b fd42 e0bd 1018 9cbc 102e 573d
00000380: 3431 553a d4e2 ef3b 9d9f 2e3d 997c 8e3c
00000390: 05ae 253d 47a3 9dbe f132 01be 8ca8 183c
000003a0: 416d c63b 978a 803c fa8d 1abd 3636 483c
000003b0: 6e68 dcbb 654e 1e3e 63f8 873c 7bfc edbd
000003c0: 2865 90ba 674e d2bb 900a bcba c3e1 8c3c
000003d0: 0c75 c7bc 80f8 903d fa9e 393e b724 573d
000003e0: f405 c93a 3d73 f33b 4c3e b83c b391 2f3c
000003f0: 7150 1ebb 4f4e 28be 14ac 043c fc79 b63d

linear_mapper.spline_scaler f4 [8, 16]
-0.04873553 -0.109209366 -0.17688939 -0.11941832 0.22449052 0.16906135 0.38399714 -0.093136124
0.06999551 0.18040106 -0.20331201 0.037059933 -0.034048613 -0.04107623 -0.23904683 0.2705234
0.4981174 0.08942631 0.21838786 -0.31539354 0.0037418876 0.023577455 -0.033214446 -0.09504203
-0.12691948 0.05100185 -0.2624747 0.01703519 0.24045828 -0.004320219 -0.060916025 0.06067
-0.45820233 -0.31008238 0.319881 -0.07576593 0.0013046074 -0.12839751 -0.031725567 -0.018950917
0.0020650516 0.0559071 0.13524628 -0.07406323 -0.10119516 -0.02628217 -0.26226112 -0.5137732
-0.42045817 0.24797855 -0.08683379 -0.18457673 -0.10188973 0.09099939 -0.06777401 -0.03437655
0.16245759 0.19561176 0.24096203 -0.31904393 -0.32815278 -0.38879696 0.4743893 0.50930667
-0.4428984 0.052078538 -0.25939587 -0.27244386 -0.06336448 0.13676123 0.4591699 0.07015752
-0.2402955 -0.36968017 0.013432867 0.26109836 0.3071929 -0.13902867 0.3081133 -0.3456254
-0.75256264 0.51024973 0.56121594 0.64023864 0.5648762 -0.5449105 0.48524308 0.45799193
-0.26832184 -0.16456862 -0.28176135 0.5521422 0.47447908 -0.29797587 0.6344393 0.97144824
-0.35174263 -0.14862484 0.12170527 -0.43370232 -0.03900431 0.04669998 -0.011376617 -0.17038366
0.053743675 0.016931102 0.044606656 -0.08738369 -0.1593042 -0.04254839 -0.012901668 -0.05383466
-0.20750609 -0.023443505 0.0033273024 -0.4805037 0.03253791 0.00032420226 0.0072960975 0.120039485
-0.02001844 0.031573005 0.024677148 0.01867906 -0.31299874 -0.08553978 -0.02860493 -0.054931607
00000000: e89e 47bd 29a9 dfbd 7e22 35be 9891 f4bd
00000010: d8e0 653e 6b1e 2d3e 469b c43e 27be bebd
00000020: ce59 8f3d 0ebb 383e 0631 50be 28cc 173d
00000030: 8f76 0bbd 8d3f 28bd b1c8 74be 0b82 8a3e
00000040: 3e09 ff3e 2425 b73d 11a1 5f3e 437b a1be
00000050: 753a 753b 8225 c13c df0b 08bd 65a5 c2bd
00000060: 2ef7 01be 51e7 503d 1563 86be 628d 8b3c
00000070: b23a 763e a090 8dbb 1583 79bd 1b81 783d
00000080: 7f99 eabe 1ec3 9ebe 71c7 a33e 2b2b 9bbd
00000090: 5cff aa3a a37a 03be abf2 01bd f43e 9bbc
000000a0: d155 073b d8fe 643d 007e 0a3e 76ae 97bd
000000b0: 683f cfbd b54d d7bc 1747 86be a486 03bf
000000c0: 4b46 d7be 17ee 7d3e ead5 b1bd af01 3dbe
000000d0: 90ab d0bd e35d ba3d 1acd 8abd 6dce 0cbd
000000e0: 485b 263e 734e 483e c0be 763e ba59 a3be
000000f0: a403 a8be 6510 c7be 28e3 f23e ec61 023f
00000100: 94c3 e2be 4e50 553d 89cf 84be c37d 8bbe
00000110: 3dc5 81bd 230b 0c3e 5118 eb3e bfae 8f3d
00000120: 0610 76be b846 bdbe 8715 5c3c afae 853e
00000130: 6348 9d3e 885d 0ebe 07c1 9d3e d0f5 b0be
00000140: f2a7 40bf ba9f 023f d9ab 0f3f aee6 233f
00000150: ba9b 103f 417f 0bbf c871 f83e eb7d ea3e
00000160: 7b61 89be ad84 28be 0643 90be 3159 0d3f
00000170: ecee f23e 4b90 98be 9d6a 223f d5b0 783f
00000180: 9c17 b4be 1c31 18be 9d40 f93d 3b0e debe
00000190: fcc2 1fbd 7a48 3f3d fd64 3abc 0e79 2ebe
000001a0: 5422 5c3d 18b3 8a3c 78b5 363d 38f6 b2bd
000001b0: a420 23be 3847 2ebd 8561 53bc bc81 5cbd
000001c0: 7a7c 54be 980c c0bc df0e 5a3b 9504 f6be
000001d0: 7946 053d b1f9 a939 1a14 ef3b 43d7 f53d
000001e0: b6fd a3bc b252 013d bb27 ca3c d404 993c
000001f0: 5f41 a0be 7b2f afbd e354 eabc f7ff 60bd

linear_mapper.grid f4 [16, 12]
-2.2 -1.8 -1.4 -1.0 -0.6 -0.19999999 0.20000005 0.6
1.0 1.4000001 1.8 2.2 -2.2 -1.8 -1.4 -1.0
-0.6 -0.19999999 0.20000005 0.6 1.0 1.4000001 1.8 2.2
-2.2 -1.8 -1.4 -1.0 -0.6 -0.19999999 0.20000005 0.6
1.0 1.4000001 1.8 2.2 -2.2 -1.8 -1.4 -1.0
-0.6 -0.19999999 0.20000005 0.6 1.0 1.4000001 1.8 2.2
-2.2 -1.8 -1.4 -1.0 -0.6 -0.19999999 0.20000005 0.6
1.0 1.4000001 1.8 2.2 -2.2 -1.8 -1.4 -1.0
-0.6 -0.19999999 0.20000005 0.6 1.0 1.4000001 1.8 2.2
-2.2 -1.8 -1.4 -1.0 -0.6 -0.19999999 0.20000005 0.6
1.0 1.4000001 1.8 2.2 -2.2 -1.8 -1.4 -1.0
-0.6 -0.19999999 0.20000005 0.6 1.0 1.4000001 1.8 2.2
-2.2 -1.8 -1.4 -1.0 -0.6 -0.19999999 0.20000005 0.6
1.0 1.4000001 1.8 2.2 -2.2 -1.8 -1.4 -1.0
-0.6 -0.19999999 0.20000005 0.6 1.0 1.4000001 1.8 2.2
-2.2 -1.8 -1.4 -1.0 -0.6 -0.19999999 0.20000005 0.6
1.0 1.4000001 1.8 2.2 -2.2 -1.8 -1.4 -1.0
-0.6 -0.19999999 0.20000005 0.6 1.0 1.4000001 1.8 2.2
-2.2 -1.8 -1.4 -1.0 -0.6 -0.19999999 0.20000005 0.6
1.0 1.4000001 1.8 2.2 -2.2 -1.8 -1.4 -1.0
-0.6 -0.19999999 0.20000005 0.6 1.0 1.4000001 1.8 2.2
-2.2 -1.8 -1.4 -1.0 -0.6 -0.19999999 0.20000005 0.6
1.0 1.4000001 1.8 2.2 -2.2 -1.8 -1.4 -1.0
-0.6 -0.19999999 0.20000005 0.6 1.0 1.4000001 1.8 2.2
00000000: cdcc 0cc0 6666 e6bf 3333 b3bf 0000 80bf
00000010: 9a99 19bf cccc 4cbe d0cc 4c3e 9a99 193f
00000020: 0000 803f 3433 b33f 6666 e63f cdcc 0c40
00000030: cdcc 0cc0 6666 e6bf 3333 b3bf 0000 80bf
00000040: 9a99 19bf cccc 4cbe d0cc 4c3e 9a99 193f
00000050: 0000 803f 3433 b33f 6666 e63f cdcc 0c40
00000060: cdcc 0cc0 6666 e6bf 3333 b3bf 0000 80bf
00000070: 9a99 19bf cccc 4cbe d0cc 4c3e 9a99 193f
00000080: 0000 803f 3433 b33f 6666 e63f cdcc 0c40
00000090: cdcc 0cc0 6666 e6bf 3333 b3bf 0000 80bf
000000a0: 9a99 19bf cccc 4cbe d0cc 4c3e 9a99 193f
000000b0: 0000 803f 3433 b33f 6666 e63f cdcc 0c40
000000c0: cdcc 0cc0 6666 e6bf 3333 b3bf 0000 80bf
000000d0: 9a99 19bf cccc 4cbe d0cc 4c3e 9a99 193f
000000e0: 0000 803f 3433 b33f 6666 e63f cdcc 0c40
000000f0: cdcc 0cc0 6666 e6bf 3333 b3bf 0000 80bf
00000100: 9a99 19bf cccc 4cbe d0cc 4c3e 9a99 193f
00000110: 0000 803f 3433 b33f 6666 e63f cdcc 0c40
00000120: cdcc 0cc0 6666 e6bf 3333 b3bf 0000 80bf
00000130: 9a99 19bf cccc 4cbe d0cc 4c3e 9a99 193f
00000140: 0000 803f 3433 b33f 6666 e63f cdcc 0c40
00000150: cdcc 0cc0 6666 e6bf 3333 b3bf 0000 80bf
00000160: 9a99 19bf cccc 4cbe d0cc 4c3e 9a99 193f
00000170: 0000 803f 3433 b33f 6666 e63f cdcc 0c40
00000180: cdcc 0cc0 6666 e6bf 3333 b3bf 0000 80bf
00000190: 9a99 19bf cccc 4cbe d0cc 4c3e 9a99 193f
000001a0: 0000 803f 3433 b33f 6666 e63f cdcc 0c40
000001b0: cdcc 0cc0 6666 e6bf 3333 b3bf 0000 80bf
000001c0: 9a99 19bf cccc 4cbe d0cc 4c3e 9a99 193f
000001d0: 0000 803f 3433 b33f 6666 e63f cdcc 0c40
000001e0: cdcc 0cc0 6666 e6bf 3333 b3bf 0000 80bf
000001f0: 9a99 19bf cccc 4cbe d0cc 4c3e 9a99 193f
00000200: 0000 803f 3433 b33f 6666 e63f cdcc 0c40
00000210: cdcc 0cc0 6666 e6bf 3333 b3bf 0000 80bf
00000220: 9a99 19bf cccc 4cbe d0cc 4c3e 9a99 193f
00000230: 0000 803f 3433 b33f 6666 e63f cdcc 0c40
00000240: cdcc 0cc0 6666 e6bf 3333 b3bf 0000 80bf
00000250: 9a99 19bf cccc 4cbe d0cc 4c3e 9a99 193f
00000260: 0000 803f 3433 b33f 6666 e63f cdcc 0c40
00000270: cdcc 0cc0 6666 e6bf 3333 b3bf 0000 80bf
00000280: 9a99 19bf cccc 4cbe d0cc 4c3e 9a99 193f
00000290: 0000 803f 3433 b33f 6666 e63f cdcc 0c40
000002a0: cdcc 0cc0 6666 e6bf 3333 b3bf 0000 80bf
000002b0: 9a99 19bf cccc 4cbe d0cc 4c3e 9a99 193f
000002c0: 0000 803f 3433 b33f 6666 e63f cdcc 0c40
000002d0: cdcc 0cc0 6666 e6bf 3333 b3bf 0000 80bf
000002e0: 9a99 19bf cccc 4cbe d0cc 4c3e 9a99 193f
000002f0: 0000 803f 3433 b33f 6666 e63f cdcc 0c40

blocks.0.to_q.weight f4 [128, 8]
-0.4073815 0.24199891 -0.36973983 0.30461606 0.25994685 -0.1467503 0.013261285 0.009491132
-0.35428807 0.36553997 -0.1776955 0.057437815 -0.028571354 -0.12652247 -0.03197236 0.13289464
0.1660786 -0.078339756 0.3053892 -0.04333115 -0.1890411 -0.1343964 0.517891 0.076953255
-0.009253318 0.02089706 -0.16098948 -0.26032913 -0.22399144 0.2774171 0.47685105 0.4593758
-0.34284273 0.056278728 -0.22627157 0.17475002 0.22345184 0.24760509 0.063250646 0.14817302
-0.26453346 0.29800338 -0.22535741 0.13746968 -0.15565857 -0.06048049 -0.41310126 -0.18127318
-0.048542943 -0.0513487 -0.2537286 -0.28223178 0.09292901 0.26803 0.51958305 0.2986971
0.029922005 -0.6258937 0.13410942 0.21811137 -0.259659 0.15090358 0.27021694 0.030184032
-0.14324565 0.015884817 0.15434325 0.19305368 -0.24904256 0.16879295 -0.39106435 0.2782818
-0.098654084 0.09994783 0.007989414 0.09724025 -0.033308767 0.19085291 -0.28692803 -0.3302826
-0.33294445 0.042212732 0.113660954 0.03363931 -0.22259337 0.016726973 0.027991956 -0.14768966
-0.16714793 0.020393912 -0.38332385 -0.23943876 0.4542154 -0.17089173 0.23361853 0.54674196
0.15073921 -0.07038974 -0.2676183 0.35646084 -0.049629536 -0.31700495 0.24658152 -0.16701545
-0.1093483 0.25499555 -0.09811932 -0.23883294 0.007398478 -0.077845484 -0.13495654 -0.38984776
0.2571956 -0.28862438 -0.34852725 -0.28346044 0.32979658 0.13145891 -0.23982628 0.34041032
0.063742556 0.044124134 -0.36146593 0.04798565 0.36506554 0.30487213 -0.38555348 0.36064577
-0.0772838 0.21692884 0.06864396 0.25755042 -0.3092479 0.45189857 -0.396278 0.15272766
-0.15977247 -0.071130775 -0.035592776 -0.0569707 -0.024349833 0.008737403 0.49456748 0.22960842
-0.03645952 0.16068235 0.18580668 -0.06752249 -0.057088435 -0.010612039 -0.40585363 -0.39869615
0.15672271 -0.36871824 -0.16442934 -0.0806972 0.11405116 0.2697178 -0.19233921 0.3177635
0.036449417 -0.2532899 0.12121227 -0.20728078 -0.31329852 -0.2733357 -0.24235973 -0.27819195
-0.3631629 0.13268688 0.26925066 0.39476597 -0.24829242 -0.2440559 0.07376769 -0.04559074
0.08077375 0.12427345 0.37544563 -0.31961617 0.12805125 0.23701271 -0.4263576 0.21433705
0.13237774 -0.063510455 0.2370819 -0.14636615 -0.37410808 0.050493635 -0.092924796 -0.3208237
-0.27335805 0.25234267 0.19446029 0.29671136 0.0030277695 -0.31551754 0.22532083 -0.026397606
0.03350413 -0.045339562 0.3533812 -0.2677044 -0.21190687 -0.016569506 -0.06452804 0.1975156
-0.6159867 0.26818705 -0.16632004 -0.1592852 0.21916646 -0.09141688 -0.31247386 -0.18290581
-0.04993427 0.06269518 -0.42619613 -0.3547577 0.10682546 0.09322908 -0.07956726 0.44668663
-0.27801493 0.45696598 0.26359546 -0.29830617 -0.0098125795 0.21771929 -0.19645329 -0.29323217
0.539127 0.30010003 -0.22761442 0.24365088 0.040987745 -0.27484483 0.2045458 0.23232605
-0.5693769 0.45187008 -0.42051685 0.27389863 0.34081316 0.1555098 -0.09384766 0.03390057
-0.5075689 0.32621676 0.11598512 -0.17655745 -0.322146 0.16297568 0.26764122 -0.3964062
00000000: 4f94 d0be 90ce 773e 8a4e bdbe a3f6 9b3e
00000010: c117 853e b645 16be dc45 593c b180 1b3c
00000020: 3f65 b5be 0e28 bb3e cff5 35be ea43 6b3d
00000030: 790e eabc 1b8f 01be 73f5 02bd 8815 083e
00000040: 8210 2a3e 9870 a0bd f95b 9c3e 017c 31bd
00000050: fd93 41be 369f 09be 8194 043f ab99 9d3d
00000060: 3b9b 17bc 5030 ab3c 6dda 24be dc49 85be
00000070: 035e 65be 9d09 8e3e d225 f43e 4e33 eb3e
00000080: 1589 afbe 8684 663d bcb3 67be abf1 323e
00000090: 8fd0 643e 308c 7d3e 8e89 813d abba 173e
000000a0: ee70 87be e693 983e 18c4 66be dac4 0c3e
000000b0: f664 1fbe 64ba 77bd 0282 d3be ad9f 39be
000000c0: f7d4 46bd 0453 52bd b7e8 81be af80 90be
000000d0: 9151 be3d 3a3b 893e 6503 053f d4ee 983e
000000e0: fe1e f53c 923a 20bf fb53 093e 9658 5f3e
000000f0: 06f2 84be 7886 1a3e e059 8a3e 8144 f73c
00000100: fdae 12be e020 823c 280c 1e3e ddaf 453e
00000110: 0305 7fbe 0fd8 2c3e 9639 c8be f47a 8e3e
00000120: 270b cabd 73b1 cc3d 08e6 023c e525 c73d
00000130: c66e 08bd f26e 433e 3be8 92be cd1a a9be
00000140: b277 aabe 42e7 2c3d 13c7 e83d 60c9 093d
00000150: 84ef 63be 0107 893c 634f e53c f53b 17be
00000160: d428 2bbe 2211 a73c 0643 c4be 6f2f 75be
00000170: ec8e e83e 3efe 2ebe b239 6f3e 48f7 0b3f
00000180: 615b 1a3e 7f28 90bd 4405 89be 0982 b63e
00000190: 5748 4bbd 794e a2be de7f 7c3e 1906 2bbe
000001a0: 00f2 dfbd c78e 823e c8f2 c8bd 9f90 74be
000001b0: ef6e f23b 746d 9fbd 0c32 0abe 209a c7be
000001c0: 24af 833e 93c6 93be 2a72 b2be ba21 91be
000001d0: 19db a83e 2a9d 063e 0595 75be 434a ae3e
000001e0: 758b 823d 82bb 343d 1012 b9be 9a8c 443d
000001f0: dfe9 ba3e 3318 9c3e 4467 c5be 90a6 b83e
00000200: f846 9ebd 9822 5e3e 3495 8c3d a6dd 833e
00000210: be55 9ebe 405f e73e f3e4 cabe a464 1c3e
00000220: 659b 23be 03ad 91bd bbc9 11bd 1c5a 69bd
00000230: 4d79 c7bc 5327 0f3c f337 fd3e 781e 6b3e
00000240: 9456 15bd ea89 243e 1b44 3e3e 3b49 8abd
00000250: 90d5 69bd 1ede 2dbc 0ccc cfbe e721 ccbe
00000260: eb7b 203e a3c8 bcbe 2a60 28be 9344 a5bd
00000270: a893 e93d 7418 8a3e 92f4 44be e6b1 a23e
00000280: fc4b 153d 37af 81be 233e f83d 6a41 54be
00000290: aa68 a0be a8f2 8bbe 262d 78be 2d6f 8ebe
000002a0: 7df0 b9be 12df 073e 39db 893e c41e ca3e
000002b0: 5e40 7ebe cae9 79be 8413 973d 5bbd 3abd
000002c0: b56c a53d 1483 fe3d 693a c03e bba4 a3be
000002d0: de1f 033e 76b3 723e 8b4b dabe 2c7b 5b3e
000002e0: 088e 073e c511 82bd 99c5 723e 02e1 15be
000002f0: 188b bfbe 6ad2 4e3d 5b4f bebd 0143 a4be
00000300: 96f5 8bbe 0f33 813e 9920 473e 8dea 973e
00000310: 8b6d 463b 848b a1be 81ba 663e cb3f d8bc
00000320: a03b 093d fab5 39bd 61ee b43e 8d10 89be
00000330: 1dfe 58be c6bc 87bc 4727 84bd 8841 4a3e
00000340: 4eb1 1dbf d04f 893e cd4f 2abe a91b 23be
00000350: 2c6d 603e c638 bbbd 93fc 9fbe a94b 3bbe
00000360: e187 4cbd 5566 803d 6136 dabe cda2 b5be
00000370: 4fc7 da3d e3ee be3d 29f4 a2bd 1cb4 e43e
00000380: f957 8ebe 72f7 e93e fcf5 863e 96bb 98be
00000390: f1c4 20bc cef1 5e3e 0d2b 49be 8722 96be
000003a0: 3a04 0a3f b6a6 993e c113 69be 9e7f 793e
000003b0: c4e2 273d 76b8 8cbe 7474 513e e1e6 6d3e
000003c0: afc2 11bf 845b e73e fc4d d7be 713c 8c3e
000003d0: 107f ae3e f63d 1f3e 3433 c0bd 53db 0a3d
000003e0: 09f0 01bf e205 a73e 9b89 ed3d 7acb 34be
000003f0: 52f0 a4be 19e3 263e 4508 893e c1f5 cabe

blocks.0.to_kv.weight f4 [256, 8]
0.1498463 0.05909336 -0.12577148 -0.3575583 0.27614018 -0.3297279 -0.01642515 -0.2651565
0.058843654 -0.0029567825 -0.0515518 -0.69674194 0.6314293 -0.3175814 -0.25436553 0.048695456
-0.32707295 0.1320574 0.1405982 0.21039689 0.13175374 -0.45293015 0.17877108 0.23388585
-0.2860629 0.44591537 -0.15621619 -0.19548604 -0.29920375 0.6898962 -0.14486754 -0.14293185
0.11800955 0.0234676 -0.010487181 -0.17609592 -0.20504859 0.5025877 -0.14809042 -0.113637656
0.13068578 -0.08385648 -0.042890016 -0.3781078 0.8025703 -0.25058663 -0.13875148 -0.29085276
-0.06522004 0.36599642 -0.111974075 0.16618223 -0.32804945 0.3779906 0.25113085 0.0876318
-0.061114576 0.0811342 0.42180225 0.3170587 0.025110228 0.14048617 0.20989998 0.25631607
2.8960141e-05 0.09514551 0.20175785 0.24019112 -0.19773439 0.15165932 0.26736635 -0.29380968
0.1870424 -0.013939806 0.23692597 -0.041651137 0.2468833 -0.22468776 -0.23397325 -0.039279852
-0.012799475 -0.36090115 -0.09328479 -0.24574259 0.3367267 -0.23634712 0.17016658 0.1559312
0.28179428 0.4129072 0.045770325 -0.44353035 0.49308077 -0.064736545 -0.01440721 -0.36265114
-0.11076594 0.04480862 0.2560172 0.21549356 0.46478802 0.2951678 0.14738572 0.1664782
-0.19189 -0.21747752 0.21352719 0.0107941255 0.9002728 -0.34241375 -0.32430047 -0.19385278
0.38102457 0.30927765 0.17718534 -0.07687991 -0.15295242 -0.004470633 0.17524667 -0.15347005
0.16801871 0.2517176 -0.1944748 0.14906347 -0.4718364 0.42431477 -0.12907007 -0.28492084
-0.021559756 0.115834005 -0.22357522 0.20513856 -0.66947234 -0.28879082 -0.28634974 -0.16354266
-0.09642956 0.07215661 0.05778639 -0.42443508 -0.34721965 0.2210844 0.13060053 0.43171754
0.22982994 -0.3960835 -0.20449397 -0.0055990876 0.25092632 -0.27110967 -0.092959926 0.13190266
0.16467002 0.17908305 -0.038849663 0.04894232 -0.4990804 1.0062141 -0.1820022 0.32931453
-0.18808345 -0.35317436 -0.011459142 0.22284642 0.59924287 -0.04278009 0.041571822 0.015364376
-0.30542496 -0.12236539 -0.023478372 0.3688888 0.20770264 -0.7273506 0.013775462 -0.22685723
-0.12422418 -0.17851076 0.027462443 -0.2846971 0.018387051 0.4517287 -0.22614276 -0.2912089
0.033927538 -0.25910625 0.21463607 -0.10611957 0.4186825 -0.562907 -0.17174101 -0.21051365
0.05176894 -0.19619776 -0.24638902 -0.09220106 0.0054321797 -0.9165975 -0.030934585 0.009390188
-0.06240519 -0.16488288 0.01282952 -0.18995033 -0.55890816 0.1424507 0.2829913 -0.10869512
0.12045015 -0.24927805 -0.11480544 -0.4419862 0.7739364 0.057149768 -0.07370817 0.09596561
0.29411107 0.25957346 0.13267276 -0.46367335 0.07480959 -0.35530275 0.13225792 -0.3019283
-0.3178421 -0.42783812 -0.3487888 -0.13661592 0.24216005 -0.50948286 0.028940685 -0.36307943
-0.11316059 0.42744824 0.178097 -0.1477592 -0.50665504 0.09233446 0.10053898 0.29564
0.07983788 0.013969512 -0.50088435 -0.54943794 -0.10953304 0.27576333 -0.22885059 -0.3397903
-0.052114684 -0.4038511 -0.2919954 -0.37089553 0.35194895 -0.19793321 0.07404684 -0.17050365
00000000: 4f71 193e e10b 723d 3dca 00be e211 b7be
00000010: 3f62 8d3e 18d2 a8be 098e 86bc 98c2 87be
00000020: 0b06 713d 94c6 41bb fb27 53bd ae5d 32bf
00000030: 5aa5 213f 079a a2be 333c 82be e374 473d
00000040: 1b76 a7be 0e3a 073e f9f8 0f3e 4872 573e
00000050: 74ea 063e 76e6 e7be c40f 373e c67f 6f3e
00000060: d676 92be 054f e43e 23f7 1fbe 7e2d 48be
00000070: 3c31 99be 0a9d 303f 2858 14be ba5c 12be
00000080: feae f13d 203f c03c 6dd2 2bbc 7d52 34be
00000090: 42f8 51be 96a9 003f 04a5 17be dcba e8bd
000000a0: 7ed2 053e f2bc abbd 71ad 2fbd 5897 c1be
000000b0: 3f75 4d3f e44c 80be de14 0ebe a7ea 94be
000000c0: 1692 85bd e263 bb3e aa52 e5bd ad2b 2a3e
000000d0: 19f6 a7be fc87 c13e 3994 803e 4d78 b33d
000000e0: 4753 7abd b029 a63d 77f6 d73e 8555 a23e
000000f0: f7b3 cd3c 9bdb 0f3e 05f0 563e dc3b 833e
00000100: 6eef f237 a6db c23d 9c99 4e3e a9f4 753e
00000110: e27a 4abe 954c 1b3e 3ee4 883e 396e 96be
00000120: 0b88 3f3e c963 64bc b99c 723e 629a 2abd
00000130: face 7c3e 8c14 66be af96 6fbe e9e3 20bd
00000140: e4b4 51bc 09c8 b8be 190c bfbd f2a3 7bbe
00000150: 7167 ac3e fb04 72be 2640 2e3e 6eac 1f3e
00000160: 5747 903e 9368 d33e aa79 3b3d 6916 e3be
00000170: 1575 fc3e 9894 84bd 380c 6cbc 69ad b9be
00000180: 41d9 e2bd 3e89 373d b014 833e 58aa 5c3e
00000190: b2f8 ed3e 3c20 973e 48ec 163e 4379 2a3e
000001a0: d07e 44be 6db2 5ebe dfa6 5a3e d8d9 303c
000001b0: 4778 663f db50 afbe b60a a6be 5881 46be
000001c0: a715 c33e a459 9e3e 1370 353e 3773 9dbd
000001d0: 8f9f 1cbe 637e 92bb dd73 333e 4127 1dbe
000001e0: 190d 2c3e 21e1 803e 6724 47be 18a4 183e
000001f0: 8a94 f1be c93f d93e f22a 04be 25e1 91be
00000200: 169e b0bc 613a ed3d e7f0 64be d80f 523e
00000210: 8a62 2bbf 64dc 93be 6f9c 92be ba77 27be
00000220: dc7c c5bd d8c6 933d 6cb1 6c3d 8e4f d9be
00000230: c6c6 b1be f363 623e 25bc 053e 150a dd3e
00000240: 8a58 6b3e 75cb cabe de66 51be 8d78 b7bb
00000250: 6a79 803e e3ce 8abe c661 bebd 7e11 073e
00000260: 429f 283e 8c61 373e d320 1fbd be77 483d
00000270: 7787 ffbe a0cb 803f c95e 3abe ea9b a83e
00000280: f398 40be 45d3 b4be 20bf 3bbc da31 643e
00000290: fb67 193f 2d3a 2fbd 3747 2a3d ddba 7b3c
000002a0: a960 9cbe b59a fabd b755 c0bc fede bc3e
000002b0: 00b0 543e a633 3abf 7ab2 613c 434d 68be
000002c0: 3f69 febd 86cb 36be ebf8 e03c d1c3 91be
000002d0: 71a0 963c fc48 e73e f891 67be 5519 95be
000002e0: 9af7 0a3d 93a9 84be 8fc9 5b3e 3855 d9bd
000002f0: 8d5d d63e ac1a 10bf e0dc 2fbe e490 57be
00000300: ab0b 543d 11e8 48be 674d 7cbe e9d3 bcbd
00000310: 6d00 b23b 22a6 6abf 876a fdbc 4ed9 193c
00000320: 969c 7fbd 0fd7 28be e832 523c 5782 42be
00000330: 9b14 0fbf 99de 113e 3ce4 903e 8c9b debd
00000340: 91ae f63d bf42 7fbe 1d1f ebbd 044c e2be
00000350: b220 463f e015 6a3d 4ff4 96bd 9e89 c43d
00000360: ba95 963e d0e6 843e 5edb 073e 9866 edbe
00000370: c535 993d 3eea b5be 9f6e 073e 5996 9abe
00000380: 33bc a2be 990d dbbe 7294 b2be 0be5 0bbe
00000390: cef8 773e 786d 02bf 0415 ed3c 8ce5 b9be
000003a0: bdc0 e7bd 7fda da3e 0f5f 363e 304e 17be
000003b0: 25b4 01bf d919 bd3d 61e7 cd3d 205e 973e
000003c0: 0b82 a33d 61e0 643c f539 00bf f7a7 0cbf
000003d0: dc52 e0bd da30 8d3e cf57 6abe fff8 adbe
000003e0: 3576 55bd 92c5 cebe 6c80 95be 05e6 bdbe
000003f0: a732 b43e 01af 4abe dfa5 973d 8298 2ebe

blocks.0.to_out.weight f4 [8, 128]
-0.3918682 -0.0501374 -0.13668281 0.08250435 0.059957366 -0.056249302 0.04042783 0.10933605
-0.081226826 -0.057836726 0.015274945 0.23856246 -0.011133876 0.38369983 -0.22969104 0.0015521538
0.09912442 0.0106735 -0.06898003 0.08935073 0.071377896 0.018694678 -0.036187824 0.063312784
-0.36398345 -0.01711994 -0.028223755 -0.09297931 -0.056403015 0.0759067 -0.068604775 0.12810576
-0.011261269 -0.13856898 -0.082285985 0.21248758 0.03954556 -0.44906488 0.081084974 0.02553022
-0.08638017 -0.06110048 0.07348947 0.048059143 0.034377847 -0.055650692 0.07770091 -0.025473226
-0.09330621 0.13340048 0.019782696 -0.07737003 -0.00714017 -0.019994969 0.021439828 -0.03837656
0.025766913 -0.2707065 0.011333308 -0.078457125 0.13423654 -0.009836425 -0.0042513846 -0.09146944
0.41896543 -0.2273676 -0.03794702 -0.122223966 -0.092254825 -0.02880467 -0.062834136 -0.021319969
0.046324886 0.4894997 -0.0039206324 -0.021223206 -0.050283935 0.12038147 0.0127789 -0.1302742
-0.028128872 -0.03138049 0.06833504 -0.1870409 -0.5035306 0.0725409 0.15073659 0.13605635
-0.082424045 -0.12944922 -0.010612977 0.24439937 -0.09777185 -0.02278598 0.20164955 0.018702688
-0.0018119051 0.012530115 0.036106944 -0.23911704 -0.007017626 0.12378438 -0.095041916 -0.049329277
-0.11214008 0.25125855 -0.08893854 0.013337437 0.20976289 0.29721048 0.13760039 0.028580355
0.1229571 -0.2245831 0.13198711 0.10493661 -0.5416158 0.03164978 0.012179206 0.093483
-0.034696687 -0.0838809 0.11784129 -0.04008693 -0.16795199 -0.06806933 0.1283719 -0.02440209
0.20318799 0.13724223 0.27019233 0.045364596 0.29720718 0.114901155 0.003503216 -0.2280542
0.27147076 0.18859713 0.2567187 -0.071099274 -0.070890725 -0.1505506 0.26166803 0.01975587
-0.07188234 0.28171512 0.28553104 0.18435125 -0.16428846 -0.25741583 0.08901484 -0.35330954
0.14096579 0.12229448 0.24986775 0.21927634 0.27746716 -0.10104453 0.09942547 -0.21938658
-0.2923886 0.18704845 0.28955036 -0.3069808 -0.15481284 0.21210597 0.45619184 0.1475078
0.0062606772 -0.36220923 -0.3658113 -0.25584468 -0.06105298 -0.4163898 -0.28539065 0.027227676
-0.27346072 -0.29244396 0.1833733 -0.029861126 -0.25308183 -0.15754975 0.11771882 0.24018846
0.13585192 -0.057735763 -0.48362398 0.17676233 0.055866063 0.4378529 0.1016782 -0.13295013
-0.19617039 0.31682128 -0.06059472 0.050993092 -0.088067174 0.18128324 -0.08478552 -0.120147206
-0.05143696 0.049851667 0.025994994 0.21386358 0.22246663 -0.31748536 0.009367435 0.15051804
0.18704809 -0.074007645 -0.08755773 -0.092311874 -0.052886516 0.2728536 0.17236409 -0.16016325
0.06909627 -0.14881393 -0.098253354 0.2399185 -0.1950819 0.14687763 0.12539326 0.024126686
0.18358256 0.2653239 -0.1132469 -0.22437012 0.1685205 0.0023024364 -0.12158497 0.012790722
-0.17704722 0.026432637 0.1663156 -0.04705266 0.3000805 0.25548407 0.20380452 0.052942604
0.24862565 -0.0943507 -0.19653408 0.11216617 0.17547958 0.1973466 0.01672767 0.0651558
0.096846856 0.18760335 0.16172238 0.018880185 -0.03869335 0.011561115 0.05455217 0.058150448
00000000: f3a2 c8be e05c 4dbd 94f6 0bbe 0af8 a83d
00000010: db95 753d ab65 66bd a797 253d 94eb df3d
00000020: 405a a6bd 34e6 6cbd c343 7a3c b849 743e
00000030: dc6a 36bc 4e74 c43e 2134 6bbe a471 cb3a
00000040: be01 cb3d e7df 2e3c 6745 8dbd 84fd b63d
00000050: 932e 923d 9525 993c af39 14bd 22aa 813d
00000060: 0a5c babe 1e3f 8cbc 8135 e7bc f06b bebd
00000070: d906 67bd f974 9b3d a980 8cbd 282e 033e
00000080: 3081 38bc 07e5 0dbe 8e85 a8bd 5896 593e
00000090: 86fa 213d d5eb e5be e10f a63d c024 d13c
000000a0: 16e8 b0bd 7f44 7abd a681 963d aad9 443d
000000b0: c9cf 0c3d fbf1 63bd a821 9f3d 3aad d0bc
000000c0: 5417 bfbd 239a 083e 520f a23c 2e74 9ebd
000000d0: 16f8 e9bb 7dcc a3bc 94a2 af3c bd30 1dbd
000000e0: 2215 d33c 0b9a 8abe 57af 393c 21ae a0bd
000000f0: 4e75 093e f528 21bc 334f 8bbb 5454 bbbd
00000100: a382 d63e 0dd3 68be 566e 1bbd 8f50 fabd
00000110: 19f0 bcbd c5f7 ebbc 2faf 80bd 37a7 aebc
00000120: 2abf 3d3d b49f fa3e a678 80bb 4adc adbc
00000130: 87f6 4dbd 8f8a f63d 975e 513c 9a66 05be
00000140: 856e e6bc d488 00bd 3ef3 8b3d a687 3fbe
00000150: 62e7 00bf 5390 943d b15a 1a3e 5b52 0b3e
00000160: f0cd a8bd 568e 04be 0de2 2dbc d443 7a3e
00000170: 9c3c c8bd aaa9 babc 387d 4e3e 6136 993c
00000180: 727d edba 1d4b 4d3c e0e4 133d 19db 74be
00000190: 1df4 e5bb aa82 fd3d 56a5 c2bd 7f0d 4abd
000001a0: b3a9 e5bd f6a4 803e 6925 b6bd 4485 5a3c
000001b0: 15cc 563e f92b 983e 1ee7 0c3e 5921 ea3c
000001c0: efd0 fb3d 1df9 65be a127 073e 01e9 d63d
000001d0: 55a7 0abf 33a3 013d 4b8b 473c 0474 bf3d
000001e0: 1d1e 0ebd c0c9 abbd c656 f13d 3132 24bd
000001f0: 9bfb 2bbe ef67 8bbd ec73 033e e4e6 c7bc
00000200: 8310 503e 3a89 0c3e a656 8a3e 3ad0 393d
00000210: 8a2b 983e 4c51 eb3d 3696 653b 0a87 69be
00000220: 37fe 8a3e 9b1f 413e a270 833e 7f9c 91bd
00000230: 282f 91bd f029 1abe 5af9 853e 10d7 a13c
00000240: 0c37 93bd f73c 903e 2031 923e 93c6 3c3e
00000250: 3c3b 28be 02cc 83be 6a4d b63d fde4 b4be
00000260: 5659 103e 8775 fa3d 55dd 7f3e fa89 603e
00000270: 2d10 8e3e 6ff0 cebd 959f cb3d e0a6 60be
00000280: f5b3 95be a189 3f3e f23f 943e 962c 9dbe
00000290: 4287 1ebe 4f32 593e fa91 e93e 490c 173e
000002a0: 5e26 cd3b 7d73 b9be 9e4b bbbe 13fe 82be
000002b0: b112 7abd 0b31 d5be b91e 92be 930c df3c
000002c0: 0b03 8cbe 37bb 95be 36c6 3b3e 529f f4bc
000002d0: f193 81be b954 21be 9116 f13d f7f3 753e
000002e0: c41c 0b3e 567c 6cbd 909d f7be 2f01 353e
000002f0: d0d3 643d 412e e03e a93c d03d 1424 08be
00000300: e4e0 48be 6636 a23e 2b32 78bd 22de 503d
00000310: 905c b4bd 50a2 393e 08a4 adbd bd0f f6bd
00000320: 90af 52bd 4331 4c3d 74f3 d43c 0eff 5a3e
00000330: 4bce 633e 718d a2be df79 193c 6721 1a3e
00000340: 8989 3f3e 5291 97bd 7851 b3bd 020e bdbd
00000350: 889f 58bd 78b3 8b3e 3680 303e d601 24be
00000360: 5882 8d3d ae62 18be 0e39 c9bd 32ad 753e
00000370: 8dc3 47be 1767 163e 1767 003e 54a5 c53c
00000380: 11fd 3b3e 89d8 873e feed e7bd 48c1 65be
00000390: a390 2c3e 79e4 163b 8a01 f9bd 2d90 513c
000003a0: de4b 35be 4289 d83c a34e 2a3e 4aba 40bd
000003b0: 27a4 993e cfce 823e 22b2 503e 58da 583d
000003c0: b997 7e3e f13a c1bd 3b40 49be 60b7 e53d
000003d0: ebb0 333e 3a15 4a3e 7708 893c 6770 853d
000003e0: a557 c63d 181b 403e 8d9a 253e 9eaa 9a3c
000003f0: eb7c 1ebd d56a 3d3c 1972 5f3d 2a2f 6e3d

blocks.1.to_q.weight f4 [128, 8]
-0.2228725 0.19675978 -0.075928256 -0.36046153 -0.088169016 -0.3897656 0.35121578 0.00781214
0.13497008 0.400387 0.19159462 0.37020832 0.25950617 -0.35456 0.36911532 -0.0029233654
-0.104732186 -0.036546096 0.28435585 0.07297609 0.27031094 -0.0005112909 0.3245754 -0.32557753
0.0060406756 0.047863938 0.0060013332 0.26368126 0.07751289 0.056301456 0.28524297 -0.019149465
-0.01709408 -0.41434276 0.09314183 -0.18277717 0.097868256 0.4021282 -0.38855207 -0.10280301
0.30121887 -0.051526677 0.21725373 0.3602811 0.044201806 -0.3617647 0.25954154 0.09076079
0.29755932 -0.06092933 0.25353694 -0.32709348 -0.03387174 0.14552225 0.19265422 -0.12212788
-0.017588729 -0.16151392 -0.26057607 0.20058917 0.1318411 0.120904975 0.011285794 0.023885302
0.018357217 0.31215224 -0.24464609 0.14870699 0.38589004 0.1889964 -0.17424467 0.2998929
-0.31708354 0.07781842 0.32292426 -0.071531646 0.032458507 -0.2434892 -0.116073176 -0.0458748
-0.28416395 0.04059068 0.19166318 0.00945645 0.44496128 -0.36723524 0.15638195 0.25747603
0.41321284 -0.084676825 -0.26452884 -0.06445972 0.33382216 0.067466654 0.275049 -0.17534052
-0.25222453 0.26319134 -0.0313936 -0.28584903 0.37470528 -0.22861707 -0.18570037 -0.04783955
-0.1127592 -0.1035974 -0.2309254 0.12348726 0.22276743 0.17990023 -0.19158953 -0.11878873
0.4204412 -0.17934865 -0.099264935 0.0056118304 -0.31407255 -0.27397665 0.25998014 0.10874037
0.0015627458 0.1453827 0.19947731 0.17164506 0.2542649 0.14957179 0.295711 0.17601165
-0.03543333 0.16452374 -0.2559202 -0.2316025 0.41672638 -0.33821404 -0.19479045 -0.44283843
-0.17929892 0.13166709 0.13350716 -0.21598625 0.0573876 -0.28703094 0.089484684 0.21705636
-0.0086253565 -0.091010705 0.29839808 -0.110045664 0.024075499 -0.31522304 0.16239363 0.18667266
-0.19803225 0.19927324 0.36819986 0.08180987 -0.28512347 -0.014666043 0.29407743 0.2842505
-0.1534335 0.30088556 -0.25291988 0.09093709 0.45937282 0.07073274 -0.2518265 0.12755617
0.16531524 0.33224738 -0.31509435 -0.035393514 0.11287174 -0.11199524 -0.00456167 -0.1655491
0.0061288076 0.056347974 -0.03696057 0.122043744 -0.14092965 0.27810022 0.11851024 -0.021869887
-0.034028497 -0.1580862 0.16488226 -0.2517936 -0.3350497 -0.30899405 -0.17438874 0.1172029
0.28303528 -0.38815826 -0.12591682 0.2704421 -0.16162738 0.20489833 0.025184542 -0.27723983
0.04138509 -0.22585921 -0.022050412 -0.31067505 0.29435715 -0.17057939 0.31557068 -0.2359712
-0.31874102 0.17610258 0.14491574 0.026998647 -0.24113356 -0.15257075 -0.19037966 0.07290638
0.0693316 0.36458474 0.32377782 -0.10977494 0.46513626 0.20364508 0.07255692 -0.35716283
-0.26395866 0.2730229 0.14815423 0.20125806 0.1237108 -0.3306545 -0.23708019 -0.32748312
-0.03984023 -0.08172959 0.28409535 -0.32985494 0.019013496 0.32162318 -0.3180756 -0.19282685
-0.12872352 -0.01327923 0.38525894 -0.013365423 0.16373418 0.4150938 0.2574504 -0.22834744
-0.15594858 -0.15918751 0.049111813 -0.08793997 0.11658931 0.5387889 -0.19108303 -0.017609632
00000000: b038 64be 657b 493e 4680 9bbd 6a8e b8be
00000010: f591 b4bd 5b8f c7be 8ed2 b33e fbfc ff3b
00000020: 9935 0a3e 86ff cc3e 6131 443e f28b bd3e
00000030: fedd 843e e388 b5be affc bc3e ef95 3fbb
00000040: d47d d6bd 5cb1 15bd 1797 913e 7d74 953d
00000050: 3266 8a3e 2708 06ba bf2e a63e 19b2 a6be
00000060: dcf0 c53b fa0c 443d d5a6 c43b 3b01 873e
00000070: 14bf 9e3d 5b9c 663d 5e0b 923e 57df 9cbc
00000080: e208 8cbc bc24 d4be 25c1 be3d f029 3bbe
00000090: 276f c83d bfe3 cd3e 4cf0 c6be 628a d2bd
000000a0: 5c39 9a3e a30d 53bd c377 5e3e c476 b83e
000000b0: f40c 353d 3939 b9be a1e2 843e cbe0 b93d
000000c0: b259 983e 0891 79bd 98cf 813e cc78 a7be
000000d0: 18bd 0abd c903 153e 2647 453e 2f1e fabd
000000e0: 3d16 90bc e863 25be 3a6a 85be 3f67 4d3e
000000f0: 5a01 073e 079d f73d 0de8 383c 1cab c33c
00000100: e061 963c 6bd2 9f3e 8184 7abe a546 183e
00000110: 6193 c53e 4688 413e 326d 32be 908b 993e
00000120: c658 a2be 445f 9f3d 5456 a53e 2f7f 92bd
00000130: 36f3 043d 3c55 79be c6b7 edbd 37e7 3bbd
00000140: f07d 91be 6a42 263d 5a43 443e 3aef 1a3c
00000150: f7d1 e33e 4206 bcbe 9722 203e e6d3 833e
00000160: a290 d33e 0b6b adbd 5370 87be 7503 84bd
00000170: bdea aa3e f52b 8a3d 39d3 8c3e 778c 33be
00000180: 9323 81be 04c1 863e 9396 00bd ce5a 92be
00000190: 5fd9 bf3e 981a 6abe 3d28 3ebe 67f3 43bd
000001a0: 4cee e6bd e02a d4bd b577 6cbe e3e6 fc3d
000001b0: 251d 643e c437 383e 0c30 44be 8147 f3bd
000001c0: 1244 d73e 2ca7 37be 6a4b cbbd 72e3 b73b
000001d0: 1ece a0be ab46 8cbe 1e1c 853e 45b3 de3d
000001e0: 0cd5 cc3a 34df 143e c843 4c3e b9c3 2f3e
000001f0: 022f 823e 5929 193e 6f67 973e 663c 343e
00000200: 8a22 11bd e978 283e f907 83be 3529 6dbe
00000210: 295d d53e 642a adbe 2677 47be b8bb e2be
00000220: 239a 37be bdd3 063e 1ab6 083e 802b 5dbe
00000230: 430f 6b3d b8f5 92be bf43 b73d 0644 5e3e
00000240: 5e51 0dbc d263 babd a2c7 983e 9f5f e1bd
00000250: fb39 c53c ea64 a1be 844a 263e 1e27 3f3e
00000260: f7c8 4abe 490e 4c3e b184 bc3e ef8b a73d
00000270: b4fb 91be d849 70bc 5191 963e 4889 913e
00000280: ac1d 1dbe ac0d 9a3e b77e 81be 3a3d ba3d
00000290: ea32 eb3e 54dc 903d 67ef 80be 169e 023e
000002a0: 6648 293e 541c aa3e 0c54 a1be caf8 10bd
000002b0: 4c29 e73d c35d e5bd 107a 95bb b485 29be
000002c0: 2ad4 c83b 22cd 663d f763 17bd 12f2 f93d
000002d0: dd4f 10be 2763 8e3e 7fb5 f23d 7a28 b3bc
000002e0: 7761 0bbd 59e1 21be e5d6 283e 17eb 80be
000002f0: a28b abbe 7834 9ebe f692 32be 1308 f03d
00000300: 00ea 903e aebc c6be 57f0 00be 6377 8a3e
00000310: a681 25be ded0 513e d04f ce3c 61f2 8dbe
00000320: 6a83 293d a347 67be 11a3 b4bc cd10 9fbe
00000330: fbb5 963e 5dac 2ebe 7b92 a13e 6fa2 71be
00000340: 0632 a3be 3c54 343e cb64 143e 442c dd3c
00000350: b7eb 76be 823b 1cbe e3f2 42be f14f 953d
00000360: bafd 8d3d daaa ba3e 35c6 a53e afd1 e0bd
00000370: 5726 ee3e 5688 503e b998 943d 0cde b6be
00000380: 9725 87be a8c9 8b3e beb5 173e 9816 4e3e
00000390: 175c fd3d 8c4b a9be 26c5 72be deab a7be
000003a0: 822f 23bd d861 a7bd f274 913e bfe2 a8be
000003b0: 31c2 9b3c cbab a43e ceda a2be 6774 45be
000003c0: 19d0 03be 2191 59bc a940 c53e a6fa 5abc
000003d0: efa9 273e 2d87 d43e 8ad0 833e e9d3 69be
000003e0: fcb0 1fbe 0d02 23be 7829 493d df19 b4bd
000003f0: 60c6 ee3d 12ee 093f 45ab 43be 1342 90bc

blocks.1.to_kv.weight f4 [256, 8]
-0.08697661 -0.24162634 -0.24034715 0.43406472 -0.11435429 0.18994199 0.21030082 0.10264341
-0.017645108 0.12680705 -0.39105538 0.042689383 0.3390975 0.05235131 -0.0029550348 -0.4360815
0.0050774585 0.03981102 -0.2681459 0.30582863 -0.09829268 0.078578465 0.27181023 0.13544059
-0.24471898 0.29189113 0.14240368 0.08486191 -0.09654508 -0.061887033 -0.20827186 -0.1471573
-0.14531296 0.12470369 0.4452093 -0.26269355 -0.20521773 0.037276104 -0.32725856 0.47847837
-0.22338618 0.28738618 -0.2687514 -0.048035234 -0.13833125 -0.21985175 0.3182809 0.13610323
0.06730569 0.057281476 -0.0114698 0.08856592 -0.30122516 0.10241706 -0.17696615 0.01930516
-0.04210938 -0.3352386 -0.03298041 0.0926346 -0.2750878 -0.076170705 -0.30137315 -0.1336974
0.25046378 0.39414567 -0.39990962 -0.44888654 -0.082990356 0.07063047 0.3622075 -0.14999585
0.1646194 0.12393786 -0.0977737 -0.031387076 -0.07286996 -0.07050842 0.13397183 0.1792751
-0.13902652 -0.08662819 0.13168825 0.13796048 -0.1437701 -0.19936097 0.1041418 -0.24706084
-0.16005525 0.061908573 -0.09642138 -0.04492789 -0.3244066 0.1403547 0.00030967867 0.16679105
0.021117859 -0.13696025 -0.14459619 0.30699912 -0.10064526 -0.24756792 0.20279996 -0.19208999
0.099843204 0.08040654 0.15822229 0.11604447 -0.14856629 -0.2648129 0.07804365 -0.081296675
0.22176588 -0.23926112 -0.04901911 0.1237689 -0.10477013 0.23299676 0.250969 0.123524085
-0.26629123 0.5418573 0.2127512 0.06327791 0.012988566 0.025805928 0.06449134 -0.26173633
-0.43513247 -0.122274265 0.08656439 0.23523769 0.06636451 0.025557367 0.2762483 -0.14576896
0.19063812 -0.27629322 -0.13529381 -0.04110435 -0.19442175 -0.32222742 0.09830458 0.3468458
0.11009366 -0.12176673 -0.056599475 -0.009261318 -0.15856864 0.18744355 -0.005788184 -0.023641927
-0.075075775 0.17859165 -0.1898641 0.008820088 -0.048687708 0.211389 -0.03125966 0.14696349
0.07431217 0.35563752 -0.14778167 -0.18772687 -0.16706926 -0.44031474 0.30008137 0.22777863
-0.018330013 -0.034797274 -0.015067849 -0.029942665 -0.18271965 -0.47166258 0.22381829 -0.22667249
-0.06813582 0.018870981 0.17167625 -0.18230666 0.0421374 0.16830876 0.32963237 0.30378607
0.19666852 -0.1293522 0.3236909 0.37692377 0.08929738 0.23587044 0.049696285 0.15930535
0.41691858 0.08632526 -0.08433608 0.06377911 -0.24445039 0.10081109 -0.14671615 0.11821284
-0.28050748 -0.6282992 0.22113109 0.13607629 -0.18258145 0.100453466 -0.14260198 -0.08907731
0.04470278 0.15199278 -0.10798351 -0.07812773 0.08124055 0.31280327 0.15907295 0.2182767
0.15860058 0.30199054 -0.36600018 -0.26635423 0.014825326 -0.41325155 0.12972438 -0.04021404
-0.30137184 0.13240105 -0.34859538 0.2859446 0.29350296 -0.20748943 0.32540563 -0.30881208
0.32116312 -0.107079394 0.10562309 0.21944658 0.16731264 0.18221223 -0.03254403 0.036141034
0.24584223 -0.0028576134 -0.181261 -0.059219155 -0.09671371 -0.2017408 0.075713724 0.17905039
0.1387709 -0.31644753 0.23338819 -0.21173896 0.09887566 0.14422615 0.24138992 -0.04116873
00000000: cb20 b2bd e56c 77be 901d 76be bb3d de3e
00000010: 9532 eabd 2780 423e 1959 573e b536 d23d
00000020: 798c 90bc b5d9 013e 6938 c8be 10db 2e3d
00000030: 309e ad3e 546e 563d 42a9 41bb 1346 dfbe
00000040: cf60 a63b e110 233d 6b4a 89be 9295 9c3e
00000050: ac4d c9bd bfed a03d b62a 8b3e f0b0 0a3e
00000060: 9d97 7abe c172 953e 45d2 113e 15cc ad3d
00000070: 6db9 c5bd 427d 7dbd 3845 55be 67b0 16be
00000080: eccc 14be a664 ff3d 79f2 e33e c57f 86be
00000090: 9924 52be d4ae 183d 6f8e a7be 1efb f43e
000000a0: 59bf 64be 4824 933e c999 89be 98c0 44bd
000000b0: b5a6 0dbe d120 61be b7f5 a23e a55e 0b3e
000000c0: 91d7 893d fb9f 6a3d d4eb 3bbc 0d62 b53d
000000d0: 2f3a 9abe 09c0 d13d 9d36 35be db25 9e3c
000000e0: e37a 2cbd 65a4 abbe 7716 07bd 36b7 bd3d
000000f0: 4fd8 8cbe 63ff 9bbd 954d 9abe f9e7 08be
00000100: ca3c 803e 76cd c93e f4c0 ccbe 75d4 e5be
00000110: d9f6 a9bd b5a6 903d 4373 b93e 8398 19be
00000120: fd91 283e 22d3 fd3d 943d c8bd bc8f 00bd
00000130: d83c 95bd b866 90bd e92f 093e e493 373e
00000140: f85c 0ebe 1f6a b1bd 49d9 063e 8345 0d3e
00000150: 7838 13be 4825 4cbe 4c48 d53d 84fd 7cbe
00000160: 86e5 23be d893 7d3d 9378 c5bd 4f06 38bd
00000170: 9f18 a6be 24b9 0f3e 5e5c a239 46cb 2a3e
00000180: 5cff ac3c 4f3f 0cbe 0611 14be fd2e 9d3e
00000190: 1a1f cebd 7282 7dbe cbaa 4f3e 3db3 44be
000001a0: 987a cc3d 2fac a43d 0605 223e b9a8 ed3d
000001b0: c321 18be 8e95 87be 59d5 9f3d df7e a6bd
000001c0: 9816 633e de00 75be 43c8 48bd 8d7a fd3d
000001d0: b991 d6bd b496 6e3e 027f 803e 32fa fc3d
000001e0: 5357 88be 29b7 0a3f 73db 593e d997 813d
000001f0: ffcd 543c f466 d33c 0914 843d 4e02 86be
00000200: afc9 debe ee6a fabd ac48 b13d 26e2 703e
00000210: 1eea 873d af5d d13c 6b70 8d3e 7544 15be
00000220: a436 433e 4e76 8dbe 768a 0abe 095d 28bd
00000230: 7f16 47be fefa a4be e953 c93d c695 b13e
00000240: c978 e13d d660 f9bd dad4 67bd c8bc 17bc
00000250: d15f 22be 34f1 3f3e ceaa bdbb b7ac c1bc
00000260: 54c1 99bd bbe0 363e bc6b 42be 2182 103c
00000270: c36c 47bd 5c76 583e 210a 00bd 997d 163e
00000280: fb30 983d 1f16 b63e 1454 17be 793b 40be
00000290: 3414 2bbe ef70 e1be 44a4 993e cd3e 693e
000002a0: d328 96bc 9687 0ebd 24df 76bc 524a f5bc
000002b0: dc1a 3bbe c27d f1be 9f30 653e d51c 68be
000002c0: cb8a 8bbd 5197 9a3c e6cb 2f3e 99ae 3abe
000002d0: 4498 2c3d 2259 2c3e 93c5 a83e d989 9b3e
000002e0: 7963 493e e774 04be d0ba a53e 27fc c03e
000002f0: 8be1 b63d 0588 713e 558e 4b3d f120 233e
00000300: 5a76 d53e 4ccb b03d 65b8 acbd 9f9e 823d
00000310: 3451 7abe 0b76 ce3d c23c 16be 9319 f23d
00000320: ad9e 8fbe 37d8 20bf 3070 623e 9557 0b3e
00000330: a2f6 3abe 8cba cd3d 4106 12be 2a6e b6bd
00000340: 431a 373d ffa3 1b3e 7526 ddbd 6e01 a0bd
00000350: 7261 a63d c027 a03e 05e4 223e ed83 5f3e
00000360: 3168 223e 819e 9a3e 6064 bbbe 955f 88be
00000370: ede5 723c b595 d3be 78d6 043e 7ab7 24bd
00000380: 694d 9abe 2494 073e 187b b2be 5567 923e
00000390: 0546 963e 1c78 54be 919b a63e 9e1c 9ebe
000003a0: 7e6f a43e 714c dbbd eb50 d83d 9bb6 603e
000003b0: 0154 2b3e d895 3a3e e44c 05bd 9f08 143d
000003c0: 11be 7b3e cc46 3bbb 7c9c 39be c98f 72bd
000003d0: d611 c6bd 2495 4ebe cc0f 9b3d fc58 373e
000003e0: f519 0e3e 6905 a2be 50fd 6e3e 19d2 58be
000003f0: 527f ca3d 05b0 133e eb2e 773e 8ba0 28bd
