weights/benchmark-two/flash_vit_10epochs.pth (torch, 38170 bytes, 11 tensors)

v_class f4 [1, 8]
0	0xbd6ba2f4	-0.05752845
1	0x3c512a0a	0.012766371
2	0x3f368786	0.7130054
3	0x3e310e4e	0.17290613
4	0x3f414e01	0.7550965
5	0xbe227d8a	-0.15868202
6	0x3f718e6e	0.94357955
7	0x3e015b8a	0.12632576

linear_mapper.weight f4 [8, 16]
0	0x3eb59ef2	0.35472828
1	0x3d21591e	0.03939163
2	0xbe03bada	-0.12864247
3	0x3e61d0ab	0.22052257
4	0x3e0b2905	0.13589866
5	0x3df9d230	0.12198293
6	0xbdb4aa99	-0.088216014
7	0x3e8fb7b4	0.28069842
8	0x3e433d6e	0.19066402
9	0xbe824039	-0.25439623
10	0xbc664d8f	-0.014056577
11	0x3e4227df	0.18960522
12	0x3e6847d9	0.22683658
13	0x3e80cbfb	0.25155625
14	0x3ea61218	0.3243568
15	0x3e5d2251	0.21595122
16	0x3e0f5c62	0.14000085
17	0x3d9e3395	0.07724682
18	0x3bd55dae	0.0065114116
19	0x3e3640c5	0.17798145
20	0xbdfe21f4	-0.1240882
21	0x3da615a7	0.081095986
22	0x3c06da68	0.008230783
23	0x3e37a504	0.17934042
24	0xbe9afaa6	-0.30269355
25	0x3d448d89	0.04798654
26	0xbb22c763	-0.0024838082
27	0xbccf30f4	-0.025291897
28	0xbeb29a35	-0.34883276
29	0xbec8a436	-0.39187783
30	0xbe88142f	-0.265779
31	0xbec8a580	-0.39188766
32	0x3f45eed2	0.77317536
33	0x3ec132e5	0.37734142
34	0x3e871b89	0.26388195
35	0x3eef7243	0.46766862
36	0xbcb8ff19	-0.022582578
37	0x3e1e2063	0.15442042
38	0x3d714eb6	0.058912955
39	0xbdca64e3	-0.09882524
40	0xbe09a7aa	-0.13442865
41	0xbdec208a	-0.11529644
42	0xbc049c9c	-0.008093979
43	0xbe59c69d	-0.21267171
44	0xbe3d5ded	-0.18492861
45	0xbe51381d	-0.20431562
46	0xbd1cd477	-0.03828856
47	0xbee92702	-0.45537573
48	0xbe6227f2	-0.2208555
49	0xbe8e9b83	-0.2785302
50	0xbea4aa03	-0.3216096
51	0xbe8515e7	-0.25993273
52	0xbe26ef8c	-0.16302317
53	0x3e70bc12	0.23509243
54	0x3d960613	0.07325377
55	0x3dcb33f9	0.09922022
56	0x3e6ef0c7	0.23334037
57	0x3e20d85d	0.15707536
58	0x3e75183c	0.23935026
59	0xbbfeee14	-0.007779846
60	0xbccf9c7b	-0.02534317
61	0xbe47779d	-0.19479223
62	0xbe2a8771	-0.1665323
63	0xbe357702	-0.17721179
64	0x3cbb4df8	0.022864327
65	0xbdf92f86	-0.121672675
66	0xbd6b6a7b	-0.057474595
67	0xbeb550f3	-0.35413322
68	0xbe6a3234	-0.22870713
69	0xbec4b229	-0.38417175
70	0xbdc37e54	-0.095455796
71	0xbde5af63	-0.11215093
72	0x3e2575ae	0.16158172
73	0xbe99a220	-0.30006504
74	0xbe2a0143	-0.16602044
75	0xbd8b5529	-0.068033524
76	0x3ed14bfb	0.4087828
77	0x3e9922b4	0.2990929
78	0x3e6accc7	0.22929679
79	0x3eec53f0	0.4615779
80	0xbe74152c	-0.23836201
81	0xbe25e8e4	-0.16202122
82	0x3d460f59	0.04835448
83	0xbecc32da	-0.39882547
84	0x3e0bf5d1	0.1366799
85	0xbdacf146	-0.08444457
86	0x3e02f1b5	0.12787516
87	0xbea4e0ac	-0.3220266
88	0x3be28402	0.006912709
89	0x3ddbada7	0.10726481
90	0x3e1227fa	0.14273062
91	0xbd1f6555	-0.038914997
92	0x3ed43674	0.41447794
93	0x3e95130e	0.291161
94	0xbdf5d31b	-0.12003156
95	0xbe914721	-0.2837458
96	0x3e132b56	0.14372
97	0xbde09360	-0.109656096
98	0xbe227318	-0.15864217
99	0xbec2be66	-0.38035887
100	0xbe593f7a	-0.2121562
101	0xbdef6cbb	-0.116906606
102	0xbe9006e9	-0.28130272
103	0xbef86c8e	-0.4852032
104	0x3d9aa0dd	0.075502135
105	0xbe03c5bf	-0.12868403
106	0xbdc6ef54	-0.09713617
107	0x3d30779f	0.04308283
108	0xbc07b470	-0.008282766
109	0xbe596f7b	-0.21233933
110	0x3e24c37d	0.16090198
111	0x3e5bf83e	0.21481416
112	0x3eec1257	0.46107742
113	0xbe63df38	-0.2225312
114	0xbe0ade99	-0.13561477
115	0xbdd22ae8	-0.1026209
116	0x3ec00ceb	0.37509856
117	0xbe0b72a7	-0.13617955
118	0xbe128c6e	-0.14311382
119	0xbe69c762	-0.22829965
120	0x3e0d03fb	0.1377105
121	0xbdcccd6c	-0.100001186
122	0xbe35c889	-0.1775228
123	0xbe65d73a	-0.22445384
124	0xbea0d8a9	-0.314153
125	0xbeb5ca89	-0.35506085
126	0xbefc72f4	-0.49306452
127	0xbea011aa	-0.31263477

linear_mapper.bias f4 [8]
0	0x3e83cb7f	0.25741193
1	0xbda795f3	-0.081828974
2	0x3e05c06b	0.13061683
3	0xbda5956b	-0.0808514
4	0xbe85f8e5	-0.26166454
5	0x3d26ec81	0.04075289
6	0xbdc25101	-0.094881065
7	0xbe21568f	-0.15755676

blocks.0.to_q.weight f4 [128, 8]
0	0xbe55b201	-0.20868684
1	0x3dcda849	0.100418635
2	0x3e9d801b	0.307618
3	0x3e9865c5	0.29765144
4	0x3ee43b3e	0.44576448
5	0xbeae445d	-0.34036532
6	0x3e41a3b6	0.18910107
7	0xbdf9f206	-0.122043654
8	0x3d596379	0.05307338
9	0xbe8c2418	-0.27371287
10	0x3e7254eb	0.23665206
11	0xbe8d20b0	-0.27564
12	0x3d840d72	0.06447877
13	0x3e3ab1e8	0.18231928
14	0x3c8ca576	0.017168742
15	0xbe47d09a	-0.19513169
16	0x3f314c94	0.69257474
17	0x3cc0601f	0.023483334
18	0xbe61bad1	-0.22043921
19	0xbe291c03	-0.16514592
20	0x3e89aef8	0.26891303
21	0x3d58e75d	0.05295502
22	0xba5e333c	-0.00084762624
23	0x3ec188e4	0.37799752
24	0x3eca3e13	0.39500484
25	0xbea0c87a	-0.3140295
26	0xbec87ee1	-0.391593
27	0x3cdec364	0.027192779
28	0x3e0dd8c9	0.13852228
29	0xbcaa88ae	-0.020817127
30	0xbe8a7460	-0.27041912
31	0xbe17a276	-0.14808068
32	0xbed6d540	-0.41959572
33	0x3e2ce5d5	0.16884549
34	0x3edf99c7	0.4367201
35	0xbec27fe2	-0.37988192
36	0x3e1789a3	0.14798598
37	0x3d90b5ec	0.07065949
38	0x3dd7a198	0.105288684
39	0xbe16ba9f	-0.14719628
40	0x3e4eda88	0.2020055
41	0x3e6f4c9c	0.23369068
42	0xbde97da3	-0.114009164
43	0xbdccca45	-0.09999517
44	0xbddbde17	-0.1073572
45	0x3d82a5da	0.0637929
46	0xbd815d92	-0.06316675
47	0xbddee699	-0.10883827
48	0x3ef98c85	0.4874002
49	0x3e83ab64	0.25716698
50	0xbe1bdc0b	-0.15220658
51	0xbda80344	-0.08203748
52	0xbdd36a4b	-0.10323008
53	0x3cb08f72	0.021552775
54	0x3bfd8886	0.007737222
55	0x3d95dac5	0.073171176
56	0x3e45d110	0.19318032
57	0xbdc9dbc9	-0.09856374
58	0x3e602335	0.2188843
59	0x3e3f16b9	0.18661012
60	0x3c19387f	0.009351849
61	0xbe426f2c	-0.18987721
62	0xbe3c0bb7	-0.18363844
63	0xbe9361fc	-0.28785694
64	0xbf59ef14	-0.8513043
65	0x3ea1a12f	0.31568286
66	0x3e38c71f	0.18044709
67	0xbde35b37	-0.11101382
68	0xbee88983	-0.45417413
69	0xbee65abb	-0.44991097
70	0xbe6eec42	-0.23332313
71	0x3e4bf5e3	0.19918017
72	0xbeca046f	-0.39456508
73	0xbe3e616b	-0.1859185
74	0x3f0deb14	0.55436826
75	0xbb8ab517	-0.0042330134
76	0xbec729d1	-0.3889909
77	0x3ef798de	0.48358816
78	0xbea0a759	-0.31377676
79	0x3e07734c	0.13227576
80	0xbf1b72e3	-0.6072218
81	0x3e933ef4	0.28758967
82	0x3ec5448d	0.38528863
83	0x3dd01e5d	0.10162041
84	0xbe07c9be	-0.13260552
85	0xbedec839	-0.43512133
86	0xbe50075c	-0.20315307
87	0x3e8f044a	0.2793296
88	0xbed6f8a6	-0.4198658
89	0x3ea41a21	0.32051185
90	0x3eab4c13	0.33456478
91	0x3d1322c2	0.03592182
92	0xbe0d1b72	-0.13780001
93	0xbe2798c6	-0.16366872
94	0xbeff8940	-0.499094
95	0xbe810856	-0.25201672
96	0x3cc22f7a	0.02370428
97	0xbeb77d1e	-0.35837644
98	0xbf935732	-1.1510985
99	0xbf3d96bb	-0.7405812
100	0xbebcac8c	-0.36850393
101	0xbf28fb2f	-0.66008276
102	0xbf1fc6dc	-0.6241281
103	0xbea27366	-0.31728667
104	0xbeb0fe77	-0.3456914
105	0x3e91281d	0.28350917
106	0xbd076e2b	-0.03306405
107	0xbe8a484b	-0.2700828
108	0x3cf42de0	0.029807031
109	0xbe6b59ce	-0.22983477
110	0xbd6be3a7	-0.057590153
111	0xbeafdb88	-0.34347177
112	0x3f2592d3	0.6467716
113	0xbe572d92	-0.21013477
114	0x3f7f3386	0.99687994
115	0x3f223049	0.6335493
116	0x3ee074b2	0.4383903
117	0x3e7d65a1	0.247458
118	0x3efbbc6a	0.49167186
119	0x3e851707	0.2599413
120	0xbe6c69ab	-0.23087184
121	0x3f08840c	0.5332649
122	0xbd614d54	-0.055005386
123	0xbdfaab74	-0.12239733
124	0xbc54de7d	-0.012992498
125	0xbee8cb04	-0.4546739
126	0x3e70b545	0.23506649
127	0xbec91f26	-0.39281577
128	0x3f754d15	0.9582074
129	0x3e569ae1	0.20957519
130	0x3f3de1c6	0.7417263
131	0x3e5e502d	0.21710272
132	0xbc9c5594	-0.019083776
133	0x3e7bb883	0.24582104
134	0x3f019cd3	0.5062992
135	0xbdcff0ac	-0.101533264
136	0xbef31620	-0.47477818
137	0xbd91706f	-0.07101523
138	0x3de0c4fa	0.1097507
139	0xbe651512	-0.22371319
140	0xbc2ade5e	-0.010428993
141	0xbe3c58e7	-0.18393289
142	0xbe52bb65	-0.20579298
143	0x3eb37494	0.3504988
144	0x3ef55a4b	0.4792045
145	0xbd3a314c	-0.04545717
146	0xbe00b238	-0.12567985
147	0xbdfb7c28	-0.1227954
148	0xbebac4c7	-0.36478254
149	0xbe8d2f09	-0.27574947
150	0x3df8288f	0.12117111
151	0xbe272b6e	-0.16325161
152	0xbed70402	-0.41995245
153	0x3dc7217b	0.09723183
154	0x3d557bcf	0.052120026
155	0xbe191c71	-0.14952256
156	0x3e275442	0.16340736
157	0xbe42ec61	-0.19035484
158	0x3ca95544	0.02067054
159	0xbe0ee099	-0.13952865
160	0xbf07380e	-0.5281991
161	0x3eab72bb	0.3348597
162	0xbcc59ebc	-0.024123542
163	0x3dd55c11	0.10417951
164	0xbca33e24	-0.019927092
165	0xbc1e556d	-0.009663922
166	0x3ecdd221	0.40199378
167	0x3e3c6c8f	0.18400787
168	0xbdb5cc6f	-0.08876883
169	0x3db294f4	0.08719817
170	0x3e50f09c	0.20404285
171	0x3d2606c8	0.04053381
172	0x3e20d0da	0.1570467
173	0x3eae482c	0.34039438
174	0xbdcd759a	-0.10032196
175	0x3d57a762	0.052649863
176	0x3dff80a1	0.12475706
177	0xbe04d8b2	-0.12973288
178	0x3e4604dd	0.19337793
179	0x3e804038	0.25048995
180	0xbe7ee7a1	-0.24893047
181	0xbe774d29	-0.24150528
182	0xbe91fea6	-0.28514594
183	0xbeb8dc03	-0.36105356
184	0xbeab7c80	-0.33493423
185	0xbd293f61	-0.04132021
186	0x3e0cab4f	0.13737224
187	0x3c9fc511	0.019503148
188	0xbea76236	-0.32692116
189	0xbe8171ce	-0.2528214
190	0x3dcb763c	0.09934661
191	0xbe800a51	-0.2500787
192	0xbeaa39cb	-0.33247218
193	0x3e8204b2	0.25394207
194	0x3e0ab619	0.13546027
195	0xbda05a9a	-0.07829781
196	0xbd8cf90e	-0.06883441
197	0xbdf8380d	-0.12120066
198	0xbe7b9bc3	-0.24571137
199	0xbeaa7f4e	-0.3330025
200	0xbf22ed87	-0.6364369
201	0xbe14d6f8	-0.14535129
202	0xbf0abc1a	-0.5419327
203	0xbf2dc805	-0.6788333
204	0xbf003690	-0.50083256
205	0xbeb6c973	-0.3570057
206	0xbe80012c	-0.25000894
207	0xbe3baf5a	-0.1832861
208	0x3f0796c1	0.5296441
209	0x3e0ed7ae	0.13949463
210	0xbefc9cd2	-0.49338394
211	0x3ca85aed	0.02055117
212	0x3d8e0e07	0.06936269
213	0x3ce2841b	0.027650883
214	0xbea19f5b	-0.3156689
215	0x3e9e48d2	0.30914932
216	0x3e1b0f58	0.15142572
217	0xbf023bbd	-0.50872403
218	0xbfa07143	-1.2534565
219	0xbea1a6d7	-0.315726
220	0xbd88c97d	-0.06679056
221	0xbe5d3d77	-0.21605478
222	0xbe5ed273	-0.21759968
223	0xbf28ede0	-0.6598797
224	0xbe6b864f	-0.23000453
225	0xbcbe7467	-0.023248864
226	0x3e691d86	0.22765169
227	0x3e3a41fd	0.18189235
228	0xbeab05ef	-0.33402964
229	0xbc115857	-0.0088711595
230	0xbec417a7	-0.38299295
231	0xbe4e7f22	-0.20165685
232	0x3faf68c7	1.370385
233	0xbd2e066f	-0.042486604
234	0x3f34b748	0.70592165
235	0xbc98027f	-0.018555878
236	0x3eea0df8	0.45713782
237	0xbe0c8610	-0.13723016
238	0x3eccb350	0.39980555
239	0x3ee0da9f	0.43916795
240	0xbe0ae978	-0.13565624
241	0x3ede0714	0.43364775
242	0x3d766259	0.060152385
243	0xbe598a2b	-0.21244113
244	0x3e898b17	0.2686393
245	0xbe417460	-0.1889205
246	0xbbe1d30e	-0.0068916148
247	0xbe116a38	-0.14200675
248	0xbdb993d3	-0.09061398
249	0x3e8992d2	0.26869828
250	0x3f75dce8	0.960402
251	0x3dcad195	0.09903256
252	0xbec7fddb	-0.39060864
253	0x3f0bef95	0.5466245
254	0x3d2d3c3f	0.042293783
255	0x3e3a3ef1	0.18188073

blocks.0.to_kv.weight f4 [256, 8]
0	0xbed43705	-0.41448227
1	0xbc03a7dc	-0.008035626
2	0xbcea3e9f	-0.028594313
3	0x3e1ce52b	0.15321796
4	0xbc9fd9c5	-0.01951302
5	0x3d2ff185	0.04295494
6	0x3ecca8c9	0.39972523
7	0x3eb0b0af	0.345098
8	0x3e29e112	0.16589764
9	0x3e2abcfb	0.16673653
10	0x3e7e54bd	0.24837013
11	0xbdadb4eb	-0.08481773
12	0x3ca6cde0	0.02036184
13	0xbd04dab9	-0.032435153
14	0xbe890760	-0.2676344
15	0xbeae1dca	-0.34007102
16	0x3e5e417a	0.21704665
17	0xbf30ec6e	-0.69110763
18	0x3df28fb6	0.11843817
19	0xbe28a7c6	-0.1647025
20	0xbe3880bf	-0.18017863
21	0xbe05aadc	-0.13053459
22	0xbe1e3f14	-0.1545375
23	0x3ecdf7bb	0.40228066
24	0x3ee4f117	0.44715187
25	0xbec069e0	-0.37580776
26	0xbe9094c1	-0.2823849
27	0xbe969f3d	-0.29418364
28	0xbe8b9f62	-0.27270037
29	0xbe428525	-0.18996103
30	0xbd0197c2	-0.03163887
31	0xbd9b4e2b	-0.07583269
32	0xbed3ab9d	-0.41341868
33	0x3f1bf597	0.60921615
34	0xbdd0fdf4	-0.10204688
35	0x3f47faa5	0.7811683
36	0x3aa1715b	0.0012317108
37	0xbdfb75c8	-0.12278324
38	0x3e54ff5b	0.20800535
39	0xbd1382a6	-0.036013268
40	0x3ed85fff	0.4226074
41	0x3e27c4ab	0.16383617
42	0x3ea93362	0.33047014
43	0xbdf94333	-0.1217102
44	0x3e19125c	0.1494841
45	0x3e870e24	0.26377976
46	0xbe45cb14	-0.1931575
47	0x3e89fbac	0.26949823
48	0x3e896cfb	0.26840958
49	0xbed4fad6	-0.41597623
50	0x3e5e71e8	0.2172314
51	0x3e52bb25	0.20579202
52	0xbef80d79	-0.4844778
53	0xbe00c7c6	-0.12576208
54	0x3dcc7fec	0.09985337
55	0xbdbad5ef	-0.09122836
56	0x3e273732	0.16329649
57	0xbe267f05	-0.16259392
58	0x3e6a8da3	0.22905593
59	0x3ef41017	0.47668526
60	0x3df9bb9d	0.121939875
61	0xbe8980a9	-0.26855972
62	0x3e7ab387	0.24482547
63	0x3d3ddd70	0.046353757
64	0xbd8999b0	-0.06718767
65	0x3f88768d	1.0661179
66	0x3e711128	0.23541701
67	0x3e345c04	0.17613226
68	0x3d73e2c5	0.059542436
69	0x3ea6225d	0.32448092
70	0x3d83773e	0.06419228
71	0x3e5320e0	0.2061801
72	0xbec389be	-0.38191026
73	0x3b4e4bf4	0.0031478377
74	0x3e14b7ea	0.14523283
75	0xbf05c67a	-0.52255976
76	0x3ed516a6	0.41618842
77	0x3d58f581	0.052968506
78	0xbe960f20	-0.29308414
79	0xbe582e7a	-0.2111148
80	0xbeec727d	-0.46181098
81	0x3f33f2e1	0.7029248
82	0xbd9aa875	-0.07551662
83	0x3d779e1a	0.06045351
84	0x3e17af5c	0.14812988
85	0x3e186667	0.14882813
86	0x3cd7a726	0.02632482
87	0x3ebf448c	0.37356985
88	0xbe20119f	-0.15631722
89	0x3ef74131	0.48291925
90	0x3d03c0ad	0.03216617
91	0xbe1e5f0e	-0.15465948
92	0x3e75a2c8	0.23987877
93	0x3ea1b654	0.31584418
94	0xbddf9927	-0.10917883
95	0xbe9b1b7d	-0.3029441
96	0x3efc0180	0.49219894
97	0x3ed52477	0.41629383
98	0xbe60fd8f	-0.21971725
99	0x3e93687e	0.2879066
100	0xbdb22115	-0.08697716
101	0xbeb11f57	-0.34594223
102	0x3d133475	0.0359387
103	0x3df4b0f2	0.11947812
104	0x3b1e45bc	0.0024150452
105	0x3ef24ea0	0.4732561
106	0xbea88075	-0.32910505
107	0x3f073aec	0.5282428
108	0x3e8d1d44	0.2756139
109	0x3e62c801	0.22146608
110	0x3d87e3f5	0.06635276
111	0x3dfeb72f	0.12437283
112	0xbeb5b096	-0.35486287
113	0xbeb26774	-0.34844553
114	0x3d220da3	0.039563786
115	0xbe87176d	-0.2638506
116	0xbe8ee145	-0.27906242
117	0x3e2e3038	0.17010581
118	0x3e683ee6	0.22680244
119	0xbea24ed0	-0.31700754
120	0x3e66a8bb	0.22525303
121	0x3edd9e3a	0.4328478
122	0x3e942165	0.28931728
123	0x3f143c07	0.57904094
124	0x3e8a77f6	0.27044648
125	0xbdd4d72f	-0.103926055
126	0x3e80d9ca	0.2516616
127	0x3eb9a1d8	0.3625629
128	0xbedfe5fd	-0.43730155
129	0xbf1ce0d0	-0.61280537
130	0x3e339825	0.17538507
131	0x3db70824	0.089370996
132	0xbe747ab4	-0.23874933
133	0xbdfb0bf0	-0.12258136
134	0xbd6cfabf	-0.057856318
135	0x3cf71107	0.030159486
136	0xbe39b6a8	-0.18136084
137	0x3f16eca5	0.5895484
138	0x3e729ec4	0.23693377
139	0xbeb72ffa	-0.3577879
140	0x3defa863	0.11702039
141	0x3d7c77d2	0.061637707
142	0x3e1b5e13	0.15172605
143	0x3e63e39f	0.222548
144	0x3e49b3ca	0.1969749
145	0xbd988488	-0.07447153
146	0x3e93197e	0.28730386
147	0xbc63c635	-0.013902237
148	0xbe1f3fb9	-0.15551652
149	0xbd8c21bc	-0.06842372
150	0xbe741a4c	-0.23838156
151	0x3da9a082	0.082825676
152	0xbe1e7a3e	-0.15476319
153	0x3f18e503	0.59724444
154	0xbc1f59d7	-0.009726009
155	0x3e257a97	0.16160046
156	0xbe8b0548	-0.27152467
157	0xbe5f951a	-0.21834221
158	0x3e2ea0c2	0.17053512
159	0x3e98add1	0.2982011
160	0xbee3622b	-0.44410834
161	0x3e85aba4	0.26107514
162	0xbe91ee45	-0.28502098
163	0x3d74c3d8	0.059757084
164	0x3ed9d4d5	0.4254519
165	0x3ecf8f0b	0.4053882
166	0xbe692b06	-0.22770318
167	0x3e99af1b	0.30016407
168	0x3d1980bf	0.037476297
169	0xbca4535d	-0.020059282
170	0x3eaf9ce9	0.342994
171	0xbe769eca	-0.2408401
172	0x3abbb502	0.0014320912
173	0xbdbc3dde	-0.09191488
174	0x3d7a9bc9	0.061183725
175	0x3d743bc1	0.0596273
176	0x3cd38e8e	0.025824811
177	0xbd9f2452	-0.077705994
178	0xbe58e02c	-0.21179265
179	0x3e5cb0df	0.21551846
180	0xbe92ff4a	-0.28710395
181	0xbdedc8cd	-0.11610565
182	0x3d5fd21e	0.054643743
183	0xbe4c8707	-0.19973384
184	0x3d8cc1b0	0.068728805
185	0x3e970442	0.29495436
186	0x3e03a610	0.12856317
187	0x3d77ab7b	0.06046627
188	0xbdfc81b8	-0.123294294
189	0x3e97ec25	0.2967235
190	0x3e1c7c07	0.15281688
191	0xbdaebc59	-0.08532018
192	0xbdbddeb7	-0.09270995
193	0x3f20221c	0.62552047
194	0xbeaea94c	-0.34113538
195	0x3f02e913	0.51136893
196	0x3e38858d	0.18019696
197	0xbe5e16cc	-0.21688384
198	0xbe8dca63	-0.2769347
199	0xbee26c96	-0.4422347
200	0x3eb5358d	0.35392419
201	0x3f0bf0d8	0.54664373
202	0xbd93f571	-0.072245486
203	0x3eba61f1	0.36402848
204	0xbdb840f8	-0.08996767
205	0xbe880e50	-0.2657342
206	0x3e1b287b	0.15152161
207	0x3e07c9bd	0.13260551
208	0x3f270556	0.65242517
209	0xbf311de5	-0.6918624
210	0x3ebaaecb	0.3646148
211	0x3d5f107c	0.05445908
212	0x3cde5304	0.027139194
213	0xbee3c807	-0.44488546
214	0x3e1ff876	0.15622124
215	0xbe9fe790	-0.31231356
216	0x3ee77c6c	0.45212114
217	0x3daea318	0.085272014
218	0xbebecbd8	-0.37264895
219	0x3e3961dc	0.18103737
220	0xbdb31c5d	-0.08745644
221	0xbe91a33a	-0.28444844
222	0xbdbeedec	-0.09322724
223	0x3db5990d	0.08867083
224	0x3e091e8f	0.13390563
225	0x3e44678b	0.19180124
226	0x3dc3b504	0.0955601
227	0x3e004b24	0.12528664
228	0x3e6a1d57	0.22862755
229	0x3e3d1d49	0.18468203
230	0xbdbe83c3	-0.09302475
231	0xbec223fe	-0.37918085
232	0xbe90bb91	-0.28268102
233	0xbf1736d2	-0.59068024
234	0xbdca064b	-0.098644815
235	0x3d913019	0.07089252
236	0xbe89b179	-0.26893213
237	0xbeb41e40	-0.3517933
238	0xbd29e245	-0.041475553
239	0x3d18fde3	0.0373515
240	0xbdb6d684	-0.08927634
241	0x3ea61bbf	0.32443044
242	0x3bebf8ef	0.007201306
243	0x3eed33f2	0.46328694
244	0xbdc8ea45	-0.09810308
245	0xbddc1cd1	-0.10747684
246	0xbe527f77	-0.20556436
247	0x3da2d048	0.07949883
248	0xbe99cb10	-0.30037737
249	0xbdb90d46	-0.09035735
250	0x3d9a445c	0.0753257
251	0xbbf284e9	-0.007401098
252	0x3d92b579	0.071635194
253	0x3e5c53f9	0.21516408
254	0xbd680a70	-0.05665058
255	0xbeb47a1e	-0.35249418

blocks.0.to_out.weight f4 [8, 128]
0	0x3d58ce56	0.052931152
1	0x3eddebc8	0.4334395
2	0x3d8219c8	0.06352574
3	0xbe80bacc	-0.25142515
4	0xbe8aed72	-0.2713428
5	0xb94fd8e4	-0.00019821856
6	0xbcaa7140	-0.020805955
7	0xbd353799	-0.044242475
8	0xbe5835a6	-0.21114215
9	0x3d8e3dc5	0.06945375
10	0xbdc91b97	-0.098197155
11	0xbd749eef	-0.059721883
12	0x3d8931f4	0.06698981
13	0x3d97cbe5	0.07411937
14	0xbe480a28	-0.19535124
15	0xbd0addf3	-0.033903074
16	0xbc691079	-0.014225119
17	0xbe171c96	-0.14756998
18	0x3d9c5a9c	0.0763447
19	0x3ebde474	0.37088358
20	0x3e7c1551	0.24617507
21	0x3db24fb2	0.08706607
22	0x3e337993	0.17526846
23	0xbd9a2714	-0.07526985
24	0x3db36150	0.08758795
25	0xbe14cdb2	-0.14531592
26	0xbea3c761	-0.31988052
27	0xbcea99d0	-0.028637797
28	0x3d0bcfd3	0.034133743
29	0x3d5c14ae	0.05373066
30	0xbe9847c5	-0.29742256
31	0x3d24b3f9	0.040210698
32	0x3d24c23f	0.04022431
33	0x3dcce411	0.10004438
34	0xbd96f922	-0.07371737
35	0xbd2eb587	-0.042653587
36	0xbc0531d0	-0.008129552
37	0x3ecbc498	0.39798427
38	0x3c4b8c2c	0.012423556
39	0xbd77ba1e	-0.06048023
40	0xbe9958ff	-0.2995071
41	0xbc5325fc	-0.012887474
42	0x3cae6a64	0.021290965
43	0x3e084047	0.1330577
44	0xbd44c658	-0.048040718
45	0x3e542e00	0.20720673
46	0x3e067045	0.13128765
47	0xbe97df45	-0.2966253
48	0xbea31bb0	-0.3185706
49	0xbe129d70	-0.1431787
50	0xbcc614f6	-0.024179917
51	0xbd3e00f0	-0.046387613
52	0xbe056d02	-0.13029864
53	0x3e483138	0.19550025
54	0xbe0c66c3	-0.13711075
55	0x3e51c900	0.20486832
56	0xbc8449ed	-0.016148532
57	0xbd4ff76d	-0.050773073
58	0xbd83e209	-0.06439597
59	0xbe484641	-0.1955805
60	0xbe5a690c	-0.21329135
61	0x3e084f3c	0.13311476
62	0xbee45eb0	-0.4460349
63	0x3e4f420b	0.20240037
64	0xbe141925	-0.14462717
65	0x3d6b492a	0.05744282
66	0xbe047abf	-0.12937449
67	0x3e9519e0	0.29121304
68	0x3dc60aba	0.09670015
69	0x3e0413c5	0.12898166
70	0x3dfd5e39	0.12371487
71	0x3daace5f	0.083401434
72	0xbcdfe63d	-0.027331466
73	0xbd9a5c31	-0.07537115
74	0xbde3849c	-0.111092776
75	0x3d8ae118	0.067812145
76	0xbd044ff2	-0.032302804
77	0x3dd886b8	0.105725706
78	0x3dff3001	0.12460328
79	0xbd9e565a	-0.07731314
80	0xbe48a6e8	-0.1959492
81	0x3e142c3c	0.14469999
82	0xbb42bb17	-0.0029713565
83	0x3e90d98c	0.28290975
84	0xbd696156	-0.056977592
85	0x3bbe12a1	0.0058005606
86	0xbcf89c98	-0.030348107
87	0xbeb1a666	-0.34697264
88	0x3ba4a299	0.005024266
89	0x3db589af	0.08864152
90	0x3d552812	0.052040167
91	0x3b161c87	0.0022905187
92	0x3d5e9454	0.054340675
93	0x3ca5b0c2	0.020225886
94	0x3dbad0c0	0.09121847
95	0xbd145f9d	-0.036223996
96	0xbcb3022e	-0.021851625
97	0xbdc702fd	-0.09717367
98	0xbd168e34	-0.03675671
99	0xbe213ac8	-0.1574508
100	0x3e09f9d3	0.13474207
101	0x3e58092d	0.2109725
102	0x3d9a1ce3	0.07525041
103	0xbe017309	-0.12641539
104	0x3e31ff30	0.17382503
105	0x3d8d0999	0.06886596
106	0xbd20d630	-0.039266765
107	0x3e09a9f4	0.13443738
108	0x3d85761d	0.06516669
109	0xbd21a698	-0.039465517
110	0xbda9ec4f	-0.082970254
111	0x3d2f6aa8	0.042826325
112	0x3cdce0cf	0.026962666
113	0xbe83cc67	-0.25741884
114	0xbda40353	-0.080084465
115	0xbe89dcd4	-0.2692629
116	0xbd58d1e1	-0.05293453
117	0xbdfb14ca	-0.122598246
118	0xbd74e699	-0.059790228
119	0xbcbfb3c9	-0.023401158
120	0xbb73927b	-0.0037166167
121	0xbda2eab5	-0.07954923
122	0xbd16a4a6	-0.036778115
123	0x392d50dd	0.0001652869
124	0xbcea0b2b	-0.028569778
125	0xbd8a272f	-0.06745755
126	0x3e02762b	0.1274039
127	0x3b895e79	0.00419217
128	0xbd37a604	-0.04483606
129	0x3de3b8d0	0.111192346
130	0xbd9a60b5	-0.07537977
131	0xbc26a79b	-0.010171796
132	0xbb369f99	-0.0027866124
133	0xbdfe37bb	-0.124129735
134	0x3ceea8f3	0.029133296
135	0x3db22824	0.086990625
136	0x3d04d518	0.032429785
137	0xbdb04157	-0.086062126
138	0xbd0a1fa7	-0.033721592
139	0x3e15eb13	0.14640455
140	0xbc49ff10	-0.012328878
141	0x394c9637	0.00019510915
142	0x3da46b48	0.08028275
143	0xbc17df11	-0.009269492
144	0xbd3f10c2	-0.04664684
145	0xbc6de145	-0.0145190405
146	0xbd44bb0a	-0.048029937
147	0xbc5f9a9a	-0.0136477
148	0xbd3596e4	-0.044333354
149	0x3a96b560	0.0011498146
150	0xbdb5dff4	-0.08880606
151	0xbccfc77f	-0.025363682
152	0x3d1e3145	0.038621206
153	0x3d093ec7	0.033507135
154	0x3e147c05	0.14500435
155	0x3d0c0747	0.034186628
156	0x3d2b3450	0.041797936
157	0xbc87aef8	-0.016562924
158	0x3dd9633e	0.10614632
159	0x3bde2c72	0.0067802006
160	0x3c56f91e	0.013120918
161	0x3dc27179	0.094942994
162	0x3cdea2e6	0.027177285
163	0xbde31ce2	-0.11089493
164	0x3d34da4c	0.044153497
165	0x3cb52908	0.022114292
166	0xbcf0ba9a	-0.029385854
167	0x3d9bb7b5	0.07603399
168	0xbd998b88	-0.074973166
169	0xbda8aa23	-0.08235576
170	0x3cc16844	0.023609288
171	0xbd6bb70d	-0.057547618
172	0xbaf182f3	-0.0018425867
173	0xbdd0f3ad	-0.102027275
174	0xbbffe47b	-0.0078092194
175	0xbd9cfc47	-0.076653056
176	0x3ddf4ae7	0.10902958
177	0xbdeaeeca	-0.11471327
178	0xbe154d8a	-0.1458036
179	0xbd073fe6	-0.033019923
180	0xbc2602e8	-0.010132529
181	0xbc079f48	-0.008277722
182	0x3e015a76	0.12632164
183	0x3da3ee93	0.08004489
184	0xbe1b4e78	-0.15166652
185	0xbcd45cdc	-0.025923185
186	0x3c3cb6d9	0.011518204
187	0xbc2f9019	-0.010715508
188	0x3e010c10	0.12602258
189	0xbd85855b	-0.06519576
190	0x3e2cecf5	0.16887267
191	0xbe2934c3	-0.16524033
192	0x3db01951	0.08598579
193	0xbe47fe5b	-0.19530623
194	0xbe02b119	-0.1276287
195	0x3e6872c4	0.2270003
196	0xbee955d7	-0.45573303
197	0xbdd65d9b	-0.104670726
198	0xbe603b33	-0.21897583
199	0xbe179596	-0.14803156
200	0x3c7bfbb2	0.015379833
201	0x3c920d62	0.017828647
202	0x3e81b5a3	0.2533389
203	0x3d03e383	0.032199394
204	0x3ce1d9b4	0.02756963
205	0x3c8c89a0	0.017155468
206	0x3da667c1	0.08125258
207	0x3dc9eb9b	0.09859391
208	0x3e2d633a	0.16932383
209	0xbeea06f6	-0.45708436
210	0x3d805178	0.06265539
211	0xbd345504	-0.04402639
212	0xbe0621d2	-0.13098839
213	0xbe0b1f7e	-0.13586232
214	0x3eab4502	0.33451086
215	0xbedebc0d	-0.43502846
216	0xbe37805a	-0.17920056
217	0x3e14c67c	0.14528841
218	0x3d8913a6	0.06693201
219	0xbeb42a22	-0.35188395
220	0x3c2fa0e3	0.010719511
221	0xbd8abce2	-0.06774308
222	0xbd13b14e	-0.036057763
223	0x3e3f0e4b	0.18657796
224	0x3bf4c767	0.0074700597
225	0xbd02f67c	-0.031973347
226	0xbe357d95	-0.17723687
227	0xbc7dd4ce	-0.015492631
228	0xbde8d797	-0.113692455
229	0xbe9314f0	-0.28726912
230	0x3ece1fec	0.4025873
231	0xbd7ce77e	-0.061744206
232	0xbf035757	-0.51305145
233	0xbe1fd849	-0.1560985
234	0x3daa5790	0.083174825
235	0xbd140996	-0.036141954
236	0x3e8dcb40	0.2769413
237	0xbe902b21	-0.28157905
238	0xbdc273a2	-0.094947115
239	0xbceb5061	-0.028724851
240	0xbe27ed7a	-0.16399184
241	0x3e692914	0.22769576
242	0xbe8657e6	-0.26238936
243	0x3f0d2c8a	0.55146086
244	0xbb9e8e1c	-0.004838718
245	0xbd338384	-0.043826595
246	0x3c7df99f	0.015501409
247	0xbe62a77c	-0.22134203
248	0x3daded2e	0.08492504
249	0xbd1485f0	-0.036260545
250	0xbe07447f	-0.13209723
251	0xba0872b5	-0.0005205081
252	0xbe79b22c	-0.24384373
253	0x3e370e7e	0.17876622
254	0xbd22ea1b	-0.03977404
255	0xbdda864a	-0.10670145

blocks.1.to_q.weight f4 [128, 8]
0	0x3d9faf2c	0.07797083
1	0xbe33eb37	-0.17570196
2	0xbb7fb2f5	-0.0039016579
3	0x3d5ca82c	0.05387132
4	0x3ea8bbf5	0.329559
5	0xbf0d5b0b	-0.55217046
6	0x3e9fad03	0.31186685
7	0xbeacee97	-0.3377578
8	0x3e8917ea	0.26776057
9	0xbe298b5c	-0.16557068
10	0x3e9c2592	0.30497414
11	0xbc167044	-0.00918204
12	0x3e289652	0.16463593
13	0x3e147de8	0.14501154
14	0xbd455e93	-0.048185896
15	0xbea1c71d	-0.31597224
16	0x3dc22209	0.09479148
17	0x3eaa94cf	0.33316657
18	0xbe017358	-0.12641656
19	0x3ec9caed	0.39412633
20	0xbd3b49ba	-0.045724608
21	0xbdfa38a4	-0.122178346
22	0xbe5f9320	-0.21833467
23	0x3e926cfe	0.2859878
24	0xbdb457b2	-0.08805789
25	0x3e5bdfa0	0.21472025
26	0xbe90af04	-0.28258526
27	0x3ddb0172	0.10693635
28	0xbeac5cb0	-0.33664465
29	0x3d5fda08	0.05465129
30	0x3eaa6f21	0.3328791
31	0x3e86d461	0.26333907
32	0xbe7d7c5e	-0.24754474
33	0xbebc8148	-0.36817384
34	0xbe4a5bb4	-0.19761544
35	0xbe2e5b26	-0.17026958
36	0x3ed7e146	0.42164057
37	0xbe644357	-0.22291313
38	0x3dbe95a7	0.09305888
39	0x3eaa40dd	0.33252612
40	0x3d93f82a	0.07225068
41	0xbe5f11c6	-0.21784124
42	0xbdb3a615	-0.08771912
43	0xbd8805da	-0.06641741
44	0x3e2a4a8a	0.16629997
45	0x3e007208	0.125435
46	0xbde21083	-0.110383056
47	0x3e8d9daa	0.2765935
48	0x3d8069eb	0.06270202
49	0xbc9a2faa	-0.018821556
50	0xbdcb2b69	-0.09920389
51	0x3e23af41	0.15984823
52	0x3e8c1629	0.27360657
53	0xbe4afad0	-0.1982224
54	0x3df10581	0.11768628
55	0xbec1e65f	-0.37871072
56	0x3df4e331	0.11957396
57	0x3e71d89a	0.23617783
58	0xbebd7ced	-0.37009373
59	0xbd95ed66	-0.07320671
60	0x3d304084	0.043030277
61	0x3e708cb3	0.23491172
62	0x3da9516c	0.08267483
63	0x3defc96e	0.117083415
64	0xbdea74fe	-0.11448096
65	0x3e7d7688	0.24752247
66	0xbceb3728	-0.028712824
67	0xbe7586cd	-0.23977204
68	0x3e9aba93	0.3022047
69	0xbe838536	-0.2568757
70	0xbdac573e	-0.084150776
71	0xbdce5f52	-0.10076775
72	0xbe4aea5a	-0.1981596
73	0x3e01a539	0.12660684
74	0xbea8ea9c	-0.32991493
75	0xbd6efdf1	-0.058347646
76	0xbe204017	-0.15649448
77	0x3e62aee5	0.2213703
78	0x3e21d2a8	0.15803015
79	0xbe5745ca	-0.21022716
80	0xbe800d23	-0.25010023
81	0xbc887574	-0.016657569
82	0xbb877995	-0.0041343668
83	0x3dc3bd77	0.09557622
84	0xbe05a08f	-0.1304953
85	0x3ee6ee82	0.45103842
86	0xbe5572ae	-0.20844528
87	0xbe51feb8	-0.20507324
88	0x3e7422e4	0.23841435
89	0x3da736eb	0.08164772
90	0x3dd9455d	0.10608933
91	0xbe8e490c	-0.27790105
92	0x3c8b92a1	0.017037692
93	0x3e43869d	0.1909432
94	0x3df92baf	0.12166535
95	0xbdfa4d6c	-0.12221798
96	0xbe602f68	-0.21893084
97	0xbeba03c1	-0.3633099
98	0xbe3e6e39	-0.18596734
99	0xbd11ae98	-0.035566896
100	0x3e9c41e6	0.30519027
101	0x3dbfab70	0.09358871
102	0x3e351f15	0.17687638
103	0xbd1c38ab	-0.03813998
104	0x3de25f78	0.110533655
105	0x3e9ffcd4	0.3124758
106	0xbec4a407	-0.38406393
107	0x3d5936b4	0.053030685
108	0xbe2f00dc	-0.17090172
109	0x3ebd887a	0.37018186
110	0xbe4301bc	-0.1904363
111	0xbdceeced	-0.10103784
112	0x3d774eaf	0.060377773
113	0x3d8d3db9	0.06896538
114	0x3d2e3370	0.042529523
115	0xbe6e2ff3	-0.23260479
116	0x3e0611e9	0.1309277
117	0x3e6aff6d	0.22949
118	0xbdfa7c57	-0.12230747
119	0xbe624f28	-0.22100508
120	0xbefa4c31	-0.48886254
121	0xbb0410ce	-0.0020151618
122	0xbe94d260	-0.29066753
123	0xbbae4b45	-0.0053190314
124	0xbd8f3d6a	-0.06994136
125	0x3e2e1c04	0.17002875
126	0xba165e0d	-0.00057360606
127	0xbdabaa74	-0.08382121
128	0xbe14b861	-0.1452346
129	0x3bcc1e92	0.00622923
130	0xbdd3ffa4	-0.10351494
131	0xbe5b7619	-0.2143177
132	0xbe90c167	-0.28272554
133	0x3da8ba05	0.082386054
134	0xbe2d088d	-0.16897793
135	0x3c1f66b8	0.00972908
136	0x3de6d95e	0.11271928
137	0xbedc8359	-0.4306896
138	0xbe823a19	-0.2543495
139	0xbe772abc	-0.24137396
140	0x3e87db37	0.26534435
141	0xbddabade	-0.10680173
142	0xbc78eef1	-0.015193687
143	0x3e4690c5	0.19391163
144	0xbd35cc35	-0.0443842
145	0xbea4d04d	-0.3219017
146	0xbe393310	-0.18085885
147	0xbe883ba1	-0.26607993
148	0x3de56921	0.112016924
149	0x3e81ddf1	0.2536464
150	0xbdbe4dd9	-0.09292192
151	0xbed63460	-0.41836834
152	0x3ed68016	0.41894597
153	0xbedc53fe	-0.4303283
154	0x3d6a3eb1	0.057188693
155	0x3de87065	0.113495626
156	0x3ea1735c	0.31533325
157	0x3e3a1d20	0.18175173
158	0xbbf1e16c	-0.0073816087
159	0x3e1982ec	0.14991349
160	0xbe6df14e	-0.23236582
161	0xbcc8e62a	-0.024523813
162	0x3ce64e02	0.028113369
163	0x3dd8e639	0.105907865
164	0xbe81d47f	-0.25357434
165	0xbcaf9b4b	-0.021436354
166	0x3e5522ff	0.20814131
167	0x3ea07058	0.3133571
168	0x3b98fe69	0.004669
169	0x3e31534d	0.17316933
170	0xbe8ccffe	-0.27502435
171	0xbe2c0bf7	-0.16801439
172	0x3e5ff11d	0.21869321
173	0xbd1f7979	-0.038934205
174	0x3e44daae	0.19224045
175	0xbe8b7f1d	-0.27245417
176	0x3ee9ae42	0.4564076
177	0xbef767d7	-0.4832141
178	0x3dec8f86	0.115508124
179	0xbe0ec1a4	-0.13941056
180	0xbdf5df2d	-0.12005458
181	0xbf494638	-0.7862277
182	0xbe116cd4	-0.14201671
183	0x3e960fd8	0.29308963
184	0xbd9ce0c5	-0.07660059
185	0x3d318c65	0.04334678
186	0xbe69c244	-0.22828013
187	0xbe53be27	-0.20678006
188	0xbeefa827	-0.46807978
189	0xbd972c43	-0.07381489
190	0xbeb04afa	-0.34432203
191	0x3e8e1745	0.27752128
192	0xbd6e1ca6	-0.05813279
193	0xbe16ae1e	-0.14714858
194	0xbe4be3f1	-0.19911171
195	0x3d01029a	0.03149662
196	0x3b7d7d9b	0.0038679603
197	0xbec6eb9f	-0.3885164
198	0x3e96f1dd	0.29481402
199	0x3e9ac0ec	0.30225313
200	0xbd52d542	-0.05147291
201	0x3dc2269b	0.0948002
202	0x3e301950	0.17197156
203	0xbc39677a	-0.011316175
204	0x3e1cf573	0.15328006
205	0xbe824f65	-0.25451198
206	0x3e946abc	0.28987682
207	0x3e952da9	0.29136398
208	0xbe8b1cd9	-0.27170447
209	0xbe1b18d7	-0.15146194
210	0xbedfc0bf	-0.4370174
211	0x3e3e4614	0.1858142
212	0xbe94dd80	-0.2907524
213	0xbe705f74	-0.23473912
214	0xbe0c985f	-0.1373
215	0xbead4c06	-0.33847064
216	0xbe6f004a	-0.23339954
217	0x3ead3fac	0.3383764
218	0x3e806a65	0.25081173
219	0x3ed97dbf	0.4247875
220	0xbe9d2d15	-0.30698457
221	0xbe3e126e	-0.18561718
222	0xbd4cbb65	-0.0499834
223	0x3e0c7cfb	0.13719551
224	0xbedc3ab8	-0.4301355
225	0x3cf79672	0.030223105
226	0xbece8dfc	-0.403427
227	0x3d9425bb	0.07233759
228	0x3ea7a4ca	0.32742912
229	0x3e04ee20	0.12981462
230	0x3ded4d8f	0.11587059
231	0xbe8137b7	-0.2523782
232	0xbf03e70a	-0.5152441
233	0xbdb33e73	-0.087521456
234	0xbf17e548	-0.5933423
235	0xbdff862e	-0.124767646
236	0xbd9358a5	-0.07194642
237	0xb9902488	-0.00027493038
238	0xbe2f2cda	-0.17106953
239	0xbdfbfe1d	-0.12304328
240	0xbdc28199	-0.09497375
241	0xbeb0e6c6	-0.34551066
242	0x3ea97dbe	0.33103746
243	0x3e693338	0.22773445
244	0xbe45fd4a	-0.19334903
245	0xbd992636	-0.07477991
246	0x3e062e66	0.13103637
247	0xbe9086a3	-0.2822772
248	0xbeea8d53	-0.45810947
249	0x3e9aabf5	0.30209318
250	0xbde8839b	-0.11353227
251	0x3e19aab3	0.15006523
252	0xbe451e8d	-0.19249935
253	0x3dffbae8	0.124868214
254	0x3e28a93b	0.16470806
255	0xbd5de2be	-0.054171316

blocks.1.to_kv.weight f4 [256, 8]
0	0xbed38958	-0.41315722
1	0x3d81c182	0.06335737
2	0x3de012dd	0.10941098
3	0xbed1eb3e	-0.40999788
4	0x3c1986e4	0.009370539
5	0xbeb14e19	-0.34629896
6	0xbc42caf2	-0.011889206
7	0x3df95ae9	0.12175543
8	0xbe2c5a78	-0.16831386
9	0xbe510859	-0.2041334
10	0x3e63c741	0.22243978
11	0xbecdc758	-0.4019115
12	0xbc891f74	-0.01673863
13	0xbef53093	-0.47888622
14	0x3e5e5127	0.21710645
15	0xbadb33ca	-0.0016723808
16	0xbde63072	-0.11239709
17	0x3e701927	0.23447095
18	0x3e85da48	0.26143098
19	0x3e985431	0.29751733
20	0xbe86d159	-0.26331595
21	0x3e3083b9	0.17237748
22	0x3e518282	0.20459941
23	0x3eab4e24	0.33458054
24	0xbe12beea	-0.1433064
25	0x3e80ceb3	0.251577
26	0xbe971525	-0.2950832
27	0x3e86be41	0.26317027
28	0x3e8137ba	0.25237828
29	0x3e7c9755	0.24667104
30	0xbe978419	-0.2959297
31	0x3e5f1a4a	0.21787372
32	0x3dcacd34	0.09902421
33	0x3eb1923f	0.3468189
34	0xbe2dee8b	-0.16985528
35	0xbe3eb751	-0.18624617
36	0xbdaefa9b	-0.08543893
37	0xbe32d40c	-0.17463702
38	0xbe0922c2	-0.13392165
39	0xbe5aed41	-0.21379568
40	0x3e099038	0.13433921
41	0x3e256607	0.16152202
42	0xbd29a7d1	-0.041419808
43	0x3e56cd0f	0.20976661
44	0x3d4d0407	0.05005267
45	0x3c3f0b4d	0.011660409
46	0xbcf9c6ae	-0.030490246
47	0xbe0cb91f	-0.13742493
48	0xbd352696	-0.04422625
49	0xbc6b2e7e	-0.014354346
50	0x3e564f4b	0.20928685
51	0xbeb72ec4	-0.35777867
52	0xbe1e22b3	-0.15442924
53	0xbf0e7eb7	-0.556621
54	0xbdb0e9f3	-0.08638372
55	0x3c56d95e	0.013113348
56	0x3e9c47ef	0.3052363
57	0xbe6b5543	-0.22981744
58	0xbd8b9502	-0.0681553
59	0x3e9d0ea9	0.30675247
60	0xbe8074ea	-0.25089198
61	0x3e8c196f	0.27363154
62	0x3c8d3553	0.017237341
63	0xbe3b04e9	-0.18263592
64	0x3d6c0853	0.057625126
65	0xbe319fd4	-0.17346126
66	0x3e10508f	0.1409323
67	0xbee56388	-0.448025
68	0x3eaebf90	0.34130526
69	0xbe9ed3c1	-0.3102093
70	0x3e94273d	0.28936186
71	0xbe9835cb	-0.2972854
72	0x3b99ed64	0.0046974886
73	0x3cba3fc2	0.02273548
74	0x3ec66b0d	0.38753548
75	0xbc70db05	-0.014700656
76	0xbe210eef	-0.15728353
77	0xbc4beac5	-0.01244611
78	0xbd44bb21	-0.048030023
79	0x3ce7f0ea	0.028313119
80	0x3de01b04	0.10942653
81	0x3eb15c86	0.34640902
82	0x3eb11abb	0.34590706
83	0xbda391c3	-0.07986786
84	0x3e782f5c	0.24236816
85	0x3eac34a9	0.33633927
86	0x3dd8c17b	0.105837785
87	0xbe7b9ae7	-0.2457081
88	0xbe3a4544	-0.18190485
89	0x3dd21d08	0.102594435
90	0x3ea578c5	0.32318702
91	0x3df6ee64	0.12057188
92	0x3da9020e	0.08252345
93	0xbeb90ddb	-0.36143383
94	0xbdfe5911	-0.12419332
95	0xbe8e31bc	-0.2777232
96	0xbddb3a5c	-0.107044905
97	0x3e38cf74	0.18047887
98	0x3eafb857	0.34320328
99	0xbec509a0	-0.38483906
100	0x3dd90a6c	0.10597691
101	0x3d2f5fd5	0.042816002
102	0xbe833296	-0.25624532
103	0xbe5b7e9c	-0.21435016
104	0xbd576e51	-0.05259544
105	0x3ddea267	0.108708195
106	0x3e97cb28	0.29647183
107	0x3e4de273	0.20105915
108	0x3e6f268e	0.23354551
109	0x3ee0ef81	0.43932727
110	0x3e8f2460	0.2795744
111	0xbe54b2f9	-0.20771398
112	0xbe0e2342	-0.13880637
113	0xbd169364	-0.036761656
114	0x3e0baab6	0.1363934
115	0xbdb579e0	-0.088611364
116	0x3eb90ed8	0.36144137
117	0x3e1e22f9	0.15443029
118	0x3c8e3123	0.017357415
119	0xbe7ffa02	-0.24997714
120	0x3df04ec5	0.11733774
121	0x3de6d738	0.112715185
122	0x3eb3631a	0.35036546
123	0x3d172225	0.036897797
124	0x3e20b2a2	0.15693143
125	0x3e4f97ae	0.20272705
126	0x3e5afb7a	0.21384993
127	0x3e41159f	0.18855904
128	0x3cdbca18	0.026829764
129	0xbe5a3ee5	-0.21313055
130	0x3e41e42d	0.18934698
131	0x3df8bfce	0.12145959
132	0xbe852b8a	-0.2600978
133	0x3e31b0a5	0.17352541
134	0x3e44242b	0.19154422
135	0xbd608e76	-0.05482336
136	0xbc5e0809	-0.01355172
137	0x3d96a976	0.07356541
138	0x3ea17a99	0.31538847
139	0xbe6052be	-0.21906564
140	0xbe41f9f1	-0.18943001
141	0xbe9f2365	-0.3108169
142	0xbdc35792	-0.09538187
143	0xbe0b5a0f	-0.13608573
144	0xbe355c4b	-0.17710988
145	0x3e9145e0	0.28373623
146	0x3e5bb4b7	0.21455656
147	0xbeec4201	-0.46144107
148	0x3e8cb3ee	0.27481025
149	0xbe2a0472	-0.16603258
150	0x3ebb1825	0.36541858
151	0xbe1101be	-0.14160821
152	0xbe3130d5	-0.17303784
153	0xbe442543	-0.19154839
154	0xbeae1331	-0.33999017
155	0xbbbcab8d	-0.005757755
156	0x3e29b9ab	0.16574733
157	0xbeae6070	-0.3405795
158	0xbc8a0ad3	-0.016850865
159	0xbe400117	-0.18750416
160	0xbea66637	-0.3249986
161	0xbdde2190	-0.10846245
162	0xbeafdcea	-0.34348232
163	0xbe0af138	-0.1356858
164	0xbe3443af	-0.17603944
165	0x3e1b3e20	0.15160418
166	0x3dc9b11d	0.09848235
167	0x3e8a1898	0.2697189
168	0xbcf099e4	-0.029370256
169	0x395d0a77	0.00021080101
170	0x3cc4f763	0.024043744
171	0xbecb1c7f	-0.39670178
172	0x3e602fc4	0.21893221
173	0x3dd35955	0.10319773
174	0xbe5c0401	-0.21485902
175	0xbebecaac	-0.37264
176	0xbf0d5ca8	-0.5521951
177	0x3b901812	0.0043974007
178	0xbe6605ee	-0.224632
179	0xbdd7267e	-0.10505389
180	0x3d9595cb	0.07303961
181	0x3dc8b4a8	0.098000824
182	0xbecb8142	-0.39747053
183	0xbe7833c8	-0.24238503
184	0x3ebb05ee	0.36527961
185	0x3eb10885	0.34576812
186	0x3ccd4485	0.025057087
187	0xbd4e6904	-0.05039312
188	0x3e810858	0.25201678
189	0x3eb4b620	0.352952
190	0xbd6007de	-0.054695003
191	0x3ecbf52d	0.39835492
192	0xbec05763	-0.3756667
193	0xbc8474e5	-0.01616902
194	0x3e3dc7bf	0.18533228
195	0xbdfe8c29	-0.12429077
196	0xbe3e99b6	-0.18613324
197	0xbd262c02	-0.040569313
198	0xbe780624	-0.24221092
199	0x3ec20aac	0.37898767
200	0x3d24f163	0.040269267
201	0xbe87cb1e	-0.26522154
202	0xbe945e73	-0.2897831
203	0x3d88a255	0.066715874
204	0xbe678150	-0.22607923
205	0xbe51ff9d	-0.20507665
206	0xbeaefc64	-0.34176934
207	0x3eabc7e3	0.3355094
208	0x3eac515b	0.3365582
209	0x3e10bd61	0.14134742
210	0x3d1e49b5	0.03864451
211	0xbea70c56	-0.326266
212	0x3c99a2a8	0.018754318
213	0x3e2fc4b9	0.17164887
214	0xbca83642	-0.020533685
215	0x3e8d3561	0.27579787
216	0x3ded0426	0.11573057
217	0x39a2e99e	0.00031073106
218	0x3da1e7e2	0.07905556
219	0x3ece89d6	0.40339535
220	0xbe9f8319	-0.31154707
221	0x3eae276b	0.3401445
222	0xbe97b530	-0.29630423
223	0x3d6683cb	0.05627803
224	0x3dcdf8d4	0.10057226
225	0x3e2da1a1	0.16956188
226	0x3d016369	0.031588946
227	0xbe8a28cb	-0.26984248
228	0xbe081dc4	-0.13292605
229	0xbe271798	-0.16317594
230	0x3e995a62	0.2995177
231	0xbed8d253	-0.42347965
232	0x3e462915	0.19351609
233	0x3eb8bd38	0.36081862
234	0x3ebfbfac	0.37450922
235	0xbeedeabf	-0.4646816
236	0x3a977557	0.0011555356
237	0x3e9780b3	0.29590377
238	0x3d66ea8b	0.05637602
239	0xbd88d0f5	-0.066804804
240	0xbdb08518	-0.086191356
241	0xbda9f05a	-0.082977965
242	0xbe05dc93	-0.13072424
243	0x3d4f50f8	0.050614327
244	0x3e3a10fb	0.1817054
245	0xbe1292f0	-0.14313865
246	0xbde3246a	-0.1109093
247	0x3dbd67ba	0.092483
248	0xbdcf0ce3	-0.1010988
249	0x3e973e52	0.29539734
250	0x3e75c0ca	0.23999324
251	0x3de64ad1	0.11244739
252	0xbe74e8c4	-0.23916918
253	0x3e9d3136	0.30701607
254	0x3e87af39	0.26500872
255	0x3e3c9a61	0.18418266

blocks.1.to_out.weight f4 [8, 128]
0	0x3ca38a7b	0.019963494
1	0xbd833605	-0.06406788
2	0x3ddc4621	0.107555635
3	0x3e4fca76	0.20292076
4	0x3d17c5b3	0.037053775
5	0x3e87f964	0.26557457
6	0x3e767afe	0.24070355
7	0x3deb82b8	0.11499542
8	0x3d989958	0.07451123
9	0x3decb62e	0.115581855
10	0xbc8035c3	-0.015650636
11	0x3eb34ef5	0.35021177
12	0x3e41b756	0.18917593
13	0x3e763cea	0.24046674
14	0x3dd13512	0.102152005
15	0xbdaf84f7	-0.08570283
16	0xbe7c47bd	-0.24636741
17	0x3cd168db	0.025562694
18	0xbe19ac86	-0.15007219
19	0x3e3f5609	0.18685164
20	0x3e840574	0.2578541
21	0xbd17c4bd	-0.03705286
22	0x3ed22e30	0.41050863
23	0xbe39fd8e	-0.1816313
24	0xbe53b202	-0.20673373
25	0x3dd4d69e	0.103924975
26	0x3d66332b	0.05620114
27	0x3cec1ab8	0.028821334
28	0xbe87df71	-0.2653766
29	0xbe110002	-0.14160159
30	0x3ee100a0	0.4394579
31	0xbd975f2a	-0.07391198
32	0xbd897f4a	-0.067137316
33	0x3dd1986c	0.1023415
34	0x3ea39396	0.31948537
35	0x3dcabe3e	0.09899567
36	0x3c157a06	0.009123331
37	0xbce98afe	-0.02850866
38	0x3e87de8d	0.2653698
39	0xbf2b5c82	-0.6693803
40	0x3d467143	0.04844786
41	0xbe223759	-0.15841426
42	0xbee49359	-0.44643667
43	0x3e8c70e3	0.27429876
44	0xbd71d23e	-0.059038393
45	0xbdd729e7	-0.10506039
46	0xbe3335e5	-0.17501028
47	0x3e9c2622	0.30497843
48	0x3e6135b7	0.21993147
49	0xbe0beb1d	-0.13663907
50	0x3dbd4c7d	0.092431046
51	0x3ed72d73	0.42026863
52	0x3e4a4e01	0.19756319
53	0x3ed55cc8	0.4167235
54	0x3d977b9d	0.07396624
55	0x3ec83521	0.39103034
56	0x3dea5f32	0.11443938
57	0xbe2ff75d	-0.17184205
58	0x3e49c1ee	0.19702885
59	0xbdf359ff	-0.118824
60	0x3e9fffe3	0.31249914
61	0x3d764c32	0.06013126
62	0xbec7260d	-0.38896218
63	0x3f64ffda	0.894529
64	0x3f2f99a7	0.6859383
65	0xbe88b5d9	-0.2670124
66	0xbe37c1bd	-0.17944999
67	0xbd943623	-0.07236888
68	0x3e897328	0.2684567
69	0x3efbb76e	0.49163383
70	0xbd29d1da	-0.041459896
71	0x3e34cf8a	0.17657295
72	0xbe28cbfe	-0.16484067
73	0xbe43d5f9	-0.19124593
74	0xbda32e12	-0.079677716
75	0xbedf48dd	-0.43610278
76	0xbd02c75d	-0.03192841
77	0x3e8b8963	0.27253255
78	0x3e60b594	0.21944267
79	0xbe1aab4c	-0.15104407
80	0x3ead68e1	0.3386908
81	0xbdf9db46	-0.12200026
82	0x3e881d05	0.2658464
83	0x3e95a494	0.29227126
84	0xbe0d4b80	-0.13798332
85	0xbe12d83e	-0.14340302
86	0x3e7bd9e2	0.24594834
87	0x3e17e4c4	0.14833361
88	0x3e9dca29	0.30818298
89	0xbe58d3b7	-0.21174513
90	0x3e2f7acc	0.17136687
91	0xbeab1a42	-0.3341847
92	0xbe706356	-0.23475394
93	0xbe3416d9	-0.1758684
94	0xbe89acee	-0.26889747
95	0xbdd7d15f	-0.10537981
96	0xbeaf6815	-0.34259096
97	0xbecc53a5	-0.39907566
98	0x3bcc3e1e	0.006232991
99	0x3eab1568	0.3341477
100	0x3cb9f5ad	0.022700155
101	0xbcb975d9	-0.022639202
102	0xbe272cc9	-0.16325678
103	0x3eecad9d	0.46226206
104	0xbecc6c8e	-0.3992657
105	0x3ee0fd22	0.43943125
106	0xbe0fc9e2	-0.14041856
107	0xbe125f0c	-0.1429407
108	0xbd6fec6d	-0.058575083
109	0x3d8c689d	0.06855891
110	0x3e138f50	0.14410138
111	0x3dca67a8	0.09883052
112	0x3d9c4326	0.07629995
113	0x3e052d52	0.1300557
114	0x3e9da885	0.30792633
115	0xbe8e2edc	-0.27770126
116	0xbe3d26c4	-0.18471819
117	0xbefd5e2c	-0.4948591
118	0xbdaeae74	-0.08529368
119	0xbd80d310	-0.06290257
120	0xbd645a6c	-0.055750296
121	0x3e259527	0.16170178
122	0x3d0c12a0	0.03419745
123	0x3e4c6e9c	0.19964069
124	0xbe820159	-0.25391653
125	0xbda0afc5	-0.078460254
126	0xbddc88b5	-0.10768262
127	0xbc021d3e	-0.007941542
128	0x3e60d296	0.21955332
129	0xbda367d8	-0.07978791
130	0x3e833bb9	0.25631502
131	0x3e3e9350	0.18610883
132	0xbe11b801	-0.14230348
133	0x3e1d0048	0.15332139
134	0x3de4d924	0.11174229
135	0xbc45efde	-0.012081115
136	0xbdc880c4	-0.09790185
137	0x3e6304b4	0.22169763
138	0x3ddfd4f7	0.10929292
139	0x3e3b6ad9	0.18302478
140	0x3da3c2e1	0.079961546
141	0x3d4b57f9	0.049644444
142	0xbdc451a8	-0.09585887
143	0xbe706c45	-0.23478802
144	0x3d598616	0.05310639
145	0x3e5a81dd	0.21338601
146	0xbe6ec94c	-0.23318976
147	0x3e2ab2c4	0.16669756
148	0x3e1e9dcb	0.1548988
149	0xbe19e30d	-0.15028019
150	0x3e849749	0.2589667
151	0xbe13714f	-0.14398693
152	0xbd3def24	-0.04637064
153	0x3e6b4871	0.22976853
154	0x3e570b19	0.21000327
155	0x3e3024ef	0.17201589
156	0xbdaad7a4	-0.083419114
157	0x3da48459	0.08033056
158	0x3e38a32b	0.18030994
159	0x3de3c204	0.1112099
160	0x3d347840	0.04405999
161	0xbe09ebf8	-0.13468921
162	0x3bdbb90c	0.006705409
163	0x3e95266b	0.29130873
164	0x3e3476fb	0.17623512
165	0xbda44d2b	-0.08022531
166	0x3df654a7	0.12027865
167	0xbdd9a5fb	-0.106273614
168	0x3e507cc1	0.2036009
169	0x3dea7771	0.11448563
170	0xbe798c9f	-0.24370049
171	0x3d8009fe	0.06251906
172	0x3e1a073b	0.1504182
173	0xbe83a360	-0.25710583
174	0xbe68ad87	-0.22722445
175	0x3d85f8b1	0.06541575
176	0x3eb874cf	0.36026618
177	0xbe1c6d59	-0.15276088
178	0x3d3f87a1	0.046760205
179	0x3e3e8a29	0.18607391
180	0x3ea1444c	0.3149742
181	0x3e3cf05f	0.1845107
182	0xbdc6c380	-0.097052574
183	0x3dc3d942	0.09562923
184	0xbdf70f2b	-0.1206344
185	0xbe5feb05	-0.21866997
186	0xbb8efbb4	-0.0043635014
187	0xbc11bceb	-0.008895139
188	0xbda7a0d8	-0.081849754
189	0x3e4e3cbe	0.20140359
190	0x3b6e1c2d	0.0036332712
191	0x3e359363	0.17732005
192	0xbee3d00d	-0.44494668
193	0xbe0fcb9e	-0.14042518
194	0x3de4e3b7	0.11176246
195	0xbd2bf5a4	-0.041982308
196	0x3dfd1f66	0.123595044
197	0x3e1e5222	0.15461019
198	0xbef85b7e	-0.48507303
199	0x3e7ddf97	0.24792324
200	0xbebb6e56	-0.36607617
201	0xbea54707	-0.32280752
202	0xbeb89917	-0.36054298
203	0xbe802cdf	-0.25034234
204	0xbe20c6f0	-0.15700889
205	0x3ea54e87	0.32286474
206	0x3e4ea352	0.2017949
207	0xbdfc6f30	-0.12325895
208	0x3e5dd7f6	0.21664414
209	0xbeefa10e	-0.46802562
210	0xbda48fbc	-0.08035228
211	0xbe0b5067	-0.1360489
212	0xbeb2f294	-0.34950697
213	0xbe351223	-0.176827
214	0x3ea7350b	0.32657656
215	0x3eb65bcf	0.3561692
216	0xbe2e2a76	-0.17008385
217	0xbebb8bae	-0.36630005
218	0x3e85c1ff	0.2612457
219	0xbe06077f	-0.13088797
220	0x3e2459aa	0.16049829
221	0xbde92854	-0.11384645
222	0xbead6f4a	-0.3387397
223	0xbd6fdb0e	-0.058558516
224	0xbe716572	-0.23573855
225	0xbea69ce5	-0.32541576
226	0x3ecf5d80	0.40501022
227	0x3ecda801	0.4016724
228	0x3e6a1a52	0.22861603
229	0x3e81e205	0.25367752
230	0xbe10c5c7	-0.14137946
231	0xbeac09d0	-0.33601236
232	0xbeb4a657	-0.35283157
233	0x3e73a480	0.2379322
234	0xbe1013eb	-0.14070098
235	0x3eba7cb5	0.3642327
236	0x3e8fb375	0.28066602
237	0x3eb3ee70	0.3514285
238	0x3e52b45a	0.20576611
239	0xbe952aea	-0.29134303
240	0x3deedf8a	0.116637304
241	0x3eb99ca4	0.3625232
242	0xbd23ffb8	-0.040038794
243	0xbe11f52b	-0.1425368
244	0xbee68301	-0.45021823
245	0x3eb67ae1	0.35640624
246	0xbe622c00	-0.22087097
247	0xbea7aa8a	-0.32747298
248	0xbe4d07ca	-0.20022503
249	0xbd8b605e	-0.0680549
250	0x3e090107	0.13379298
251	0x3e2a22ea	0.16614881
252	0xbc6ec6a0	-0.014573723
253	0x3e52ce45	0.20586498
254	0xbe415893	-0.18881445
255	0xbe0b07dc	-0.13577217

mlp.0.weight f4 [10, 8]
0	0x3e057150	0.13031507
1	0xbe98d194	-0.29847395
2	0x3ed2d965	0.41181484
3	0x3e516898	0.20450056
4	0xbe4cf063	-0.20013575
5	0xbed5e48f	-0.4177594
6	0xb68a9c86	-4.130942e-06
7	0xbeb2d993	-0.3493162
8	0x3efdfbbf	0.4960613
9	0x3f036fcc	0.51342463
10	0xbf66fff2	-0.9023429
11	0xbebfaf83	-0.37438592
12	0x3e7cbea7	0.24682103
13	0x3f0009d3	0.5001499
14	0x3e5b76d9	0.21432056
15	0xbdf01b46	-0.11723952
16	0xbed52f58	-0.41637683
17	0x3d66b746	0.056327127
18	0x3e51b344	0.2047854
19	0x3ef35c46	0.47531337
20	0xbe8ca14d	-0.27466813
21	0x3f2e9d96	0.6820921
22	0x3be3cefe	0.0069521656
23	0xbebb15c7	-0.36540052
24	0xbf15ef55	-0.58568317
25	0xbedd1f34	-0.4318787
26	0xbdd06f5a	-0.101774886
27	0x3e20f7ca	0.15719524
28	0xbe97e6df	-0.29668328
29	0x3d56db90	0.052455485
30	0x3e458e0b	0.19292466
31	0x3c0928d1	0.008371548
32	0xbd79713d	-0.060899008
33	0x3d9f8dc8	0.077907145
34	0x3e5f6e89	0.2181951
35	0xbf311288	-0.691689
36	0x3f093994	0.5360348
37	0x3cba6d81	0.022757294
38	0xbed077e5	-0.40716472
39	0x3e95db55	0.292689
40	0xbe7baf40	-0.24578571
41	0xbe093498	-0.13398969
42	0x3ed546d9	0.41655615
43	0x3f2be5c9	0.671475
44	0x3cf7105c	0.030159168
45	0xbe506706	-0.203518
46	0x3d84df6a	0.06487925
47	0x3e19a3d5	0.15003903
48	0x3f0b02e5	0.5430129
49	0x3d6697d5	0.056297142
50	0x3eeb3106	0.4593584
51	0x3e94ccc9	0.2906249
52	0x3c837f32	0.016051862
53	0x3e8040c3	0.2504941
54	0xbe279205	-0.16364296
55	0xbf0972ed	-0.5369099
56	0xbe239cac	-0.15977734
57	0x3d356199	0.04428253
58	0x3d99022c	0.074711174
59	0xbcc14c37	-0.023595912
60	0x3e05b116	0.13055834
61	0x3edcf153	0.43152866
62	0x3f4243f0	0.75884914
63	0x3f239d77	0.6391215
64	0xbe97e947	-0.29670164
65	0xbe11741e	-0.14204451
66	0xbda4342c	-0.080177635
67	0x3e044fe3	0.129211
68	0xbec6b6ef	-0.38811442
69	0xbed44e74	-0.41466105
70	0xbe0f585e	-0.13998553
71	0x3ead410e	0.33838695
72	0xbb7b55cc	-0.00383507
73	0xbe8ca8a3	-0.2747241
74	0x3e3e7b0c	0.18601626
75	0xbe36165f	-0.17781971
76	0x3f0b9441	0.5452309
77	0xbe9df106	-0.3084795
78	0x3e5a4025	0.21313532
79	0x3e809ba9	0.2511876

mlp.0.bias f4 [10]
0	0xbf377e21	-0.7167683
1	0x3f06512c	0.5246761
2	0xbe189d9e	-0.14903876
3	0xbeace981	-0.337719
4	0xbe8c5eaf	-0.27415988
5	0x3ead6962	0.33869463
6	0x3ef0d2ee	0.47035927
7	0xbe051aa5	-0.12998445
8	0x3f863d45	1.0487448
9	0xbeea701c	-0.45788658
