weights/benchmark-two/flashkan_vit_5epochs.pth (torch, 48096 bytes, 15 tensors)

v_class f4 [1, 8]
000000 aa 28 4e 3f 5c 7a d4 3e 52 86 3b 3f 18 67 4c 3e
       0.805308 0.41499603 0.7325183 0.19961202
000010 74 86 2a 3f d2 00 72 bc d9 68 49 3f 1a ed a4 3e
       0.6661141 -0.014770703 0.7867561 0.32212144

linear_mapper.base_weight f4 [8, 16]
000000 c9 c9 c8 3e 2f 85 a5 3e 75 f8 e3 3d 3f 41 e3 3e
       0.3921645 0.32328174 0.11131374 0.44385716
000010 bc 75 78 3d 84 cf 4a 3e f3 03 02 3d d4 f0 b1 3e
       0.060659155 0.19805723 0.031742048 0.3475405
000020 11 7a a0 3e 7b 6a 1f bd 75 a8 a0 3e a5 61 83 3e
       0.3134313 -0.038919907 0.31378523 0.25660434
000030 09 6d 87 3e 8c 2b 2e 3e 0b e5 70 3e 84 b4 3e 3e
       0.26450375 0.170088 0.23524873 0.18623549
000040 a0 0b f8 bd 4b c4 44 be 37 71 a1 be 3e 30 61 be
       -0.12111592 -0.19215505 -0.3153169 -0.21991059
000050 46 7c 97 be 2c 01 7b be 6f 17 a8 be 8f 80 a0 bd
       -0.29587 -0.24512166 -0.32830378 -0.078370206
000060 a4 cd 9a be 5c 6f 8c be e6 50 a1 be a1 f4 a3 be
       -0.30235016 -0.2742871 -0.31507033 -0.32022575
000070 a9 bb 32 bc 78 a5 ad be a7 60 ab 3c f8 b7 84 be
       -0.0109089995 -0.33915305 0.02092011 -0.25921607
000080 ab 8e 25 3f 5d 87 a9 3e bd 69 ee 3d be eb a9 3e
       0.6467082 0.33111086 0.11641262 0.3318767
000090 26 b7 9c 3d ba 8d bb 3e 61 ba 29 3e 96 aa 9e bb
       0.0765212 0.36631566 0.16575004 -0.004842113
0000a0 6f da fb 3c b8 4c a0 3c 51 28 50 3e a7 98 b6 3e
       0.030743806 0.019567832 0.2032788 0.3566334
0000b0 50 dd 66 3d 1e 07 98 bd 5e eb 55 3e 01 70 6d 3e
       0.056363404 -0.074232325 0.20890567 0.23187257
0000c0 aa 60 5a 3e 68 b3 3c bd c0 66 2a be d4 b1 9d bd
       0.21325937 -0.046069533 -0.16640759 -0.07699934
0000d0 bc f4 82 be 8c b2 82 3e 89 f3 d4 3d 84 a4 99 3c
       -0.25577343 0.25526845 0.10398013 0.018755205
0000e0 79 d0 b7 3c 77 e3 2b 3d 39 3c 7e 3e 71 7a 84 be
       0.022438275 0.041964974 0.2482766 -0.25874665
0000f0 69 38 b6 3c 7b cf a3 bd f2 6d 2a 3e c8 b2 cc bd
       0.022243695 -0.07998558 0.16643503 -0.09995037
000100 e0 74 b5 3e f4 3e 64 3d 8d dc 59 3e 52 90 fe 3c
       0.3544073 0.0557241 0.2127554 0.031074677
000110 58 51 72 bd d1 b4 69 be 13 5f 20 3e 00 c8 e0 3d
       -0.059159607 -0.22822882 0.15661268 0.10975647
000120 62 be 0c 3e bd 83 c4 be 95 79 8d be 72 b5 ef bd
       0.137445 -0.38381758 -0.27631822 -0.1170453
000130 f7 6e 4b be 5c ea 18 3c bd a5 60 3e e4 e1 db 3e
       -0.19866548 0.009333219 0.21938224 0.42945778
000140 b9 85 97 be 39 66 35 be e2 2a ec 3d 5a fb 08 be
       -0.2959421 -0.17714776 0.11531617 -0.13377133
000150 d1 5a 78 3d 3b 99 9f bd 0f b0 f7 3d 2b 0d 73 be
       0.060633484 -0.07792898 0.120941274 -0.23735492
000160 27 5c ec bd 4d 83 b3 3d ae 62 81 3d 66 e8 e4 bd
       -0.11541014 0.08765278 0.0631765 -0.11177139
000170 12 da d4 3d 02 a1 04 3e 2f 4e 71 be 18 58 48 be
       0.10393156 0.12952045 -0.23564981 -0.19564855
000180 61 87 9e bd a3 27 b8 be a5 25 ad be 5f 96 20 bf
       -0.07740665 -0.3596774 -0.33817783 -0.6272945
000190 95 d7 95 be d5 ac 87 be cb fc 94 be 0a e6 f9 be
       -0.2926604 -0.26499048 -0.29099116 -0.48808318
0001a0 30 d7 a4 bd 7a 17 c2 be 47 b6 c7 be 5a 02 b4 be
       -0.08048856 -0.37908536 -0.39006254 -0.35158044
0001b0 d6 be 8d bd 60 df 12 be 58 b9 5d 3e eb 79 27 bc
       -0.06921165 -0.14343023 0.21652734 -0.010221939
0001c0 84 7b ec be 4c f8 ca be 71 8b 85 be 0f c5 f6 be
       -0.46187985 -0.3964256 -0.26082948 -0.4819722
0001d0 68 e7 38 be ad 6b a8 be b4 82 44 be de 53 fc be
       -0.18057024 -0.3289465 -0.19190484 -0.49282736
0001e0 1e e8 c1 3d 47 64 9d bc 9f df d2 bd b0 71 02 bf
       0.09468101 -0.019212855 -0.102965586 -0.50954723
0001f0 76 86 7f 3e eb 68 d4 3d 22 0a 3e be 6c e4 a1 be
       0.24953637 0.10371574 -0.18558553 -0.31619585

linear_mapper.spline_weight f4 [8, 16, 8]
000000 38 e5 14 3b 5f 8f 2a 3c c5 62 d4 bc cc d4 c1 bc
       0.0022719633 0.010410159 -0.025926003 -0.02366104
000010 b5 62 e8 3b 10 25 9c 3e ef 08 92 be 06 b3 c4 be
       0.007091845 0.30497026 -0.2852244 -0.38417834
000020 97 7c 75 bb 96 b2 56 bc 89 9e c9 bc 88 73 29 bc
       -0.0037458295 -0.013104102 -0.024611728 -0.010342486
000030 58 a5 a6 bb 34 c4 b0 3e 50 73 1d be 66 c0 92 be
       -0.0050856285 0.3452469 -0.1537602 -0.28662413
000040 e9 79 24 bb b5 6d a9 bb c2 18 89 bc 14 2b af bc
       -0.0025097078 -0.005170549 -0.016735438 -0.021382846
000050 42 21 54 3d c7 f7 e1 3e e9 eb 93 be 6a 43 c4 be
       0.05178953 0.44134352 -0.28890923 -0.38332683
000060 5d 51 af b8 99 f6 87 ba 5c 66 8f bb 51 51 50 3a
       -8.359805e-05 -0.0010373174 -0.004376216 0.00079466874
000070 20 75 0b bc 14 ad 88 3e c6 35 67 be a1 a4 ad be
       -0.0085118115 0.26694548 -0.22579107 -0.33914664
000080 cc 18 b8 3a 53 ff 22 3c 85 44 e1 39 7c c1 b6 bc
       0.0014045476 0.009948569 0.00042966395 -0.022309057
000090 32 b8 7d 3c 67 54 f3 ba 58 bf d6 3d 53 a3 2a 3e
       0.01548581 -0.0018564583 0.10485715 0.16663866
0000a0 93 57 5a 3b 27 78 d5 3b 4c 7e 88 bc 62 04 35 3c
       0.0033316358 0.0065145674 -0.016661786 0.011048408
0000b0 53 d9 d9 bc 70 29 8a bd 7b 2d 2a 3e 99 e5 5d 3e
       -0.026592886 -0.06746185 0.16618912 0.21669616
0000c0 70 97 06 bb 98 b9 0e bc 93 50 14 3c c4 fb b7 bb
       -0.002053704 -0.008711241 0.0090524135 -0.0056147296
0000d0 ff c1 9f bc b7 8c ae be be 6e 65 3e 52 1d a4 3e
       -0.019501684 -0.34091732 0.22405526 0.3205362
0000e0 d1 28 8f 3b 8d 92 33 3c 05 ff 9b bc db 51 0d 3c
       0.0043688794 0.010960233 -0.019042501 0.008625473
0000f0 c7 a8 d1 bc 5c 73 dc 3d 21 ba 16 be 82 f9 81 be
       -0.025593175 0.107641906 -0.1471944 -0.25385672
000100 7a 87 ab 3b 11 58 53 3c 6a 5f 17 bd 53 6f ed 3b
       0.005234656 0.012899415 -0.03695623 0.007245937
000110 99 23 08 bc fe f6 ce bd 54 a4 98 3d c9 32 2b 3e
       -0.008309268 -0.10105704 0.07453218 0.16718592
000120 dd 69 1c bb 25 a3 33 bc 2e 10 d9 bc f0 dd a2 bc
       -0.002386681 -0.01096419 -0.026496973 -0.019881219
000130 b3 d9 83 bc 7e 72 a9 bd f6 d6 20 3e 53 f4 42 3e
       -0.016095018 -0.08273791 0.15707001 0.19038515
000140 49 4d 13 ba 4b 7d 80 bb 8f ac 46 3c ea 9e b6 3c
       -0.00056191214 -0.003921186 0.012126102 0.022292573
000150 da f7 1c bc 37 e5 26 3e bc b7 ba bd b9 b7 4e be
       -0.009580577 0.16298376 -0.09117076 -0.20187272
000160 da 82 54 3b d1 d9 c0 3b fb f8 3e bd 69 80 61 39
       0.0032426626 0.0058853407 -0.046624165 0.00021505509
000170 2e 9d 0e 3a 51 9c 09 3c 24 4c 41 3e f6 b0 7b 3e
       0.0005440292 0.008399085 0.18876702 0.24579224
000180 36 b9 c0 bb 60 6a 8e bc 6d ba aa 3c eb 73 83 3a
       -0.005881454 -0.017384708 0.020840848 0.0010029053
000190 cb 37 9f 3b 2c 95 8f 3e d0 16 bf bd 15 86 45 be
       0.004858946 0.28043497 -0.09330523 -0.1928943
0001a0 09 a5 6f 3b 5b 75 18 3c 50 d2 a6 bb 71 3f cb 3c
       0.0036566874 0.0093053235 -0.005090989 0.024810525
0001b0 4e bd 25 3c 99 b1 87 3e f2 ce 23 be f4 9a 81 be
       0.010115935 0.26502684 -0.15996912 -0.25313532
0001c0 33 0f 8a 3b 47 b4 21 3c b5 6b b0 bc a8 5e ed 3b
       0.0042132377 0.009869642 -0.021535734 0.00724395
0001d0 60 f6 29 ba 53 de c9 3e 60 7a 14 be 11 22 95 be
       -0.0006483551 0.39427432 -0.14499807 -0.29127553
0001e0 ff f6 93 ba e1 55 93 bb 0d 43 86 bb ce 82 a8 38
       -0.001128882 -0.0044963215 -0.0040973485 8.0352285e-05
0001f0 ea 2a 0c bc f8 d7 6d be d7 a0 80 3e df c2 ce 3e
       -0.008555153 -0.23226917 0.2512271 0.4038305
000200 26 0a e1 3a d5 2f 0d 3a b2 f1 81 3d 49 f7 8e 3d
       0.0017169162 0.00053858507 0.06344928 0.0698076
000210 f7 1f 18 bd 5c ea b5 be 41 28 1d be 10 30 06 3c
       -0.03713986 -0.35530365 -0.15347387 0.00819017
000220 11 ee cc bb 29 9b 93 bc f8 86 7b 3d 18 68 c7 3c
       -0.0062539657 -0.018018322 0.061408013 0.024341628
000230 3a c9 a4 bb e7 6a a6 be 1a 7c eb bd e7 e0 37 3d
       -0.005028871 -0.32503435 -0.1149828 0.044892218
000240 b6 96 93 b9 16 69 70 3a fd b4 72 3d 8a 3c 1b 3d
       -0.00028150313 0.00091709325 0.059254635 0.03789953
000250 b7 e5 da bc f2 fc a9 be dd 6d ae bd e5 38 e8 3c
       -0.026720865 -0.33200794 -0.085170485 0.028347442
000260 f6 5c c9 ba 21 1d 0e bc 27 57 ad bd 32 4b 33 bd
       -0.0015362788 -0.008673937 -0.084638886 -0.043772884
000270 5f 7a dc 3b 21 48 d8 3e f8 34 00 3e 3f 13 e2 bc
       0.006728455 0.4224253 0.12520206 -0.027597068
000280 aa cf d9 3a 06 5f 89 3b 58 78 ad bc ae 22 aa ba
       0.0016617675 0.004192236 -0.021175548 -0.0012980306
000290 3c 60 67 3b cf 5d 0d 3d 60 1a b2 3d 4d 88 be 3d
       0.0035305163 0.03451329 0.08696437 0.09303341
0002a0 c8 7c 0e bb a4 9b 01 bc 9c c1 bb 3c da b1 50 3c
       -0.0021741856 -0.007910643 0.022919469 0.012737716
0002b0 3c 14 2a ba 2e bd d9 bd 24 88 56 be d2 20 28 be
       -0.00064880005 -0.10631786 -0.20950371 -0.1641877
0002c0 09 c9 88 b9 83 8a 23 3b 96 62 2b bd 63 61 0f bd
       -0.00026089724 0.0024954386 -0.041842066 -0.035004985
0002d0 29 22 f8 3c f7 1e 86 3e 9c 4e 24 3e c8 8d 50 3d
       0.030289726 0.261955 0.16045612 0.050916463
0002e0 9d 5e 1e 3b a8 a4 ee 3b 19 f8 2f bd 43 9b 4a bc
       0.002416528 0.007282812 -0.042961214 -0.012366119
0002f0 13 ab 85 bc 23 29 86 3e 77 e4 34 3e f4 88 12 3d
       -0.016316926 0.2620326 0.17665277 0.03577514
000300 00 1d 53 3b 76 b8 50 3c 79 f2 8f bc 5a e2 ed bc
       0.003221333 0.012739291 -0.017571675 -0.029038597
000310 fe 1f c3 3b 81 6b a0 3d ad ba d4 3d d3 d5 18 3d
       0.0059547415 0.07833005 0.10387168 0.037313294
000320 34 ff ad b9 3c 00 7d bb d3 0a 84 3b f4 39 b3 3c
       -0.00033187272 -0.0038604876 0.0040296107 0.02187822
000330 07 22 2e 3b 4b 3b 93 bd 91 61 29 be 72 6c 11 be
       0.0026570575 -0.071890436 -0.16541125 -0.14201525
000340 9c 1a d7 b8 12 ce 38 3b ad e8 76 bc 3f f2 fe bc
       -0.00010256955 0.0028199 -0.015070123 -0.031121371
000350 e3 27 40 bc 76 fc da 3d 62 30 86 3e 73 70 31 3e
       -0.01172826 0.10692684 0.26208788 0.17328052
000360 47 2a 80 b9 83 5b 0d bb 9d f0 7e ba 18 0b 1a 3b
       -0.00024445562 -0.0021569438 -0.0009725185 0.0023505148
000370 82 d5 21 3c 35 fb e6 bd 22 61 83 bd b3 3f 8c 3c
       0.009877564 -0.11278383 -0.06415011 0.017120218
000380 34 31 55 3a d4 e2 ef 3b 31 86 b2 3c 8f a8 ef bb
       0.0008132637 0.007320741 0.021792503 -0.007313795
000390 ff 9c b6 3c bc ca a5 bd 46 44 80 bc 45 d1 82 3d
       0.022291658 -0.08095309 -0.015657555 0.06387571
0003a0 41 6d c6 3b 97 8a 80 3c b2 f8 2f bd 19 a8 ca 3b
       0.0060555045 0.015691085 -0.042961784 0.0061845896
0003b0 2f fe 64 bc 47 87 1b 3e 59 f0 5e 3d 9e 26 72 bd
       -0.013976618 0.15188323 0.054428432 -0.05911886
0003c0 28 65 90 ba 67 4e d2 bb 66 99 ba bc 98 5e 05 3a
       -0.0011016475 -0.0064180377 -0.022778224 0.0005087643
0003d0 bb 57 b9 bc 2b a6 31 3e 76 37 2c 3e c3 03 69 3c
       -0.022624841 0.17348544 0.16818032 0.014222088
0003e0 f4 05 c9 3a 3d 73 f3 3b 86 3a e6 3c 09 30 64 3c
       0.0015336857 0.007429509 0.028104078 0.013927468
0003f0 b7 cc ef 3a 0a 17 f3 bd 6d 0d 57 bc d2 90 a8 3d
       0.0018295263 -0.11869629 -0.01312576 0.08230747

linear_mapper.spline_scaler f4 [8, 16]
000000 5e ce 1c be ff d1 72 be 21 f9 df be 6f 62 38 be
       -0.15313098 -0.2371292 -0.43744758 -0.180063
000010 4c 2a 60 3e a9 f7 38 3e 6b cd d2 3e b7 6a 30 bd
       0.21891135 0.18063225 0.41172346 -0.04307052
000020 e5 03 37 3d dc 23 17 3e 58 04 7b be 26 7d 8c 3d
       0.04468145 0.14759773 -0.24513376 0.06859808
000030 a7 67 22 bd 80 b4 49 be 48 26 93 be 7a d1 96 3e
       -0.03964963 -0.19697762 -0.28740144 0.29456693
000040 ce 1d 0b 3f 0e c4 45 3e c0 98 af 3e 2b cc 98 be
       0.54342353 0.1931307 0.34296227 -0.29843268
000050 69 3e a9 bb 0a 3b 8c 3d 7a f6 bb bd 43 3b e2 bd
       -0.0051649106 0.06847198 -0.09177871 -0.110464595
000060 7e 73 02 be 5a fd 67 3d bc 21 72 be 81 2e 5f 3c
       -0.1273937 0.0566381 -0.23645681 0.013621927
000070 ae 1d c8 3d e1 08 b5 3c fa d4 bc bd 30 18 44 3d
       0.09771286 0.02209896 -0.092203096 0.04787463
000080 95 20 19 bf 9a bc 3e be e6 12 78 3e 95 9a 4a be
       -0.5981534 -0.18626633 0.24225959 -0.19785531
000090 9e c6 87 bd 51 79 06 be 51 96 2e bd 79 af 81 bd
       -0.0662968 -0.13132216 -0.04262382 -0.06332297
0000a0 91 ac 90 3c d1 d7 20 3d 05 82 87 3d ba d7 f5 bc
       0.017660411 0.03926832 0.06616596 -0.030010093
0000b0 97 8a e7 bd 34 55 34 bc 71 9d 43 bd 85 30 93 be
       -0.11305731 -0.011006642 -0.04775757 -0.28747955
0000c0 88 2b b8 be 1b 1e 6c 3d 62 84 00 be 4a 91 5d be
       -0.35970712 0.0576459 -0.125505 -0.21637455
0000d0 11 16 f8 bd 6a 51 f5 3d 79 f5 ab bd 3e 2a df bc
       -0.12113584 0.11978419 -0.083964296 -0.027241822
0000e0 f7 df 24 3e 38 fe 00 3e 6c c3 26 3e f9 af 2b be
       0.16101061 0.12596977 0.16285485 -0.16766347
0000f0 db 56 57 be e6 a9 6a be d0 00 8e 3e c0 33 4d 3d
       -0.21029226 -0.22916374 0.27734995 0.05009818
000100 cd a5 02 bf c5 82 63 3d a0 9b 45 be aa 3f 29 be
       -0.5103424 0.055544633 -0.19297647 -0.16528192
000110 9d 93 90 be 8d fc bd 3e ec 64 b6 3e 80 45 37 3c
       -0.2823762 0.37106743 0.35623872 0.011186004
000120 a2 04 c0 be 04 be 9a be b8 87 b9 3d 22 77 97 3e
       -0.37503535 -0.30223095 0.090590894 0.2958308
000130 a2 eb 8b 3e e6 39 42 be 56 66 86 3e 4d 69 95 be
       0.2732821 -0.18967399 0.2624995 -0.291819
000140 1d 59 3d bf 68 8e f3 3e c1 7b 0d 3f 66 61 35 3f
       -0.739641 0.47569585 0.5526696 0.70851743
000150 53 21 b7 3e 23 df c8 be a2 53 c6 3e 13 5a df 3e
       0.35767612 -0.3923274 0.38735682 0.4362341
000160 59 d9 97 be 0d 3f 9a be c1 57 b3 be 16 36 c1 3e
       -0.2965801 -0.3012623 -0.35027888 0.37736577
000170 c2 f8 20 3f e8 c5 fb be 7e 01 df 3e 23 07 59 3f
       0.62879574 -0.49174428 0.43555826 0.84776515
000180 b7 22 45 be 76 79 51 be 3b 67 3e 3e f6 08 b0 be
       -0.19251524 -0.2045649 0.18594067 -0.34381837
000190 b4 cc 57 bc be 96 3c 3d 89 3d 4e bc a7 82 85 be
       -0.013171364 0.046042196 -0.012587913 -0.26076242
0001a0 82 f4 ec 3d 18 1e bf bd d9 b1 87 bd 55 97 f1 3c
       0.11570074 -0.09331912 -0.066257186 0.029491106
0001b0 b3 3b 9c bd ab ea f5 bd e5 f6 68 bd 94 a1 ae bd
       -0.07628574 -0.1200765 -0.056876082 -0.08526912
0001c0 91 86 65 be 18 7a 5a bd 33 3b 6b bc 37 2b a3 be
       -0.22414614 -0.053339094 -0.014357376 -0.31868908
0001d0 b1 82 39 be d2 f8 c7 bb 64 76 08 bc aa 9e 33 3e
       -0.18116261 -0.0061026597 -0.008329008 0.17540994
0001e0 9c 6c e6 bd c9 6f af 3d 91 16 ce 3d 9e 6c 12 3e
       -0.11251184 0.08566243 0.10062898 0.14299247
0001f0 7c fb a5 be ce c8 d4 bd ab e3 e6 bd 1d 84 fa bd
       -0.3241843 -0.10389863 -0.11273893 -0.1223223

linear_mapper.grid f4 [16, 12]
000000 cd cc 0c c0 66 66 e6 bf 33 33 b3 bf 00 00 80 bf
       -2.2 -1.8 -1.4 -1.0
000010 9a 99 19 bf cc cc 4c be d0 cc 4c 3e 9a 99 19 3f
       -0.6 -0.19999999 0.20000005 0.6
000020 00 00 80 3f 34 33 b3 3f 66 66 e6 3f cd cc 0c 40
       1.0 1.4000001 1.8 2.2
000030 cd cc 0c c0 66 66 e6 bf 33 33 b3 bf 00 00 80 bf
       -2.2 -1.8 -1.4 -1.0
000040 9a 99 19 bf cc cc 4c be d0 cc 4c 3e 9a 99 19 3f
       -0.6 -0.19999999 0.20000005 0.6
000050 00 00 80 3f 34 33 b3 3f 66 66 e6 3f cd cc 0c 40
       1.0 1.4000001 1.8 2.2
000060 cd cc 0c c0 66 66 e6 bf 33 33 b3 bf 00 00 80 bf
       -2.2 -1.8 -1.4 -1.0
000070 9a 99 19 bf cc cc 4c be d0 cc 4c 3e 9a 99 19 3f
       -0.6 -0.19999999 0.20000005 0.6
000080 00 00 80 3f 34 33 b3 3f 66 66 e6 3f cd cc 0c 40
       1.0 1.4000001 1.8 2.2
000090 cd cc 0c c0 66 66 e6 bf 33 33 b3 bf 00 00 80 bf
       -2.2 -1.8 -1.4 -1.0
0000a0 9a 99 19 bf cc cc 4c be d0 cc 4c 3e 9a 99 19 3f
       -0.6 -0.19999999 0.20000005 0.6
0000b0 00 00 80 3f 34 33 b3 3f 66 66 e6 3f cd cc 0c 40
       1.0 1.4000001 1.8 2.2
0000c0 cd cc 0c c0 66 66 e6 bf 33 33 b3 bf 00 00 80 bf
       -2.2 -1.8 -1.4 -1.0
0000d0 9a 99 19 bf cc cc 4c be d0 cc 4c 3e 9a 99 19 3f
       -0.6 -0.19999999 0.20000005 0.6
0000e0 00 00 80 3f 34 33 b3 3f 66 66 e6 3f cd cc 0c 40
       1.0 1.4000001 1.8 2.2
0000f0 cd cc 0c c0 66 66 e6 bf 33 33 b3 bf 00 00 80 bf
       -2.2 -1.8 -1.4 -1.0
000100 9a 99 19 bf cc cc 4c be d0 cc 4c 3e 9a 99 19 3f
       -0.6 -0.19999999 0.20000005 0.6
000110 00 00 80 3f 34 33 b3 3f 66 66 e6 3f cd cc 0c 40
       1.0 1.4000001 1.8 2.2
000120 cd cc 0c c0 66 66 e6 bf 33 33 b3 bf 00 00 80 bf
       -2.2 -1.8 -1.4 -1.0
000130 9a 99 19 bf cc cc 4c be d0 cc 4c 3e 9a 99 19 3f
       -0.6 -0.19999999 0.20000005 0.6
000140 00 00 80 3f 34 33 b3 3f 66 66 e6 3f cd cc 0c 40
       1.0 1.4000001 1.8 2.2
000150 cd cc 0c c0 66 66 e6 bf 33 33 b3 bf 00 00 80 bf
       -2.2 -1.8 -1.4 -1.0
000160 9a 99 19 bf cc cc 4c be d0 cc 4c 3e 9a 99 19 3f
       -0.6 -0.19999999 0.20000005 0.6
000170 00 00 80 3f 34 33 b3 3f 66 66 e6 3f cd cc 0c 40
       1.0 1.4000001 1.8 2.2
000180 cd cc 0c c0 66 66 e6 bf 33 33 b3 bf 00 00 80 bf
       -2.2 -1.8 -1.4 -1.0
000190 9a 99 19 bf cc cc 4c be d0 cc 4c 3e 9a 99 19 3f
       -0.6 -0.19999999 0.20000005 0.6
0001a0 00 00 80 3f 34 33 b3 3f 66 66 e6 3f cd cc 0c 40
       1.0 1.4000001 1.8 2.2
0001b0 cd cc 0c c0 66 66 e6 bf 33 33 b3 bf 00 00 80 bf
       -2.2 -1.8 -1.4 -1.0
0001c0 9a 99 19 bf cc cc 4c be d0 cc 4c 3e 9a 99 19 3f
       -0.6 -0.19999999 0.20000005 0.6
0001d0 00 00 80 3f 34 33 b3 3f 66 66 e6 3f cd cc 0c 40
       1.0 1.4000001 1.8 2.2
0001e0 cd cc 0c c0 66 66 e6 bf 33 33 b3 bf 00 00 80 bf
       -2.2 -1.8 -1.4 -1.0
0001f0 9a 99 19 bf cc cc 4c be d0 cc 4c 3e 9a 99 19 3f
       -0.6 -0.19999999 0.20000005 0.6
000200 00 00 80 3f 34 33 b3 3f 66 66 e6 3f cd cc 0c 40
       1.0 1.4000001 1.8 2.2
000210 cd cc 0c c0 66 66 e6 bf 33 33 b3 bf 00 00 80 bf
       -2.2 -1.8 -1.4 -1.0
000220 9a 99 19 bf cc cc 4c be d0 cc 4c 3e 9a 99 19 3f
       -0.6 -0.19999999 0.20000005 0.6
000230 00 00 80 3f 34 33 b3 3f 66 66 e6 3f cd cc 0c 40
       1.0 1.4000001 1.8 2.2
000240 cd cc 0c c0 66 66 e6 bf 33 33 b3 bf 00 00 80 bf
       -2.2 -1.8 -1.4 -1.0
000250 9a 99 19 bf cc cc 4c be d0 cc 4c 3e 9a 99 19 3f
       -0.6 -0.19999999 0.20000005 0.6
000260 00 00 80 3f 34 33 b3 3f 66 66 e6 3f cd cc 0c 40
       1.0 1.4000001 1.8 2.2
000270 cd cc 0c c0 66 66 e6 bf 33 33 b3 bf 00 00 80 bf
       -2.2 -1.8 -1.4 -1.0
000280 9a 99 19 bf cc cc 4c be d0 cc 4c 3e 9a 99 19 3f
       -0.6 -0.19999999 0.20000005 0.6
000290 00 00 80 3f 34 33 b3 3f 66 66 e6 3f cd cc 0c 40
       1.0 1.4000001 1.8 2.2
0002a0 cd cc 0c c0 66 66 e6 bf 33 33 b3 bf 00 00 80 bf
       -2.2 -1.8 -1.4 -1.0
0002b0 9a 99 19 bf cc cc 4c be d0 cc 4c 3e 9a 99 19 3f
       -0.6 -0.19999999 0.20000005 0.6
0002c0 00 00 80 3f 34 33 b3 3f 66 66 e6 3f cd cc 0c 40
       1.0 1.4000001 1.8 2.2
0002d0 cd cc 0c c0 66 66 e6 bf 33 33 b3 bf 00 00 80 bf
       -2.2 -1.8 -1.4 -1.0
0002e0 9a 99 19 bf cc cc 4c be d0 cc 4c 3e 9a 99 19 3f
       -0.6 -0.19999999 0.20000005 0.6
0002f0 00 00 80 3f 34 33 b3 3f 66 66 e6 3f cd cc 0c 40
       1.0 1.4000001 1.8 2.2

blocks.0.to_q.weight f4 [128, 8]
000000 c0 52 d5 be d6 ba e0 3d 76 c0 94 be 5e 41 d9 3e
       -0.41664696 0.10973136 -0.29053086 0.42432684
000010 ab c9 85 3e 85 ef aa bd f3 79 c8 3c 0f 74 82 3d
       0.26130423 -0.08346466 0.024472212 0.06369793
000020 b2 55 dd be 2e 36 8a 3e d3 d7 16 be c5 7f 7b 3d
       -0.43229443 0.2699446 -0.14730768 0.061401147
000030 3c c8 a6 bd 83 e2 f2 bd 40 cc 75 bd 88 fe 0b 3e
       -0.081436604 -0.1185961 -0.06000924 0.13671315
000040 9d 7c 4c 3e 03 3a 85 bd 73 72 a4 3e 23 03 85 bd
       0.19969411 -0.065052055 0.32118568 -0.06494739
000050 9c 63 74 be 1a 8e 31 be df 07 fa 3e a1 44 0a 3d
       -0.23866123 -0.17339364 0.4883413 0.033756856
000060 4c a3 95 3d 39 82 9d bc 9a aa 0f be 76 50 92 be
       0.07306537 -0.019227134 -0.14029923 -0.28577012
000070 1c dd 8a be 9f 2b 6f 3e 03 30 e8 3e 85 28 d1 3e
       -0.27121818 0.23356484 0.4534913 0.40851226
000080 18 70 bd be 4d fa 84 3d 96 53 6d be 51 82 57 3e
       -0.36999583 0.064930536 -0.23176417 0.21045806
000090 54 69 8d 3e 8f 86 93 3e 9c 54 ca 3d ef 7f 46 3e
       0.2761942 0.28813598 0.09879419 0.1938474
0000a0 3b a0 a2 be a0 79 2f 3e c1 1b 6c be ad c7 00 3e
       -0.3176287 0.1713624 -0.23057462 0.1257617
0000b0 ac 2b fc bd 9a 08 12 bd d6 c1 d0 be 94 d6 1b be
       -0.12313017 -0.035652734 -0.40772885 -0.15218574
0000c0 17 b1 dd bc e5 a0 0d bd 83 32 7b be 1e 61 9f be
       -0.027061982 -0.03457727 -0.24530987 -0.31128782
0000d0 2f d6 d2 3c 74 6f 77 3e 7f e1 f3 3e cd b9 86 3e
       0.025736896 0.2416361 0.47632977 0.2631363
0000e0 c0 05 bb bd 80 2a 01 bf 86 ee f3 3d 6c 71 48 3e
       -0.09131956 -0.50455475 0.11910729 0.19574517
0000f0 d0 54 95 be a9 d3 0b 3e a3 37 5d 3e b0 44 94 3c
       -0.2916627 0.1365496 0.21603255 0.018099159
000100 04 35 80 be d8 5a ae 3d 7d fc 15 3e 66 37 52 3e
       -0.25040448 0.08513421 0.14647098 0.20528945
000110 e1 18 78 be 67 84 48 3e de 20 d0 be c3 9a 9e 3e
       -0.2422824 0.19581757 -0.40650076 0.3097745
000120 fd 36 4b be 62 1b c7 3d 41 bc 9f 3c 1b 7f f1 3d
       -0.19845195 0.0972202 0.019498946 0.117918216
000130 f3 56 01 3b 41 1a 47 3e a3 7a 8e be 48 9b a1 be
       0.0019735664 0.19443609 -0.2782794 -0.31563783
000140 dd dc bc be 43 74 fa 3d e5 ca 02 3c b8 08 36 3c
       -0.36887255 0.122292064 0.007982944 0.011110477
000150 6d 92 75 be 89 2b f3 3d f4 95 80 3c f3 4b 88 bd
       -0.23981638 0.11873538 0.015696503 -0.06655111
000160 9b b8 3b be 1c 7f 91 bd da fc a3 be 1b 3e 32 be
       -0.1833214 -0.07104322 -0.32028848 -0.17406504
000170 77 8b d6 3e 0e 36 2b be dd 05 4d 3e 58 0c 0e 3f
       0.41903278 -0.16719839 0.20021768 0.55487585
000180 02 6a 11 3e 75 17 b1 bc 65 b7 8b be 69 66 b0 3e
       0.14200595 -0.02161763 -0.27288356 0.34453133
000190 5f 15 89 bd 8a 47 af be 6c b1 73 3e a4 b7 31 be
       -0.06693529 -0.34234267 0.2379815 -0.1735521
0001a0 28 27 11 be 10 8a 53 3e 6e 84 03 be d5 31 7a be
       -0.14175093 0.20658135 -0.12843487 -0.24433072
0001b0 9b da 77 3d 1d 7f 70 bd 75 40 f2 bd a3 89 b8 be
       0.060511213 -0.058714975 -0.118287005 -0.36042508
0001c0 c1 4b 87 3d f0 98 93 be ea c6 93 be 1b 97 98 be
       0.06606246 -0.2882762 -0.28862697 -0.29802784
0001d0 1c 67 7b 3e a0 50 e1 3d f2 9c ad be 77 14 a5 3e
       0.24551052 0.11001706 -0.33908802 0.32242176
0001e0 7f 25 4b 3d e6 cf cd bc 00 df 92 be 83 46 c0 3d
       0.049596306 -0.025123548 -0.2868576 0.09388449
0001f0 ca 96 ce 3e 78 8e 9e 3e 91 19 b9 be 90 08 be 3e
       0.40349418 0.3096807 -0.36152318 0.37115908
000200 9f e3 e7 bc 2c e6 d0 3d 6b 8c 67 3e af 56 b1 3e
       -0.02830678 0.10200152 0.22612159 0.34636447
000210 16 10 6f be 34 0f c7 3e 35 a7 a1 be a5 3b bd 3d
       -0.2334598 0.38878787 -0.3157288 0.09239892
000220 0a 09 f5 bd 5b 19 63 bc ed f6 25 bd 56 94 97 bd
       -0.11964615 -0.013861026 -0.04051869 -0.0740134
000230 30 0f b2 bd 09 e2 84 3b 08 6d ef 3e d0 40 59 3e
       -0.08694303 0.004055266 0.46762872 0.2121613
000240 52 99 88 bd ac ee 2c 3e e9 94 31 3e ef 02 c6 bc
       -0.066698685 0.16887921 0.17341961 -0.02417132
000250 bf 24 c2 3c f1 18 3c 3d c9 7e b0 be 4a 1a ad be
       0.023699163 0.045922223 -0.3447173 -0.3380912
000260 ed 99 ed 3d dc 2c 8c be fc 5c eb bd d7 e3 0f bd
       0.11601625 -0.27377975 -0.11492345 -0.035129394
000270 80 3d 04 3e e7 4d 9b 3e b1 92 2a be 9f 95 af 3e
       0.12914085 0.30332872 -0.16657521 0.3429384
000280 6e c4 cb 3d b8 1c 96 be 0c 28 e7 3c 2d 63 7b be
       0.09949575 -0.29318786 0.028217338 -0.24549551
000290 f7 11 80 be f1 18 4c be cb 03 65 be 82 6b 54 be
       -0.25013706 -0.1993139 -0.22364728 -0.20744136
0002a0 5f aa 8b be e1 a7 8c bc 81 1c 6b 3e b4 db ae 3e
       -0.2727842 -0.017169895 0.22960092 0.34151995
0002b0 d3 b2 5b be 0e de a7 be ec 3f a3 3d e7 3f e2 bd
       -0.21454935 -0.32786602 0.079711765 -0.11047345
0002c0 a3 a4 dc 3d 70 ca d2 3d 1f 2f b8 3e 7a d7 91 be
       0.107735895 0.10292518 0.3597345 -0.28484708
0002d0 5e 0d 56 3e 67 de 8c 3e ef 7d bb be 4f ab 84 3e
       0.20903537 0.2751343 -0.36619517 0.25911948
0002e0 fc 42 d6 3d d4 da c8 bd 03 f7 65 3e 59 10 0a be
       0.10461995 -0.09807363 0.22457509 -0.13482799
0002f0 d6 fb a4 be 0b 00 87 3d e2 31 8b bd 78 41 97 be
       -0.32223386 0.06591805 -0.06796624 -0.29542136
000300 c6 e7 25 be a6 b5 31 3e 0f 6b ab 3e 31 e4 c3 3e
       -0.16201696 0.1735445 0.33480117 0.38260034
000310 41 ab 31 3d 7a ff 84 be 8c 35 a1 3e fc 57 dc 3c
       0.04337621 -0.25976163 0.31486166 0.026897423
000320 96 7a 5e 3e aa 4a 61 3d 39 c2 a2 3e cc fb 89 be
       0.2172645 0.055002846 0.31788805 -0.26949918
000330 74 46 5d be be b4 8f bc 4d f8 55 bc aa 95 3b 3e
       -0.21608907 -0.01754224 -0.013059688 0.18318811
000340 9a eb 27 bf e5 77 63 3e 76 59 4f be fd 2a 04 be
       -0.65593874 0.22213705 -0.2024897 -0.12907024
000350 85 7b 85 3e 93 b0 c1 3b 60 50 86 be 59 00 c1 bd
       0.260708 0.005910942 -0.26233196 -0.094238944
000360 7c ec 42 be f0 ea 81 bc 07 0a a8 be 3a 20 a5 be
       -0.19035524 -0.015859097 -0.3282015 -0.3225115
000370 2d 44 88 3c 03 55 77 3d c9 10 1e be 0e a1 d3 3e
       0.016634071 0.060383808 -0.1543609 0.41333812
000380 c0 9f 28 be aa f9 c0 3e 96 7a 52 3e 7e fb a5 be
       -0.1646719 0.3769048 0.20554575 -0.32418436
000390 2b 9c d2 3c cf 9f 74 3e a7 e0 23 be 27 5c 8e be
       0.025709232 0.23889087 -0.16003667 -0.27804682
0003a0 07 da 0d 3f 03 9a a9 3e 4a cc 51 be c6 2e 63 3e
       0.5541081 0.33125314 -0.20488086 0.22185811
0003b0 cc ac f4 bc 01 d0 a4 be d7 b4 25 3e 73 33 39 3e
       -0.029867552 -0.32189944 0.16182266 0.18086033
0003c0 19 25 f5 be 19 9b 84 3e ab 4b c8 be 57 17 be 3e
       -0.47879866 0.2589958 -0.3912023 0.37127182
0003d0 29 ef c0 3e 6a ed 50 3e 96 46 53 bb 67 06 83 3d
       0.37682465 0.20403066 -0.0032238117 0.063977055
0003e0 06 7f da be a5 b3 84 3e 88 89 8e 3d a9 7c 22 be
       -0.42675036 0.25918308 0.06959826 -0.15867867
0003f0 bf e1 88 be 3e 71 69 3e fe 98 a5 3e ee 77 af be
       -0.2673473 0.22797105 0.32343286 -0.34271187

blocks.0.to_kv.weight f4 [256, 8]
000000 35 98 71 3e c6 d9 19 3d b7 f9 c8 bd a5 16 8d be
       0.23593219 0.0375612 -0.09813254 -0.2755634
000010 1e 81 6d 3e 26 62 b0 be 4f c1 a8 3b 60 ef 5c be
       0.23193786 -0.3444988 0.0051499973 -0.2157569
000020 b9 6d 30 3e 1a 1b 0c bd 2b 00 8b 3d dc 0c fe be
       0.17229356 -0.034205534 0.067871414 -0.49619186
000030 80 b9 1c 3f d2 1d a9 be b4 f6 69 be b9 ed ef 3d
       0.6122055 -0.33030564 -0.22848016 0.11715264
000040 38 07 bc be 23 6f 57 3e 7a 97 69 3d 4d db c1 3d
       -0.36724257 0.21038489 0.057029225 0.094656564
000050 94 70 37 3e 37 30 00 bf e9 4e 3d 3e ee 5f 7d 3e
       0.17914039 -0.5007357 0.18487133 0.24743626
000060 f1 64 92 be 4f 4d cc 3e 17 03 22 be 46 c8 33 be
       -0.28592637 0.39902732 -0.15821491 -0.17556867
000070 3c 30 66 be 75 38 38 3f a1 7c 08 be 98 6c 15 be
       -0.22479337 0.71961147 -0.13328792 -0.14592206
000080 f8 bb 50 3e 00 aa a6 bd 26 48 65 3d 6b 68 ad bd
       0.20384204 -0.08137894 0.05597701 -0.08467182
000090 16 bf 41 be 86 16 1b 3f 97 8c 3f be 6f 89 12 be
       -0.1892055 0.60581243 -0.18705975 -0.1431024
0000a0 17 a8 30 3e 29 66 bf bd 02 fc af 3b 61 59 a1 be
       0.17251621 -0.093456574 0.005370618 -0.31513503
0000b0 10 fb 3e 3f ed 45 9a be 7c 49 c4 bd ec a4 67 be
       0.7460184 -0.30131474 -0.095843285 -0.22621506
0000c0 9d 1a 82 bd 50 f0 a1 3e 08 f7 d2 bd e3 87 50 3e
       -0.06352732 0.31628656 -0.10301024 0.20364337
0000d0 69 67 8d be e7 03 cf 3e c9 7f 82 3e 4d 88 9c 3d
       -0.27617958 0.40432665 0.25488117 0.07643185
0000e0 74 36 a5 bd b7 6e b6 3d 02 4e c6 3e 1a ed 5d 3e
       -0.08067027 0.08907836 0.3873139 0.21672478
0000f0 09 3d 2e 3e 2c e1 6f 3c 61 63 d6 3d 56 fa e4 3d
       0.1701547 0.0146410875 0.10468174 0.1118056
000100 ef cd bc 3d 08 be 70 3d 49 be 83 3e c0 ac a1 3e
       0.09218966 0.058774978 0.25731114 0.3157711
000110 86 af bc bd 13 e8 47 3e 8d bb 8c 3e 03 8a 90 be
       -0.09213166 0.19522123 0.2748684 -0.28230295
000120 f9 27 7d 3e c2 a8 08 bc fe e9 9a 3e 31 aa bf 3c
       0.2472228 -0.008341016 0.30256647 0.023396583
000130 dd 8d 34 3e dd 65 70 be 4c ca 71 be 28 64 aa bc
       0.17632242 -0.23476358 -0.23612326 -0.020799711
000140 42 72 c1 3d b6 00 ab be 30 97 13 bd b1 a5 29 be
       0.09445621 -0.3339898 -0.036032856 -0.16567113
000150 52 b5 84 3e 6b bb 5a be 45 df 44 3e b1 50 55 3e
       0.25919586 -0.21360557 0.19225796 0.20831563
000160 5f 75 a3 3e 6c 39 bb 3e e1 c8 8e 3d 13 5f ba be
       0.31925485 0.36567247 0.06971908 -0.3640066
000170 2e f0 ee 3e 25 60 1d 3d e8 66 11 bd de f9 c6 be
       0.46667618 0.03842177 -0.03549853 -0.3886251
000180 e8 e3 85 be c6 ad 4a 3d 51 c9 5d 3e 0b 91 e8 3d
       -0.2615044 0.04948213 0.21658827 0.1135579
000190 9b 63 65 3e 8f 25 90 3e 7c 84 d7 3d 28 6f f7 3d
       0.22401278 0.28153655 0.10523316 0.12081748
0001a0 f8 d8 55 be d8 c6 44 be d7 76 80 3e d3 d9 3a 3d
       -0.20883548 -0.19216478 0.25090668 0.04561789
0001b0 13 d8 41 3f 6d 98 c3 be bf 52 91 be f0 81 03 be
       0.7572033 -0.3820223 -0.28383443 -0.12842536
0001c0 13 b3 ab 3e 69 0b 8c 3e 63 72 42 3e e9 95 95 bd
       0.3353506 0.27352455 0.18988948 -0.07303984
0001d0 31 ad 28 be e8 47 09 3c ef d4 26 3e 71 86 49 be
       -0.16472317 0.00837896 0.16292165 -0.19680192
0001e0 1b a1 3f 3e 44 ac 3c 3e 47 a1 29 be f2 85 49 3e
       0.187138 0.18425089 -0.16565429 0.19680002
0001f0 a4 ce d9 be fd 6f fa 3e ba 34 10 be 8e 59 9e be
       -0.42540467 0.48913565 -0.14082614 -0.309277
000200 fd 75 23 3d a7 17 cf 3d 9b 60 63 be 04 dc 64 3e
       0.039907444 0.10111933 -0.22204821 0.22349554
000210 66 84 0e bf 69 e2 58 be 25 a0 85 be 1a ac f9 bd
       -0.55670774 -0.21180119 -0.26098743 -0.12191029
000220 1c 03 48 bd d2 13 0b 3d 32 9f 83 3d 9c 4a c6 be
       -0.04883109 0.03395445 0.064268485 -0.38728797
000230 70 c8 86 be 74 2b 89 3e 51 71 01 3e 41 72 da 3e
       -0.26324797 0.26790965 0.12640883 0.42665294
000240 34 00 73 3e fe 4a b4 be 34 6d 48 be cd af dc bb
       0.23730546 -0.35213464 -0.19572908 -0.0067348243
000250 1e ea 28 3e f4 0f 95 be 2c 69 9a bd 93 e8 2d 3e
       0.16495559 -0.29113734 -0.07539591 0.16983251
000260 b4 f9 1f 3e 6e 9b f2 3d 19 e0 ec bc f8 cd 4f 3d
       0.15622598 0.11846052 -0.028915452 0.050733536
000270 03 2a e2 be 96 b8 86 3f d5 31 5c be 15 86 87 3e
       -0.44172677 1.0525081 -0.21503384 0.26469484
000280 d9 1f 72 be cb cd 9e be 2d 0a 18 bd 47 bd 33 3e
       -0.23644961 -0.31016383 -0.03711908 0.17552672
000290 ca d0 09 3f 51 c3 03 be 2b e8 1f 3d 17 16 d5 39
       0.5383421 -0.12867476 0.039039772 0.00040642984
0002a0 7c fe 6e be 5c 74 a8 bd 7c a2 dc bc 2c e4 bc 3e
       -0.23339266 -0.08225319 -0.026932947 0.3689283
0002b0 4e 2f 27 3e 43 f0 47 bf 9e 91 7e 3c 2d 45 4a be
       0.16326639 -0.78100985 0.0155376475 -0.19752951
0002c0 19 8b ac bd b5 b8 60 be 58 da 3c 3d 81 a4 85 be
       -0.08424968 -0.2194546 0.046106666 -0.2610207
0002d0 d6 95 3b 3d f9 ed 0a 3f 36 23 70 be 93 f5 94 be
       0.04579719 0.5426937 -0.23450932 -0.29093608
0002e0 fd 17 1e bc 1d f0 4b be 33 77 3c 3e d3 68 2c be
       -0.009649274 -0.19915815 0.18404846 -0.16836862
0002f0 cf 38 bb 3e 78 c3 22 bf 77 70 30 be eb c9 58 be
       0.3656678 -0.6357951 -0.17230402 -0.21170776
000300 c6 e4 1f 3e f9 c6 1f be 6e d1 81 be 1b 52 6d bd
       0.15614614 -0.15603246 -0.25355095 -0.05793963
000310 0c b3 18 be ea 78 4e bf d4 c4 c4 bc 76 1a 76 3d
       -0.14912051 -0.8065325 -0.024019636 0.06008383
000320 3d 28 ab bd d4 3f f5 bd bb 51 da bc 46 34 82 be
       -0.08357284 -0.11975065 -0.0266503 -0.25430506
000330 f8 69 09 bf 43 0f 27 3e 2d 0a 99 3e 81 3e b4 bd
       -0.5367732 0.16314416 0.29890576 -0.08800984
000340 ec 69 56 3e eb 7b 89 be 65 1b 26 bd 73 c1 ad be
       0.20938843 -0.26852354 -0.04055347 -0.33936653
000350 5d 02 2e 3f 5c 5b 4b 3d 1d 39 7e bd 72 b4 0b 3e
       0.67972356 0.049647674 -0.062066186 0.13643053
000360 5e eb 92 3e b3 b9 69 3e 03 ab 1a 3e 14 67 d9 be
       0.28695196 0.22824745 0.15104298 -0.42461455
000370 98 54 a0 3d 98 a7 b4 be 1f c6 10 3e 32 0a 9d be
       0.07828635 -0.35284114 0.14138077 -0.3067184
000380 43 a1 7a be d5 75 c5 be 78 b7 a2 be 7f 4e 84 bc
       -0.24475579 -0.3856646 -0.317806 -0.016150711
000390 38 e4 4f 3e d1 de f3 be db 2d c1 3d 7c a1 82 be
       0.20301902 -0.47630933 0.09432574 -0.25513828
0003a0 9d 2d 21 be 19 12 d2 3e 93 a8 22 3e 46 88 27 be
       -0.15740056 0.41029432 0.15884618 -0.16360578
0003b0 3f fc f6 be dd 04 29 3e 40 65 0a 3e 17 e2 a8 3e
       -0.48239323 0.16505761 0.13515186 0.32984993
0003c0 16 0d 50 3e b0 cc 92 bd dc 23 d1 be 36 9e c5 be
       0.20317492 -0.07167947 -0.4084767 -0.38597268
0003d0 44 70 20 be 40 1c cc 3e 29 b7 5d be b1 2c 98 be
       -0.15667826 0.39865303 -0.21651901 -0.29721597
0003e0 51 c0 cd 3c 51 da c1 be 72 cc 87 be 4e 19 9b be
       0.025116118 -0.37861875 -0.26523167 -0.30292743
0003f0 b4 3b 87 3e d4 57 54 be ee 97 da 3d 2b 6e d0 bd
       0.26412737 -0.20736629 0.106735095 -0.10177263

blocks.0.to_out.weight f4 [8, 128]
000000 b5 72 bb be 1b f8 98 bd f2 5f 28 be 67 2a 6b 3d
       -0.36610952 -0.07469197 -0.1644285 0.057413485
000010 fa c8 8a 3c 26 9e 07 bd 2b 36 82 3d a5 16 fc 3d
       0.016941536 -0.033109806 0.06357988 0.123090066
000020 3d 87 81 bd c9 3d 93 bd 97 5b 85 bc 1e 52 87 3e
       -0.06324623 -0.07189519 -0.016279025 0.26429838
000030 69 d1 4a 3c 47 59 ab 3e d5 60 1e be 9d f7 76 bc
       0.012379029 0.3346655 -0.15466626 -0.015073684
000040 bb 90 e6 3d 8e bf 0b bc 87 f5 85 bd 11 57 93 3d
       0.11258074 -0.008529557 -0.06540971 0.07194341
000050 af a8 b7 3d 23 45 60 bb 82 e1 ac bc cb aa 32 3d
       0.08967721 -0.0034220896 -0.021103624 0.043619912
000060 8c 89 a3 be b1 2b 03 bd 4d 3a 46 bd 08 10 9e bd
       -0.31940877 -0.03202409 -0.048395444 -0.077179015
000070 7c 94 88 bd 97 f3 a8 3d 02 38 90 bd 8f 71 05 3e
       -0.06668946 0.08249586 -0.07041933 0.130316
000080 99 ad 15 3c b3 30 f6 bd 03 d5 94 bd 35 3c 2e 3e
       0.009135627 -0.120210074 -0.07267191 0.17015155
000090 da b5 2f 3d 69 52 c6 be e9 9a 91 3d dd 03 6d 3c
       0.042898037 -0.3873475 0.07109625 0.014466253
0000a0 b6 43 94 bd 67 72 51 bd 85 0d 87 3d bd 02 99 3d
       -0.07239477 -0.051134493 0.065943755 0.074712254
0000b0 ff a2 50 3d 74 1c 50 bd 00 3b c8 3d 14 0d 03 bd
       0.050936695 -0.050808385 0.09776878 -0.031994894
0000c0 ec 25 a8 bd 78 42 ee 3d e2 90 77 3c ed e7 58 bd
       -0.08210358 0.11633772 0.015110226 -0.052955557
0000d0 e9 93 c5 bc cb 7b cf bc 33 96 d9 3c 2b 62 05 bd
       -0.02411838 -0.025327584 0.026560878 -0.032564323
0000e0 33 db 8d 3c a0 4e 5c be 4e ec 42 3d 8e 00 c6 bd
       0.017316436 -0.21514368 0.04758864 -0.096680745
0000f0 a2 07 e4 3d 04 10 1e bb 62 87 08 3b 1a 69 a2 bd
       0.11134268 -0.0024118433 0.0020832648 -0.07930203
000100 42 31 9b 3e 2a eb 9d bd e5 f6 8a bd 87 50 00 be
       0.30311018 -0.077108696 -0.06785373 -0.12530719
000110 1b 38 cf bd 8e 5b 64 bd e0 53 f0 bd 90 ad 62 bc
       -0.10118123 -0.055751376 -0.11734748 -0.013835326
000120 82 97 a6 3d 79 05 cb 3e b1 73 43 3b 41 04 38 3c
       0.081343666 0.39652613 0.0029823596 0.011231483
000130 3a 15 b9 bb 58 6d 26 3d da 90 a0 3d bc a7 0a be
       -0.0056482824 0.040631622 0.07840128 -0.13540548
000140 a7 4b 0c bd 37 de 2e bd 40 0b f4 3d a5 84 67 be
       -0.034251835 -0.04269239 0.11916208 -0.22609194
000150 4b 3a e3 be 07 4b ac 3d ea a5 0f 3e f8 a7 1a 3e
       -0.44380412 0.08412748 0.14028135 0.15103137
000160 12 d3 32 bb 1e 1c d0 bd a2 76 01 3c b4 c8 7f 3e
       -0.0027286452 -0.10161613 0.007901819 0.24978906
000170 71 63 ba bd 80 12 7c bd b8 b2 39 3e 29 e4 7d bd
       -0.09100998 -0.06154108 0.18134582 -0.06198517
000180 91 19 5c bc ff be af 3c 52 7f 59 3d 25 cd 99 be
       -0.01343383 0.021453379 0.053099938 -0.30039325
000190 a7 a6 22 3d 04 4f 0b 3e 2b 00 b6 bd d9 93 9b bd
       0.039709713 0.13604361 -0.08886751 -0.07596559
0001a0 e8 a5 b8 bd ca 6a 79 3e af 33 bc bd ed 4e 81 bb
       -0.09016019 0.24357143 -0.09189545 -0.0039461763
0001b0 34 c3 88 3e dd f2 9b 3e 47 bd fd 3d 04 bf 3c 3d
       0.26711428 0.30458727 0.123896174 0.046080604
0001c0 ff 07 ee 3d 22 83 5b be 42 7b 16 3e de ef 36 3e
       0.11622619 -0.21436742 0.14695457 0.1786494
0001d0 4a 64 cc be 5d 3d 7b 3c 65 22 1c bd 6a 95 1b 3e
       -0.39920264 0.015334454 -0.03811874 0.15193716
0001e0 c7 8e 83 bd 3a 1a cc bd b5 da d5 3d 0b e9 6a bb
       -0.06423717 -0.0996594 0.10442106 -0.003584447
0001f0 3c 4f 01 be b9 fe ad bc 13 27 e5 3d ba fd 6d bd
       -0.12627882 -0.021239625 0.111890934 -0.0581033
000200 11 77 4e 3e 47 4a 1a 3e 5f 52 93 3e a8 0e bc bc
       0.20162608 0.15067397 0.28773782 -0.022956207
000210 13 1b ed 3d 39 f9 b8 3d 14 7f f2 bc dc 3f 6b be
       0.115774296 0.090319104 -0.029601611 -0.22973579
000220 ca 69 65 3e 98 af 51 3e 9f 5c 81 3e dc 9a bb bd
       0.22403637 0.2047714 0.25265977 -0.091603965
000230 24 a1 b6 bd 9a 4e 6d be dc 58 97 3e 43 b3 81 3d
       -0.08917454 -0.23174515 0.29559982 0.063330196
000240 a8 fc 43 3c 20 a7 71 3e df f3 7a 3e 36 44 39 3e
       0.011962093 0.2359891 0.24507092 0.18092427
000250 fb c0 91 bd 37 a6 42 be 71 b9 c4 3b 15 e7 8d be
       -0.07116886 -0.19008718 0.0060035517 -0.27715364
000260 db 46 22 3e 6d 5d 25 3e f4 94 43 3e ac c9 1b 3e
       0.15847342 0.1614892 0.1909979 0.1521365
000270 fb 86 39 3e 6f ec 41 be 7e 24 d4 bc 8f 93 55 be
       0.18117897 -0.18937849 -0.025896307 -0.2085707
000280 b8 bd 99 be 31 6f 4c 3e d8 18 36 3e f1 7f 89 be
       -0.30027556 0.19964291 0.17782915 -0.26855424
000290 6a ec 4b be 1f 51 8a 3e a0 74 cd 3e 5c 21 1d 3e
       -0.19914404 0.27015015 0.4012804 0.15344757
0002a0 0e 8c 73 3d 83 10 b9 be 22 0b 95 be b5 45 74 be
       0.05945974 -0.3614541 -0.29110056 -0.23854716
0002b0 34 b7 c3 bd 0f ac d7 be c1 a5 56 be 77 52 a9 3d
       -0.095564276 -0.42123458 -0.20961668 0.08267682
0002c0 9f a3 a7 be aa 73 70 be 29 c3 18 3e da b1 50 bd
       -0.3274202 -0.23481622 0.14918198 -0.050950862
0002d0 3b 30 9d be 68 a0 17 bc 93 63 cc 3d 95 7a 62 3e
       -0.3070086 -0.009254552 0.0997993 0.22117074
0002e0 da b0 1a 3e 50 dc bf 3d 81 6d de be bd 02 97 3d
       0.15106526 0.09368193 -0.4344292 0.07373569
0002f0 00 76 28 3d 22 98 a7 3e 8a ed 21 3e 7e 1d 04 be
       0.04112816 0.32733256 0.1581327 -0.12901875
000300 73 cf 5e bb a8 96 0b 3e dd f2 e5 bc 97 4f 59 3c
       -0.003399816 0.1363169 -0.028069908 0.013263605
000310 54 7b 78 bd d7 1a b1 3d 69 ed 28 bd 5a 97 15 be
       -0.06066449 0.086476974 -0.041242037 -0.14608517
000320 70 3a 18 bd b1 0c 15 3e 44 93 68 3b da b8 ad 3d
       -0.037165105 0.14555623 0.0035488168 0.08482523
000330 02 1e 32 3e 18 68 4f be d8 0b c3 3c 19 50 c5 3d
       0.1739426 -0.20254552 0.023809358 0.09634418
000340 6e 5e c3 3d 0e 2a 24 bc 65 92 eb bd 97 c3 fa bd
       0.095394954 -0.010019792 -0.11502532 -0.12244337
000350 e2 cb a2 bd 8a bf 68 3e 86 20 19 3e 2b 2e 12 be
       -0.07949044 0.22729316 0.14953813 -0.14275424
000360 6f fc f5 bc 69 ee 1e be 5c fa 25 bd 07 2e 53 3e
       -0.030027596 -0.15520634 -0.040521964 0.20623027
000370 37 47 28 be 82 0e f7 3d 4a 3c 06 3e e9 62 86 3d
       -0.16433416 0.12063314 0.13108936 0.06561834
000380 8c 2b 17 3e 7d 3a 51 3e a0 de e2 bc 34 28 38 be
       0.14762706 0.20432468 -0.027694046 -0.17984086
000390 93 ed 46 3d 88 5f 2f 3c f8 01 32 be 1c 65 41 bd
       0.048566412 0.010703929 -0.17383564 -0.047215566
0003a0 5c 78 4d be 0c c9 40 3c a2 e6 b1 3d a3 0f 47 bc
       -0.20065445 0.011766683 0.08686568 -0.012149724
0003b0 0e b0 43 3e 56 d4 5d 3e 49 3e 42 3e 10 99 0a 3e
       0.19110128 0.21663031 0.18969072 0.13534951
0003c0 5d dd 21 3e 2a 44 f0 bc 4d 5a 12 be 47 50 02 3e
       0.158071 -0.029329378 -0.1429226 0.12725936
0003d0 89 e9 07 bd b6 08 36 3e a8 fd 21 3d 3e 21 cf 3c
       -0.0331817 0.1777676 0.039548546 0.025284406
0003e0 09 3e 72 3d 60 fd 2a 3e 63 e9 f6 3d b0 6b eb bc
       0.059141193 0.16698217 0.12056234 -0.028737873
0003f0 3a 92 ac bd 30 e7 15 bc a1 ec ba 3d 3c c8 55 3d
       -0.08426328 -0.009149358 0.09127165 0.05219291

blocks.1.to_q.weight f4 [128, 8]
000000 12 91 d7 bd 98 56 54 3e 68 18 96 3d 55 82 86 be
       -0.10525717 0.20736158 0.07328874 -0.2627131
000010 e5 9d b5 3c 6d 79 be be 83 75 63 3e 2f 4d 0a 3e
       0.022170017 -0.37202016 0.22212796 0.13506006
000020 dd 4e 37 3e 24 35 b7 3e b3 fc 6d 3e 14 07 cf 3e
       0.17901178 0.3578273 0.23240928 0.40435088
000030 c4 3d 59 3e ad ad a6 be 77 fc a5 3e 77 7c 1a 3d
       0.21214968 -0.3255438 0.32419178 0.037716355
000040 f8 04 b9 bd a8 b2 6a bd 99 0c 9d 3e dd c1 f3 3d
       -0.09034151 -0.057299286 0.30673674 0.11902211
000050 a0 b4 a6 3e fd 53 97 bc af 9f 9e 3e d5 07 9b be
       0.3255968 -0.018472666 0.30981204 -0.30279413
000060 bc 98 32 3d 1f b1 7c 3c d6 ed 78 3d f4 86 82 3e
       0.04360269 0.015423088 0.060773693 0.25493586
000070 0a 57 86 3b 46 cd da 3d 8a e1 59 3e cb 87 05 3d
       0.0040997313 0.10683684 0.21277443 0.032600205
000080 61 fb 67 bd 44 9b c9 be c6 77 7b 3d 75 10 63 be
       -0.056636218 -0.3937627 0.06139352 -0.22174247
000090 5d 7c c2 3d 9a 40 ce 3e 35 b8 b4 be 36 cc fd bd
       0.09496377 0.40283662 -0.3529679 -0.12392466
0000a0 f2 f0 a4 3e ae 82 6a bd 84 14 5d 3e c7 d2 c6 3e
       0.32215077 -0.057253532 0.21589857 0.38832685
0000b0 7d 17 26 3d 76 a1 cb be cd 4b 80 3e 74 cf 8f 3d
       0.040549744 -0.39771622 0.2505783 0.070219904
0000c0 bb 97 97 3e 1e 89 a2 bc af 0d 85 3e c2 40 aa be
       0.2960795 -0.019840773 0.25987002 -0.3325253
0000d0 8f 36 4e bc 2e ed 1f 3e 07 14 3f 3e 0b 23 f3 bd
       -0.01258625 0.1561782 0.18659984 -0.11871918
0000e0 66 ac 42 bd 08 f1 13 be 7e 13 a0 be a3 b3 3d 3e
       -0.047527693 -0.14447415 -0.3126487 0.18525557
0000f0 2b 23 0f 3e 95 e7 83 3d bf 2d 6b 3d 93 6a 5c bd
       0.1397826 0.06440655 0.057416674 -0.053812575
000100 20 03 4f 3b 6b 53 99 3e b1 06 98 be f7 f2 12 3e
       0.0031587556 0.29946455 -0.29692605 0.14350496
000110 43 e8 ac 3e 2c 6f e2 3d 0b 38 0f be aa 42 5e 3e
       0.33770952 0.110563606 -0.13986222 0.21705118
000120 3c f8 aa be c1 40 0a 3e b5 5c 93 3e 8e bc 96 bd
       -0.33392513 0.13501264 0.28781667 -0.07360183
000130 d6 5a bc 3d 8b 5f 8f be 60 0e a0 bd c3 c3 b3 bd
       0.09197013 -0.2800258 -0.07815242 -0.08777573
000140 2b d6 96 be 62 08 e4 ba 9b a4 3b 3e 41 0f 69 3b
       -0.29460272 -0.0017397518 0.18324511 0.003556207
000150 4c e2 e0 3e 8c 95 c8 be 38 7f 2d 3e bf b6 7e 3e
       0.4392265 -0.39176595 0.16943061 0.248744
000160 fc 13 a2 3e 36 d9 9e bd da 1f c2 be 1f 2d db bd
       0.31655872 -0.077562734 -0.37914926 -0.107019655
000170 b7 40 b1 3e db 69 8a bc 47 f2 cd 3e 46 e2 95 be
       0.34619686 -0.016896179 0.40223905 -0.29274195
000180 17 06 47 be 87 94 84 3e ca f1 4a bb a1 c5 74 be
       -0.19435917 0.25894567 -0.0030966871 -0.23903514
000190 66 f1 f5 3e fe b2 74 be ea 50 4a be de 31 ed bb
       0.48035735 -0.23896405 -0.19757429 -0.0072386106
0001a0 92 4b a0 bd 35 7a 17 be c9 02 35 be 70 f8 f2 3d
       -0.07826914 -0.14792712 -0.17676844 0.11863792
0001b0 34 48 35 3e 64 ed 68 3e c8 24 81 be 58 6b 89 bd
       0.17703325 0.22746807 -0.25223374 -0.06709927
0001c0 75 c3 d0 3e fe 40 f6 bd 63 ea 13 be d6 33 92 3b
       0.40774122 -0.12024115 -0.1444488 0.0044617457
0001d0 15 02 7d be e8 c7 a9 be 78 37 9d 3e a9 11 29 3d
       -0.24707825 -0.3316033 0.30706382 0.041276608
0001e0 6f 79 cd 3d 2e c8 ca 3d c7 37 a2 3e b7 6c 5d 3e
       0.10032927 0.099014625 0.3168318 0.21623503
0001f0 3d 76 46 3e 64 97 62 3e d7 56 2a 3e c3 3f 92 3e
       0.19381042 0.22128063 0.1663469 0.2856427
000200 26 d8 16 bd 95 90 fc 3d 3b 2f 7f be 88 de 65 be
       -0.03682723 0.12332264 -0.2492036 -0.2244817
000210 f1 39 e2 3e ce c7 ae be 15 9f 43 be ee 59 da be
       0.4418483 -0.34136814 -0.19103654 -0.42646736
000220 89 c9 6a be 34 2b 1e 3e 65 33 65 3d fb f6 82 be
       -0.22928442 0.15446168 0.055957217 -0.25579056
000230 7a 41 e7 3d 05 bc b5 be 8e 92 2c 3e 1c 1d f4 3d
       0.112917855 -0.3549501 0.16852781 0.11919615
000240 fa 99 9b bd 8a 74 8f bd 5c 19 45 3e 14 cd 14 be
       -0.07597728 -0.0700465 0.19247955 -0.14531356
000250 d1 b8 d7 3c c7 68 c2 be 5e 1e 86 3e 04 52 97 3d
       0.026333245 -0.37970564 0.26195043 0.0738869
000260 b4 8e 4f be 74 79 3b 3e ea 0e bd 3e 79 ec b2 3d
       -0.2026928 0.1830805 0.3692544 0.0873651
000270 14 64 a3 be 17 ca 20 bc ca d9 91 3e e5 00 96 3e
       -0.3191229 -0.009813807 0.28486472 0.29297557
000280 d0 ac 0c be 6c cd 9e 3e 67 a0 8a be e5 73 f0 3d
       -0.13737798 0.310161 -0.27075502 0.11740855
000290 33 e6 df 3e 95 93 d4 3b 60 7d 80 be 00 fd 98 3d
       0.43730316 0.0064873197 -0.25095654 0.07470131
0002a0 36 cb 30 3e 73 1c ad 3e ff 5c a9 be cf b1 c5 bc
       0.17265019 0.33810768 -0.33078763 -0.024132637
0002b0 5e 22 ed 3d 4b e7 22 be b8 c1 c3 3b c0 63 52 be
       0.11578821 -0.15908544 0.005974021 -0.20545864
0002c0 c5 44 d9 bc ab e5 c9 3d f4 01 fd bd 25 5b 07 3e
       -0.02652205 0.09858259 -0.12353888 0.13218363
0002d0 e4 ad 1b bd 18 fc 19 3e 18 78 4d 3e 50 f2 f4 bd
       -0.038007632 0.15037572 0.20065343 -0.1196028
0002e0 6a 2e 84 bc 7b d1 0e be 00 3b 59 3e ae fd 77 be
       -0.016135413 -0.13947098 0.21213913 -0.24217865
0002f0 a5 89 99 be 52 be 75 be 99 9a 56 be 72 80 3f 3e
       -0.29987827 -0.23998383 -0.20957412 0.18701342
000300 93 f4 d1 3e 19 da 98 be 04 0a ba bd 52 f1 9f 3e
       0.41006908 -0.29853895 -0.090839416 0.312388
000310 e3 2b 12 be bb d9 36 3e 53 b3 4e bd d9 3b a6 be
       -0.14274554 0.17856495 -0.050463986 -0.32467535
000320 05 26 0e 3b f5 2a 48 be 47 48 a7 bd df a3 ae be
       0.0021690142 -0.19547637 -0.08168083 -0.341094
000330 35 b2 c0 3e 01 60 68 be ca 52 c0 3e 72 e2 9a be
       0.3763596 -0.22692873 0.37563163 -0.3025089
000340 f2 a9 a0 be da aa 48 3e 82 64 e9 3d 20 d4 f2 3c
       -0.31379658 0.19596425 0.113961235 0.029642165
000350 6b 7f 66 be bd f0 3e be 8a d0 2b be 08 46 0a 3d
       -0.22509544 -0.18646522 -0.1677877 0.033758193
000360 03 bd 9c 3d b1 1d b5 3e 13 6c 9b 3e b0 1c cd bd
       0.076532386 0.35374215 0.30355892 -0.10015237
000370 a8 1f da 3e 6c 57 1e 3e 3a d4 a0 3d 9a 39 cf be
       0.42602277 0.15463036 0.07852979 -0.40473634
000380 3b 1d 5d be 2e 0b 7b 3e d7 46 49 3e b6 43 77 3e
       -0.21593182 0.24515983 0.1965593 0.24146923
000390 75 87 e8 3d c4 61 9b be 10 be 91 be 9b cc 8e be
       0.113539614 -0.30348027 -0.2846532 -0.27890477
0003a0 db 54 85 bc 2b 67 6a bd ba 2e ab 3e a9 4a a2 be
       -0.016275814 -0.057227295 0.33434087 -0.31697586
0003b0 09 88 55 3d ba 4d c9 3e 80 04 b7 be 35 11 fa bd
       0.052131686 0.39317113 -0.3574562 -0.12210313
0003c0 2f cf 19 be 20 90 ea 3c 9f fb ba 3e 8b b6 69 3c
       -0.1502044 0.028633177 0.36520097 0.014264713
0003d0 33 48 57 3e e5 bf bb 3e 7c ca 8b 3e 13 15 87 be
       0.21023636 0.3666984 0.2730292 -0.26383266
0003e0 54 46 2f be 5c 22 8f bc 72 68 ee 39 86 14 1f bc
       -0.17116672 -0.017472439 0.00045472715 -0.009709483
0003f0 8d 05 8a 3e 69 17 ae 3e 27 36 12 be 62 3c 1d be
       0.2695736 0.34002236 -0.1427847 -0.15355065
