weights/benchmark-two/flash_vit_5epochs.pth (torch, 38091 bytes, 11 tensors)

v_class f4 [1, 8]
0	0x3a1eede0	0.0006062668
1	0x3c35b954	0.011091549
2	0x3f253370	0.6453161
3	0x3e8cd423	0.27505597
4	0x3f3a418d	0.7275627
5	0xbd53ab55	-0.051677067
6	0x3f6bd3b0	0.92119884
7	0x3e1fde60	0.15612173

linear_mapper.weight f4 [8, 16]
0	0x3ed53aae	0.41646332
1	0x3e421491	0.18953158
2	0xbdc32e07	-0.095302634
3	0x3e84cc6b	0.2593721
4	0x3e51af32	0.20476988
5	0x3e5b54f4	0.21419126
6	0xbd22228d	-0.03958373
7	0x3ea98228	0.33107114
8	0x3e72616f	0.2366998
9	0xbe295de1	-0.16539718
10	0x3e3b0513	0.18263654
11	0x3e89c785	0.26910034
12	0x3e0e9c20	0.13926744
13	0x3dbd0734	0.092298895
14	0x3e7d1a04	0.24716955
15	0x3e915d68	0.28391576
16	0x3e20e43f	0.15712069
17	0x3cecce6d	0.028907025
18	0xbdea1f64	-0.114317685
19	0x3dd9ae9f	0.106290095
20	0x3d3787db	0.044807296
21	0x3dbbf172	0.091769114
22	0xbbb50477	-0.005524214
23	0x3ea765eb	0.32694945
24	0xbe4e2fef	-0.20135473
25	0xbda19b53	-0.07890954
26	0xbe13944f	-0.14412044
27	0xbdc054da	-0.09391184
28	0xbe6ebbb4	-0.2331379
29	0xbf046c34	-0.51727605
30	0xbe5c2ccf	-0.21501468
31	0xbecf47b0	-0.4048438
32	0x3f336e28	0.7008996
33	0x3ed6c6c0	0.4194851
34	0x3ea9bbfc	0.33151233
35	0x3f0faac4	0.5611994
36	0xbd9c320a	-0.07626732
37	0x3e640aa6	0.22269687
38	0x3e2b20bd	0.16711707
39	0xbd0eeede	-0.03489577
40	0xbe9bd48a	-0.30435592
41	0xbe64cecc	-0.22344512
42	0xbae7b992	-0.0017679206
43	0xbdda243b	-0.10651442
44	0xbe036d48	-0.12834656
45	0xbe1896f9	-0.14901341
46	0x3da6abaa	0.08138211
47	0xbeaf8826	-0.3428356
48	0xbe17639f	-0.14784096
49	0xbe4aa2c2	-0.1978865
50	0xbe90b1f5	-0.2826077
51	0xbe6a1b30	-0.22861934
52	0xbe6f414c	-0.23364753
53	0x3e8b6016	0.27221745
54	0x3dc459a0	0.09587407
55	0x3d7cc030	0.06170672
56	0x3dbd6b1c	0.09248945
57	0x3dfabc66	0.122429654
58	0x3e6d4f55	0.23174794
59	0xbe09af6b	-0.13445823
60	0xbe372419	-0.17884864
61	0xbe84f3dd	-0.25967303
62	0xbe0ca6b7	-0.13735472
63	0xbe85b659	-0.26115683
64	0x3da29e65	0.079403676
65	0xbe537dca	-0.20653453
66	0xbda46d68	-0.0802868
67	0xbeadb92f	-0.33930346
68	0xbe2e11b8	-0.16998947
69	0xbec195d1	-0.37809613
70	0xbddf62ca	-0.109075144
71	0xbdf70e75	-0.12063304
72	0x3e85993f	0.2609348
73	0xbe896348	-0.26833558
74	0xbe93f11c	-0.2889489
75	0xbe30bea2	-0.1726022
76	0x3e123e41	0.1428156
77	0x3e31d38b	0.17365853
78	0x3e188d0b	0.14897554
79	0x3ee453b9	0.44595125
80	0xbeae579a	-0.3405121
81	0xbe556ac3	-0.20841508
82	0x3dfe6c2f	0.12422978
83	0xbe5ab1c3	-0.21356873
84	0x3d3e6c63	0.046490084
85	0xbdf67d0d	-0.1203557
86	0x3dfa5a06	0.12224202
87	0xbe935ccd	-0.2878174
88	0xbd46dbf2	-0.0485496
89	0x3db8b172	0.0901822
90	0x3dc4b225	0.09604291
91	0xbdfdd336	-0.12393801
92	0x3e6a088c	0.22854823
93	0x3e3d73ee	0.18501255
94	0xbe4310b0	-0.19049335
95	0xbe7e2762	-0.24819711
96	0x3e7b60f7	0.24548708
97	0xbe58da68	-0.21177065
98	0xbe92c2df	-0.286643
99	0xbecbc980	-0.3980217
100	0xbde8f0b4	-0.113740355
101	0xbd59f8dd	-0.05321585
102	0xbe68ef47	-0.22747527
103	0xbea0b7a5	-0.3139011
104	0x3cc4ad87	0.024008526
105	0xbe32108d	-0.17389126
106	0xbe72490b	-0.23660676
107	0xbd2d0684	-0.042242542
108	0xbdf64849	-0.12025506
109	0xbe3e7de9	-0.18602718
110	0x3e67c2d8	0.2263292
111	0x3e6b283c	0.22964567
112	0x3e86b1c8	0.2630751
113	0xbe80ab36	-0.25130624
114	0xbe676664	-0.22597653
115	0xbdc579f7	-0.096424036
116	0x3e24c30a	0.16090026
117	0xbe684e19	-0.22686042
118	0xbe412942	-0.18863395
119	0xbe2ab74d	-0.16671486
120	0xbdb70687	-0.08936792
121	0xbe4237e8	-0.18966639
122	0xbe4cac31	-0.19987561
123	0xbe6b61a0	-0.2298646
124	0xbea19d71	-0.3156543
125	0xbea9c7e5	-0.3316032
126	0xbeb0ffa9	-0.34570053
127	0xbe8a357d	-0.26993933

linear_mapper.bias f4 [8]
0	0x3e6aa436	0.22914204
1	0xbd8801a2	-0.066409364
2	0x3e21caba	0.1579999
3	0x3bccf2f2	0.0062545473
4	0xbe6d6e4a	-0.23186603
5	0x3dcb19c4	0.09917024
6	0xbd9481c2	-0.07251312
7	0xbe059598	-0.13045347

blocks.0.to_q.weight f4 [128, 8]
0	0xbe313fb1	-0.17309453
1	0x3e044815	0.12918122
2	0x3e8e03ef	0.27737376
3	0x3e8e89b2	0.27839428
4	0x3ec28185	0.3798944
5	0xbea480b4	-0.32129443
6	0x3e1e4d14	0.1545909
7	0xbe31e5ab	-0.17372768
8	0x3d28c8c2	0.041207083
9	0xbe9a129b	-0.3009232
10	0x3e7c4ec1	0.24639417
11	0xbe810f0f	-0.252068
12	0x3e062e33	0.13103561
13	0x3e276b05	0.16349418
14	0x3d64e2f1	0.05588049
15	0xbe2e64c0	-0.1703062
16	0x3f05baa2	0.52237904
17	0xbc82e8f9	-0.01598023
18	0xbe109750	-0.14120221
19	0xbe85ca8e	-0.261311
20	0x3e57c926	0.21072826
21	0x3c495777	0.01228892
22	0xbdcbe5e5	-0.09955958
23	0x3ebdbe7e	0.37059397
24	0x3e9efd55	0.31052652
25	0xbeaaddb3	-0.33372268
26	0xbea8ef07	-0.32994863
27	0x3bacac72	0.0052695805
28	0x3e210028	0.15722716
29	0xbd2a137b	-0.041522484
30	0xbe8d8a56	-0.27644604
31	0xbdbb3bb0	-0.09142244
32	0xbebd7ddb	-0.37010083
33	0x3e4769e3	0.19473986
34	0x3eca5106	0.3951494
35	0xbeb15cde	-0.34641165
36	0x3e008c21	0.12553455
37	0x3dfd6d24	0.123743325
38	0x3dee19d9	0.11626024
39	0xbe2875d1	-0.16451193
40	0x3e382ec7	0.17986594
41	0x3e34e4c7	0.17665397
42	0xbd1fc90b	-0.03901009
43	0xbdbfd596	-0.0936691
44	0xbe060e60	-0.13091421
45	0x3d09e509	0.03366569
46	0xbdd919f2	-0.10600652
47	0xbde676e9	-0.11253149
48	0x3ebe4d41	0.37168315
49	0x3e66cf92	0.2254012
50	0xbe06ff8a	-0.13183418
51	0xbdafda28	-0.08586532
52	0xbd8f8949	-0.07008607
53	0x3b7bc774	0.0038418444
54	0x3bd866d1	0.0066040535
55	0x3dcace9c	0.09902689
56	0xbd1da2b0	-0.03848523
57	0xbe3bc0ee	-0.18335316
58	0x3e52e894	0.20596534
59	0x3e197a9f	0.14988182
60	0xbd4aaf98	-0.049483865
61	0xbe4e7a7d	-0.20163913
62	0xbe804506	-0.2505266
63	0xbea4d10b	-0.32190737
64	0xbf3cc985	-0.73744994
65	0x3ea02c7f	0.31283948
66	0x3e30bfd3	0.17260675
67	0xbcea1648	-0.028575078
68	0xbef7c108	-0.4838946
69	0xbecc3b16	-0.3988883
70	0xbe70bf52	-0.23510483
71	0x3e336969	0.1752068
72	0x3baeeac9	0.005338047
73	0xbda4a29e	-0.08038829
74	0x3ec7e426	0.3904125
75	0xbc844c2e	-0.016149607
76	0xbe8bf388	-0.27334237
77	0x3ec7f69d	0.39055339
78	0xbe6860db	-0.22693197
79	0x3d2ac767	0.04169407
80	0xbf073efb	-0.52830476
81	0x3ea38f6b	0.31945357
82	0x3ebb8ec8	0.3663237
83	0x3df0d694	0.117596775
84	0xbe3cc20d	-0.184334
85	0xbeccb8a4	-0.3998462
86	0xbe634c02	-0.22196963
87	0x3e7778e8	0.24167216
88	0xbd3c9338	-0.046038836
89	0x3ebef2f2	0.37294728
90	0x3e902f92	0.28161293
91	0x3e14d79d	0.14535375
92	0xbd1c24f5	-0.038121182
93	0xbe32b892	-0.1745322
94	0xbeb65b10	-0.3561635
95	0xbe816df4	-0.252792
96	0xbda6f775	-0.081526674
97	0xbed3bc7f	-0.4135475
98	0xbf8475cf	-1.0348452
99	0xbf27e8e4	-0.6558974
100	0xbeb70634	-0.3574692
101	0xbf122f9d	-0.571039
102	0xbf1a6039	-0.60303074
103	0xbe50aa5a	-0.20377484
104	0xbe864991	-0.26228002
105	0x3e91a067	0.2844269
106	0xbd48a88a	-0.048988856
107	0xbe8e3ae6	-0.2777931
108	0xbbee00d5	-0.007263283
109	0xbe5d0e33	-0.21587448
110	0xbd5821ac	-0.052766487
111	0xbeb9cc8a	-0.36288863
112	0x3f418d52	0.7560626
113	0xbdd3fdcc	-0.10351142
114	0x3f518d4a	0.81856215
115	0x3f161247	0.5862164
116	0x3f0aa1cc	0.5415313
117	0x3e278e2f	0.16362832
118	0x3f115345	0.56767684
119	0x3e61bfe6	0.2204586
120	0xbe56c22e	-0.20972511
121	0x3ef98404	0.48733532
122	0xbdb1729e	-0.086644396
123	0xbde73bfa	-0.112907365
124	0xbd7f5aa0	-0.062342286
125	0xbede2a17	-0.43391487
126	0x3e5a3bb6	0.2131184
127	0xbeecfdc3	-0.46287355
128	0x3f44837f	0.7676315
129	0x3e85dd28	0.2614529
130	0x3f250d36	0.64473283
131	0x3e0e6beb	0.13908355
132	0xbdf134aa	-0.11777623
133	0x3e791ee6	0.24328193
134	0x3ec19ce5	0.37815014
135	0xbe45c4e4	-0.19313389
136	0xbebe1596	-0.37125844
137	0xbd4ea059	-0.05044589
138	0x3dac6604	0.084178954
139	0xbe40fb5d	-0.18845887
140	0xbd75123e	-0.05983185
141	0xbe22c713	-0.15896253
142	0xbe6f1328	-0.23347151
143	0x3e90b94a	0.28266364
144	0x3ecc157d	0.39860144
145	0xbdaafa45	-0.083485164
146	0xbdd5d461	-0.10440899
147	0xbdef511e	-0.11685394
148	0xbeb3614b	-0.35035166
149	0xbe970d1e	-0.29502195
150	0x3dca4ea3	0.0987828
151	0xbe21ad14	-0.1578868
152	0xbece82ad	-0.40334073
153	0x3dec39f3	0.115344904
154	0x3c8db5b9	0.017298566
155	0xbdeb979f	-0.11503529
156	0x3dda53a9	0.10660488
157	0xbe06dbb1	-0.13169743
158	0xbc598db5	-0.0132784145
159	0xbe3d4f58	-0.18487298
160	0xbee19a5e	-0.44063085
161	0x3eba585a	0.36395532
162	0xbd2feea8	-0.04295221
163	0x3dc22b88	0.09480959
164	0xbd7b15c3	-0.06130005
165	0x3b5026d7	0.0031761432
166	0x3ec9bd3f	0.39402196
167	0x3e21557a	0.15755263
168	0xbe36872b	-0.17825
169	0x3daeba2e	0.08531605
170	0x3e6cf21d	0.23139234
171	0x3d90809d	0.07055781
172	0x3e304fdc	0.17217964
173	0x3eb0e045	0.34546104
174	0xbdf2c46e	-0.11853872
175	0x3d6fd152	0.058549233
176	0xb9202cad	-0.00015275432
177	0xbe223642	-0.1584101
178	0x3e51ae3a	0.20476618
179	0x3e73bc77	0.23802362
180	0xbe791d16	-0.24327502
181	0xbe65d66b	-0.22445075
182	0xbe93dd67	-0.28879854
183	0xbe9c764c	-0.30559003
184	0xbe892b55	-0.26790872
185	0xbdb79051	-0.08963073
186	0x3e1d633b	0.15369885
187	0x3d561fe0	0.052276492
188	0xbea4c0d4	-0.32178366
189	0xbe88d504	-0.26725018
190	0x3df445d0	0.11927378
191	0xbe850748	-0.25982118
192	0xbe3bee98	-0.18352735
193	0x3e905f3f	0.28197667
194	0x3d65a07d	0.056061257
195	0x3c0b0841	0.008485855
196	0x3cdba472	0.026811812
197	0xbd8bcf31	-0.06826628
198	0xbde88068	-0.113526165
199	0xbe91b008	-0.28454614
200	0xbf384094	-0.7197354
201	0xbe520e70	-0.2051332
202	0xbeebcd2f	-0.4605498
203	0xbf14cbe1	-0.58123595
204	0xbf06664f	-0.5249986
205	0xbe8608bb	-0.26178536
206	0xbe7dc2ff	-0.24781416
207	0xbe016482	-0.12635997
208	0x3ee19978	0.440624
209	0x3dd4ed24	0.103967935
210	0xbef52878	-0.47882438
211	0x3c42016f	0.011841162
212	0x3e005dfa	0.12535849
213	0xbb16d255	-0.0023013551
214	0xbe97ffb6	-0.2968728
215	0x3eae5464	0.3404876
216	0x3ce2c11c	0.027679972
217	0xbf0d01fb	-0.55081147
218	0xbf8ebae7	-1.1150788
219	0xbe92d4d0	-0.28677988
220	0xbd875f96	-0.066100284
221	0xbe18e01a	-0.14929238
222	0xbe6290a2	-0.22125486
223	0xbf027797	-0.5096373
224	0xbe54e27d	-0.20789523
225	0xbd37ee82	-0.044905193
226	0x3e7cc5eb	0.24684875
227	0x3e5831e1	0.21112777
228	0xbe8881ff	-0.2666168
229	0xbc944fdb	-0.018104484
230	0xbea6cd8c	-0.32578695
231	0xbe26bcb0	-0.16282916
232	0x3f8a12d6	1.0786998
233	0x3cc32bfa	0.02382468
234	0x3f2b699f	0.6695804
235	0xbdb07e0d	-0.08617792
236	0x3ec86af9	0.39144114
237	0xbdeee375	-0.11664478
238	0x3e9c7d53	0.30564365
239	0x3ed80d92	0.42197853
240	0xbdecd9c6	-0.115649745
241	0x3eecd5f2	0.46256977
242	0xbc48192e	-0.012213035
243	0xbde889e3	-0.11354425
244	0x3e8cd88e	0.27508968
245	0xbdd297c7	-0.102828555
246	0x3c710b1d	0.014712122
247	0xbe0818b0	-0.13290668
248	0x3ea5ea26	0.32405204
249	0x3ebc648d	0.36795464
250	0x3f34c4b4	0.70612645
251	0x3e078535	0.13234408
252	0xbe10e9d4	-0.14151698
253	0x3ee4e670	0.4470706
254	0x3e8aae94	0.27086318
255	0x3e433b90	0.1906569

blocks.0.to_kv.weight f4 [256, 8]
0	0xbeb8e5dd	-0.36112872
1	0x3cd26290	0.025681764
2	0xbbc57119	-0.006025445
3	0x3dc40976	0.09572117
4	0xbd360922	-0.044442303
5	0x3d9384cc	0.07203063
6	0x3ebccc23	0.36874494
7	0x3e8feb7c	0.28109348
8	0x3e79f407	0.24409495
9	0x3dc3d0d7	0.095613174
10	0x3e8a9bf6	0.27072114
11	0xbdcf4c44	-0.101219684
12	0x3caa83b8	0.020814762
13	0x3d7b1879	0.061302636
14	0xbe91915e	-0.2843122
15	0xbe9c7c41	-0.30563548
16	0x3e3fb977	0.18723093
17	0xbf16e8c7	-0.5894894
18	0x3d3b93c0	0.045795202
19	0xbe9eefe0	-0.31042385
20	0xbc804994	-0.015660085
21	0x3caf58c8	0.021404639
22	0xbe2b3d61	-0.16722633
23	0x3e67a8c3	0.22622971
24	0x3ecfd8ee	0.40595192
25	0xbeb5f98a	-0.35541946
26	0xbe874507	-0.2641985
27	0xbea71743	-0.32634935
28	0xbe663ca3	-0.22484069
29	0xbe3464d8	-0.17616594
30	0xbc92f7f3	-0.017940497
31	0xbdcdfc2a	-0.10057862
32	0xbeb5fa11	-0.35542348
33	0x3eda820b	0.4267734
34	0xbe124a35	-0.1428612
35	0x3f4ef97d	0.8084944
36	0xbd6a6cd8	-0.057232708
37	0xbdd303a1	-0.103034265
38	0x3e604024	0.21899468
39	0x3d9536dc	0.07285854
40	0x3ead5100	0.3385086
41	0x3e50daf3	0.20396022
42	0x3ea7f21d	0.32801905
43	0xbe880b99	-0.26571348
44	0x3e4fdf82	0.20300105
45	0x3e8b861f	0.27250764
46	0xbe23ef94	-0.1600936
47	0x3ea235e0	0.31681728
48	0x3e2ce7b1	0.16885258
49	0xbe9557a6	-0.29168433
50	0x3e0ccf7b	0.13751023
51	0x3ce4bcdc	0.027922086
52	0xbe95b615	-0.2924048
53	0x3b74a4b4	0.0037329616
54	0x3e05e7f8	0.1307677
55	0xbe397458	-0.18110788
56	0x3e3296aa	0.17440286
57	0xbe34df82	-0.17663386
58	0x3e85901f	0.26086518
59	0x3edce77e	0.43145365
60	0x3e09567c	0.13411897
61	0xbe3a672d	-0.18203421
62	0x3e806087	0.25073645
63	0x3dda01e5	0.106448926
64	0xbbe1c7be	-0.006890266
65	0x3f651751	0.89488703
66	0x3e87612f	0.26441333
67	0x3e7a12ef	0.24421285
68	0xbda525a7	-0.08063822
69	0x3e833162	0.25623614
70	0x3d1d536f	0.038409647
71	0x3ea3646a	0.31912547
72	0xbeab1bb5	-0.33419576
73	0xbce9d20d	-0.028542543
74	0x3dec04d6	0.1152436
75	0xbee9dd5a	-0.4567669
76	0x3ead1ecb	0.33812556
77	0x3d4eef48	0.050521165
78	0xbea0eb1c	-0.31429374
79	0xbdfba49a	-0.12287255
80	0xbec67cff	-0.3876724
81	0x3f1452e1	0.57938963
82	0xbda1f157	-0.0790736
83	0x3d9cfa63	0.07664945
84	0x3d428774	0.04749246
85	0x3e062783	0.1310101
86	0xbc35a5eb	-0.011086921
87	0x3edbdccb	0.4294189
88	0xbe108cb1	-0.1411617
89	0x3ed71d7e	0.42014688
90	0x3cfcfb61	0.030881586
91	0xbe4bae7c	-0.1989078
92	0x3e1d224a	0.15345111
93	0x3ea19d94	0.31565535
94	0xbde84935	-0.11342088
95	0xbe1159d6	-0.14194426
96	0x3ee80413	0.45315608
97	0x3ebd8b74	0.37020457
98	0xbe543cb4	-0.20726281
99	0x3e91c6a3	0.2847186
100	0xbd6178dc	-0.0550469
101	0xbeaeef40	-0.34166908
102	0x3d732d4b	0.059369367
103	0x3e074f2c	0.13213795
104	0xbd540f1a	-0.051772214
105	0x3ebb5f83	0.36596307
106	0xbea84cfd	-0.32871237
107	0x3ef94627	0.48686334
108	0x3e9e1009	0.3087161
109	0x3e6d2696	0.2315925
110	0x3de91037	0.11380046
111	0x3e3b33bf	0.18281458
112	0xbe9e5c28	-0.30929685
113	0xbe84b78c	-0.25921285
114	0x3cd85852	0.026409302
115	0xbe9a6a2b	-0.30159125
116	0xbe9382fe	-0.28810877
117	0x3e5b1435	0.21394427
118	0x3e4cf5c4	0.20015627
119	0xbeb67ede	-0.35643667
120	0x3e24f7e4	0.16110188
121	0x3ecdd457	0.40201065
122	0x3e99bd63	0.30027303
123	0x3eef8648	0.46782136
124	0x3ea38cc6	0.3194334
125	0xbda72cfb	-0.08162876
126	0x3e986e1b	0.29771504
127	0x3ec2974b	0.38006052
128	0xbedc7924	-0.43061173
129	0xbeecb82f	-0.4623427
130	0x3e09ac80	0.1344471
131	0xbbb6a2c0	-0.0055736005
132	0xbe50a4b4	-0.2037533
133	0xbc503ef8	-0.012710325
134	0xbd5c08d5	-0.05371936
135	0x3cd838d9	0.026394295
136	0xbdc7362f	-0.097271316
137	0x3ee0a502	0.4387589
138	0x3e7f4950	0.2493031
139	0xbe82138a	-0.25405532
140	0x3a18b3bf	0.0005825124
141	0x3cd127ef	0.025531737
142	0x3deeec90	0.116662145
143	0x3e973bbb	0.29537758
144	0x3e249c8c	0.16075343
145	0xbd71d928	-0.059044987
146	0x3e95bf7b	0.2924765
147	0xbdcc7e97	-0.099850826
148	0xbdbf3d29	-0.09337837
149	0x3c5bcb33	0.013415146
150	0xbe5bee50	-0.21477628
151	0x3da038b6	0.07823317
152	0xbe2a7c15	-0.16648896
153	0x3ed3b624	0.413499
154	0x3c9f7e52	0.019469414
155	0x3e6b53db	0.22981207
156	0xbe99fefe	-0.30077356
157	0xbe8bbaad	-0.2729086
158	0x3e492b4c	0.19645423
159	0x3eb9358f	0.36173674
160	0xbeda1e8c	-0.4260143
161	0x3e807b37	0.25094005
162	0xbe95e2be	-0.29274553
163	0x3de7f54f	0.11326086
164	0x3ec2420f	0.37941024
165	0x3ea7073c	0.32622707
166	0xbe76fc01	-0.2411957
167	0x3e8c7649	0.27433994
168	0x3da9e5ea	0.08295806
169	0xbc94fd0a	-0.018187065
170	0x3eb03e95	0.34422746
171	0xbe42d4eb	-0.19026534
172	0xbd7c91bf	-0.06166243
173	0xbe1a2541	-0.15053274
174	0x3ce41622	0.027842585
175	0x3d913a67	0.070912175
176	0x3ceef0ed	0.029167617
177	0xbde33b31	-0.11095274
178	0xbe44ee6d	-0.19231577
179	0x3e2b34f7	0.16719423
180	0xbe8df84d	-0.277285
181	0xbd06b412	-0.032886572
182	0x3d82f946	0.063952014
183	0xbdf215b5	-0.118205465
184	0x3dd1c601	0.102428444
185	0x3e609650	0.2193234
186	0x3e30a1b3	0.17249183
187	0x3d907ab5	0.070546545
188	0xbe218e8e	-0.15777037
189	0x3ea3a503	0.3196183
190	0x3e1d2a0c	0.15348071
191	0xbc3e7117	-0.011623642
192	0xbe3cbffe	-0.18432614
193	0x3eecc28d	0.4624218
194	0xbeaf94fd	-0.34293357
195	0x3eff7aca	0.49898368
196	0x3e274e96	0.16338572
197	0xbe87be3b	-0.26512322
198	0xbe4355ce	-0.190757
199	0xbe3d15af	-0.18465303
200	0x3ea8044e	0.32815784
201	0x3ee51f68	0.44750524
202	0xbd6844e5	-0.056706328
203	0x3ecd9d2e	0.4015898
204	0xbdab24fa	-0.08356662
205	0xbe9235a4	-0.2855655
206	0x3e32383b	0.17404263
207	0x3e31674e	0.17324564
208	0x3f0f7f28	0.560534
209	0xbf124739	-0.5713993
210	0x3eb895eb	0.36051878
211	0xbb2d2e1e	-0.0026425193
212	0x3e095163	0.13409953
213	0xbefaad58	-0.48960376
214	0x3e27172b	0.16317432
215	0xbed89c22	-0.4230662
216	0x3ecdd334	0.40200198
217	0x3d8a0cc9	0.0674072
218	0xbeb6425b	-0.355975
219	0x3e4039fd	0.18772121
220	0xbd460146	-0.04834106
221	0xbe96c94b	-0.2945045
222	0xbd88441b	-0.06653615
223	0x3db072fb	0.08615681
224	0x3e3fba87	0.18723498
225	0x3e0160c8	0.12634575
226	0x3e0c26e1	0.13686706
227	0x3e15eac3	0.14640336
228	0x3ddd244e	0.1079794
229	0x3e242b46	0.16032133
230	0xbe02311e	-0.12714049
231	0xbe87dc03	-0.26535043
232	0xbe81b818	-0.25335765
233	0xbeee3326	-0.46523398
234	0xbe18e87c	-0.14932436
235	0xbd860f4c	-0.065458864
236	0xbe4ed959	-0.20200099
237	0xbe3f264e	-0.18666956
238	0xbd56f072	-0.0524754
239	0xbd03923b	-0.032121878
240	0xbe199d01	-0.15001298
241	0x3e9b2b82	0.3030663
242	0x3c14f716	0.009092113
243	0x3ec72795	0.38897386
244	0xbd7c1be8	-0.06155005
245	0xbe15fe79	-0.14647855
246	0xbe281bad	-0.16416807
247	0x3da279a2	0.07933356
248	0xbe84b92c	-0.25922525
249	0xbd9c9f87	-0.07647615
250	0x3d5d11e4	0.05397214
251	0xbbc1aee3	-0.0059107407
252	0x3d1fb6c3	0.038992655
253	0x3e6b6ca8	0.22990668
254	0xbd9964fb	-0.074899636
255	0xbea99c88	-0.33127236

blocks.0.to_out.weight f4 [8, 128]
0	0x3d10bce9	0.03533641
1	0x3eb04a50	0.34431696
2	0x3cdafcd1	0.02673188
3	0xbe8535a2	-0.2601748
4	0xbe46b885	-0.19406326
5	0xbcb48dcf	-0.022040276
6	0xbc7bf70a	-0.015378723
7	0xbd40e227	-0.047090676
8	0xbe3bf44d	-0.18354912
9	0xbb4b847a	-0.0031054304
10	0xbd8330be	-0.06405781
11	0xbce59261	-0.0280239
12	0x3dc7aa76	0.0974931
13	0x3d67d8e8	0.056603342
14	0xbe739007	-0.23785411
15	0xbc52463b	-0.012834127
16	0xbbad95e9	-0.0052974117
17	0xbde4b8e6	-0.11168079
18	0x3d517f15	0.051146585
19	0x3ebe6ed4	0.3719393
20	0x3e5bf1b0	0.21478915
21	0x3d678b81	0.056529526
22	0x3e47ef23	0.19524817
23	0xbda82921	-0.0821097
24	0x3da137c3	0.07871964
25	0xbe360759	-0.1777624
26	0xbe80fcbc	-0.2519282
27	0xbd6633bb	-0.056201678
28	0x3d5b69bd	0.053567637
29	0x3d9658ef	0.073411815
30	0xbe92ec11	-0.2869573
31	0x3d83f570	0.06443298
32	0x3cee4841	0.029087188
33	0x3dbc9a3b	0.092091046
34	0xbceb93db	-0.028757026
35	0xbddcc9d2	-0.10780682
36	0x3cfd847c	0.030946963
37	0x3edc63b8	0.4304483
38	0x3cf203f0	0.029542893
39	0xbdf2caee	-0.11855112
40	0xbe8ef5a0	-0.27921772
41	0xbce5b82b	-0.02804192
42	0x3d1b2c89	0.03788427
43	0x3d95bab4	0.073110014
44	0xbd6714e3	-0.056416404
45	0x3e4f8764	0.20266491
46	0x3dfaf842	0.12254383
47	0xbe8e91a4	-0.2784549
48	0xbe969538	-0.2941072
49	0xbe105471	-0.14094712
50	0x3c72930d	0.014805567
51	0xbd440959	-0.047860477
52	0xbd74f93f	-0.059808012
53	0x3e441e62	0.19152215
54	0xbe00c25d	-0.12574144
55	0x3e33d782	0.17562678
56	0xbc28d10e	-0.010303749
57	0xbcd49bfa	-0.025953282
58	0xbd7eda82	-0.062220104
59	0xbe4e270d	-0.20132084
60	0xbe31160e	-0.1729357
61	0x3dd35238	0.10318416
62	0xbeadb977	-0.3393056
63	0x3e1fafb8	0.15594375
64	0xbde76424	-0.11298397
65	0x3d1ccbc6	0.03828027
66	0xbd75af8e	-0.059981875
67	0x3db2d992	0.087329045
68	0x3df049ac	0.11732802
69	0x3dc62c8d	0.09676466
70	0x3dc6333d	0.09677742
71	0x3db7a865	0.089676656
72	0xbbcd146b	-0.0062585375
73	0xbb5e072a	-0.0033878782
74	0xbd8d14a0	-0.068886995
75	0x3c9ab3d2	0.018884573
76	0xbbfbc834	-0.007683778
77	0x3cb51f2a	0.022109587
78	0x3d9bce17	0.07607668
79	0xbc64bc79	-0.013960951
80	0xbdc1e388	-0.09467226
81	0x3e214d5c	0.15752167
82	0x3c794df6	0.015216341
83	0x3d9f3d08	0.07775313
84	0x3d816399	0.06317825
85	0xb9ba3e50	-0.0003552311
86	0xbd6a667f	-0.057226654
87	0xbdd2fe2c	-0.10302386
88	0x3cee4a0a	0.029088039
89	0x3c99e41a	0.018785525
90	0x3b797635	0.0038064842
91	0x3d4f9bf7	0.05068585
92	0xbb5dc947	-0.0033841894
93	0x3d802b25	0.06258229
94	0x3da4128a	0.080113485
95	0xbc1fcbf4	-0.009753216
96	0xbaf55d76	-0.001871987
97	0xbd6b2d94	-0.057416514
98	0xb91fc7dc	-0.00015237875
99	0xbdcbe80b	-0.09956368
100	0x3d66e865	0.056373972
101	0x3e6a7690	0.2289679
102	0xbcb8c9fd	-0.022557253
103	0xbdbfec6d	-0.093712665
104	0x3e4290a0	0.19000483
105	0x3cb127e6	0.02162547
106	0xbd1c5a44	-0.03817202
107	0x3d145498	0.036213487
108	0xbc5bb2b1	-0.013409303
109	0xbd91acd8	-0.071130455
110	0xbd8d4cea	-0.06899436
111	0x3da7bb9b	0.0819008
112	0x3e06e293	0.13172369
113	0xbe4ff6cd	-0.20308991
114	0x3d85c4c5	0.065316714
115	0xbe7db804	-0.24777228
116	0xbd8bfe1e	-0.068355784
117	0xbe04331d	-0.12910123
118	0xbd8d67f5	-0.06904594
119	0x3d3d4697	0.046209898
120	0x3d2558d8	0.04036793
121	0xbd2b7a89	-0.041864906
122	0xbd484919	-0.048897836
123	0x3c30598c	0.010763537
124	0x3cbc38de	0.022976335
125	0x3c08a07d	0.008339045
126	0x3dded89d	0.108811595
127	0x3cfd3037	0.03090678
128	0xbd259a5e	-0.04043042
129	0x3cfbbdeb	0.030730208
130	0xbdc8f80c	-0.09812936
131	0x3c896fc8	0.016776934
132	0x3cdff1e1	0.027337017
133	0xbd7adeb2	-0.061247535
134	0x3dbf3873	0.09336939
135	0x3d80280c	0.06257638
136	0x3e0ac067	0.13549958
137	0xbcc25a3a	-0.023724664
138	0xbd259dc9	-0.04043368
139	0x3e2116c1	0.15731336
140	0xbdb8b2e2	-0.09018494
141	0xbc12f903	-0.008970502
142	0x3e0df8fb	0.1386451
143	0xbccda8d9	-0.025104927
144	0xbd1f7a6e	-0.038935117
145	0xbd616cf7	-0.055035558
146	0x3cbeb9a6	0.023281883
147	0xbd9b7ae8	-0.07591802
148	0xbce6abce	-0.028158095
149	0x3cb8d7ea	0.022563893
150	0xbe11accb	-0.14226072
151	0xbdd1bc5e	-0.10241006
152	0x3d164531	0.03668708
153	0x3dc99265	0.09842376
154	0x3e31be5a	0.1735777
155	0xbcd30d91	-0.025763305
156	0xbc83f5fa	-0.016108502
157	0xbcb24af2	-0.021764252
158	0x3e018e48	0.12651932
159	0x3ac31dea	0.0014886234
160	0xbcf60c1d	-0.030035073
161	0x3e1de5bc	0.15419668
162	0x3d864931	0.06556929
163	0xbbd4531c	-0.006479634
164	0xbd663839	-0.05620596
165	0xbd1ad911	-0.037804667
166	0x3c98549c	0.018595032
167	0x3d50cdf4	0.050977662
168	0x3d3a6efa	0.04551599
169	0xbd995bd4	-0.07488218
170	0x3cddf592	0.027094636
171	0xbd154e07	-0.036451366
172	0xbc9dc813	-0.019260442
173	0xbd736527	-0.05942264
174	0xbd379fbd	-0.044830073
175	0x3db464e9	0.088083096
176	0x3e309557	0.17244469
177	0xba3e208f	-0.00072527764
178	0x3d04ab65	0.032390017
179	0xbd097109	-0.033555064
180	0xbc2f319a	-0.010692978
181	0xbce19d17	-0.027540727
182	0x3e0b7d62	0.13622048
183	0x3dc20f3d	0.09475563
184	0xbe3e1627	-0.18563138
185	0xbcf637bc	-0.030055873
186	0xbcb230db	-0.021751812
187	0xbcd9020d	-0.026490236
188	0x3e0c7ee4	0.1372028
189	0xbd6c25c5	-0.057653207
190	0x3e2d3b49	0.16917147
191	0xbdf31c45	-0.11870626
192	0x3d89590d	0.06706438
193	0xbe28ae88	-0.16472828
194	0xbdbb8bd5	-0.0915753
195	0x3e2da6c5	0.16958149
196	0xbec3d2b1	-0.38246682
197	0xbdb01419	-0.08597583
198	0xbe35bd66	-0.17748031
199	0xbdeec947	-0.11659484
200	0xbb808f8b	-0.0039233617
201	0x3caf4d16	0.021399062
202	0x3e7317a2	0.23739484
203	0xbc67dbdd	-0.014151541
204	0x3d8ae44b	0.06781825
205	0x3d87289e	0.06599544
206	0x3ddfd562	0.109293714
207	0x3dacf97f	0.08446025
208	0x3e170c96	0.14750895
209	0xbeb99d3a	-0.36252767
210	0x3dae583b	0.085129224
211	0x3d083079	0.033249352
212	0xbdce2eeb	-0.10067543
213	0xbdeb4c99	-0.11489219
214	0x3e8d459f	0.2759218
215	0xbeabc5f7	-0.33549473
216	0xbe1819f2	-0.14853647
217	0x3dba36e6	0.09092502
218	0x3d8b1d6f	0.067927234
219	0xbe94ee72	-0.2908817
220	0x3c4b9c57	0.012427411
221	0xbd59528f	-0.05305725
222	0xbcfc7857	-0.030819101
223	0x3e668bbc	0.22514242
224	0xbc65ec34	-0.014033366
225	0xbd5d6ad2	-0.05405695
226	0xbe34a91b	-0.17642634
227	0xbcacdc38	-0.021101102
228	0xbddb402f	-0.107056014
229	0xbe5a4699	-0.21315993
230	0x3e9529f7	0.2913358
231	0xbcd26a8b	-0.02568557
232	0xbedc8e49	-0.43077305
233	0xbe14ab9f	-0.14518593
234	0x3db1c588	0.08680254
235	0xbd83030e	-0.06397067
236	0x3e3c1d03	0.18370442
237	0xbe9c8ee4	-0.30577767
238	0xbe1021f5	-0.14075454
239	0x3bf20f4e	0.0073870784
240	0xbdff3b82	-0.12462522
241	0x3e3028df	0.17203091
242	0xbe54f4a0	-0.20796442
243	0x3f015ea2	0.50535023
244	0xbbfba3fa	-0.0076794596
245	0x3cf54d96	0.029944222
246	0x3c923a35	0.01785002
247	0xbe125d77	-0.14293467
248	0x3db93877	0.09043973
249	0xbd87dcd7	-0.06633919
250	0xbdff4507	-0.12464338
251	0x3ac7c19c	0.0015240195
252	0xbe608b14	-0.21928054
253	0x3e25a2e6	0.16175422
254	0xbbad12e1	-0.0052817916
255	0xbd91ceea	-0.07119544

blocks.1.to_q.weight f4 [128, 8]
0	0x3d796286	0.060884975
1	0xbd0db630	-0.034597576
2	0x3d8b8348	0.06812149
3	0xbae3dbad	-0.0017384194
4	0x3e9ce4d7	0.3064334
5	0xbf1b6d2d	-0.60713464
6	0x3e938cc1	0.28818324
7	0xbebfb3b8	-0.37441802
8	0x3e8ec38e	0.2788357
9	0xbdaf96c0	-0.08573675
10	0x3ec8c2fd	0.39211264
11	0xbc9d0416	-0.019166987
12	0x3e019ee7	0.12658273
13	0x3dba20fd	0.09088323
14	0x3c5247fd	0.012834546
15	0xbea47e5a	-0.3212765
16	0x3df608a5	0.120133676
17	0x3e8dc2fb	0.2768782
18	0xbe0bc10b	-0.13647859
19	0x3ecfaba3	0.40560636
20	0xbd6a7c1d	-0.05724727
21	0xbdfd9084	-0.1238108
22	0xbe5d4136	-0.21606907
23	0x3e9477c4	0.28997624
24	0xbe02e0f2	-0.12781122
25	0x3e4b3e6d	0.19848032
26	0xbeabc74b	-0.33550486
27	0x3da27f76	0.079344675
28	0xbea4f3eb	-0.32217345
29	0x3dca9026	0.098907754
30	0x3e8260b0	0.25464392
31	0x3e721969	0.23642506
32	0xbe83f27c	-0.25770938
33	0xbe8f9fb0	-0.2805152
34	0xbe1b673c	-0.151761
35	0xbe45951b	-0.1929516
36	0x3ea6adc7	0.32554457
37	0xbe84ba8d	-0.25923577
38	0x3d01cf13	0.031691622
39	0x3eb707d9	0.35748175
40	0x3de1392e	0.10997234
41	0xbea3cfd7	-0.31994507
42	0xbe269313	-0.16267042
43	0x3c89d721	0.016826214
44	0x3df6a318	0.120428264
45	0x3e534c52	0.20634583
46	0xbded8fe4	-0.115997106
47	0x3eb47233	0.35243377
48	0x3d4e4b30	0.050364673
49	0x3e2b6e14	0.1674121
50	0x3c425831	0.011861847
51	0x3d981c98	0.07427329
52	0x3e685778	0.22689617
53	0xbe7b8935	-0.24564059
54	0x3db68806	0.08912663
55	0xbed96dcb	-0.42466578
56	0x3e08f784	0.1337567
57	0x3dd211ef	0.10257327
58	0xbeeb578d	-0.45965233
59	0xbb793e3d	-0.0038031482
60	0x3d46cae6	0.048533343
61	0x3ea0b451	0.3138757
62	0x3e02d7cc	0.12777632
63	0x3e23d4d6	0.15999159
64	0xbddf4fee	-0.10903917
65	0x3e8f1543	0.2794591
66	0x3c7494bc	0.014928039
67	0xbe636413	-0.22206144
68	0x3e9664a9	0.29373673
69	0xbe9f54e7	-0.31119463
70	0xbcc2ce0b	-0.02377989
71	0xbd966925	-0.073442735
72	0xbe13fc2f	-0.14451669
73	0x3e31e8ed	0.1737401
74	0xbe98351a	-0.29728013
75	0xbd9c695b	-0.076372825
76	0xbe330757	-0.17483269
77	0x3e8d670a	0.27617675
78	0x3dfdae12	0.12386717
79	0xbe6d1936	-0.23154148
80	0x3d893894	0.067002445
81	0xbd43a36b	-0.04776327
82	0x3e2e4761	0.17019416
83	0x3dcae452	0.0990683
84	0xbe0db79f	-0.13839577
85	0x3f06b278	0.5261607
86	0xbe28d1a2	-0.16486219
87	0xbe4f8ae3	-0.20267825
88	0x3e879004	0.26477063
89	0x3e95e5c2	0.29276854
90	0x3e8e1ec4	0.27757847
91	0xbecbe136	-0.3982026
92	0xba44fdab	-0.0007514606
93	0x3e2f20a5	0.17102297
94	0x3dc98181	0.09839154
95	0xbe5bc595	-0.2146209
96	0xbe22a424	-0.15882927
97	0xbe93be47	-0.28856108
98	0xbd8d373a	-0.06895299
99	0xbdafaf4c	-0.08578357
100	0x3e9c6080	0.30542374
101	0x3df28fe7	0.118438534
102	0x3e0f2baf	0.13981508
103	0xbd8e88be	-0.06959675
104	0x3e6797a5	0.22616442
105	0x3e5bd04c	0.21466178
106	0xbeb993ca	-0.36245567
107	0x3ddc8517	0.107675724
108	0xbe2d8508	-0.16945279
109	0x3ed6abe0	0.41928005
110	0xbdf345e0	-0.11878562
111	0xbd89c1a4	-0.06726387
112	0x3dad910e	0.084749326
113	0x3dcd328f	0.10019409
114	0x3dcb2fec	0.0992125
115	0xbe82c1c1	-0.25538447
116	0x3e2958e0	0.1653781
117	0x3e684097	0.22680889
118	0xbdddab4f	-0.1082369
119	0xbe73daa9	-0.23813881
120	0xbee18352	-0.44045502
121	0xbddb0b93	-0.10695567
122	0xbe93c5e0	-0.28861904
123	0x3ce3b18d	0.027794624
124	0xbd790f3a	-0.060805537
125	0x3e1ccc0c	0.15312213
126	0x3d12eafe	0.035868637
127	0xbd72c14c	-0.059266374
128	0xbe12ecce	-0.14348146
129	0xbd934bdd	-0.07192204
130	0xbe3df06a	-0.18548742
131	0xbe11b144	-0.14227778
132	0xbe9f6c6b	-0.31137404
133	0x3dd3772f	0.10325467
134	0xbe0f0675	-0.13967307
135	0x3d933252	0.07187332
136	0x3e339243	0.17536263
137	0xbe69bf0d	-0.22826786
138	0xbd87bab6	-0.06627409
139	0xbeb74f5d	-0.35802737
140	0x3e49076e	0.1963174
141	0xbe22eaea	-0.15909925
142	0xbdb8af1c	-0.090177745
143	0x3e1919d7	0.14951263
144	0x3d8a3689	0.06748683
145	0xbe869ae7	-0.26290056
146	0xbcd96301	-0.026536467
147	0xbe885a77	-0.2663152
148	0x3d903629	0.0704158
149	0x3e54c9c0	0.20780087
150	0xbc32d197	-0.010914228
151	0xbed55232	-0.41664273
152	0x3eb45579	0.3522146
153	0xbec1434a	-0.3774665
154	0xbae24182	-0.0017261954
155	0x3dff7538	0.124735296
156	0x3ea3fc15	0.3202826
157	0x3e4df881	0.20114328
158	0x3c70065a	0.014649952
159	0x3e1a5263	0.1507049
160	0xbe9b5201	-0.30336002
161	0xbd89b452	-0.067238465
162	0xbd982da9	-0.07430584
163	0x3e0a661a	0.13515511
164	0xbe90416f	-0.28174922
165	0xba761af1	-0.000938817
166	0x3e472de5	0.19451101
167	0x3ea85d5f	0.32883736
168	0x3ca127ce	0.0196723
169	0x3e7325bb	0.23744862
170	0xbe6503cb	-0.22364728
171	0xbe43cc1b	-0.19120829
172	0x3e66fdf5	0.22557814
173	0xbcbff7dd	-0.02343362
174	0x3e35d2a8	0.1775614
175	0xbe917009	-0.2840579
176	0x3ecc996e	0.39960808
177	0xbecf4a3c	-0.40486324
178	0x3db82f63	0.08993413
179	0xbe274ffb	-0.16339104
180	0xbe12abb2	-0.14323309
181	0xbf44d111	-0.7688151
182	0xbe52a35a	-0.20570126
183	0x3e936fca	0.28796226
184	0x3d6466bc	0.055762038
185	0xbdd2aa47	-0.10286384
186	0xbe2aa542	-0.16664603
187	0xbe5326e4	-0.20620304
188	0xbee24baf	-0.44198367
189	0xbd97e4f1	-0.07416714
190	0xbec9de3a	-0.39427358
191	0x3e9c55a6	0.30534095
192	0xbde89f15	-0.113584675
193	0xbdd23fe5	-0.10266093
194	0xbe5cfb98	-0.2158035
195	0x3b8bc345	0.0042652213
196	0xbca6e515	-0.020372907
197	0xbec9a953	-0.39386997
198	0x3e4524ec	0.19252366
199	0x3e93d0af	0.2887015
200	0xbe4d200b	-0.20031755
201	0x3df01a74	0.117237955
202	0x3d575b59	0.05257735
203	0xbcfe354a	-0.03103127
204	0x3e273c45	0.16331585
205	0xbe84ac3b	-0.2591265
206	0x3e5fc752	0.21853378
207	0x3e90955a	0.28238946
208	0xbe34bee4	-0.17650944
209	0xbe80a8a3	-0.2512866
210	0xbeca538b	-0.39516863
211	0x3e541ea7	0.20714818
212	0xbeb2657e	-0.34843057
213	0xbe5c27d8	-0.21499574
214	0xbe6378fb	-0.22214119
215	0xbe87fbaa	-0.26559192
216	0xbe83e9cc	-0.2576431
217	0x3e94bce8	0.29050374
218	0x3e2935f4	0.16524488
219	0x3ed55f40	0.41674232
220	0xbe992a1e	-0.29914945
221	0xbdf8121a	-0.121128276
222	0xbe1125c0	-0.14174557
223	0x3e098461	0.13429405
224	0xbeaf318b	-0.34217486
225	0x3d6268ad	0.055275608
226	0xbea7b848	-0.32757783
227	0x3dd50b6b	0.104025684
228	0x3e92fd7a	0.28709012
229	0x3df3c401	0.11902619
230	0x3e477a12	0.1948016
231	0xbe6e3f93	-0.23266439
232	0xbe1e62d1	-0.15467383
233	0xbdcc185c	-0.09965584
234	0xbe76b3d8	-0.24092042
235	0xbe16771b	-0.14693873
236	0xbdfc2d1f	-0.12313294
237	0x3bb33088	0.005468432
238	0xbe4f816b	-0.20264213
239	0xbdda4060	-0.1065681
240	0xbe1e982b	-0.15487735
241	0xbe984946	-0.29743403
242	0x3eac397b	0.33637604
243	0x3e38dd89	0.18053259
244	0xbe1780f3	-0.14795284
245	0xbde079b6	-0.109607145
246	0x3e070de1	0.13188888
247	0xbea92bc3	-0.330412
248	0xbed2170f	-0.41033217
249	0x3e7e43a0	0.24830484
250	0xbde28c43	-0.11061909
251	0x3e2d26d9	0.1690935
252	0xbe58fb39	-0.21189584
253	0x3e03994d	0.12851448
254	0x3e383910	0.17990518
255	0xbd36fc02	-0.044673927

blocks.1.to_kv.weight f4 [256, 8]
0	0xbed4c350	-0.41555262
1	0x3d973595	0.07383267
2	0x3e040886	0.12893876
3	0xbeb8560a	-0.36003143
4	0x3cf28f0d	0.029609228
5	0xbeb5ca0c	-0.35505712
6	0x3c9e6620	0.019335806
7	0x3e3da320	0.18519258
8	0xbe2964df	-0.16542386
9	0xbe35d494	-0.17756873
10	0x3e88cdee	0.26719612
11	0xbebaf76b	-0.3651689
12	0xbc9b35df	-0.018946586
13	0xbedb2d44	-0.42807972
14	0x3e587a95	0.21140511
15	0x3d2c0bc3	0.042003404
16	0xbe0125a9	-0.12612022
17	0x3e7d9d61	0.24767067
18	0x3e82a8f8	0.25519538
19	0x3e888c78	0.2666967
20	0xbe949a60	-0.2902403
21	0x3dc75cfc	0.09734532
22	0x3e6d9b1e	0.23203704
23	0x3e9ebb57	0.31002304
24	0xbe15a7b5	-0.14614756
25	0x3e7d9f59	0.24767818
26	0xbe9f2995	-0.31086412
27	0x3e566089	0.20935263
28	0x3e7e997e	0.2486324
29	0x3e3b0f74	0.18267614
30	0xbe89cfcc	-0.2691635
31	0x3e298d92	0.16557911
32	0x3e0447ef	0.12918065
33	0x3e770196	0.24121699
34	0xbe7e8366	-0.24854812
35	0xbdc0e0c3	-0.0941787
36	0xbc73f37a	-0.014889592
37	0xbe043b0e	-0.12913153
38	0xbe012ae9	-0.12614025
39	0xbe0a692d	-0.13516684
40	0x3e63a846	0.2223216
41	0x3d9fd727	0.07804709
42	0xbd6be375	-0.057589967
43	0x3e841813	0.25799617
44	0x3da16fba	0.07882638
45	0x3e347f68	0.17626727
46	0xbc8caee0	-0.01717323
47	0xbe39726f	-0.18110059
48	0xbd8bbc32	-0.06823005
49	0xbb8c7b6d	-0.0042871744
50	0x3e4eda36	0.20200428
51	0xbe9d2934	-0.30695498
52	0xbe1708c0	-0.14749432
53	0xbf0e58f7	-0.556045
54	0xbdc8d87b	-0.098069154
55	0x3d9c8867	0.07643204
56	0x3ec5c796	0.38628834
57	0xbea1f3d5	-0.31631342
58	0xbdb1accf	-0.08675539
59	0x3e9de47c	0.30838382
60	0xbe60d0b2	-0.21954611
61	0x3ebcaa14	0.3684851
62	0x3d32de6e	0.043669157
63	0xbe96d2ff	-0.29457852
64	0x3d7ad5f0	0.061239183
65	0xbe5030f8	-0.2033118
66	0x3e19d485	0.15022476
67	0xbed3995e	-0.41327947
68	0x3ec2a4f0	0.38016462
69	0xbe9c0ac8	-0.30476975
70	0x3e820d32	0.25400692
71	0xbe8775b0	-0.26456976
72	0xbe22b24d	-0.15888329
73	0x3dd98726	0.10621481
74	0x3e9f3731	0.31096795
75	0x3c5d22a2	0.013497027
76	0xbe8af306	-0.27138537
77	0xbd9a6ffe	-0.07540892
78	0xbd4694ff	-0.048481937
79	0x3d8915ea	0.06693633
80	0x3de77760	0.11302066
81	0x3eb9c633	0.36284027
82	0x3eb1013c	0.34571254
83	0xbd83772f	-0.06419217
84	0x3e4b1144	0.19830805
85	0x3ec7c23b	0.39015374
86	0x3d4eeb7f	0.050517555
87	0xbe812ce3	-0.25229558
88	0xbe509806	-0.20370492
89	0x3e0c0278	0.13672817
90	0x3eb9403b	0.36181816
91	0x3db26e52	0.08712448
92	0x3dab3e46	0.08361487
93	0xbebe6fd0	-0.3719468
94	0xbe2d0564	-0.16896588
95	0xbe869858	-0.26288104
96	0xbd7be281	-0.061495308
97	0x3de1ce91	0.110257275
98	0x3e99fc58	0.30075336
99	0xbe9b8417	-0.30374214
100	0x3e236a97	0.1595863
101	0x3e445a49	0.19175066
102	0xbe8c71d7	-0.27430603
103	0xbe3c3b83	-0.18382077
104	0xbd827fa4	-0.06372002
105	0x3e06ce9e	0.13164756
106	0x3e8f0cd4	0.27939475
107	0x3e4bece4	0.19914585
108	0x3e304e6a	0.17217413
109	0x3eeae532	0.45877987
110	0x3e82e101	0.2556229
111	0xbe7b70df	-0.24554776
112	0xbe114df1	-0.14189889
113	0xbd36a50b	-0.04459099
114	0x3e056337	0.13026129
115	0xbd91c058	-0.07116765
116	0x3ebe8cb3	0.3721672
117	0x3e55c83d	0.20877166
118	0xbd1b7766	-0.037955664
119	0xbe6cdcaa	-0.23131052
120	0x3daaa2ff	0.0833187
121	0x3d8c04c7	0.06836849
122	0x3e803045	0.25036827
123	0x3e2e00ca	0.16992489
124	0x3dc78845	0.09742788
125	0x3e43e508	0.19130337
126	0x3e87056b	0.2637132
127	0x3e701e15	0.23448975
128	0xbc5f9e91	-0.013648645
129	0xbe2dbce9	-0.16966595
130	0x3e328c70	0.17436385
131	0x3def3a02	0.11680986
132	0xbeaa2cf1	-0.33237413
133	0x3e02f5d3	0.12789087
134	0x3e3a13c8	0.18171608
135	0xbd5cb7e9	-0.053886328
136	0xbca5151d	-0.02015167
137	0x3d8cef1f	0.06881546
138	0x3e9c7ebc	0.3056544
139	0xbe26a4d7	-0.16273819
140	0xbe35c25e	-0.17749926
141	0xbe7ec4ae	-0.24879715
142	0xbdf62636	-0.12019007
143	0xbd35c034	-0.044372752
144	0xbe4b9cfc	-0.19884104
145	0x3e9ba4c7	0.30399153
146	0x3e4b218a	0.19837013
147	0xbec61107	-0.38684866
148	0x3e81fd67	0.25388643
149	0xbdda3606	-0.106548354
150	0x3eb102c4	0.34572423
151	0xbd97d98c	-0.07414541
152	0xbc5d9967	-0.0135253435
153	0xbe905f93	-0.28197917
154	0xbea6197c	-0.32441318
155	0x3d2849e5	0.041086096
156	0x3e7e11ef	0.24811529
157	0xbde146e8	-0.109998524
158	0x3c5b624e	0.013390137
159	0xbe57489e	-0.21023795
160	0xbea85e83	-0.32884607
161	0xbdd487ea	-0.10377486
162	0xbeb34bbe	-0.35018724
163	0xbe2cfadb	-0.16892569
164	0xbe3e797e	-0.18601033
165	0x3db55e79	0.0885591
166	0x3e0f4a67	0.13993226
167	0x3e741f76	0.23840126
168	0xbcbf188b	-0.023327133
169	0xbcf26bce	-0.02959242
170	0x3c1ff18d	0.00976218
171	0xbeba991f	-0.36444947
172	0x3e824c4f	0.25448844
173	0x3e204c96	0.15654215
174	0xbe8181a4	-0.2529422
175	0xbeb58fe6	-0.35461348
176	0xbf05d92f	-0.5228452
177	0x3c8a480b	0.016880056
178	0xbe31c302	-0.17359546
179	0xbe21ff21	-0.1581998
180	0x3dc65fea	0.09686263
181	0x3dac6b83	0.08418944
182	0xbec7fd79	-0.39060572
183	0xbe788ee7	-0.24273263
184	0x3eacfc80	0.33786392
185	0x3ebca607	0.3684542
186	0x3c4cc84b	0.012498925
187	0xbdc9239d	-0.09821246
188	0x3e551be3	0.20811419
189	0x3e9d4877	0.3071935
190	0xbda95e31	-0.08269919
191	0x3ec26a99	0.37971953
192	0xbebd9db3	-0.37034377
193	0xbcc1b374	-0.02364514
194	0x3e37fe2f	0.17968057
195	0xbe0c6996	-0.13712153
196	0xbe36518c	-0.17804545
197	0xbdb78a4a	-0.089619234
198	0xbe3ea40f	-0.18617271
199	0x3ebc5d90	0.36790133
200	0x3daec5ff	0.085338585
201	0xbea0fc39	-0.3144243
202	0xbe920c58	-0.28525043
203	0x3cd500d5	0.026001373
204	0xbe26f506	-0.16304407
205	0xbe7dd7fd	-0.24789424
206	0xbe99ddec	-0.30052125
207	0x3e92f4de	0.28702444
208	0x3e94e8fc	0.29084003
209	0x3e0d1ac4	0.13779742
210	0xbcc48c47	-0.02399267
211	0xbe9b2cd6	-0.30307645
212	0xbd0efe17	-0.034910288
213	0x3e29ecdc	0.16594261
214	0xbd7667e8	-0.060157686
215	0x3e9ea1ca	0.3098281
216	0x3dc9919a	0.098422244
217	0x3bd67f8f	0.006545968
218	0x3d91d292	0.07120241
219	0x3ea7c9ed	0.32771245
220	0xbea555a6	-0.32291907
221	0x3e7b5f4f	0.24548076
222	0xbe96d1e7	-0.29457018
223	0x3bd1bd68	0.006400753
224	0x3dc65c20	0.0968554
225	0x3dfd2e54	0.12362352
226	0xbd42ed7e	-0.04758977
227	0xbde4f3c2	-0.111793056
228	0xbe026eb4	-0.12737542
229	0xbdd11e7f	-0.10210895
230	0x3ea45fad	0.32104245
231	0xbeb1a297	-0.3469436
232	0x3dbd7ab0	0.092519164
233	0x3eb6e5bc	0.35722148
234	0x3e83beb6	0.25731438
235	0xbec391e3	-0.3819724
236	0xbd82af28	-0.06381065
237	0x3e8bf0ef	0.27332255
238	0xbb016fa7	-0.0019750388
239	0x3cb13c35	0.021635154
240	0xbd974a06	-0.07387166
241	0xbdb9ec8a	-0.09078319
242	0xbe0759fa	-0.13217917
243	0x3c7ba670	0.015359506
244	0x3e65d0f5	0.22442992
245	0xbe16aa33	-0.14713363
246	0xbdc898c6	-0.09794764
247	0x3db564c8	0.08857113
248	0xbe0d7eea	-0.13817945
249	0x3ea079dd	0.31342974
250	0x3e58e9c7	0.21182929
251	0x3dd1a626	0.102367684
252	0xbe8c89bc	-0.27448833
253	0x3e42ba55	0.19016393
254	0x3ea1d3a6	0.31606787
255	0x3e2505b1	0.16115452

blocks.1.to_out.weight f4 [8, 128]
0	0xbdee4f62	-0.11636235
1	0x3cd01f17	0.02540545
2	0x3d422fb9	0.047408793
3	0x3d9203b7	0.07129615
4	0x3d22f704	0.039786354
5	0x3e272d81	0.16325952
6	0x3e733271	0.2374971
7	0x3e24b7ae	0.16085693
8	0x3da11aae	0.07866417
9	0x3d37a1c8	0.04483202
10	0xbdc4d6ca	-0.0961128
11	0x3e6da35d	0.2320685
12	0x3e5100be	0.2041044
13	0x3e49e92b	0.19717853
14	0x3e066ee4	0.13128239
15	0xbd041bf1	-0.03225321
16	0xbe8bb36e	-0.2728533
17	0xbd2ecddb	-0.042676788
18	0xbdaf55e7	-0.085613064
19	0x3e2ec3c7	0.1706687
20	0x3e09aa16	0.13443789
21	0xbc715b1a	-0.014731193
22	0x3eaf22ba	0.34206182
23	0xbe1d8044	-0.1538096
24	0xbe2fb62a	-0.17159334
25	0x3d8de8ea	0.069291905
26	0x3df27c0c	0.11840066
27	0xbd3ce817	-0.046119776
28	0xbe8f8e08	-0.2803805
29	0xbdd97486	-0.10617928
30	0x3ec8178e	0.3908047
31	0xbcafa726	-0.021442007
32	0xbe3cbae3	-0.18430667
33	0x3dda8a0a	0.1067086
34	0x3ea28126	0.31739157
35	0x3ca67e26	0.020323824
36	0xbcaa4e73	-0.02078936
37	0xbc5f2eec	-0.013622027
38	0x3e8d36e4	0.2758094
39	0xbf0d8d46	-0.5529369
40	0x3c98358d	0.018580223
41	0xbe270fe9	-0.16314663
42	0xbebdc024	-0.37060654
43	0x3e4bde98	0.19909132
44	0xbe0f98cb	-0.1402313
45	0xbd1cfbe5	-0.038326163
46	0xbd8d2390	-0.06891549
47	0x3e832853	0.25616702
48	0x3e5b09cd	0.21390457
49	0xbe1a2d4d	-0.15056343
50	0x3db7a59d	0.08967135
51	0x3eb6cfad	0.3570532
52	0x3e01f5ba	0.12691393
53	0x3e9d4401	0.30715945
54	0x3df597ec	0.119918674
55	0x3ead4fca	0.33849937
56	0x3e342190	0.17590928
57	0xbdf9227c	-0.121647805
58	0x3e1247f3	0.14285259
59	0xbdd1bce4	-0.10241106
60	0x3e81e7f4	0.2537228
61	0x3d8d1965	0.06889609
62	0xbea71ef3	-0.326408
63	0x3f08cfdc	0.5344217
64	0x3e5e66ac	0.21718854
65	0xbe574d5f	-0.21025608
66	0xbd061e19	-0.032743547
67	0x3c82c4f4	0.015963055
68	0x3e219223	0.15778403
69	0x3ea8a2ab	0.32936606
70	0xbd956ccd	-0.07296143
71	0x3e1f32d4	0.15546733
72	0xbe130ee8	-0.14361155
73	0xbe2bf8ca	-0.16794124
74	0xbe26a23b	-0.16272824
75	0xbece91c1	-0.40345576
76	0xbd9cb883	-0.0765238
77	0x3e68189a	0.22665635
78	0x3e24b43c	0.16084379
79	0xbe1ae0c7	-0.15124808
80	0x3e34b963	0.17648844
81	0xbe0858f7	-0.13315187
82	0x3e300133	0.17187957
83	0x3da79aa1	0.0818379
84	0xbdaa15ec	-0.083049625
85	0xbe282a8b	-0.16422479
86	0x3e306b58	0.17228448
87	0x3ded4e07	0.11587148
88	0x3e410681	0.18850137
89	0xbe4017dd	-0.18759103
90	0x3e1dbadf	0.15403317
91	0xbe4c6152	-0.19959
92	0xbe113f1c	-0.1418423
93	0xbdcff66d	-0.10154424
94	0xbe4fd899	-0.20297469
95	0xbdcd6b20	-0.10030198
96	0xbe55e0dd	-0.2088656
97	0xbeaca955	-0.3372294
98	0x3d8c7c7b	0.0685968
99	0x3e972d68	0.2952683
100	0xbb05c98e	-0.0020414325
101	0x3dac671f	0.08418106
102	0xbd4c162c	-0.049825832
103	0x3e481485	0.19539078
104	0xbeaa7945	-0.33295646
105	0x3ea89beb	0.32931456
106	0xbdb49f55	-0.08819453
107	0xbd9a7193	-0.07541194
108	0x3d7315d6	0.059346996
109	0x3e0ea454	0.13929874
110	0x3dc4b951	0.09605659
111	0xbd7faa34	-0.062418178
112	0x3dc6b1b1	0.09701861
113	0x3e2ecd5c	0.17070526
114	0x3defff95	0.1171867
115	0xbe2227e8	-0.15835536
116	0xbe3b1e0b	-0.18273179
117	0xbd63681f	-0.05551922
118	0xbd908e89	-0.070584364
119	0xbe01fd0a	-0.12694183
120	0xbd01e0b0	-0.03170842
121	0x3ddf694e	0.10908757
122	0x3d2ed13e	0.042680018
123	0x3dd5ced6	0.104398414
124	0xbe0b0bb2	-0.1357868
125	0x3d7c79fc	0.06163977
126	0xbd9e4835	-0.07728616
127	0x3d8e6dcb	0.06954535
128	0x3de8d9f3	0.113696955
129	0xbc938fcb	-0.018012902
130	0x3e3c1916	0.18368945
131	0x3dd8af17	0.10580271
132	0xbddb7d83	-0.10717299
133	0x3db752d3	0.08951344
134	0x3e15f6a9	0.14644875
135	0x3cbf4b4a	0.02335133
136	0xbd7fc33d	-0.062442053
137	0x3e3b480d	0.18289204
138	0x3d11d399	0.035602186
139	0x3e464909	0.19363798
140	0x3dd55cf5	0.10418121
141	0x3d191eb5	0.0373828
142	0xbd5f3855	-0.05449708
143	0xbe253b7e	-0.16135976
144	0x3af1c3cb	0.0018445192
145	0x3e08e30f	0.13367866
146	0xbe17ad98	-0.14812315
147	0x3e0fd4a0	0.14045954
148	0x3deb97d4	0.11503568
149	0xbdd5a5a5	-0.10431985
150	0x3e71667a	0.23574248
151	0xbe0d6807	-0.13809215
152	0xbd86cfba	-0.065825894
153	0x3e134ecc	0.14385527
154	0x3e4abe70	0.19799209
155	0x3dfc1124	0.12307957
156	0xbe22ac74	-0.15886098
157	0x3d624b77	0.05524775
158	0x3e1e50ce	0.15460512
159	0x3dc35bfe	0.095390305
160	0xbce956d2	-0.028483782
161	0xbdb8f8c4	-0.09031823
162	0x3d365957	0.044518795
163	0x3e653564	0.22383648
164	0x3e026a32	0.12735823
165	0xbd6623a0	-0.05618632
166	0x3dfe3981	0.12413312
167	0xbe03b8fe	-0.12863538
168	0x3e1cde65	0.15319212
169	0x3d56d5c4	0.052449957
170	0xbe5ef361	-0.21772529
171	0x3d92ecf4	0.071741015
172	0x3dce19b7	0.100634985
173	0xbe32b9da	-0.17453709
174	0xbe335ad4	-0.17515117
175	0x3df937b2	0.12168826
176	0x3ebecd80	0.3726616
177	0xbe04edbe	-0.12981316
178	0x3d7931e8	0.06083861
179	0x3e1d9ae4	0.15391117
180	0x3e79e3d9	0.24403323
181	0x3e10db72	0.14146212
182	0xbd9cc147	-0.07654052
183	0x3de3b6c5	0.11118845
184	0xbd689a57	-0.056787815
185	0xbe317cf9	-0.1733283
186	0xbc918e8f	-0.017768173
187	0xbcdeb619	-0.02718644
188	0xbd513798	-0.05107841
189	0x3e2e7e9e	0.17040488
190	0xbc82caab	-0.01596578
191	0x3e1f24c2	0.15541366
192	0xbe7c9adc	-0.24668449
193	0xbe077d87	-0.13231479
194	0xbd406558	-0.04697165
195	0xbe2db5fa	-0.1696395
196	0x3e30a9e1	0.17252304
197	0x3e0433c1	0.12910368
198	0xbec67083	-0.38757715
199	0x3e8b77c4	0.2723981
200	0xbea5f434	-0.32412875
201	0xbe893214	-0.2679602
202	0xbe97e76d	-0.2966875
203	0xbe3f33b4	-0.18672067
204	0xbe5683a3	-0.20948653
205	0x3e8af0d5	0.27136865
206	0x3e7af691	0.2450812
207	0xbe12b4ca	-0.14326778
208	0x3ddedfc1	0.108825214
209	0xbe8fa2aa	-0.2805379
210	0x3cf2ca7f	0.029637573
211	0xbe394cbf	-0.18095683
212	0xbeade2c1	-0.33962062
213	0xbe06dff3	-0.13171367
214	0x3e77815f	0.24170445
215	0x3eb505fa	0.35356122
216	0xbe2c5220	-0.16828203
217	0xbeb13bba	-0.3461588
218	0x3e83d76f	0.257503
219	0xbe37bcb1	-0.17943074
220	0x3e085c31	0.13316418
221	0xbe399c06	-0.18125924
222	0xbea9ae04	-0.33140576
223	0xbe075288	-0.13215077
224	0xbe8c6782	-0.2742272
225	0xbe96c1a6	-0.29444617
226	0x3ea5ff2e	0.3242125
227	0x3eace6b8	0.33769774
228	0x3e871d49	0.2638953
229	0x3e8576ce	0.26067203
230	0xbe32a239	-0.17444696
231	0xbe6587d4	-0.22415096
232	0xbea570c6	-0.32312602
233	0x3e6ec610	0.23317742
234	0xbe42d995	-0.19028313
235	0x3eb7ff25	0.35936847
236	0x3e8992e4	0.2686988
237	0x3ea2d870	0.31805754
238	0x3e5f819b	0.21826784
239	0xbe80dd60	-0.25168896
240	0x3e09e3be	0.13465783
241	0x3e8f35b4	0.2797066
242	0x3ddadf40	0.10687113
243	0xbe133464	-0.14375454
244	0xbec6c7e5	-0.38824382
245	0x3e2aa9ab	0.16666286
246	0xbe3c91f3	-0.1841505
247	0xbe8a0c26	-0.26962394
248	0xbe7ad922	-0.24496892
249	0xbe326a7e	-0.17423436
250	0x3db01dbe	0.08599423
251	0x3e643193	0.22284536
252	0xbdbcc234	-0.09216729
253	0x3e459b63	0.19297557
254	0xbe4f9549	-0.20271792
255	0xbe460f6b	-0.19341819

mlp.0.weight f4 [10, 8]
0	0x3d97be23	0.074093126
1	0xbe92249a	-0.2854355
2	0x3ea78f61	0.32726577
3	0x3e6ad317	0.22932087
4	0xbe3bcea9	-0.18340553
5	0xbe94a9f0	-0.29035902
6	0x3dfdce4f	0.12392866
7	0xbec8a091	-0.39185002
8	0x3ee4f574	0.44718516
9	0x3ec2d37e	0.3805198
10	0xbf3884f1	-0.7207785
11	0xbe646fb2	-0.22308233
12	0x3e963607	0.29338095
13	0x3f00455e	0.50105846
14	0x3ee34d1b	0.44394764
15	0xbe6913e1	-0.2276149
16	0xbeaf0b2f	-0.3418822
17	0x3db27df5	0.08715431
18	0x3e9339bd	0.28754988
19	0x3efc901f	0.49328706
20	0xbe34caa8	-0.17655432
21	0x3efef007	0.497925
22	0x3d896170	0.06708038
23	0xbe72dc91	-0.23716952
24	0xbf0a04f5	-0.53913814
25	0xbed7b72e	-0.42131943
26	0xbde2f22d	-0.110813476
27	0x3d9ad911	0.075609334
28	0xbe881ce6	-0.26584548
29	0x383406a4	4.292153e-05
30	0x3ddb42a6	0.107060716
31	0x3d24cf47	0.040236738
32	0xbd5473dd	-0.05186831
33	0x3b24e8c3	0.002516315
34	0x3e90fd2f	0.28318164
35	0xbf1bd5ec	-0.60873294
36	0x3f0e42ea	0.5557085
37	0x3cb5179f	0.02210599
38	0xbeb42ddf	-0.35191247
39	0x3e810241	0.25197032
40	0xbe9ae343	-0.30251512
41	0xbd295a28	-0.041345745
42	0x39cc22db	0.00038935881
43	0x3ed10110	0.40821123
44	0xbccc65f3	-0.024950957
45	0x3e30b185	0.17255218
46	0x3dc27ea7	0.09496813
47	0xbc15d573	-0.009145129
48	0x3ebf22a1	0.37331107
49	0x3d589911	0.05288035
50	0x3ee0d815	0.43914858
51	0x3e8b4164	0.27198327
52	0xbdf49783	-0.11942961
53	0x3e109f3a	0.1412324
54	0xbe5f06ee	-0.21779987
55	0xbed0542a	-0.40689212
56	0xbe2308a4	-0.15921265
57	0x3baa77f7	0.005202289
58	0x3e2674e9	0.16255535
59	0x3daa9d28	0.083307564
60	0xbaf11449	-0.0018392886
61	0x3ecfb76d	0.4056963
62	0x3f27aec0	0.6550102
63	0x3f123cae	0.5712384
64	0xbe2a946c	-0.16658181
65	0xbe07d534	-0.13264924
66	0x3d73d424	0.059528485
67	0x3e6a4712	0.22878674
68	0xbe53f664	-0.2069946
69	0xbedaa1ae	-0.42701477
70	0xbdda9e49	-0.10674722
71	0x3e52382e	0.20529243
72	0xbd7481c6	-0.059694074
73	0xbe87a2e0	-0.2649145
74	0x3e05f934	0.13083345
75	0xbe62cf7e	-0.22149464
76	0x3ea64f93	0.32482585
77	0xbeabcf57	-0.33556625
78	0x3d24798f	0.04015499
79	0x3e97467e	0.2954597

mlp.0.bias f4 [10]
0	0xbf63fd79	-0.89058644
1	0x3e8da562	0.2766524
2	0x3cfe8272	0.03106806
3	0xbe6f7193	-0.23383169
4	0xbe7f7f1f	-0.24950837
5	0x3dd98f59	0.106230445
6	0x3f29461f	0.6612262
7	0xbd285f91	-0.041106764
8	0x3f46c1ec	0.7763965
9	0xbe8a1914	-0.26972258
