weights/benchmark-two/flash_vit_8epochs.pth (torch, 38091 bytes, 11 tensors)

v_class f4 [1, 8]
0	0xbd6face9	-0.05851451
1	0x3c9a96f9	0.018870817
2	0x3f34de30	0.7065153
3	0x3e3b03f0	0.18263221
4	0x3f3c0781	0.7344895
5	0xbe0cd80c	-0.1375429
6	0x3f6e2100	0.93019104
7	0x3e099d05	0.13438804

linear_mapper.weight f4 [8, 16]
0	0x3ed62b34	0.41829836
1	0x3cf2404b	0.029571673
2	0xbdff0ae5	-0.1245325
3	0x3e88d7e5	0.26727214
4	0x3e3974b7	0.1811093
5	0x3e1b4c6c	0.15165871
6	0xbda3aacc	-0.07991561
7	0x3ea9dd1b	0.33176503
8	0x3e33c17b	0.17554276
9	0xbe79ef78	-0.24407756
10	0x3d381800	0.044944763
11	0x3e606678	0.21914089
12	0x3e410cbc	0.18852514
13	0x3e585597	0.211264
14	0x3e9a883d	0.30182067
15	0x3e87258b	0.2639583
16	0x3e372e60	0.17888784
17	0x3db0ff69	0.086424656
18	0xbc632714	-0.013864297
19	0x3e339d58	0.1754049
20	0xbdb2c068	-0.08728105
21	0x3d9d6d0a	0.07686813
22	0x3b5540cc	0.0032539843
23	0x3e5be342	0.2147341
24	0xbe8b4782	-0.27202994
25	0x3acd9d46	0.001568713
26	0xbd569a39	-0.052393172
27	0xbd76be42	-0.060240038
28	0xbe9c7727	-0.30559656
29	0xbedb30c0	-0.4281063
30	0xbe83c4c1	-0.2573605
31	0xbede7b72	-0.43453556
32	0x3f2d528a	0.6770407
33	0x3ed69f0a	0.41918212
34	0x3e94b2fb	0.290428
35	0x3f00ae49	0.5026594
36	0xbca4089d	-0.020023638
37	0x3e5b34a3	0.21406798
38	0x3e001782	0.12508968
39	0xbdae3fea	-0.085082844
40	0xbe436fc2	-0.19085601
41	0xbe18ccb9	-0.14921845
42	0x3b7824ab	0.0037863653
43	0xbe477d04	-0.19481283
44	0xbe524512	-0.2053416
45	0xbe4e4494	-0.20143348
46	0x3c5fc946	0.013658827
47	0xbed5ad10	-0.417336
48	0xbe1e2b8d	-0.15446301
49	0xbe822b63	-0.25423726
50	0xbea44c98	-0.32089686
51	0xbe72b656	-0.23702368
52	0xbe386073	-0.18005542
53	0x3e7d4c77	0.247362
54	0x3d9eb8d5	0.07750098
55	0x3db8186e	0.089890346
56	0x3e351b08	0.17686093
57	0x3e1d31f6	0.1535109
58	0x3e75f304	0.24018484
59	0xbd474c75	-0.0486569
60	0xbdbce2cc	-0.092229456
61	0xbe517d5e	-0.2045798
62	0xbe109615	-0.14119752
63	0xbe3f0a17	-0.18656193
64	0x3d12aaa4	0.035807267
65	0xbe325a78	-0.17417324
66	0xbda6affb	-0.08139034
67	0xbeb992f7	-0.36244938
68	0xbe6b7393	-0.22993307
69	0xbecd9eeb	-0.40160307
70	0xbdd05caa	-0.10173924
71	0xbdf14d0d	-0.117822744
72	0x3e4bb5ea	0.19893613
73	0xbe94c0c6	-0.29053324
74	0xbe43903c	-0.1909799
75	0xbda381ef	-0.07983767
76	0x3e9d1649	0.30681065
77	0x3e73ac36	0.23796162
78	0x3e5c82d8	0.21534288
79	0x3efb407a	0.4907263
80	0xbe6e43ff	-0.23268126
81	0xbe516961	-0.20450355
82	0x3d67e81b	0.056617837
83	0xbeb0f1a5	-0.3455936
84	0x3df096df	0.117475264
85	0xbdd76fef	-0.105193965
86	0x3de77eb2	0.11303462
87	0xbea266ba	-0.31719
88	0x3b4cf0b1	0.0031271393
89	0x3dd79328	0.10526115
90	0x3e01a2f0	0.12659812
91	0xbd785c79	-0.060635064
92	0x3eb9bc6e	0.36276573
93	0x3e7250d4	0.23663646
94	0xbe2d90ac	-0.16949719
95	0xbe7e8a5c	-0.24857467
96	0x3e35d9b7	0.17758833
97	0xbe2ab2fd	-0.16669841
98	0xbe62280c	-0.22085589
99	0xbec9a6d5	-0.39385095
100	0xbe47ce4c	-0.1951229
101	0xbde52270	-0.11188209
102	0xbe85c418	-0.2612617
103	0xbed3002f	-0.41211078
104	0x3d5db25b	0.05412517
105	0xbe0c94c3	-0.13728623
106	0xbe080fd9	-0.13287295
107	0x3d31da44	0.043421045
108	0xbd8fb480	-0.070168495
109	0xbe4e827e	-0.20166966
110	0x3e58adc5	0.21160038
111	0x3e8477a0	0.25872517
112	0x3ed44f9a	0.4146698
113	0xbe5e14b2	-0.21687582
114	0xbe1b82dd	-0.15186639
115	0xbda678f6	-0.0812854
116	0x3e973266	0.29530638
117	0xbe230340	-0.15919209
118	0xbe175c8d	-0.14781399
119	0xbe4c64ea	-0.1996037
120	0x3d1cf7a8	0.03832212
121	0xbdc9564c	-0.09830913
122	0xbe26ee26	-0.16301784
123	0xbe5e0e27	-0.21685086
124	0xbeaa3386	-0.33242434
125	0xbea1bf21	-0.31591132
126	0xbedb9156	-0.4288432
127	0xbea1f3d0	-0.31631327

linear_mapper.bias f4 [8]
0	0x3e810d34	0.25205386
1	0xbd98e73c	-0.074659795
2	0x3e1112cc	0.14167327
3	0xbd4e6e8e	-0.050398402
4	0xbe8198bc	-0.2531184
5	0x3d835f06	0.06414609
6	0xbdb37ab1	-0.08763636
7	0xbe11e4ad	-0.14247389

blocks.0.to_q.weight f4 [128, 8]
0	0xbe452719	-0.19253196
1	0x3defe388	0.1171332
2	0x3e9c22fd	0.30495444
3	0x3e925942	0.28583723
4	0x3ed38521	0.41312507
5	0xbeabf2c0	-0.3358364
6	0x3e30ee3b	0.17278378
7	0xbe10ad43	-0.14128594
8	0x3d2a877e	0.04163312
9	0xbe953d3f	-0.2914829
10	0x3e6fb97a	0.23410597
11	0xbe8407a7	-0.25787088
12	0x3dcde43c	0.10053298
13	0x3e38f49b	0.1806206
14	0x3d1cb2d9	0.0382565
15	0xbe3d797d	-0.18503375
16	0x3f24b01b	0.64331216
17	0xbb084300	-0.0020791888
18	0xbe4aa29a	-0.1978859
19	0xbe61004d	-0.21972771
20	0x3e6d5c89	0.2317983
21	0x3ce4948d	0.027902866
22	0xbd63db02	-0.055628784
23	0x3eb88203	0.3603669
24	0x3ebe6752	0.37188202
25	0xbea546f4	-0.32280695
26	0xbec2b8ae	-0.38031524
27	0x3beb16f5	0.0071743676
28	0x3e13e432	0.14442518
29	0xbd193bce	-0.03741055
30	0xbe8d8705	-0.27642074
31	0xbe09df5c	-0.13464111
32	0xbecf0dd5	-0.4044024
33	0x3e3a191b	0.1817364
34	0x3eda4681	0.42631915
35	0xbeb81194	-0.3595091
36	0x3e135c56	0.14390692
37	0x3dc3d751	0.09562553
38	0x3dedaefb	0.116056405
39	0xbe166977	-0.14688669
40	0x3e392ddd	0.18083902
41	0x3e52bd4e	0.20580027
42	0xbda0cd26	-0.07851629
43	0xbdaecc6e	-0.085350856
44	0xbdf31da6	-0.11870889
45	0x3d6cd046	0.057815813
46	0xbdabd7b3	-0.08390751
47	0xbde00bcb	-0.10939749
48	0x3ee11a2d	0.43965283
49	0x3e6c79e0	0.23093367
50	0xbe1984e1	-0.14992096
51	0xbdaaa80c	-0.08332834
52	0xbdba5ac7	-0.09099346
53	0x3c7aac3f	0.015299856
54	0x3aa040bf	0.0012226327
55	0x3da17cb0	0.078851104
56	0x3dde6bc5	0.10860399
57	0xbe1e5d3f	-0.15465258
58	0x3e6af991	0.22946765
59	0x3e2f7f0e	0.17138311
60	0xbd1fb6d6	-0.038992725
61	0xbe41fdcf	-0.18944477
62	0xbe6f5f50	-0.23376203
63	0xbe9dc339	-0.30813006
64	0xbf548118	-0.8300948
65	0x3ea4c3f7	0.3218076
66	0x3e47c509	0.19508757
67	0xbd59cc67	-0.05317345
68	0xbee9ea4b	-0.45686564
69	0xbed5f240	-0.41786385
70	0xbe63bfa5	-0.22241075
71	0x3e4f893c	0.20267195
72	0xbe712f5a	-0.2355322
73	0xbe070478	-0.13185298
74	0x3ef0ab12	0.47005516
75	0xbbe5ddaf	-0.007014952
76	0xbea1c602	-0.3159638
77	0x3ee111e3	0.4395896
78	0xbe849ba4	-0.25899994
79	0x3dd1454c	0.102182955
80	0xbf14e22b	-0.58157605
81	0x3e9e1ec6	0.30882853
82	0x3ec5798c	0.38569295
83	0x3de6ec8c	0.112755865
84	0xbe19fed8	-0.15038621
85	0xbed75dc7	-0.42063734
86	0xbe51eeed	-0.20501299
87	0x3e8a291d	0.26984492
88	0xbea49334	-0.32143557
89	0x3eb7b758	0.35882068
90	0x3ea35328	0.3189938
91	0x3de20a8d	0.11037169
92	0xbd8587ab	-0.06520017
93	0xbe1adda2	-0.15123609
94	0xbed1a6da	-0.4094761
95	0xbe662509	-0.22475065
96	0xbc961ef8	-0.018325314
97	0xbec23ed1	-0.3793855
98	0xbf8e4c8d	-1.1117111
99	0xbf32d4dc	-0.6985605
100	0xbebbb778	-0.36663413
101	0xbf1d9eb6	-0.615703
102	0xbf1e3b82	-0.6180955
103	0xbe8f7aaa	-0.28023273
104	0xbea0e54e	-0.31424946
105	0x3e956dbb	0.2918528
106	0xbd009c3d	-0.031399
107	0xbe8bc076	-0.27295274
108	0x3c6c3bfc	0.014418598
109	0xbe647bed	-0.22312899
110	0xbd575f44	-0.052581087
111	0xbeb074b3	-0.34464034
112	0x3f2c9c0f	0.67425627
113	0xbe326e74	-0.17424947
114	0x3f6ce47b	0.92536134
115	0x3f1965bb	0.59920853
116	0x3ef58411	0.4795232
117	0x3e56d3ab	0.20979182
118	0x3f058692	0.52158463
119	0x3e7f1624	0.2491079
120	0xbe6b8cae	-0.23002884
121	0x3f030e64	0.51193833
122	0xbd1ffaef	-0.03905767
123	0xbdcd0db7	-0.100123815
124	0xbd20be38	-0.039243907
125	0xbedcf0bb	-0.43152413
126	0x3e630da7	0.22173177
127	0xbed368c3	-0.41290864
128	0x3f6385a9	0.88875824
129	0x3e5c016d	0.21484919
130	0x3f339d13	0.7016155
131	0x3e302e77	0.17205225
132	0xbd5058c3	-0.0508659
133	0x3e669a14	0.22519714
134	0x3eeb8545	0.46000114
135	0xbe0fe9f4	-0.1405409
136	0xbee4244f	-0.4455895
137	0xbd580e08	-0.052747756
138	0x3dee7655	0.11643664
139	0xbe439377	-0.19099222
140	0xbcdb0f3f	-0.026740668
141	0xbe2908c7	-0.16507255
142	0xbe5652f6	-0.20930085
143	0x3ea9bc79	0.33151606
144	0x3ee27b57	0.44234726
145	0xbd8f38a4	-0.06993225
146	0xbdf61ff4	-0.12017813
147	0xbde778a6	-0.11302309
148	0xbeb635f4	-0.35588038
149	0xbe8f37d9	-0.27972296
150	0x3de31762	0.11088444
151	0xbe275779	-0.16341962
152	0xbed4d276	-0.4156682
153	0x3de1a80d	0.11018381
154	0x3d4527f9	0.048133824
155	0xbdfaf9de	-0.1225469
156	0x3e181b5a	0.14854184
157	0xbe29a3ea	-0.16566435
158	0x3c8a88cd	0.016910935
159	0xbe1cddea	-0.15319028
160	0xbefcccba	-0.49374944
161	0x3eb64bf4	0.35604823
162	0xbccfac66	-0.02535076
163	0x3dc7b3c5	0.09751085
164	0xbd19778e	-0.03746753
165	0xbbdf1d7e	-0.0068089357
166	0x3ecd9ab3	0.4015709
167	0x3e363bd4	0.1779626
168	0xbe037c6c	-0.12840432
169	0x3d9e9503	0.077432655
170	0x3e5be387	0.21473514
171	0x3d773f8d	0.06036334
172	0x3e223971	0.15842225
173	0x3eb189d6	0.34675473
174	0xbde8e4b9	-0.113717504
175	0x3d4ce668	0.05002442
176	0x3da843c2	0.08216049
177	0xbe13d833	-0.14437942
178	0x3e3087d3	0.17239313
179	0x3e737b49	0.23777498
180	0xbe6dce2c	-0.2322318
181	0xbe774d9d	-0.24150701
182	0xbe8da543	-0.27665147
183	0xbeac3c8d	-0.33639947
184	0xbea61e42	-0.3244496
185	0xbd7b97cb	-0.061424058
186	0x3e1f3999	0.15549316
187	0x3d5f649f	0.05453932
188	0xbea1867e	-0.31547922
189	0xbe7909d8	-0.24320161
190	0x3df765a3	0.120799325
191	0xbe7a6fcb	-0.24456708
192	0xbe9354bc	-0.28775585
193	0x3e8b4d71	0.2720752
194	0x3dc5d6fb	0.09660145
195	0xbcda7f3d	-0.026672
196	0x3bbf0dd1	0.0058305045
197	0xbdbf8b03	-0.09352686
198	0xbe259109	-0.16168608
199	0xbe978366	-0.29592437
200	0xbf2abdea	-0.66696036
201	0xbe2ac4f4	-0.16676694
202	0xbf025457	-0.5090994
203	0xbf1f16e1	-0.62144285
204	0xbf01c3eb	-0.5068957
205	0xbe9df5f0	-0.30851698
206	0xbe7a9343	-0.24470238
207	0xbe27e761	-0.16396858
208	0x3effd51e	0.49967283
209	0x3de846f9	0.11341662
210	0xbefc4acd	-0.49275818
211	0x3c6bbdc0	0.014388502
212	0x3dac1a6f	0.08403479
213	0x3c8ef8d4	0.017452635
214	0xbea2f13c	-0.31824672
215	0x3ea12180	0.3147087
216	0x3df20555	0.11817423
217	0xbf05ab01	-0.52214056
218	0xbf9bf0e4	-1.2182889
219	0xbea29f09	-0.3176196
220	0xbd8b378a	-0.067977026
221	0xbe4dd56e	-0.20100948
222	0xbe6466bf	-0.2230482
223	0xbf1dcfe4	-0.6164534
224	0xbe6787a2	-0.22610334
225	0xbd159f4e	-0.036528878
226	0x3e6bf994	0.23044425
227	0x3e4e6fcc	0.20159835
228	0xbe973e12	-0.29539543
229	0xbbcb2bca	-0.0062002884
230	0xbeb35a35	-0.3502976
231	0xbe3925e7	-0.18080865
232	0x3fa694d3	1.3014168
233	0xbcdfb355	-0.027307192
234	0x3f2c1b7a	0.67229426
235	0xbd991849	-0.07475335
236	0x3edbcd51	0.4293008
237	0xbe1e8e55	-0.15483983
238	0x3eb72153	0.35767612
239	0x3ed5fbeb	0.4179376
240	0xbe152bd2	-0.14567497
241	0x3ee022a2	0.43776423
242	0x3d1f3217	0.03886613
243	0xbe20018a	-0.15625587
244	0x3e91f661	0.28508285
245	0xbe1a4c3b	-0.15068142
246	0x3c73df82	0.014884831
247	0xbe0676a4	-0.13131195
248	0x3bacb2f6	0.0052703572
249	0x3e9630e3	0.29334173
250	0x3f5d0788	0.86339617
251	0x3de5d08e	0.11221419
252	0xbe92be55	-0.28660837
253	0x3f069f78	0.5258708
254	0x3e0817a6	0.13290271
255	0x3e556c15	0.20842011

blocks.0.to_kv.weight f4 [256, 8]
0	0xbecae55b	-0.3962811
1	0x3cee2db4	0.029074527
2	0xbc8502fd	-0.016236776
3	0x3e031d63	0.12804179
4	0xbd2a6e4e	-0.0416091
5	0x3da1a23e	0.07892273
6	0x3ec30dc9	0.38096455
7	0x3ea39d0b	0.31955752
8	0x3e4b4f7a	0.19854537
9	0x3e006e4b	0.12542073
10	0x3e862f0b	0.26207766
11	0xbd9779d1	-0.073962815
12	0x3cf7d644	0.030253537
13	0x399234a6	0.00027886516
14	0xbe8770e6	-0.26453322
15	0xbea044fa	-0.31302625
16	0x3e4ed993	0.20200185
17	0xbf2e80ed	-0.68165475
18	0x3d71f579	0.05907199
19	0xbe5b2ff6	-0.21405014
20	0xbde4e0f5	-0.1117572
21	0xbd87a0b4	-0.066224486
22	0xbe2500de	-0.16113612
23	0x3ea95157	0.3306987
24	0x3ede0def	0.43370005
25	0xbec5eee8	-0.38658834
26	0xbe8d8877	-0.27643177
27	0xbe9ca794	-0.30596602
28	0xbe82d710	-0.25554705
29	0xbe573cd9	-0.21019305
30	0xbcf62cbb	-0.030050626
31	0xbdb93e5a	-0.09045096
32	0xbeca6c95	-0.39535967
33	0x3f10157f	0.562828
34	0xbdf9c89d	-0.12196467
35	0x3f488de5	0.78341514
36	0xbc27705a	-0.010219658
37	0xbda799d4	-0.08183637
38	0x3e632e73	0.22185688
39	0x3c84f654	0.01623074
40	0x3ec4bbdf	0.38424584
41	0x3e1f3c3c	0.15550321
42	0x3ea21aa4	0.3166095
43	0xbe56b05a	-0.2096571
44	0x3e3f03dd	0.18653817
45	0x3e779247	0.24176894
46	0xbe2da8e0	-0.16958952
47	0x3e9611be	0.2931041
48	0x3e699d66	0.22813949
49	0xbed007b9	-0.40630892
50	0x3e132f40	0.14373493
51	0x3df519d1	0.11967815
52	0xbec8c7d3	-0.39214954
53	0xbd96c3d9	-0.07361574
54	0x3df2b51e	0.118509516
55	0xbdf1f01d	-0.11813376
56	0x3e2ef10d	0.17084141
57	0xbe3188ad	-0.17337294
58	0x3e7d1be4	0.2471767
59	0x3eea629a	0.45778352
60	0x3e0ab72f	0.13546441
61	0xbe748711	-0.23879649
62	0x3e81fe70	0.25389433
63	0x3da4cff3	0.08047476
64	0xbd45a645	-0.04825427
65	0x3f81d4f7	1.0143117
66	0x3e74bd98	0.2390045
67	0x3e403378	0.18769634
68	0x3cabd6e1	0.020976486
69	0x3ea3d51b	0.31998524
70	0x3d8553fd	0.0651016
71	0x3e84bda4	0.25925934
72	0xbeb85288	-0.36000466
73	0xbab75afe	-0.001398891
74	0x3e172600	0.1476059
75	0xbef21d30	-0.47287893
76	0x3ec922f4	0.3928448
77	0x3d7cd1c8	0.0617235
78	0xbe96347b	-0.29336914
79	0xbe33c074	-0.17553884
80	0xbee05587	-0.43815252
81	0x3f2de353	0.67924994
82	0xbd9e0321	-0.077154405
83	0x3d75852a	0.05994145
84	0x3df51a08	0.11967856
85	0x3e31a58b	0.17348306
86	0x3ca7641b	0.020433476
87	0x3ecee38d	0.40407982
88	0xbe186a2b	-0.1488425
89	0x3ee9f25a	0.45692712
90	0x3d053d5b	0.032529216
91	0xbe30f59d	-0.17281194
92	0x3e619fff	0.2203369
93	0x3ea1259a	0.31474
94	0xbdc1366a	-0.09434207
95	0xbe6327ca	-0.22183147
96	0x3ef4945e	0.47769445
97	0x3ec385b0	0.38187933
98	0xbe6114c9	-0.21980585
99	0x3e8e2f6f	0.27770564
100	0xbd9379ea	-0.07200988
101	0xbeb9cf9b	-0.36291203
102	0x3d3758ad	0.044762302
103	0x3dfd04c8	0.123544276
104	0xbc993537	-0.018702133
105	0x3ed6f711	0.41985372
106	0xbead166d	-0.33806172
107	0x3ef92982	0.4866448
108	0x3e954e1a	0.2916115
109	0x3e592674	0.21206075
110	0x3db3dd9f	0.08782505
111	0x3e1c3b6b	0.15257041
112	0xbeac9d7f	-0.3371391
113	0xbe9a087d	-0.300846
114	0x3d20b504	0.03923513
115	0xbe86d6e7	-0.26335832
116	0xbe922cef	-0.28549907
117	0x3e548b76	0.20756325
118	0x3e5dc37b	0.21656601
119	0xbea8e7f1	-0.32989457
120	0x3e4b2a7a	0.19840422
121	0x3ed4b6dc	0.4154576
122	0x3e8ff2d1	0.28114942
123	0x3efa50df	0.48889825
124	0x3e948246	0.2900564
125	0xbdd4135c	-0.10355255
126	0x3e8a176e	0.26971
127	0x3ebefe8a	0.37303573
128	0xbede606a	-0.43432933
129	0xbf0c7478	-0.5486522
130	0x3e248f07	0.16070186
131	0x3d7ea5f0	0.06216997
132	0xbe61f35b	-0.22065489
133	0xbd700038	-0.05859396
134	0xbd5097bb	-0.05092595
135	0x3d0a6098	0.033783525
136	0xbe198315	-0.1499141
137	0x3f0a9fa4	0.5414984
138	0x3e729101	0.23688127
139	0xbea1a7f0	-0.3157344
140	0x3d9f5f7d	0.07781885
141	0x3d8a6037	0.06756633
142	0x3e139d79	0.1441554
143	0x3e828123	0.25489148
144	0x3e3acc08	0.18241894
145	0xbdb50ab0	-0.08839929
146	0x3e90cf59	0.28283194
147	0xbd5fd04b	-0.054642003
148	0xbe001bd3	-0.12510614
149	0xbd4450d8	-0.04792866
150	0xbe6702c0	-0.22559643
151	0x3daf073f	0.08546304
152	0xbe225246	-0.15851697
153	0x3f084891	0.5323573
154	0xbb78dc2c	-0.003797303
155	0x3e185711	0.14876963
156	0xbe92ff6b	-0.28710493
157	0xbe7a5ea8	-0.24450171
158	0x3e36376a	0.17794576
159	0x3ea58cde	0.32334036
160	0xbee0ef27	-0.4393246
161	0x3e8ea2fd	0.27858725
162	0xbe9351f9	-0.28773478
163	0x3d999802	0.07499696
164	0x3ecc52fe	0.39907068
165	0x3ec86417	0.39138862
166	0xbe74790f	-0.23874305
167	0x3e9140eb	0.2836984
168	0x3d59c59b	0.053166967
169	0xbb13e814	-0.002256875
170	0x3eb2dac8	0.34932542
171	0xbe59191d	-0.21200986
172	0xbcb3d9e4	-0.021954484
173	0xbdcf2dec	-0.10116181
174	0x3d4f67ca	0.05063609
175	0x3d84561b	0.06461736
176	0x3d0483bf	0.032352205
177	0xbdcf2d4d	-0.10116062
178	0xbe4c04a7	-0.1992365
179	0x3e48e3b0	0.19618106
180	0xbe8c159f	-0.27360246
181	0xbdc42c8b	-0.095788084
182	0x3d886c14	0.06661239
183	0xbe1deac8	-0.15421593
184	0x3da92970	0.08259857
185	0x3e864547	0.2622473
186	0x3e180bec	0.14848298
187	0x3d7c9835	0.061668593
188	0xbe0a45bd	-0.13503166
189	0x3e97996c	0.2960924
190	0x3e255aa6	0.16147861
191	0xbd1b584d	-0.037926007
192	0xbdee369a	-0.11631508
193	0x3f0dec76	0.55438936
194	0xbeb1ebd1	-0.34750226
195	0x3ef291c6	0.4737684
196	0x3e34fe2a	0.17675081
197	0xbe8232e2	-0.25429446
198	0xbe705f6d	-0.23473902
199	0xbe9ffdee	-0.3124842
200	0x3eafe797	0.34356377
201	0x3efd6ef8	0.49498725
202	0xbd912da1	-0.07088781
203	0x3ebc4bac	0.36776483
204	0xbdaa3a86	-0.08311944
205	0xbe941bcf	-0.28927466
206	0x3e25fedb	0.16210501
207	0x3e191d4a	0.14952579
208	0x3f1e91ab	0.6194102
209	0xbf2e3a99	-0.6805816
210	0x3eade2c2	0.33962065
211	0x3ccf751f	0.025324402
212	0x3d8b1dde	0.06792806
213	0xbef7321a	-0.48280412
214	0x3e1cfbb8	0.15330398
215	0xbeb93397	-0.36172172
216	0x3edea317	0.43483803
217	0x3d840e4a	0.06448038
218	0xbebcd8c1	-0.3688412
219	0x3e3392b8	0.17536438
220	0xbd985cb3	-0.07439556
221	0xbe9fd565	-0.31217495
222	0xbdb287b4	-0.087172896
223	0x3da8f42e	0.082496986
224	0x3e1ec197	0.15503536
225	0x3e308cc7	0.17241202
226	0x3e042e5b	0.12908308
227	0x3e0fac80	0.14030647
228	0x3e49da11	0.19712092
229	0x3e2ff39d	0.17182775
230	0xbdbc2b70	-0.091879725
231	0xbea60cab	-0.3243154
232	0xbe8c7fdc	-0.274413
233	0xbf0c48b8	-0.5479846
234	0xbe016419	-0.1263584
235	0x3cecc1f2	0.028901074
236	0xbe6f5315	-0.23371537
237	0xbe822ad6	-0.25423306
238	0xbd25bf9a	-0.04046593
239	0x3c629964	0.0138305165
240	0xbdee73d5	-0.11643187
241	0x3e9f7467	0.31143495
242	0xbcfc31ea	-0.03078552
243	0x3ecaaa1d	0.3958291
244	0xbda657c8	-0.08122212
245	0xbdd79851	-0.10527099
246	0xbe413473	-0.18867664
247	0x3db46f81	0.0881033
248	0xbe919140	-0.2843113
249	0xbda1cfe6	-0.079009816
250	0x3d91117d	0.07083414
251	0x3c1d15dc	0.009587731
252	0x3d796fcb	0.06089763
253	0x3e758ffa	0.23980704
254	0xbd6d40cd	-0.057923127
255	0xbeab94f0	-0.33512068

blocks.0.to_out.weight f4 [8, 128]
0	0x3d3827cd	0.044959832
1	0x3edb086d	0.42779866
2	0x3d8d439f	0.06897663
3	0xbe87fcd4	-0.2656008
4	0xbe8fed0f	-0.2811055
5	0xbc8d014b	-0.01721253
6	0xbd3c4ae2	-0.04596985
7	0xbd156b8a	-0.03647951
8	0xbe664b62	-0.22489694
9	0x3d2ad2ee	0.041705064
10	0xbdb39771	-0.087691195
11	0xbd8dc8c5	-0.069230594
12	0x3daf0698	0.085461795
13	0x3d902cd6	0.07039802
14	0xbe5e4d76	-0.21709237
15	0xbcceb303	-0.025231844
16	0xbc7c59c8	-0.015402265
17	0xbe0fbd8a	-0.14037147
18	0x3d81e53d	0.06342552
19	0x3ec7a76a	0.38994914
20	0x3e7a8c1c	0.2446751
21	0x3d970843	0.07374623
22	0x3e463df3	0.19359569
23	0xbd92e0c6	-0.071717784
24	0x3dc3cc91	0.09560502
25	0xbe2cec95	-0.16887124
26	0xbea76f2f	-0.32702014
27	0xbcdf3b1c	-0.027249865
28	0x3d44e657	0.04807123
29	0x3d825213	0.06363311
30	0xbe98e92a	-0.2986539
31	0x3d362500	0.04446888
32	0x3d79a6e0	0.06095016
33	0x3dc7281d	0.09724448
34	0xbd9cf87f	-0.07664584
35	0xbdab2fc9	-0.08358724
36	0x3c74e20c	0.014946472
37	0x3ed7b657	0.42131302
38	0x3bfe0cfe	0.0077530136
39	0xbd962ef3	-0.073331736
40	0xbe9ddefc	-0.30834186
41	0xbc8a49b8	-0.016880855
42	0x3cf901ed	0.030396426
43	0x3dfc3082	0.1231394
44	0xbd4f7bba	-0.050655104
45	0x3e4fd72b	0.20296924
46	0x3e0f04e0	0.13966703
47	0xbea3d72b	-0.32000098
48	0xbeaaa961	-0.3333235
49	0xbe2b8dbb	-0.16753285
50	0xbd4bd167	-0.04976025
51	0xbd4f8caa	-0.050671257
52	0xbdf48792	-0.119399205
53	0x3e5063bb	0.20350544
54	0xbe093d4d	-0.1340229
55	0x3e500f61	0.20318367
56	0xbc1f9c96	-0.009741923
57	0xbd418385	-0.047244567
58	0xbd7c0a0b	-0.061533015
59	0xbe54f156	-0.20795187
60	0xbe5812a6	-0.21100864
61	0x3e009560	0.12556982
62	0xbed98702	-0.42485815
63	0x3e3cd3b3	0.18440132
64	0xbe0be729	-0.136624
65	0x3d510ebb	0.05103944
66	0xbdd5d8f1	-0.10441769
67	0x3e5b9629	0.21444
68	0x3de4b9fa	0.11168285
69	0x3df9a016	0.12188737
70	0x3de57e65	0.112057485
71	0x3ddfae6e	0.10921942
72	0xbbd494a2	-0.006487445
73	0xbd362c79	-0.044476006
74	0xbdb65a53	-0.08903947
75	0x3d0e8bee	0.034801416
76	0xbcda1dae	-0.02662548
77	0x3d9bd4cd	0.07608948
78	0x3ddb9270	0.1072129
79	0xbd78dfd2	-0.060760327
80	0xbe21c9a2	-0.15799573
81	0x3e1e3a39	0.15451898
82	0x3c0bcb42	0.008532347
83	0x3e6c388d	0.23068447
84	0xbca6faca	-0.020383257
85	0x3bac7c36	0.0052638305
86	0xbd338f0f	-0.043837603
87	0xbe83f702	-0.2577439
88	0x3cad7cc6	0.02117766
89	0x3d7262de	0.05917632
90	0x3d1c0201	0.03808785
91	0x3d051cb0	0.03249806
92	0x3d237916	0.0399104
93	0x3d42171f	0.04738533
94	0x3db14bc6	0.08657031
95	0xbc8c23d6	-0.017106932
96	0xbc6eaea3	-0.014568004
97	0xbdb09eec	-0.08624062
98	0xbcc14584	-0.023592718
99	0xbe0c218b	-0.1368467
100	0x3dd8d075	0.10586635
101	0x3e601338	0.21882331
102	0x3d1779d2	0.03698141
103	0xbde4ca62	-0.11171414
104	0x3e3cbb92	0.18430927
105	0x3d56ec9a	0.052471735
106	0xbcff8f80	-0.031196356
107	0x3daf01b8	0.0854525
108	0x3d10f169	0.035386477
109	0xbd6a3af0	-0.057185113
110	0xbd944914	-0.07240501
111	0x3d58cc42	0.05292917
112	0x3d6227dd	0.055213798
113	0xbe6da7be	-0.2320852
114	0x3b5f2ea0	0.003405489
115	0xbe848a88	-0.2588694
116	0xbd79db31	-0.061000053
117	0xbdf8a895	-0.121415295
118	0xbd73b3c3	-0.059497606
119	0x3ab756bd	0.0013987642
120	0x3c8b34c0	0.016992927
121	0xbd5d06b6	-0.05396148
122	0xbd2bab4f	-0.04191142
123	0x3b85afa4	0.004079776
124	0xba191cf6	-0.00058408023
125	0xbd2e8bd0	-0.042613804
126	0x3dff9e28	0.12481338
127	0x3c7be9ec	0.015375596
128	0xbd1ccdab	-0.038282078
129	0x3d8bf52f	0.068338744
130	0xbdadeeec	-0.08492836
131	0xbc07d3c4	-0.008290235
132	0x3b68cc19	0.0035522042
133	0xbdde7959	-0.10862989
134	0x3d81d2f1	0.06339062
135	0x3dab3caf	0.08361184
136	0x3d2e66fc	0.042578682
137	0xbd9a9da5	-0.075495996
138	0xbd0358c2	-0.032067068
139	0x3e152255	0.14563878
140	0xbc9cec79	-0.019155728
141	0xb975e58d	-0.00023450535
142	0x3dad5e6b	0.084652744
143	0xbbdf7684	-0.006819548
144	0xbd2e1adc	-0.042506084
145	0xbc95038e	-0.018190172
146	0xbceb1b04	-0.028699405
147	0xbcad8915	-0.02118353
148	0xbd201d4b	-0.039090436
149	0x3b48552c	0.0030568345
150	0xbdb9ca39	-0.09071774
151	0xbc977887	-0.01849009
152	0x3d67bcb5	0.05657645
153	0x3d3529c8	0.0442293
154	0x3e10bf87	0.14135562
155	0x3d4deec0	0.050276518
156	0x3cf4e730	0.029895395
157	0xbc81b654	-0.015834011
158	0x3dce8808	0.1008454
159	0x3d2b1af1	0.04177374
160	0x3c62b2b1	0.013836549
161	0x3deba96a	0.115069225
162	0x3d403fed	0.046935964
163	0xbdb4ed5e	-0.08834337
164	0x3d3652d3	0.04451258
165	0x3b351a01	0.0027633908
166	0xbb859e4f	-0.0040777097
167	0x3d90b4cb	0.070657335
168	0xbd35cea6	-0.04438653
169	0xbdbc5f76	-0.09197895
170	0x3cdaf477	0.026727898
171	0xbd187438	-0.03722021
172	0xbd357e53	-0.044309925
173	0xbdc8f6ae	-0.098126754
174	0xbc4d693c	-0.012537297
175	0xbd71829f	-0.05896246
176	0x3ddf2a1d	0.10896704
177	0xbdbaa29b	-0.09113046
178	0xbe0918d4	-0.13388377
179	0xbd16febe	-0.036864035
180	0x3ca225dc	0.019793443
181	0xbb51d459	-0.0032017438
182	0x3e0687fa	0.13137808
183	0x3db6f9bb	0.08934351
184	0xbe200872	-0.15628222
185	0xbcc28eb4	-0.023749687
186	0x3c18360b	0.009290229
187	0xbcb6dd50	-0.022322327
188	0x3e0413c2	0.12898162
189	0xbd88610a	-0.06659134
190	0x3e27518a	0.16339698
191	0xbe1905df	-0.14943646
192	0x3daf996a	0.08574183
193	0xbe43af06	-0.19109735
194	0xbe06bdaa	-0.13158289
195	0x3e7fceaa	0.2498118
196	0xbee8feb2	-0.45506817
197	0xbdd8e518	-0.10590571
198	0xbe6a543b	-0.22883694
199	0xbe2aee6b	-0.16692512
200	0x3cd11d72	0.025526736
201	0x3bb9601e	0.00565721
202	0x3e65edd2	0.22454002
203	0x3d538fc9	0.051650796
204	0x3d0eb778	0.03484294
205	0x3c21beed	0.00987218
206	0x3dabe776	0.08393757
207	0x3dce4df4	0.10073462
208	0x3e2510b1	0.16119649
209	0xbee23e58	-0.4418819
210	0x3d623034	0.05522175
211	0xbd320e55	-0.0434707
212	0xbdef8ffa	-0.11697383
213	0xbe12fa32	-0.14353254
214	0x3ea42a01	0.32063296
215	0xbee2d1a4	-0.44300568
216	0xbe397cb8	-0.18113983
217	0x3e10ee85	0.14153488
218	0x3d8e684e	0.06953488
219	0xbeb41fb5	-0.3518044
220	0xbc86d990	-0.016461164
221	0xbdcfe71e	-0.10151504
222	0xbd50805e	-0.05090367
223	0x3e24d811	0.16098048
224	0x3c18c6ba	0.009324724
225	0xbcffd742	-0.031230573
226	0xbe32ea7a	-0.17472258
227	0xbc4ee393	-0.0126275
228	0xbde132c8	-0.10996014
229	0xbe945319	-0.28969648
230	0x3ecb5156	0.39710492
231	0xbd66154d	-0.056172658
232	0xbefb9cf3	-0.4914318
233	0xbe166de7	-0.14690362
234	0x3da680ee	0.0813006
235	0xbc1da3a5	-0.009621535
236	0x3e858367	0.26076815
237	0xbe84606d	-0.25854817
238	0xbdec8939	-0.11549611
239	0xbd031fb5	-0.03201266
240	0xbe2d99a2	-0.16953138
241	0x3e4c4a9b	0.19950335
242	0xbe916346	-0.28396052
243	0x3f03a980	0.5143051
244	0x3b759638	0.003747357
245	0xbd11d6b2	-0.03560514
246	0x3c92dfbf	0.017928956
247	0xbe5555e7	-0.2083355
248	0x3dab1e8b	0.08355435
249	0xbd79aeef	-0.060957845
250	0xbdfdae21	-0.12386728
251	0x3be05cc3	0.0068469956
252	0xbe83b7a7	-0.25726053
253	0x3e320217	0.1738361
254	0xbcee4e87	-0.02909018
255	0xbdba2334	-0.09088746

blocks.1.to_q.weight f4 [128, 8]
0	0x3dbbf98b	0.09178456
1	0xbe0bb4be	-0.13643166
2	0x3d06915e	0.032853477
3	0x3cff4e14	0.03116516
4	0x3ea5ab4d	0.32357255
5	0xbf12cc83	-0.5734331
6	0x3ea5435e	0.3227796
7	0xbeb9c2ad	-0.36281338
8	0x3e854f1b	0.26036915
9	0xbdd93a2d	-0.10606799
10	0x3eb9110e	0.36145824
11	0xbd0f58bc	-0.034996733
12	0x3e29d0e7	0.16583596
13	0x3dde516b	0.10855373
14	0xbbde7c35	-0.006789709
15	0xbeae7a2f	-0.34077594
16	0x3dd5999f	0.104296915
17	0x3eb06445	0.344515
18	0xbdf9f147	-0.12204223
19	0x3ecacbd0	0.39608622
20	0xbd65e0a4	-0.056122437
21	0xbdebaa65	-0.115071096
22	0xbe552afe	-0.20817181
23	0x3e916c2d	0.28402844
24	0xbd9b58b5	-0.07585279
25	0x3e27dceb	0.16392867
26	0xbe9d5908	-0.30731988
27	0x3dde2f31	0.10848845
28	0xbeac10f1	-0.33606675
29	0x3da969bf	0.082721226
30	0x3e9584b5	0.2920281
31	0x3e8552e7	0.26039812
32	0xbe7f1599	-0.24910583
33	0xbebf42a1	-0.3735552
34	0xbe595353	-0.21223192
35	0xbe3033d5	-0.17207272
36	0x3ec30273	0.38087806
37	0xbe678fdd	-0.22613473
38	0x3d75efb1	0.06004304
39	0x3ead541f	0.33853242
40	0x3d5397f1	0.051658574
41	0xbe87c95e	-0.26520818
42	0xbe13841b	-0.14405863
43	0xbd12fcab	-0.035885494
44	0x3e1839f0	0.14865851
45	0x3e15e44f	0.14637874
46	0xbe06a6c9	-0.13149561
47	0x3e9f5f2f	0.31127307
48	0x3d86e8e2	0.065873876
49	0x3d24cb50	0.040232956
50	0xbd72de45	-0.059294004
51	0x3e03877c	0.12844652
52	0x3e83fc51	0.2577844
53	0xbe5b98bc	-0.21444982
54	0x3df81f16	0.12115304
55	0xbed1e122	-0.40992075
56	0x3dd61c8c	0.10454664
57	0x3e568d89	0.20952429
58	0xbed13561	-0.40861037
59	0xbd3f7556	-0.04674276
60	0x3d2884ec	0.04114239
61	0x3e867911	0.2626424
62	0x3d9bae0c	0.07601556
63	0x3e133581	0.14375879
64	0xbe07008f	-0.13183807
65	0x3e8be955	0.27326456
66	0xbc2aadbe	-0.0104174
67	0xbe7628d1	-0.24039008
68	0x3e9edb73	0.310268
69	0xbe9792bb	-0.29604134
70	0xbd640693	-0.055670332
71	0xbdc013ee	-0.09378801
72	0xbe342caa	-0.17595163
73	0x3e21b8de	0.15793177
74	0xbea66145	-0.32496086
75	0xbd80ed88	-0.062953055
76	0xbe31b9cd	-0.17356034
77	0x3e870ff3	0.26379356
78	0x3e1b1ad2	0.1514695
79	0xbe628f62	-0.22125009
80	0xbe5edaf3	-0.2176321
81	0xbcee835e	-0.029115375
82	0xbbf83a9a	-0.007575345
83	0x3db71e4e	0.08941327
84	0xbe012a29	-0.12613739
85	0x3ef92727	0.48662683
86	0xbe6f0745	-0.23342617
87	0xbe557151	-0.20844008
88	0x3e822978	0.25422263
89	0x3e17f58c	0.14839762
90	0x3e2b120f	0.16706108
91	0xbea7fe87	-0.32811376
92	0x3c8a89b0	0.016911358
93	0x3e42e655	0.19033177
94	0x3df06d27	0.11739569
95	0xbe34f8fb	-0.17673104
96	0xbe504b6d	-0.20341273
97	0xbec43bba	-0.38326818
98	0xbe41070a	-0.18850341
99	0xbd4cb9d4	-0.049981907
100	0x3e9cc6c5	0.306204
101	0x3de48751	0.11158622
102	0x3e14fa4a	0.14548603
103	0xbd49ea87	-0.04929593
104	0x3df06a95	0.11739079
105	0x3ea0856a	0.31351787
106	0xbec80dc0	-0.3907299
107	0x3d8196ec	0.06327614
108	0xbe29a20f	-0.16565727
109	0x3ec4046f	0.38284633
110	0xbe2b161f	-0.16707657
111	0xbdb7c5fa	-0.08973308
112	0x3d750798	0.059821695
113	0x3d5f4de3	0.054517638
114	0x3d4f196e	0.05056136
115	0xbe782c4c	-0.24235648
116	0x3e1d031a	0.15333214
117	0x3e60d33b	0.21955578
118	0xbe029d79	-0.12755384
119	0xbe676340	-0.22596455
120	0xbefe2883	-0.49640283
121	0x3a743d27	0.0009316974
122	0xbe98d41c	-0.29849327
123	0x3ac39d04	0.0014924114
124	0xbd8dabf3	-0.06917562
125	0x3e266ca2	0.16252378
126	0x3cafc4bb	0.021456113
127	0xbd9a92af	-0.07547509
128	0xbe278036	-0.16357502
129	0x3cc5a0c8	0.024124518
130	0xbe04f426	-0.1298376
131	0xbe43f780	-0.19137383
132	0xbe9889b4	-0.2979256
133	0x3dbc77af	0.09202515
134	0xbe1c7a38	-0.15280998
135	0x3d130100	0.035889626
136	0x3df35320	0.11881089
137	0xbec8195b	-0.39081845
138	0xbe6d570d	-0.23177738
139	0xbe8ab90e	-0.2709431
140	0x3e6960df	0.2279086
141	0xbde90bc1	-0.11379195
142	0xbd1e8d38	-0.038708895
143	0x3e2fe1bc	0.17175955
144	0xbce00cf8	-0.027349934
145	0xbe8605f3	-0.26176414
146	0xbdea5dc6	-0.11443667
147	0xbe938324	-0.2881099
148	0x3ddf9aba	0.109181836
149	0x3e62ec83	0.22160535
150	0xbd38db30	-0.04513091
151	0xbee07bbe	-0.43844408
152	0x3ed06cdd	0.40708056
153	0xbedee9af	-0.4353766
154	0x3d809be3	0.06279733
155	0x3dec4756	0.11537044
156	0x3ea79970	0.3273425
157	0x3e27c70b	0.16384523
158	0x3b180442	0.0023195897
159	0x3e19757c	0.14986223
160	0xbe6b77a1	-0.22994854
161	0xbd218a6b	-0.039438646
162	0x3ca7719e	0.02043992
163	0x3df1d760	0.11808658
164	0xbe899ad4	-0.26875937
165	0xbc982136	-0.018570524
166	0x3e5a9199	0.21344604
167	0x3ea3ca9c	0.31990516
168	0x3bccee55	0.0062539973
169	0x3e202afe	0.156414
170	0xbe8f6f1e	-0.28014463
171	0xbe321db1	-0.17394139
172	0x3e677130	0.22601771
173	0xbd0b44db	-0.034001213
174	0x3e303412	0.17207363
175	0xbe8c30b2	-0.27380902
176	0x3ee9e4ab	0.45682272
177	0xbf021194	-0.5080807
178	0x3dcb3e3e	0.09923981
179	0xbe0e8cc5	-0.13920887
180	0xbe02b604	-0.12764746
181	0xbf46adc0	-0.7760887
182	0xbe36cda8	-0.17851889
183	0x3e971d39	0.29514483
184	0xbd654454	-0.055973366
185	0xbd29ab15	-0.041422922
186	0xbe8c0106	-0.2734453
187	0xbe48ccd8	-0.19609392
188	0xbeedfc9a	-0.46481782
189	0xbd5c1e7f	-0.05374002
190	0xbec1a43c	-0.37820613
191	0x3e97188a	0.2951091
192	0xbd4ada02	-0.049524315
193	0xbe27a78f	-0.16372512
194	0xbe51dd67	-0.20494615
195	0x3cf34a97	0.029698653
196	0xbc5577d4	-0.0130290575
197	0xbebfe147	-0.3747656
198	0x3e85bd22	0.2612086
199	0x3e981714	0.29705107
200	0xbd93ef1e	-0.07223342
201	0x3d76e94a	0.060281076
202	0x3e11a970	0.14224792
203	0xbb4aa9b8	-0.0030923914
204	0x3e17d132	0.14825895
205	0xbe7fcafe	-0.24979779
206	0x3e846d31	0.25864556
207	0x3e991036	0.2989518
208	0xbe8a8e9a	-0.2706192
209	0xbe6e15ab	-0.23250453
210	0xbf011a4e	-0.5043076
211	0x3e515ed7	0.20446335
212	0xbea151bf	-0.3150768
213	0xbe581360	-0.21101141
214	0xbe3dc2f0	-0.18531394
215	0xbe9d2d74	-0.3069874
216	0xbe6647a3	-0.22488265
217	0x3e95e06b	0.2927278
218	0x3e421924	0.18954903
219	0x3ee4f848	0.44720674
220	0xbea86850	-0.32892084
221	0xbe086d79	-0.1332301
222	0xbdd25477	-0.10270017
223	0x3e20208e	0.15637419
224	0xbeda130e	-0.42592663
225	0x3dc67683	0.09690573
226	0xbebb2d5f	-0.36558053
227	0x3d8b05bb	0.067882024
228	0x3e9ff2a4	0.31239808
229	0x3de7a55a	0.11310835
230	0x3e1e7fa5	0.1547838
231	0xbe82cfc3	-0.25549135
232	0xbefc4911	-0.49274495
233	0xbde205e8	-0.11036283
234	0xbf1e9bc2	-0.6195642
235	0xbe024ffa	-0.12725821
236	0xbdc725af	-0.097239845
237	0x3d054c36	0.032543384
238	0xbe6b4beb	-0.22978179
239	0xbdee24f4	-0.11628142
240	0xbda84249	-0.08215768
241	0xbeb973ca	-0.36221153
242	0x3eb9e20f	0.36305282
243	0x3e5af942	0.21384147
244	0xbe2d5275	-0.16925986
245	0xbdbfe38e	-0.093695745
246	0x3e0ca9cf	0.13736652
247	0xbe9a6301	-0.3015366
248	0xbee3df78	-0.4450643
249	0x3ea27282	0.31727988
250	0xbddce638	-0.10786098
251	0x3e1d3289	0.15351309
252	0xbe52a09d	-0.20569082
253	0x3e095e07	0.13414775
254	0x3e35baba	0.17747012
255	0xbd5e89f7	-0.054330792

blocks.1.to_kv.weight f4 [256, 8]
0	0xbed8c9c5	-0.42341438
1	0x3d840798	0.06446761
2	0x3dd7ada2	0.10531165
3	0xbec84b04	-0.39119732
4	0x3ccc4dbe	0.024939414
5	0xbec088a6	-0.37604254
6	0x3c48cf25	0.012256418
7	0x3e1bb499	0.15205611
8	0xbe393599	-0.18086852
9	0xbe448333	-0.19190674
10	0x3e62f198	0.22162473
11	0xbec4be43	-0.38426408
12	0xbc9d34a0	-0.019190133
13	0xbef613f6	-0.48062104
14	0x3e5bbb0d	0.21458073
15	0x3cb364c2	0.021898631
16	0xbde17833	-0.11009254
17	0x3e6fa920	0.2340436
18	0x3e8413e4	0.25796425
19	0x3e94b617	0.29045174
20	0xbe8c855b	-0.27445492
21	0x3e2c71d4	0.16840297
22	0x3e564763	0.2092567
23	0x3ea50fbf	0.32238576
24	0xbe11b2b8	-0.14228332
25	0x3e802d11	0.25034383
26	0xbe9871d2	-0.29774338
27	0x3e815cce	0.25266117
28	0x3e7b260a	0.2452623
29	0x3e661f3a	0.2247285
30	0xbe906c6d	-0.28207722
31	0x3e50e966	0.20401534
32	0x3e01afc2	0.12664703
33	0x3e966d3f	0.29380223
34	0xbe4ed91f	-0.20200013
35	0xbe40494c	-0.1877796
36	0xbcd05413	-0.025430715
37	0xbe176cbf	-0.14787577
38	0xbe106186	-0.14099702
39	0xbe5944f6	-0.21217713
40	0x3e31008d	0.17285366
41	0x3e003f9f	0.1252427
42	0xbd305330	-0.043048084
43	0x3e4b7309	0.19868101
44	0x3d96845d	0.07349465
45	0x3de2f1dc	0.11081287
46	0xbd875ff1	-0.06610096
47	0xbe3127ec	-0.17300385
48	0xbd6c5bff	-0.05770492
49	0xbc070e41	-0.0082431445
50	0x3e50c179	0.20386304
51	0xbeae1ed1	-0.34007886
52	0xbe17fa2a	-0.14841524
53	0xbf14c17a	-0.5810772
54	0xbda1c51d	-0.078989245
55	0x3d251962	0.04030741
56	0x3eaf4e2e	0.34239334
57	0xbe83b5b2	-0.2572456
58	0xbd46a4de	-0.048497073
59	0x3e9e7052	0.3094507
60	0xbe79b1da	-0.24384251
61	0x3ea35681	0.31901935
62	0x3c9cfe4b	0.019164225
63	0xbe688d9a	-0.22710267
64	0x3d805ef3	0.0626811
65	0xbe3e2f2f	-0.18572687
66	0x3e17b6c5	0.14815815
67	0xbee0755b	-0.43839535
68	0x3eb9b0f0	0.36267805
69	0xbea34d75	-0.31895033
70	0x3e94c2a2	0.29054743
71	0xbe950629	-0.29106262
72	0xbd01d0de	-0.031693332
73	0x3da6703c	0.08126876
74	0x3ed316a9	0.41228226
75	0x3b127ad5	0.0022351046
76	0xbe619f1e	-0.22033355
77	0xbd416184	-0.04721214
78	0xbccbfbca	-0.024900336
79	0x3d521a15	0.051294405
80	0x3dfa0582	0.12208082
81	0x3eb91f38	0.3615663
82	0x3ebcd8cf	0.36884162
83	0xbdae2765	-0.08503608
84	0x3e5fd7a6	0.21859607
85	0x3ebf233b	0.37331566
86	0x3d89e8a5	0.067338265
87	0xbe84fb55	-0.25973
88	0xbe4a244a	-0.19740406
89	0x3df5128d	0.11966429
90	0x3ea8a837	0.32940838
91	0x3e00da25	0.12583216
92	0x3d9b073d	0.0756974
93	0xbec40442	-0.38284498
94	0xbdfd2097	-0.12359732
95	0xbe85c1ee	-0.2612452
96	0xbdb4e2de	-0.08832334
97	0x3e1b37f9	0.1515807
98	0x3eacce03	0.33750924
99	0xbec20795	-0.3789641
100	0x3e11680e	0.1419985
101	0x3db5d658	0.088787735
102	0xbe8ae625	-0.2712871
103	0xbe588c40	-0.21147251
104	0xbd3aff13	-0.045653414
105	0x3e03fed1	0.12890173
106	0x3e9f7ceb	0.31149992
107	0x3e4dccee	0.20097706
108	0x3e48003f	0.19531344
109	0x3eedbd90	0.46433687
110	0x3e82e493	0.25565013
111	0xbe6862f2	-0.22693995
112	0xbe0eb997	-0.13937984
113	0xbd110f5b	-0.035415035
114	0x3e102daa	0.1407992
115	0xbdae6cc1	-0.08516837
116	0x3ebb26fb	0.36553177
117	0x3e30e66e	0.17275402
118	0xbabfedb5	-0.0014642986
119	0xbe7bbc53	-0.24583559
120	0x3e0bf038	0.13665855
121	0x3de0d300	0.10977745
122	0x3ebd35a9	0.36955002
123	0x3d7c5c14	0.06161125
124	0x3e0d6ce8	0.13811076
125	0x3e570184	0.20996672
126	0x3e64a4bd	0.22328468
127	0x3e3bac30	0.18327403
128	0x3cdbe877	0.026844246
129	0xbe442d90	-0.19158006
130	0x3e50ca46	0.20389661
131	0x3de3f967	0.11131554
132	0xbe96b8ad	-0.2943777
133	0x3e3a360a	0.18184677
134	0x3e340950	0.17581677
135	0xbd87450b	-0.06604966
136	0xbc1c8b99	-0.009554767
137	0x3d6dc979	0.058053467
138	0x3e9a07e6	0.3008415
139	0xbe6a26d7	-0.22866379
140	0xbe260733	-0.16213684
141	0xbe86a088	-0.2629435
142	0xbdfc0e61	-0.1230743
143	0xbdf03c3e	-0.1173024
144	0xbe415fb0	-0.18884158
145	0x3e980b84	0.29696286
146	0x3e5b41c2	0.21411803
147	0xbee45794	-0.44598067
148	0x3e8973d4	0.26846182
149	0xbe1f24e8	-0.15541422
150	0x3eb52f1b	0.353875
151	0xbdf3262d	-0.11872516
152	0xbe18ccaf	-0.1492183
153	0xbe6dacb7	-0.23210417
154	0xbec28867	-0.37994692
155	0xbad78d57	-0.0016445321
156	0x3e543a75	0.20725425
157	0xbe81c580	-0.25345993
158	0xbd567cd2	-0.05236513
159	0xbe3fea7c	-0.18741792
160	0xbea716ab	-0.32634482
161	0xbddef97d	-0.1088743
162	0xbeb2ed14	-0.349465
163	0xbe106fd8	-0.14105165
164	0xbe3b4a64	-0.18290097
165	0x3e054940	0.13016224
166	0x3dea85fe	0.11451338
167	0x3e867e43	0.26268205
168	0xbce11d77	-0.02747987
169	0xbbbf61c8	-0.005840514
170	0x3cf5a61b	0.029986432
171	0xbec61d77	-0.38694355
172	0x3e7052df	0.23469113
173	0x3dca0175	0.09863559
174	0xbe5aecb5	-0.21379359
175	0xbebb123a	-0.36537343
176	0xbf0cdec1	-0.55027395
177	0xbc0ef1e2	-0.008724662
178	0xbe763b0f	-0.24045967
179	0xbe0c1307	-0.13679133
180	0x3dc36ab4	0.095418364
181	0x3dcf6cae	0.10128151
182	0xbed1a154	-0.40943396
183	0xbe80d7cb	-0.25164637
184	0x3ebe837a	0.37209684
185	0x3eb3e978	0.3513906
186	0x3d0d24bc	0.03445886
187	0xbda97a32	-0.0827526
188	0x3e71aee6	0.23601875
189	0x3ebe3383	0.37148675
190	0xbd9ee1df	-0.07757925
191	0x3ebfc547	0.37455198
192	0xbebe9f73	-0.37231025
193	0xbcd913c4	-0.026498683
194	0x3e33b6ca	0.17550197
195	0xbe03b928	-0.128636
196	0xbe35c4ee	-0.17750904
197	0xbd7e04ce	-0.0620163
198	0xbe5f60dd	-0.21814294
199	0x3ec07f16	0.3759696
200	0x3d5999a9	0.053125057
201	0xbe95caa6	-0.2925617
202	0xbe9ad33d	-0.30239287
203	0x3d83b560	0.06431079
204	0xbe4a3313	-0.19746046
205	0xbe70d9e5	-0.2352062
206	0xbe9d39cb	-0.30708155
207	0x3ea6805a	0.325198
208	0x3eb0f665	0.34562984
209	0x3e1992e2	0.14997438
210	0x3d6a8b5e	0.057261817
211	0xbebab053	-0.3646265
212	0x3bb81527	0.005617756
213	0x3e45adbb	0.19304554
214	0xbd80d7ce	-0.062911615
215	0x3e841e61	0.25804427
216	0x3df1a8eb	0.11799797
217	0x39b9e3bb	0.00035455622
218	0x3da5e010	0.08099377
219	0x3ec50f52	0.3848825
220	0xbea3cff8	-0.31994605
221	0x3ea5e40b	0.32400545
222	0xbe94b01c	-0.2904061
223	0x3d17e736	0.037085734
224	0x3dda4d3e	0.10659264
225	0x3e24c0de	0.16089198
226	0x3d1338b5	0.035942752
227	0xbe6ecced	-0.2332036
228	0xbdf9653f	-0.12177514
229	0xbe28d4d0	-0.16487432
230	0x3ea07273	0.31337318
231	0xbecdc61c	-0.40190208
232	0x3e59ba22	0.2126241
233	0x3eb7ef32	0.3592468
234	0x3ec90b18	0.39266276
235	0xbef4210d	-0.47681466
236	0xbb9f209f	-0.0048561837
237	0x3ea75943	0.3268529
238	0x3ca77826	0.020443033
239	0xbda318f4	-0.07963744
240	0xbdf02414	-0.11725631
241	0xbd93504a	-0.07193048
242	0xbe1bd0d0	-0.15216374
243	0x3d1eccfe	0.038769715
244	0x3e3f5dbf	0.18688105
245	0xbe332781	-0.17495538
246	0xbddc9393	-0.10770335
247	0x3deaf4ea	0.11472495
248	0xbddd3eb7	-0.108029775
249	0x3e9df50e	0.30851024
250	0x3e7d14df	0.24714993
251	0x3dfa6c06	0.12227635
252	0xbe86a102	-0.26294714
253	0x3e815ce9	0.25266197
254	0x3e9ad197	0.3023803
255	0x3e3a8856	0.1821607

blocks.1.to_out.weight f4 [8, 128]
0	0xbd54852f	-0.051884826
1	0xbcd43656	-0.025904816
2	0x3dd1793f	0.10228204
3	0x3e1b6914	0.15176803
4	0x3d1fe0df	0.039032813
5	0x3e80952f	0.25113818
6	0x3e95ee8e	0.29283565
7	0x3e081ec5	0.13292988
8	0x3dbefbed	0.09325395
9	0x3deaf768	0.1147297
10	0xbd91e19a	-0.07123108
11	0x3eba6f46	0.3641302
12	0x3e5ed9fa	0.21762839
13	0x3e787966	0.2426506
14	0x3dfd0382	0.12354185
15	0xbd81a226	-0.063297555
16	0xbe916dd3	-0.28404102
17	0xbc430e91	-0.011905328
18	0xbe045763	-0.1292396
19	0x3e476445	0.19471844
20	0x3e6b2e78	0.22966945
21	0xbcbdcffe	-0.023170467
22	0x3ed904dd	0.42386523
23	0xbe424153	-0.18970232
24	0xbe5c8f87	-0.21539126
25	0x3daa54a6	0.08316927
26	0x3dcb8bfc	0.09938809
27	0x3ae71e20	0.0017632879
28	0xbea8065c	-0.32817352
29	0xbe0d49db	-0.13797705
30	0x3eec1e40	0.4611683
31	0xbcea759e	-0.028620537
32	0xbe1de958	-0.15421045
33	0x3de1f370	0.1103276
34	0x3eb88c37	0.36044475
35	0x3db7611c	0.08954069
36	0xbc80cc4b	-0.015722414
37	0xbd151e28	-0.036405712
38	0x3e956aac	0.29182947
39	0xbf2ad4c8	-0.6673093
40	0x3d25fae4	0.04052247
41	0xbe3bade0	-0.18328047
42	0xbeeb495a	-0.459544
43	0x3e9ca200	0.30592346
44	0xbdcef74b	-0.10105761
45	0xbd9785f7	-0.07398599
46	0xbe21911d	-0.15778013
47	0x3eac386e	0.33636802
48	0x3e81702f	0.25280902
49	0xbe1a973f	-0.15096758
50	0x3de8cbce	0.11366998
51	0x3eda50a2	0.42639643
52	0x3e471613	0.19442014
53	0x3ed1a510	0.40946245
54	0x3dd95139	0.10611195
55	0x3ed32bab	0.41244254
56	0x3e2b7fb6	0.16747937
57	0xbe25f9d1	-0.16208579
58	0x3e3a1fb9	0.18176164
59	0xbdf65f54	-0.12029901
60	0x3ea1cb9d	0.31600657
61	0x3daf1abd	0.08550022
62	0xbed1bd35	-0.40964666
63	0x3f58c60d	0.846772
64	0x3f152efa	0.58274806
65	0xbe802eec	-0.250358
66	0xbe136ee6	-0.14397773
67	0xbd8442e0	-0.06458068
68	0x3e74a89f	0.23892449
69	0x3ee17c99	0.44040373
70	0xbd1f0d77	-0.0388312
71	0x3e3127f1	0.17300393
72	0xbe1ed845	-0.15512188
73	0xbe33d4ad	-0.17561598
74	0xbdcd8038	-0.100342214
75	0xbed26e23	-0.41099653
76	0xbd4605a0	-0.04834521
77	0x3e7d1638	0.24715507
78	0x3e568716	0.20949969
79	0xbe16674e	-0.14687845
80	0x3e904d05	0.2818376
81	0xbdd0bb1e	-0.1019194
82	0x3e7ff6d4	0.24996501
83	0x3e628130	0.22119594
84	0xbdf545b5	-0.11976186
85	0xbe0913a1	-0.13386394
86	0x3e5cbc32	0.21556166
87	0x3e088f88	0.13336003
88	0x3e8f5956	0.27997845
89	0xbe4daf17	-0.20086323
90	0x3e299332	0.16560057
91	0xbe97be45	-0.29637352
92	0xbe5b6cf2	-0.21428278
93	0xbe285037	-0.1643685
94	0xbe7d3a5d	-0.24729295
95	0xbde58955	-0.11207835
96	0xbe9d7d65	-0.3075973
97	0xbebe06a0	-0.3711443
98	0x3cc26a87	0.023732437
99	0x3e9f9446	0.3116781
100	0x3c90f223	0.017693585
101	0x3c44e571	0.012017594
102	0xbdf83658	-0.1211974
103	0x3ed14459	0.40872458
104	0xbebf7f04	-0.37401593
105	0x3ed07f38	0.4072206
106	0xbe040cc8	-0.128955
107	0xbe022d2c	-0.12712544
108	0xbce5eff4	-0.02806852
109	0x3db3ad8e	0.08773337
110	0x3e068aa2	0.13138822
111	0x3d59432d	0.05304258
112	0x3da6e59c	0.08149263
113	0x3e043e09	0.1291429
114	0x3e87173e	0.2638492
115	0xbe6f9ec5	-0.2340041
116	0xbe33e031	-0.17565991
117	0xbecf8af8	-0.40535712
118	0xbda61c90	-0.081109166
119	0xbd94e0bc	-0.07269427
120	0xbd59212e	-0.05301016
121	0x3e08fa46	0.13376722
122	0x3d3a31c6	0.045457624
123	0x3e2eeca1	0.17082454
124	0xbe6142bb	-0.21998112
125	0xbd0d8feb	-0.03456108
126	0xbdcea378	-0.10089773
127	0x3d34f6f0	0.04418081
128	0x3e3d3503	0.18477254
129	0xbd76a134	-0.06021233
130	0x3e7d4cbc	0.24736303
131	0x3e236937	0.15958105
132	0xbdfae897	-0.12251394
133	0x3e12c235	0.14331897
134	0x3e12a32c	0.14320058
135	0xbc6da186	-0.014503842
136	0xbd8bb900	-0.06822395
137	0x3e546092	0.20739964
138	0x3d916c70	0.07100761
139	0x3e5132ad	0.20429488
140	0x3ddd3337	0.10800784
141	0x3d89ecbd	0.06734607
142	0xbd8e98e2	-0.06962754
143	0xbe55feee	-0.20898029
144	0x3c86a8d2	0.016437922
145	0x3e3fba79	0.18723477
146	0xbe524cb5	-0.20537074
147	0x3e19547f	0.14973639
148	0x3e1b6d16	0.15178332
149	0xbdfc1311	-0.12308324
150	0x3e841ae5	0.2580177
151	0xbe2805e2	-0.16408494
152	0xbd9cbbd5	-0.076530136
153	0x3e48c79d	0.19607396
154	0x3e5dd595	0.21663506
155	0x3e1e3bcc	0.15452498
156	0xbde3e927	-0.11128455
157	0x3d4e6370	0.0503878
158	0x3e41c376	0.18922219
159	0x3dca8e49	0.0989042
160	0x3c619b86	0.01376999
161	0xbddfb8aa	-0.10923894
162	0x3cf22f32	0.02956352
163	0x3e8f2480	0.27957535
164	0x3e14500b	0.14483659
165	0xbd81399e	-0.06309818
166	0x3e020375	0.12696631
167	0xbdfe9590	-0.124308705
168	0x3e3ae6f3	0.18252163
169	0x3d997d36	0.07494585
170	0xbe853d6f	-0.26023433
171	0x3dade7d7	0.084914856
172	0x3dfe3ba9	0.12413723
173	0xbe699e9f	-0.22814415
174	0xbe5aa95e	-0.21353671
175	0x3dc8ae69	0.09798891
176	0x3ec72414	0.38894713
177	0xbe04e47c	-0.12977785
178	0x3d936762	0.07197453
179	0x3e33d8fb	0.1756324
180	0x3e9aab35	0.30208746
181	0x3e384aa3	0.17997222
182	0xbdaf3374	-0.08554736
183	0x3dd0b498	0.101906955
184	0xbdaec875	-0.08534328
185	0xbe4e59c3	-0.20151429
186	0xbc8e7fef	-0.017394988
187	0xbcb2fc3f	-0.021848796
188	0xbd5c0005	-0.053710956
189	0x3e3fad04	0.18718344
190	0xbc85eebf	-0.016349195
191	0x3e5b6bf2	0.21427897
192	0xbea3024d	-0.31837693
193	0xbe0620fc	-0.1309852
194	0x3d59f2a8	0.05320993
195	0xbd7cf9d5	-0.061761696
196	0x3e061d13	0.13097028
197	0x3e1ea9b6	0.15494427
198	0xbeecd375	-0.4625508
199	0x3e78f375	0.24311621
200	0xbeb02cc0	-0.34409142
201	0xbe97f1fe	-0.29676813
202	0xbea38700	-0.31938934
203	0xbe6bff61	-0.23046638
204	0xbe14879d	-0.14504857
205	0x3e99111d	0.2989587
206	0x3e4e2614	0.20131713
207	0xbdddba9f	-0.10826611
208	0x3e61cf42	0.22051719
209	0xbed752be	-0.42055315
210	0xbd6ddd9b	-0.058072668
211	0xbdcd336a	-0.10019572
212	0xbea80530	-0.32816458
213	0xbe18a49b	-0.14906542
214	0x3ea29f3a	0.31762105
215	0x3eb52869	0.35382393
216	0xbe216e0b	-0.15764634
217	0xbeb2220b	-0.34791598
218	0x3e755a2b	0.23960178
219	0xbe0d3d87	-0.13793002
220	0x3e03ddcd	0.12877579
221	0xbe014e47	-0.12627517
222	0xbea78f9a	-0.32726747
223	0xbd808f54	-0.06277338
224	0xbe81be03	-0.2534028
225	0xbea2a8bc	-0.3176936
226	0x3eb1f49d	0.34756938
227	0x3ec5b052	0.38611084
228	0x3e584a26	0.21122035
229	0x3e624add	0.2209887
230	0xbe187d0f	-0.14891456
231	0xbe963360	-0.2933607
232	0xbeafd270	-0.3434024
233	0x3e6ee29f	0.23328637
234	0xbe13155a	-0.14363614
235	0x3eb7d23a	0.35902578
236	0x3e75d21b	0.2400593
237	0x3ea0c017	0.31396553
238	0x3e44ed1b	0.19231074
239	0xbe6d8bb7	-0.23197828
240	0x3db863f5	0.0900344
241	0x3ea2473b	0.3169497
242	0x3be2e7eb	0.0069246194
243	0xbe212683	-0.15737347
244	0xbed9f0a1	-0.42566398
245	0x3e7a1487	0.24421893
246	0xbe3e59d2	-0.18588951
247	0xbe8e2f8a	-0.27770644
248	0xbe5cce35	-0.21563037
249	0xbdacd0c9	-0.0843826
250	0x3db71ba5	0.0894082
251	0x3e40681d	0.18789716
252	0xbd1193c9	-0.03554133
253	0x3e224bc7	0.1584922
254	0xbe2f9c00	-0.17149353
255	0xbe225c15	-0.15855439

mlp.0.weight f4 [10, 8]
0	0x3ddd0dac	0.10793623
1	0xbe99af85	-0.30016723
2	0x3ec6bf3f	0.38817784
3	0x3e4bbbdb	0.1989588
4	0xbe3420bc	-0.17590612
5	0xbec283b2	-0.379911
6	0x3d07fd64	0.033200637
7	0xbeb8f319	-0.3612297
8	0x3efb919f	0.49134538
9	0x3ee3e801	0.44512942
10	0xbf47ab18	-0.77995443
11	0xbeaf3e69	-0.34227303
12	0x3e93f542	0.28898054
13	0x3eeee137	0.466562
14	0x3e9930d8	0.29920077
15	0xbe29b0b3	-0.16571312
16	0xbec4ef37	-0.38463756
17	0x3d5c4e5f	0.053785678
18	0x3e8111b2	0.25208813
19	0x3efd5a8f	0.49483153
20	0xbe75edbe	-0.24016473
21	0x3f18959c	0.59603286
22	0x3ba9e33d	0.0051845596
23	0xbeae765d	-0.3407468
24	0xbf16071e	-0.5860461
25	0xbed791da	-0.42103463
26	0xbe1a4ef4	-0.1506918
27	0x3de47ec3	0.111569904
28	0xbe9c8d71	-0.3057666
29	0x3d601cdb	0.05471502
30	0x3e3b6de5	0.1830364
31	0x3d2e27e0	0.042518497
32	0xbd9d7974	-0.07689181
33	0x3d316271	0.04330677
34	0x3e752e81	0.23943521
35	0xbf2b00ce	-0.667981
36	0x3f056afc	0.5211637
37	0x3ca0d96c	0.019634925
38	0xbec4ad2d	-0.38413373
39	0x3e962390	0.29324007
40	0xbe844ad8	-0.2583835
41	0xbe0d5f13	-0.13805799
42	0x3ed2dad4	0.41182578
43	0x3f27e6da	0.65586627
44	0xbb813644	-0.0039432365
45	0xbe44744b	-0.19184987
46	0x3ddffbdb	0.109367095
47	0x3e103f4b	0.14086644
48	0x3f02a126	0.51027143
49	0x3dad8950	0.08473456
50	0x3ee22085	0.44165435
51	0x3e8af368	0.2713883
52	0xbca0ead4	-0.019643225
53	0x3e512794	0.20425254
54	0xbe461694	-0.1934455
55	0xbef83063	-0.48474416
56	0xbe2ca692	-0.16860417
57	0x3d1ad75e	0.037803046
58	0x3db61507	0.088907294
59	0x3cf35286	0.029702436
60	0x3d6e7265	0.058214564
61	0x3edae48f	0.427525
62	0x3f3615ea	0.7112719
63	0x3f1d6268	0.6147828
64	0xbe8c930e	-0.27455944
65	0xbe0cfa0e	-0.13767263
66	0xbd32836c	-0.043582365
67	0x3e2e9299	0.1704811
68	0xbeb23121	-0.34803107
69	0xbed35267	-0.41273805
70	0xbe1ce233	-0.15320663
71	0x3ea7aa5c	0.3274716
72	0x3c4e15a8	0.012578405
73	0xbe827488	-0.2547953
74	0x3e28fab9	0.16501893
75	0xbe126706	-0.14297113
76	0x3f06e7ba	0.52697337
77	0xbe9b72df	-0.30361077
78	0x3e432501	0.19057085
79	0x3e7b15dd	0.24520059

mlp.0.bias f4 [10]
0	0xbf51dc65	-0.8197692
1	0x3ecccfef	0.4000239
2	0xbd8a082b	-0.06739839
3	0xbea4ff09	-0.32225826
4	0xbe828090	-0.2548871
5	0x3e89a792	0.26885659
6	0x3f0e8957	0.55678314
7	0xbdad24fe	-0.08454321
8	0x3f845c10	1.0340595
9	0xbecf3d98	-0.4047668
