weights/benchmark-two/flashkan_vit_10epochs.pth (torch, 48115 bytes, 15 tensors)

v_class f4 [1, 8]
000000 b0 b8 1b 3f ba 62 1f 3f 01 e9 72 3f f1 ae fb 3e
       0.60828686 0.6226002 0.94886786 0.49156907
000010 e0 0e a6 bd 27 a8 04 3e 9f 39 54 3f d6 fd 38 be
       -0.08108306 0.1295477 0.8290042 -0.1806558

linear_mapper.base_weight f4 [8, 16]
000000 79 9e e5 3d 4e b9 c7 bc f6 b9 88 bc e4 de 8a bd
       0.11211867 -0.024380352 -0.016690236 -0.06780794
000010 05 b1 6f bd af af 37 3d 4c 9c 58 be 83 64 46 3e
       -0.05851843 0.04484528 -0.21153373 0.1937428
000020 73 71 85 bc ef 75 db bb f6 c7 4c bd ff d4 ac 3c
       -0.016289448 -0.0066974084 -0.049995385 0.021097658
000030 6a 1d b7 be a7 88 12 be 34 38 11 3d 9c 13 4a 3c
       -0.3576463 -0.14309941 0.03545399 0.012333777
000040 20 81 04 be 74 36 b3 bc fd 4b 91 be bf 65 33 3c
       -0.12939882 -0.021876551 -0.28378287 0.010949551
000050 ed f5 35 3e d4 a6 12 3e 52 68 97 3e 37 a4 6f bd
       0.17769594 0.14321452 0.29571778 -0.058506217
000060 c2 ef 3d bd 57 ff c8 3c 79 03 3c bc 63 15 60 3d
       -0.04637123 0.024535818 -0.011475437 0.054707896
000070 39 3b 61 3d c6 5b 1f 3e a9 40 26 3e c2 4f ad 3d
       0.05498812 0.15562353 0.16235603 0.08462478
000080 b1 c1 06 bc 4e 80 d4 3d 0a 6b 2c bd 27 e7 63 bd
       -0.008224891 0.10376035 -0.042094268 -0.055640366
000090 2f 27 f1 be 6e 8c c3 be 01 3d a2 be f2 61 d5 be
       -0.47100207 -0.38193077 -0.31687167 -0.4167629
0000a0 ed b4 26 be 25 f9 84 be ad 57 94 bd f0 a9 8c be
       -0.16279955 -0.25971332 -0.07243285 -0.27473402
0000b0 cb 4d ce be 3b ca b6 bd 98 e0 36 3d e6 4e 85 3d
       -0.40293726 -0.08925291 0.044647783 0.06509189
0000c0 5b 95 27 3e 8a 7a 73 bc 33 83 af bc 3e 7f 27 3e
       0.16365568 -0.014860759 -0.021424865 0.16357133
0000d0 5f db a9 3e c9 5d 20 bd 79 3a 78 3e 84 fd c8 3b
       0.3317518 -0.03915194 0.24241056 0.006133737
0000e0 43 39 04 3e 45 b6 57 3e b6 12 cb bd d9 24 df 3d
       0.12912469 0.21065624 -0.09915678 0.108957
0000f0 f6 d0 81 3c 87 ee 7d be 80 81 a7 bd 1d c4 bb bd
       0.01584671 -0.24798022 -0.08178997 -0.09168265
000100 82 89 10 3e ef 36 52 3e 45 c6 50 3e 11 68 c7 3d
       0.14114955 0.20528768 0.20388134 0.09736646
000110 b9 97 83 be 28 0d ef be fe bf c3 be bb 8c e5 be
       -0.25701693 -0.46689725 -0.38232416 -0.4483393
000120 6e 11 a7 be 65 cc ac bd b0 ee 94 be 2e 4e fa be
       -0.32630485 -0.08437423 -0.29088354 -0.4888777
000130 71 7f 08 3e ed 4b ac bd 03 bb 7e 3e cd be 3c be
       0.13329865 -0.08412919 0.24876027 -0.1843216
000140 79 08 bd 3c 35 6e 45 be 6d 86 66 be d9 61 47 be
       0.02307533 -0.19280322 -0.22512217 -0.1947092
000150 49 f1 b3 3d da 87 c3 bd 46 02 03 bd 7e 1e f1 3d
       0.08786256 -0.09547396 -0.03198459 0.11773394
000160 8d c8 8f bc a0 cf 83 3d dc 0b e5 3c 29 92 f1 3d
       -0.017551685 0.06436086 0.027959757 0.11795456
000170 25 e0 82 bc 25 df 77 3e 78 1b 4a bd 1f 90 90 3e
       -0.015976021 0.24206217 -0.049342602 0.28234956
000180 0b 79 b2 be 94 b8 cd 3a 52 b6 80 be c4 e7 c7 3c
       -0.34857973 0.0015695267 -0.251391 0.024402507
000190 89 2f 83 be 9d 89 9b be 70 c1 3f 3d 9f 82 86 be
       -0.25622204 -0.30378428 0.046815336 -0.2627153
0001a0 f4 f5 9a 3e 76 5d 82 3e dd ad 3d bd ca 72 53 bd
       0.30265772 0.2546193 -0.046308387 -0.051623143
0001b0 32 fb d3 bd 97 d4 9c be 26 60 3f be 5b 61 e0 be
       -0.10350646 -0.30630943 -0.18689021 -0.43824276
0001c0 62 fa 00 bf a2 17 7e be 2d de 00 bf 53 bf bd be
       -0.50382054 -0.24813703 -0.50339013 -0.3706003
0001d0 fe a6 da bd 47 87 bf be 7f df 6a bd c0 3d 5b be
       -0.106763825 -0.37407896 -0.05734205 -0.21410275
0001e0 00 5a fb 3c 81 c7 8a 3d d3 87 39 be 3c 8c 34 3d
       0.030682564 0.067763336 -0.18118219 0.04407905
0001f0 7c 1c 9f 3d 87 5e 10 be 6f 72 52 3e 8e a8 fe 3e
       0.07769105 -0.1409856 0.20551465 0.49737972

linear_mapper.spline_weight f4 [8, 16, 8]
000000 02 61 c3 b9 6e d2 88 b7 c0 e5 08 bb 5f cd 0b bc
       -0.00037265575 -1.6310452e-05 -0.0020888895 -0.008532851
000010 ef f6 ac bb c0 ac 75 3c 0d 9b ba be 5b fb 07 bf
       -0.00527846 0.0149948 -0.3644642 -0.53117913
000020 0d d4 f0 3a d8 ce e7 3b 5c cb 3c be 81 12 f9 bd
       0.0018373743 0.0070742182 -0.1843695 -0.121617325
000030 90 6b cb bc 00 f9 35 3e d4 91 02 3e 64 3d 65 3d
       -0.024831563 0.17770767 0.12750942 0.05596675
000040 3f 3e 26 3a d5 2d 3d 3b 80 fd 8c be f6 8d 46 be
       0.0006341673 0.002886643 -0.27537155 -0.19390091
000050 cd 8f fe bc 65 a4 8e 3e bc 52 1c 3e 93 65 08 3d
       -0.031074429 0.27859798 0.15265936 0.033299994
000060 a6 73 cc 3a 72 9f 66 3b cd 5a 61 be 85 52 01 be
       0.0015598431 0.0035190252 -0.22007294 -0.12629135
000070 c1 83 95 3d cc 82 06 3e bf 3b d3 bd 1f 44 2c be
       0.07300521 0.13135833 -0.1031413 -0.16822861
000080 42 a2 25 bb 5b 25 3c bc e2 ee b2 3c e1 a4 b3 3c
       -0.0025273715 -0.011483516 0.021842424 0.021929206
000090 9d cc 98 bc 57 02 96 bd c2 12 53 3d c8 cd dc 3d
       -0.018652255 -0.07324665 0.05153156 0.10781437
0000a0 94 21 d0 3a 5a f6 a9 3b 57 b0 07 3e 86 79 a4 3d
       0.0015879148 0.005186838 0.13250862 0.08030991
0000b0 1b 02 02 bc ec f9 78 be 1b 7f 91 3b 3c 84 0c 3e
       -0.007935072 -0.24314088 0.004440201 0.13722318
0000c0 78 47 b1 39 fc 3a 88 3b fa f8 e8 bd 47 84 aa bd
       0.0003381332 0.004157422 -0.113756135 -0.08326011
0000d0 ba 98 34 3d 49 a3 81 3e b8 fa e3 bd 30 4e 3c be
       0.044090964 0.2531989 -0.11131805 -0.18389201
0000e0 e5 d1 7b bb 2b 42 49 bc 20 0e 78 bd a1 14 1a bd
       -0.0038424667 -0.012283842 -0.060560346 -0.03761733
0000f0 6b 89 0b 3d 6c ba 2e 3e 9c dc fc bc f3 85 06 be
       0.0340666 0.17063302 -0.030866913 -0.13137035
000100 07 9e 12 3b 73 69 26 3c 09 61 0d 3d bc 2a 2e 3d
       0.0022372024 0.010156977 0.034516368 0.042521223
000110 de 13 fc 3d 06 b0 fb bd e9 4d 54 be 72 98 26 be
       0.12308477 -0.12289433 -0.20732845 -0.16269091
000120 a1 12 32 3b c2 1d 70 3b b3 7d 25 3e 42 cc 1c 3e
       0.0027171748 0.003663883 0.16161232 0.15312293
000130 9a 91 5f bc 0f 00 c3 be 6e 7e b7 bc ab ec e6 3d
       -0.013645554 -0.38085982 -0.022399154 0.112756096
000140 4b 15 c6 bb 6c db 91 bc a5 03 e1 3d 3f 13 a7 3d
       -0.006045019 -0.017804824 0.10987023 0.08157968
000150 60 09 8e 3d ad 23 50 be b2 6b e8 bd d2 ca 72 ba
       0.06935382 -0.20326109 -0.11348666 -0.000926179
000160 44 1e a9 bb d8 51 63 bc 83 02 8c b9 14 02 33 bd
       -0.0051610786 -0.013874494 -0.00026704752 -0.043703154
000170 12 5b a7 bd 6d 64 b3 3e df 13 d3 3c 90 1c ae be
       -0.08171667 0.35037556 0.025766311 -0.34006166
000180 2d 4e fe 3a 76 e8 8e 3b 33 19 44 be 16 0b 1d be
       0.001940196 0.0043612076 -0.19150238 -0.1533626
000190 13 40 40 bd 4b bd c8 3e 93 5c 71 3d 76 0c 53 3c
       -0.046936106 0.3920692 0.058926176 0.012881389
0001a0 ca f7 4a b9 48 d8 be 3a 05 31 8b be c5 29 31 be
       -0.0001935653 0.0014560306 -0.27185836 -0.1730109
0001b0 bb f9 8c 3d 58 af b4 3e fb d7 9e bd a4 cf 3a be
       0.0688357 0.35290027 -0.07756039 -0.18243271
0001c0 0e 94 2a ba d8 38 8c 39 58 38 6a 3e 87 05 20 3e
       -0.0006507047 0.00026745233 0.22873056 0.15627109
0001d0 21 5a 57 3c d8 20 db be 0a 4c 9e bc a0 25 24 3e
       0.013144047 -0.42798495 -0.019323368 0.16029978
0001e0 ad 0e 85 bb b1 37 57 bc 72 ea 1c be 18 d0 0c be
       -0.0040605874 -0.013135836 -0.15323809 -0.13751256
0001f0 97 f4 69 bd 99 f8 9a 3e 48 0f 22 3e cd db 06 bd
       -0.057118025 0.3026779 0.15826142 -0.032924462
000200 a7 7e 8f b9 6d 1f 53 3b a7 82 d8 3c 21 30 c2 bb
       -0.0002736945 0.0032214776 0.026429487 -0.0059261476
000210 8e 7a 3d 3c 0f d5 90 bd 19 07 0b 3d 01 f1 90 3d
       0.011564864 -0.07071888 0.033942316 0.07077218
000220 7e 21 04 bb ee 52 20 bc 53 bf 86 bc 0b 9e b7 bb
       -0.0020161564 -0.009785397 -0.016448652 -0.005603557
000230 32 10 d1 3b be 3c 9f bb 28 a9 b4 3a 4b 06 b0 bb
       0.0063801045 -0.004859536 0.0013783323 -0.005371844
000240 e0 51 a5 3b ba b6 72 3c eb 54 db bb 84 91 97 3c
       0.0050451607 0.014814073 -0.0066934726 0.018502004
000250 e6 49 99 bc 62 fd 95 3b 9a 0e c6 bb e7 bb d7 3c
       -0.018711995 0.0045773247 -0.006044221 0.026334716
000260 68 57 b0 b8 ea 00 c3 bb d5 ee 93 bc f9 94 83 3c
       -8.408615e-05 -0.0059510367 -0.01805822 0.016062247
000270 cc 8b 73 bc 99 9c 7b bd 17 f3 0e 3d f2 e5 97 3d
       -0.014864873 -0.06142864 0.034899797 0.074169055
000280 9c 08 07 3b fd 43 53 3b a8 24 6b bc 5c af c3 3b
       0.0020604497 0.003223657 -0.014352001 0.005971832
000290 b4 e7 5a bb 5d 1f 98 bd f4 e7 68 3e c0 2d 65 3e
       -0.0033402266 -0.07427857 0.22744733 0.22380733
0002a0 8b 82 93 3a 50 9d 18 3b 27 18 2c bd ec 52 27 bd
       0.0011254115 0.0023287125 -0.04201522 -0.040850565
0002b0 9a 3b 99 3c 80 dc f2 3e d0 86 61 be ae f7 b1 be
       0.018705178 0.47433853 -0.22024083 -0.34759277
0002c0 cf 0a 20 bb d6 16 28 bc fc 5c 89 bd a4 07 2a bd
       -0.0024420505 -0.010259351 -0.067071885 -0.041511193
0002d0 f4 8b 9d 3c 13 a7 03 3f fe ca 2d be b5 78 a1 be
       0.019231774 0.5142681 -0.16971967 -0.31537405
0002e0 6e 60 10 b9 30 7a 27 bb 23 55 8d 3b c8 03 f7 3c
       -0.00013768833 -0.0025555007 0.0043131276 0.03015317
0002f0 17 d5 97 bc d6 e7 68 be 8e 57 05 3e 57 ba 33 3e
       -0.018534226 -0.22744688 0.1302168 0.17551552
000300 fa f3 d9 3b 3e 84 8f 3c f3 48 89 bd 8d b9 b2 bc
       0.0066513987 0.017519113 -0.06703367 -0.021816993
000310 39 78 bb bb 3c 0d c6 3e 5a c8 2c be 87 57 5a be
       -0.0057211188 0.38681972 -0.16873303 -0.21322452
000320 a7 34 5f 3b ee cd fb 3b f1 fe 00 3d 3e 02 43 3d
       0.0034058483 0.007684461 0.03149313 0.04760956
000330 60 ae cd bc 9a 29 a5 be 03 55 3a 3d 25 f3 16 3e
       -0.025107563 -0.32258302 0.04549123 0.1474119
000340 b1 71 97 3b ba f3 77 3c f7 56 a4 3c 06 7a bd 3c
       0.0046217074 0.015133793 0.020061 0.023129474
000350 2d e8 ae ba a6 0f 86 be 37 53 d9 bd ce 94 b6 3c
       -0.001334434 -0.26183814 -0.10611575 0.022287752
000360 38 7f 5a 3b 6d 8f e5 3b 11 7b 2a 3c 72 31 96 3c
       0.0033339988 0.007005623 0.010405318 0.018334124
000370 b7 1a bc bc 76 82 b5 3d f7 f4 c2 bc 74 0b 79 bc
       -0.022961957 0.08862774 -0.023798449 -0.015200485
000380 9f c3 02 ba 68 56 59 bb 4d d5 06 bd 3d a8 8e bc
       -0.0004988256 -0.0033163074 -0.032918263 -0.017414207
000390 c3 67 f6 3b d7 8a 48 3e 79 d2 e1 ba 8c 80 1a be
       0.0075196936 0.19584213 -0.0017228863 -0.15088099
0003a0 ef 8b 07 3b a5 0c 20 3c 9d b9 ee bd 35 ce 8d bd
       0.0020682772 0.00976864 -0.11656497 -0.069240965
0003b0 ce 4f 98 3d 5f 13 be 3e f6 57 5f be 44 4d ad be
       0.074370965 0.37124154 -0.21810898 -0.33848011
0003c0 7a 56 cc ba e2 a0 cc bb 77 0b a3 bd b2 9e 63 bd
       -0.0015589737 -0.0062447647 -0.07961171 -0.055571266
0003d0 e3 d4 06 3d 7d cc 10 3f 31 c9 95 be 2e 78 0e bf
       0.03291787 0.56562024 -0.2925506 -0.5565213
0003e0 44 71 ad 3b 59 2b 80 3c 77 b6 a2 bd d0 c3 20 bd
       0.0052930433 0.01564567 -0.07944959 -0.03924924
0003f0 c2 d8 e0 bc 5a f7 01 3f ea b0 80 3e b9 d8 2a ba
       -0.027447108 0.50768054 0.25134975 -0.00065172795

linear_mapper.spline_scaler f4 [8, 16]
000000 d9 16 67 be 3d 88 b9 be ce 72 d5 be 33 d5 85 be
       -0.2256731 -0.36236754 -0.41689152 -0.2613922
000010 c0 bb 86 bb cf 4e 19 3e 1d 9e 1e be ac 77 db 3c
       -0.004111737 0.1497147 -0.15490003 0.026790462
000020 20 1f 9f 3e 48 01 76 3e 41 2c 81 3e da c2 4f be
       0.31078434 0.24023926 0.25229076 -0.20289174
000030 d8 0c e8 be 65 ae d8 be 05 d4 a7 3e 95 20 b9 be
       -0.453223 -0.42320552 0.32778946 -0.3615767
000040 d2 08 59 bb f8 f0 32 3a 2a 95 0f 3a 3d 1f 37 bc
       -0.003311683 0.0006826068 0.0005477244 -0.011176881
000050 59 27 db 3c 19 71 2b be 05 fd 4a be b2 c0 5f bc
       0.02675216 -0.16742362 -0.19823082 -0.013656782
000060 b2 66 b2 bd 3a d8 f1 3c 55 6b 5e 3d 3d f5 04 3b
       -0.08710994 0.02952205 0.05430158 0.0020287775
000070 40 20 b7 bc 3e 10 8e 3e 16 01 b1 3e 62 7d 0d 3e
       -0.022354245 0.27746767 0.3457114 0.13817361
000080 42 c8 0f 3c d7 c6 11 3e 25 85 9a be c2 0b 97 be
       0.0087757725 0.14236008 -0.30179706 -0.29501158
000090 54 1c 62 3e a8 5a 8e 3d b2 ad b6 3d d2 53 60 3e
       0.22081119 0.06950885 0.089198485 0.21906975
0000a0 65 59 90 bd be f5 cf bb ef bf 77 3c 46 19 e6 bc
       -0.07048301 -0.0063464334 0.015121444 -0.028088223
0000b0 cc d8 de be ea 38 ed 3e e5 a8 5e be 1c cb 01 3e
       -0.43524778 0.46332484 -0.21744116 0.12675136
0000c0 73 61 fa bd 49 da 2d 3d d9 ed 7b bd dd 67 7e 3d
       -0.12225618 0.0424445 -0.061506126 0.06211077
0000d0 1c 3c 00 bd e5 0a 52 bc 3d 7b 91 3c 04 18 5a 3c
       -0.031307325 -0.01281998 0.01775896 0.01331139
0000e0 fa 37 91 be 10 c6 ec 3c ab 5e 8d b9 63 dc 90 bc
       -0.2836302 0.028903037 -0.0002696415 -0.017683214
0000f0 b4 20 bb bd 8b 9f 25 bd 8a 77 17 be 99 7c ca 3d
       -0.09137097 -0.040435355 -0.14791694 0.09887046
000100 84 55 c4 3e c5 74 84 3e 21 8a 39 be 07 eb c2 be
       0.38346493 0.25870338 -0.18119098 -0.38069937
000110 3e 64 89 3e 77 0a 95 bc a0 d4 08 3e f6 8e d6 3e
       0.2683429 -0.018193467 0.1336236 0.41905946
000120 9f d1 31 be f9 ac f8 bd 1b e8 80 3e 1a 36 ab be
       -0.1736512 -0.12142367 0.25177082 -0.33439714
000130 be 5b f2 3e 8a 19 c8 3d db e2 64 be d9 6e cb be
       0.4733562 0.09770496 -0.22352163 -0.39733008
000140 08 fa df be 4d df 19 3f f6 c0 46 bf 3b ab e3 be
       -0.43745446 0.60106355 -0.77638185 -0.44466576
000150 ee ac d9 be c1 14 15 bf f1 15 1f bf 6d 9f e6 be
       -0.42514747 -0.5823479 -0.62142855 -0.45043507
000160 39 ad 87 3e ed 6f b0 3e 2f 34 1f be e8 1e 8e be
       0.26499346 0.34460393 -0.1554725 -0.27757955
000170 69 fb 3f 3e c9 2e 95 bd c8 03 a1 3e 13 35 78 3e
       0.18748249 -0.07284314 0.31448197 0.24238996
000180 4a 34 d8 ba 5c fb 86 bc e1 d6 e8 bb 30 1f 10 bc
       -0.0016495076 -0.01647728 -0.0071056937 -0.008796498
000190 5c 88 c1 bd a2 34 f5 b9 cc 6c e0 3c 1c a9 47 3e
       -0.094498366 -0.00046769256 0.027395628 0.19498104
0001a0 0b 3b db 3b 40 3f 0c 3e b2 83 e1 3b 5a 9e 1e 3e
       0.006690388 0.13696003 0.0068821544 0.15490094
0001b0 3a d9 26 b9 66 6d 99 3c 9a 74 86 bc 06 f0 4c bd
       -0.00015911917 0.018728923 -0.016413022 -0.05003359
0001c0 09 22 97 be 17 f8 4c be 3a 71 82 be b9 7c 6f 3e
       -0.29518154 -0.20016514 -0.2547701 0.23387422
0001d0 91 cd 3f 3e 41 0f 4b 3c 66 dd a2 be 67 d6 b9 3e
       0.18730761 0.0123937735 -0.3180954 0.36296389
0001e0 c2 d8 16 3e 3e a8 0e bc 89 bb 33 3e 36 0e e5 bd
       0.14731124 -0.008707104 0.17552008 -0.11184351
0001f0 65 c2 9f be 51 66 d9 bb b4 c3 19 be 7d 44 71 bb
       -0.31203 -0.0066345115 -0.15016061 -0.0036814504

linear_mapper.grid f4 [16, 12]
000000 cd cc 0c c0 66 66 e6 bf 33 33 b3 bf 00 00 80 bf
       -2.2 -1.8 -1.4 -1.0
000010 9a 99 19 bf cc cc 4c be d0 cc 4c 3e 9a 99 19 3f
       -0.6 -0.19999999 0.20000005 0.6
000020 00 00 80 3f 34 33 b3 3f 66 66 e6 3f cd cc 0c 40
       1.0 1.4000001 1.8 2.2
000030 cd cc 0c c0 66 66 e6 bf 33 33 b3 bf 00 00 80 bf
       -2.2 -1.8 -1.4 -1.0
000040 9a 99 19 bf cc cc 4c be d0 cc 4c 3e 9a 99 19 3f
       -0.6 -0.19999999 0.20000005 0.6
000050 00 00 80 3f 34 33 b3 3f 66 66 e6 3f cd cc 0c 40
       1.0 1.4000001 1.8 2.2
000060 cd cc 0c c0 66 66 e6 bf 33 33 b3 bf 00 00 80 bf
       -2.2 -1.8 -1.4 -1.0
000070 9a 99 19 bf cc cc 4c be d0 cc 4c 3e 9a 99 19 3f
       -0.6 -0.19999999 0.20000005 0.6
000080 00 00 80 3f 34 33 b3 3f 66 66 e6 3f cd cc 0c 40
       1.0 1.4000001 1.8 2.2
000090 cd cc 0c c0 66 66 e6 bf 33 33 b3 bf 00 00 80 bf
       -2.2 -1.8 -1.4 -1.0
0000a0 9a 99 19 bf cc cc 4c be d0 cc 4c 3e 9a 99 19 3f
       -0.6 -0.19999999 0.20000005 0.6
0000b0 00 00 80 3f 34 33 b3 3f 66 66 e6 3f cd cc 0c 40
       1.0 1.4000001 1.8 2.2
0000c0 cd cc 0c c0 66 66 e6 bf 33 33 b3 bf 00 00 80 bf
       -2.2 -1.8 -1.4 -1.0
0000d0 9a 99 19 bf cc cc 4c be d0 cc 4c 3e 9a 99 19 3f
       -0.6 -0.19999999 0.20000005 0.6
0000e0 00 00 80 3f 34 33 b3 3f 66 66 e6 3f cd cc 0c 40
       1.0 1.4000001 1.8 2.2
0000f0 cd cc 0c c0 66 66 e6 bf 33 33 b3 bf 00 00 80 bf
       -2.2 -1.8 -1.4 -1.0
000100 9a 99 19 bf cc cc 4c be d0 cc 4c 3e 9a 99 19 3f
       -0.6 -0.19999999 0.20000005 0.6
000110 00 00 80 3f 34 33 b3 3f 66 66 e6 3f cd cc 0c 40
       1.0 1.4000001 1.8 2.2
000120 cd cc 0c c0 66 66 e6 bf 33 33 b3 bf 00 00 80 bf
       -2.2 -1.8 -1.4 -1.0
000130 9a 99 19 bf cc cc 4c be d0 cc 4c 3e 9a 99 19 3f
       -0.6 -0.19999999 0.20000005 0.6
000140 00 00 80 3f 34 33 b3 3f 66 66 e6 3f cd cc 0c 40
       1.0 1.4000001 1.8 2.2
000150 cd cc 0c c0 66 66 e6 bf 33 33 b3 bf 00 00 80 bf
       -2.2 -1.8 -1.4 -1.0
000160 9a 99 19 bf cc cc 4c be d0 cc 4c 3e 9a 99 19 3f
       -0.6 -0.19999999 0.20000005 0.6
000170 00 00 80 3f 34 33 b3 3f 66 66 e6 3f cd cc 0c 40
       1.0 1.4000001 1.8 2.2
000180 cd cc 0c c0 66 66 e6 bf 33 33 b3 bf 00 00 80 bf
       -2.2 -1.8 -1.4 -1.0
000190 9a 99 19 bf cc cc 4c be d0 cc 4c 3e 9a 99 19 3f
       -0.6 -0.19999999 0.20000005 0.6
0001a0 00 00 80 3f 34 33 b3 3f 66 66 e6 3f cd cc 0c 40
       1.0 1.4000001 1.8 2.2
0001b0 cd cc 0c c0 66 66 e6 bf 33 33 b3 bf 00 00 80 bf
       -2.2 -1.8 -1.4 -1.0
0001c0 9a 99 19 bf cc cc 4c be d0 cc 4c 3e 9a 99 19 3f
       -0.6 -0.19999999 0.20000005 0.6
0001d0 00 00 80 3f 34 33 b3 3f 66 66 e6 3f cd cc 0c 40
       1.0 1.4000001 1.8 2.2
0001e0 cd cc 0c c0 66 66 e6 bf 33 33 b3 bf 00 00 80 bf
       -2.2 -1.8 -1.4 -1.0
0001f0 9a 99 19 bf cc cc 4c be d0 cc 4c 3e 9a 99 19 3f
       -0.6 -0.19999999 0.20000005 0.6
000200 00 00 80 3f 34 33 b3 3f 66 66 e6 3f cd cc 0c 40
       1.0 1.4000001 1.8 2.2
000210 cd cc 0c c0 66 66 e6 bf 33 33 b3 bf 00 00 80 bf
       -2.2 -1.8 -1.4 -1.0
000220 9a 99 19 bf cc cc 4c be d0 cc 4c 3e 9a 99 19 3f
       -0.6 -0.19999999 0.20000005 0.6
000230 00 00 80 3f 34 33 b3 3f 66 66 e6 3f cd cc 0c 40
       1.0 1.4000001 1.8 2.2
000240 cd cc 0c c0 66 66 e6 bf 33 33 b3 bf 00 00 80 bf
       -2.2 -1.8 -1.4 -1.0
000250 9a 99 19 bf cc cc 4c be d0 cc 4c 3e 9a 99 19 3f
       -0.6 -0.19999999 0.20000005 0.6
000260 00 00 80 3f 34 33 b3 3f 66 66 e6 3f cd cc 0c 40
       1.0 1.4000001 1.8 2.2
000270 cd cc 0c c0 66 66 e6 bf 33 33 b3 bf 00 00 80 bf
       -2.2 -1.8 -1.4 -1.0
000280 9a 99 19 bf cc cc 4c be d0 cc 4c 3e 9a 99 19 3f
       -0.6 -0.19999999 0.20000005 0.6
000290 00 00 80 3f 34 33 b3 3f 66 66 e6 3f cd cc 0c 40
       1.0 1.4000001 1.8 2.2
0002a0 cd cc 0c c0 66 66 e6 bf 33 33 b3 bf 00 00 80 bf
       -2.2 -1.8 -1.4 -1.0
0002b0 9a 99 19 bf cc cc 4c be d0 cc 4c 3e 9a 99 19 3f
       -0.6 -0.19999999 0.20000005 0.6
0002c0 00 00 80 3f 34 33 b3 3f 66 66 e6 3f cd cc 0c 40
       1.0 1.4000001 1.8 2.2
0002d0 cd cc 0c c0 66 66 e6 bf 33 33 b3 bf 00 00 80 bf
       -2.2 -1.8 -1.4 -1.0
0002e0 9a 99 19 bf cc cc 4c be d0 cc 4c 3e 9a 99 19 3f
       -0.6 -0.19999999 0.20000005 0.6
0002f0 00 00 80 3f 34 33 b3 3f 66 66 e6 3f cd cc 0c 40
       1.0 1.4000001 1.8 2.2

blocks.0.to_q.weight f4 [128, 8]
000000 05 1a 6f 3e 78 2c 3b bd f7 99 23 be 3b 6b 31 3e
       0.2334977 -0.045696706 -0.15976702 0.17326061
000010 21 ed 1c be 2c c2 cd be b8 9b 02 bf 01 96 73 be
       -0.15324832 -0.40187204 -0.5101886 -0.2378769
000020 bc f4 c6 bd cc 54 28 3e e7 d5 49 be d4 d4 48 3e
       -0.09714648 0.16438597 -0.19710504 0.19612437
000030 9d 07 13 3e 7f 09 94 3e 3a b3 32 3e ba e0 36 be
       0.14358373 0.28913495 0.17451182 -0.17859164
000040 49 b8 e2 3e b6 80 82 bd 29 4d 76 be 55 62 65 3e
       0.44281223 -0.06372206 -0.24052872 0.22400792
000050 f7 f0 ab 3e e0 2d 6c be 71 96 35 3d d0 be 8b be
       0.3358228 -0.23064375 0.044332925 -0.27294016
000060 0b bb 96 3c 3f 63 11 3f ae 54 30 3e 61 7b ee ba
       0.018399736 0.5679206 0.17219803 -0.0018194729
000070 45 91 0c be d9 ec da bd fc 09 a9 be 89 0d e1 3d
       -0.13727291 -0.10689706 -0.3301543 0.1098891
000080 22 d8 7e 3d 9a 31 08 bf c8 5d ce 3d 4b f1 50 3e
       0.06221784 -0.53200686 0.10076481 0.20404546
000090 d9 36 e9 be 3e 26 97 3d 92 19 99 be 94 d9 46 be
       -0.45549658 0.07380341 -0.2990232 -0.19418937
0000a0 e0 81 96 be 37 47 87 be 89 64 b5 be 0a 34 f8 3e
       -0.29395962 -0.2642152 -0.35428265 0.48477203
0000b0 8f a0 ea 3e a0 86 8b 3e fa 1e 66 be 07 9c 59 3e
       0.4582562 0.27251148 -0.22472754 0.21250926
0000c0 68 d1 8f bd de 78 80 3f 21 76 a6 bd 46 60 e5 b9
       -0.07022363 1.0036886 -0.08128 -0.00043750013
0000d0 7e 01 75 be 16 d0 ef bc 2d b2 8c 3e f5 0f 48 3e
       -0.2392635 -0.029274028 0.27479687 0.19537337
0000e0 e0 8f 87 be 37 56 e5 be 4e a9 16 be 39 00 a3 3e
       -0.26476955 -0.4479234 -0.14713022 0.31836107
0000f0 27 dc f1 bd 31 a3 4e 3e aa 1d 59 3e 43 c8 ce bd
       -0.11809569 0.2017944 0.21202722 -0.10096791
000100 ef 20 ce bd 45 86 82 3e 64 85 6f be 4d dc 21 3e
       -0.10064875 0.25493065 -0.23390728 0.15806694
000110 3c ad 03 be 0f 01 4d 3e b4 9b 57 be 21 65 2d 3e
       -0.12859052 0.20019935 -0.2105549 0.16933109
000120 97 d4 d1 be f1 fc ca bd e8 01 48 be 68 0c d7 be
       -0.40982506 -0.09911526 -0.19531977 -0.42001653
000130 0f ec 4e be 62 7c 4f be 45 4d 07 be 31 1c f9 be
       -0.20207237 -0.20262292 -0.1321307 -0.4865432
000140 81 f0 18 3f e0 cc 0f bf 02 ce d4 3e da 80 b9 3e
       0.5974198 -0.5617199 0.4156342 0.36231118
000150 89 dd c2 3e ac 3e 3d 3f 83 ea 3c bc a3 51 34 3f
       0.38059643 0.73923755 -0.011530521 0.7043707
000160 64 3b 69 be f6 4f e9 3e 19 bc 2a be 3e 00 76 bc
       -0.22776562 0.45568818 -0.16673316 -0.015014706
000170 17 23 c6 3e 6f ee ba 3d 61 1c 9b bd 19 1f 9e 3e
       0.38698646 0.09127509 -0.07573772 0.308831
000180 0e 7c 50 bd 63 aa 88 3d 4d 22 2a 3d 63 4f c1 3c
       -0.050899558 0.06673124 0.041536618 0.023597425
000190 c7 7f d3 3d 89 b3 e5 be 09 4f a0 3e 6d a9 53 3e
       0.10327106 -0.44863537 0.313103 0.206701
0001a0 d9 b5 94 3e 52 34 a9 3c 1c b8 62 be f8 96 8e 3e
       0.2904499 0.020654831 -0.22140545 0.27849555
0001b0 00 5b 9f 3e fb 31 d5 be 01 05 bf 3e c6 de a4 3e
       0.31124115 -0.41639695 0.37308505 0.32201213
0001c0 64 05 84 3e b9 0c a8 3e ba cd 85 3e 58 f5 19 3f
       0.25785363 0.32822207 0.2613352 0.6013999
0001d0 6f 7a 15 3b eb bc 3c 3d 50 dd 6b 3e 08 81 01 3f
       0.0022808572 0.046078604 0.23033643 0.5058751
0001e0 57 aa c2 bd 61 50 a4 be 6f 0c af 3e 61 6d 6b 3e
       -0.09505146 -0.32092574 0.34189174 0.22990943
0001f0 bb 19 01 be a0 9c 8a be 1e ca 1f 3e 1b 55 73 3b
       -0.12607472 -0.2707262 0.15604445 0.0037129584
000200 cc 74 bb be e4 50 0e 3f f8 2b c0 be 89 66 a5 3e
       -0.36612546 0.5559218 -0.37533545 0.3230479
000210 ad 19 27 be 6b 3c 91 be 74 c9 ee 3d b2 0a 93 bc
       -0.16318388 -0.28366408 0.11659518 -0.017949436
000220 bf d4 82 3e 1c 30 2e bf 70 96 dc 3d 97 b8 66 3d
       0.25552937 -0.6804216 0.10770881 0.056328382
000230 50 ba a7 be 5f 67 da be 26 5a a0 3e 92 0e 9f 3d
       -0.32759333 -0.4265699 0.31318778 0.07766451
000240 5d 59 8f 3d 33 97 7d 3d 3c 3d 63 3e c9 87 f6 3d
       0.069994666 0.061911773 0.22191328 0.12037618
000250 10 54 15 3e 7b 46 71 3e 8f 33 cd bc 97 0a 34 bd
       0.14582849 0.23562042 -0.025049 -0.04395541
000260 ea 09 62 bd 61 d1 05 be af 79 84 3e eb 30 88 3e
       -0.055185236 -0.13068153 0.25874087 0.2659982
000270 7a 13 82 3e 82 4b 3f 3e ec 25 ce 3e e7 e3 53 3e
       0.25405484 0.18681148 0.40263307 0.20692407
000280 2a fa 94 bc 4e c7 c2 3d 6e b4 f6 3e ac a2 a5 3e
       -0.018185694 0.095106706 0.48184532 0.3235067
000290 83 9c de 3e de af a8 3e c1 da a9 bd fe 66 f6 3d
       0.43478784 0.32946676 -0.08293677 0.12031363
0002a0 47 06 8a be b9 ee 80 3e 30 06 a9 3c c3 6c 04 be
       -0.26957914 0.2518213 0.020632833 -0.12932114
0002b0 b2 0c 4c 3e af 23 9d bd 61 41 b4 3d eb 88 d4 3d
       0.19926718 -0.07672822 0.088015325 0.103776775
0002c0 88 04 4a bd 95 b5 0c bf 04 cc 81 3d 06 8d 66 be
       -0.049320728 -0.5496457 0.06337741 -0.22514734
0002d0 55 ef f0 bd eb 4a e4 3d fb 7d 5b 3e a0 6d db bd
       -0.11764399 0.11147102 0.21434776 -0.10714269
0002e0 8c 22 1c bf 21 fc 62 be 75 0c ce be 28 69 09 bf
       -0.60990214 -0.22166492 -0.4024388 -0.5367608
0002f0 13 05 11 bf 39 88 6a bf 77 80 64 be 30 38 88 bf
       -0.5664837 -0.9161411 -0.2231463 -1.0642147
000300 e3 bc 58 bd 39 3f 9e bd 99 d1 35 be 67 5c 6a 3e
       -0.05291451 -0.077269025 -0.17755736 0.22886811
000310 25 e6 9b 3e eb 08 b0 be 1f cc 43 3e cc 2f 12 be
       0.30449024 -0.34381804 0.19120835 -0.14276046
000320 51 64 b2 3e 6c ff 8b 3e 0a d0 33 3e c4 72 04 be
       0.3484216 0.2734331 0.1755983 -0.12934405
000330 58 b4 3e 3e 4c fb 5d be de 81 80 3e 78 33 e6 3e
       0.18623483 -0.21677893 0.2509908 0.44961143
000340 fd 4f 5c be 63 9b a9 3c 2e 77 c5 be 0b 5c 5f 3a
       -0.21514888 0.020703977 -0.3856749 0.00085204904
000350 22 07 61 3e d1 3a ca bd 08 e4 9c 3e 77 d3 e3 3e
       0.21975377 -0.098744996 0.30642724 0.44497272
000360 9e 17 0b 3e f1 ce 82 3d 0a 63 99 bd d6 14 c9 3d
       0.13583228 0.06387127 -0.07489593 0.09818427
000370 29 eb 12 be a2 eb 35 3e 81 ef de bd db 1f b3 3d
       -0.14347519 0.17765668 -0.108855255 0.0874631
000380 35 96 fa be ac 0c e2 3e f8 4d 01 bf 3a 34 79 be
       -0.48942724 0.44150293 -0.50509596 -0.24336329
000390 4e 9b cc be cc ef 5b bf 61 3f 8d 3e ef 1e 35 bf
       -0.39962238 -0.85912776 0.27587417 -0.70750326
0003a0 4c 0d 42 be ea a7 48 3e 2e 42 19 be e1 ad 0f 3d
       -0.18950385 0.19595304 -0.14966652 0.035077933
0003b0 13 67 3b be 58 e5 f1 bd 95 e0 6b 3d 6c 29 a5 be
       -0.18301038 -0.11811322 0.057587225 -0.32258165
0003c0 d4 b5 ff 3a a7 21 1c bf 44 dc 2a 3e dd dc a0 be
       0.0019509145 -0.6098885 0.16685587 -0.31418505
0003d0 d4 74 b1 3e b9 6c 73 3d a5 f7 f0 bd d0 6b ab 3d
       0.34659445 0.059429858 -0.117659844 0.08370173
0003e0 c4 88 b9 3e c6 71 88 be d7 7d b9 3e 17 72 22 3e
       0.36237156 -0.26649302 0.3622882 0.15863834
0003f0 f2 85 cf 3e 75 d5 0e 3f 1a df eb 3d 90 2a b8 3e
       0.4053188 0.5579446 0.115171626 0.35969973

blocks.0.to_kv.weight f4 [256, 8]
000000 d6 05 d7 bd 1d 8e 5a be 2e c8 e3 3d 2c d1 10 3f
       -0.1049916 -0.21343274 0.111221656 0.5656917
000010 6f 6d 87 be 60 44 f4 be e4 17 dc 3d b8 34 93 3d
       -0.2645068 -0.47708416 0.10746744 0.0718779
000020 90 f1 8a 3e c1 dd 63 3e ad fe 80 3d 80 3d 08 bf
       0.27137423 0.22252561 0.062985756 -0.5321884
000030 ff 9f a2 bd 26 7c 41 3e f0 bb b1 bd 39 2d 5f bd
       -0.07940673 0.18895015 -0.08678424 -0.054486487
000040 63 ea a1 3d 8f 7b 6c be 8a d3 95 3d c6 b9 e0 3e
       0.07906034 -0.23094009 0.073157385 0.43891734
000050 eb ec 84 bd d2 f0 d9 bc c0 46 f9 bd 4e 32 6a 3e
       -0.06490501 -0.02660409 -0.121716976 0.22870752
000060 4c 36 a2 be ce 0e c2 3e 76 bc 06 bd 89 a9 c1 bd
       -0.3168205 0.3790192 -0.032894574 -0.094561644
000070 7a fa c4 be bd 2f a0 3e 62 a5 90 3e c7 b6 9f 3e
       -0.38472348 0.3128642 0.28251177 0.31194136
000080 19 02 27 3e 0a 74 54 be 0a 8b bd bb 71 45 f9 3e
       0.16309394 -0.2074739 -0.005784397 0.48685792
000090 bb 7e 01 3e e7 17 2e bf a2 d1 fc bd 02 6a e1 be
       0.12646 -0.6800522 -0.12344672 -0.4402619
0000a0 a9 bd 9f 3c 86 db 1b be 3d 08 eb bd 56 c4 0e bf
       0.019499617 -0.1522046 -0.11476181 -0.55768335
0000b0 25 5c 26 3f ad 12 59 bf 15 ec 4f 3e ac 4e 25 3e
       0.6498435 -0.8479412 0.20304902 0.16143292
0000c0 42 8f 03 3e ee 4e f0 3e 38 b2 d3 3c e9 91 da bd
       0.12847617 0.4693522 0.025841817 -0.106723614
0000d0 19 ea 89 be 3f bf 37 3f f9 1f 0e 3e b6 dd 86 3e
       -0.26936415 0.71776193 0.13879384 0.26341027
0000e0 25 86 a8 3d bb c0 08 be 7f 1d 6c 3e 98 6c 2f be
       0.08228711 -0.13354771 0.23058127 -0.17131269
0000f0 66 a9 c7 3e f0 09 79 bf a3 a4 83 3e 1b 91 d1 be
       0.38996428 -0.9728079 0.25711545 -0.4093102
000100 f3 cc 06 3e 3e 6f 79 3e 02 50 a1 3d fc 4a b5 be
       0.1316412 0.24358842 0.078765884 -0.3540877
000110 19 01 1d 3d 8a 9e 15 3e 36 79 b7 bd bc a1 48 be
       0.038331125 0.14611259 -0.08958666 -0.19592947
000120 07 9f 79 3e 63 13 69 3e 91 f3 ce 3e e6 b8 20 3f
       0.2437707 0.22761302 0.404202 0.6278213
000130 f3 25 95 be 23 bc 1d 3d 31 38 81 be e1 4e c1 3d
       -0.29130515 0.0385095 -0.25238183 0.09438873
000140 32 69 d5 3e 16 d4 47 be 45 98 d7 be 46 35 27 bf
       0.4168182 -0.19514498 -0.4210836 -0.65315664
000150 9a 93 31 bd 12 a6 bf bc 93 8a 70 3e dd f4 d5 bc
       -0.043353654 -0.023394618 0.23490362 -0.026117736
000160 bc 88 4d be 60 44 38 3e d9 65 51 be ee a0 5d be
       -0.20071691 0.17994833 -0.20449008 -0.21643421
000170 f6 24 2b 3e 04 63 1f 3e dd bf 52 3e e5 38 97 3e
       0.16713318 0.15565115 0.20581003 0.29535595
000180 e6 61 3e be 32 52 8b bd 7e 16 8c 3e 7f a7 6b be
       -0.18592033 -0.06802787 0.2736091 -0.23013113
000190 f7 41 45 3d 6a d9 0f 3f cd b9 e2 bd bb b6 9c bd
       0.048158612 0.5619112 -0.11070595 -0.076520406
0001a0 0b cd 79 3c fc a9 19 be f5 a9 8a bd c3 83 37 be
       0.01524664 -0.1500625 -0.06770698 -0.17921357
0001b0 94 64 c2 3c a2 40 f0 bd e8 eb c2 3e 9e 76 90 3e
       0.0237296 -0.11731078 0.38070607 0.28215498
0001c0 4a e8 51 3e 40 ae 56 3d ad a8 05 bf 9f 99 f2 be
       0.20498767 0.05241227 -0.52210504 -0.4738283
0001d0 39 2d 9e 3e e5 15 93 3e 50 0f 99 3e 9a fa 48 3e
       0.30893877 0.28727642 0.29894495 0.19626847
0001e0 62 72 c8 be b8 c8 ee be 82 27 d6 ba 00 6d a3 be
       -0.39149767 -0.4663751 -0.0016338679 -0.31919098
0001f0 12 15 ec bd 96 2d db be 48 09 c7 bd 4e f9 1b 3e
       -0.11527456 -0.42808217 -0.09718567 0.15231821
000200 6d 75 8c be 05 03 bf 3e 51 dc 3d bd 0e cd 4d 3e
       -0.2743334 0.3730699 -0.04635269 0.20097753
000210 97 03 cf 3e 97 d8 3e 3f 77 97 bd 3e 12 20 14 be
       0.40432426 0.7454924 0.3702962 -0.14465359
000220 14 53 06 be 55 55 1a bf e7 37 a1 3e c8 91 f4 3d
       -0.1311763 -0.60286456 0.31487963 0.11941868
000230 17 d2 cc bc 5f 2d fc be e6 1b 7a be 15 24 dd be
       -0.025002522 -0.49253365 -0.24424705 -0.4319159
000240 f4 b8 83 3e b7 81 44 3c 0e 26 89 3c 1d 87 42 be
       0.25727046 0.011993817 0.016741779 -0.18996854
000250 61 05 f2 3b 6a 6e 6d be 7e ad 25 be 19 50 72 3e
       0.007385895 -0.23186651 -0.16179463 0.23663367
000260 e6 58 02 3e 6c 97 cc bd 17 a5 0b bd f2 71 1c bf
       0.12729225 -0.09989819 -0.03409299 -0.61111367
000270 81 33 b3 bb ec 61 89 3d 90 77 87 3e d2 b6 8f 3e
       -0.005468786 0.0670813 0.26458406 0.28069168
000280 a1 1e 8d 3e a3 16 55 bb 0e 1a 37 be 59 72 49 bf
       0.2756243 -0.0032514713 -0.17881033 -0.78690106
000290 89 b4 96 bd 73 f9 82 bd a7 dc 6b be 17 91 86 3e
       -0.07358653 -0.06395235 -0.23033391 0.2628257
0002a0 25 85 88 be 1f ec 49 be 1d b2 b0 3c 1d 82 7d 3e
       -0.2666408 -0.1971898 0.021569306 0.24756666
0002b0 0b df 65 be 11 32 71 3f 61 18 65 3e b5 2e 19 3d
       -0.22448365 0.9421702 0.22372581 0.03739806
0002c0 e3 aa 95 3d d4 f5 ef be 13 05 3e 3e 6e 20 85 3e
       0.07307985 -0.4686724 0.18556623 0.26001304
0002d0 7e dc 01 bd f1 0c 74 be f5 d6 91 be 96 92 92 3d
       -0.03170442 -0.23833062 -0.28484312 0.07156865
0002e0 cf 08 83 be ca a7 3d bd 1d 53 e7 3e d9 79 0b 3f
       -0.25592658 -0.046302594 0.45180598 0.544828
0002f0 95 c7 85 be 34 d9 ac 3e 02 7c 87 be 68 5a 0e be
       -0.26128832 0.33759463 -0.26461798 -0.13901675
000300 1d 85 04 3e 8c fa 41 be 49 72 5a 3e e1 e8 28 3f
       0.12941404 -0.18943232 0.21332659 0.65980345
000310 20 a6 39 3e c4 13 ea 3c e5 66 89 3e 1a fa a1 3e
       0.18129778 0.028573878 0.26836315 0.31636125
000320 20 45 e5 bd 0a c4 26 3c 4a 21 3f be 98 5e fb be
       -0.11194825 0.010178575 -0.18665043 -0.49095607
000330 80 26 82 3e 30 34 e9 3e 6f 58 f5 3d ef a3 c4 3e
       0.25419998 0.45547628 0.11979758 0.3840632
000340 92 8f 4f be 3d 22 d2 3d ee d4 23 3e 5d 73 05 be
       -0.20269611 0.10260437 0.15999195 -0.13032289
000350 e4 e5 02 3f 42 0e d1 3e d1 b1 d4 3e 92 3e 00 3f
       0.51132035 0.4083119 0.41541913 0.50095475
000360 f1 25 db bc f5 74 28 bd a5 53 9c be 8f 10 09 be
       -0.02675149 -0.041127164 -0.30532566 -0.13385223
000370 92 92 63 be 8d 32 9f be c4 9d f8 bd 94 4c c7 bd
       -0.22223881 -0.31093255 -0.121394664 -0.09731403
000380 14 2f 92 be 77 fb 19 3e 49 0d 06 3f 54 af 41 3f
       -0.28551543 0.15037332 0.5236402 0.75658154
000390 0e 4e 65 3d 27 4f 1b 3f 54 3b d3 be 10 42 c3 3d
       0.055982642 0.6066765 -0.412562 0.09534085
0003a0 d0 b3 2a 3e 08 77 c1 3d cb ca b7 3c 55 2b c8 3e
       0.16670156 0.094465315 0.022435566 0.3909556
0003b0 de 6e 18 be ad 11 15 3f 3c e6 30 be a0 55 b0 3c
       -0.14886042 0.58230096 -0.17275327 0.021525204
0003c0 32 17 70 3d 27 d6 d1 be bf a8 d2 bd 80 b1 e6 3d
       0.05861587 -0.40983698 -0.10286092 0.11264324
0003d0 a4 ed e0 3d 5d 01 98 be 42 20 9d be 62 a4 57 be
       0.10982826 -0.2968854 -0.30688673 -0.21058801
0003e0 c3 d3 03 bc a1 4a 0d be ff 63 a8 be 0b 2c bf be
       -0.008046093 -0.13798 -0.3288879 -0.3733829
0003f0 0e 8f 2e 3d da db 8a be e4 50 41 3e 66 c1 a6 3d
       0.042616896 -0.27120858 0.18878514 0.081423566

blocks.0.to_out.weight f4 [8, 128]
000000 5c c3 2a 3e 4b e7 91 3d b1 d5 d6 ba 07 06 fc bd
       0.16676086 0.07124194 -0.0016390589 -0.12305837
000010 94 3f c1 bd c8 d0 f4 bd 98 82 56 bc 93 5e 0c be
       -0.09435955 -0.11953884 -0.013092659 -0.13707952
000020 d3 d4 dd bd b6 f4 5d bc 8b f2 4a 3e 3f bc 8a 3d
       -0.108316086 -0.013547113 0.19819085 0.06774186
000030 14 46 92 3d 4f f5 89 bd dd 51 fe 3d dd 50 09 3e
       0.071422726 -0.06736242 0.12417958 0.13409753
000040 9e fb 2f 3c 6b d0 b6 3d b3 28 c2 3b ab 37 0a 3d
       0.010741143 0.08926471 0.005925262 0.033744495
000050 22 4a f5 3d b0 d6 2e be 8e 2c eb bd 4b 5d 2d 3d
       0.1197703 -0.17074084 -0.114831075 0.0423253
000060 f2 a8 f3 3d 5e cd 16 3d 41 c9 82 3d 67 0d 3a 3e
       0.11897458 0.036816947 0.063860424 0.18169175
000070 ff ea 57 3e 94 e2 71 bd 49 1d 79 bd 15 48 bb 3d
       0.21085738 -0.059053972 -0.060818944 0.09144608
000080 f2 d0 8d be a1 b4 c9 bd 7c a1 8e bd 85 b6 50 3d
       -0.27698475 -0.09848905 -0.069643945 0.050955314
000090 e3 38 98 3e cc 90 9e bc 3d d3 87 bd 8d 86 4e 3e
       0.297309 -0.019356154 -0.066320874 0.20168515
0000a0 b9 81 c0 3d fc b1 8c bd dc 9a 6b 3d 66 c3 84 3d
       0.09399743 -0.06869885 0.057520732 0.06482582
0000b0 45 6a c9 ba 03 21 c6 3d d4 3e 12 3d 58 1e 91 3d
       -0.0015366754 0.09674265 0.03570445 0.07085866
0000c0 29 31 0a bd cd 57 f8 bd b6 8c 31 3e 4d 3d f1 bc
       -0.03373829 -0.12126122 0.17338833 -0.029448176
0000d0 6d b8 58 bc 09 83 80 3d c0 d4 95 bd 56 0f 3d 3b
       -0.013227564 0.06274993 -0.073159695 0.0028848252
0000e0 df c8 65 3d d5 28 64 bd 10 00 9e bd f7 28 85 3d
       0.05609977 -0.055703003 -0.07714856 0.06501954
0000f0 3f 71 42 be 94 45 23 3d 33 61 8c 3e a8 b7 47 be
       -0.18988512 0.039861277 0.27417907 -0.19503653
000100 bb b4 9d 3e 89 9e 89 be 34 89 73 3d 9c 1e a9 3e
       0.3080195 -0.26878765 0.05945702 0.33031166
000110 e7 75 8a 3d 9e 6d f5 3c bb a9 7f be 79 c0 f4 bc
       0.06760769 0.029959496 -0.24967091 -0.029876934
000120 10 72 7b 3e 72 be b7 bc 29 85 d7 bd 9b 6a 89 be
       0.2455523 -0.022429679 -0.10523445 -0.26839146
000130 b6 0a ec bd 2a cc 72 bd bd 82 b3 3e 91 f6 03 3e
       -0.115254804 -0.059276737 0.35060683 0.12887026
000140 d4 7e 3a bc 97 70 09 bd 3d a6 bf be 1b db a5 bd
       -0.011382777 -0.03355464 -0.37431517 -0.08098432
000150 c8 4c 9c be 47 fa 8c 3a 29 d7 85 3d e2 7a ec bd
       -0.3052733 0.0010755741 0.06535179 -0.115468755
000160 21 0d ff 3d 58 ed 06 3e ba c9 03 be e6 c7 b8 3c
       0.12453676 0.13176477 -0.12869921 0.022556257
000170 bb 2a 93 3e f7 c9 9b 3a cf fc 35 3d 8e a4 0a be
       0.28743538 0.0011885752 0.04443055 -0.13539335
000180 cc 8b 11 3d 48 a8 59 3e 6d 2a 7e 3e fe c2 1a be
       0.03553371 0.212556 0.24820872 -0.15113446
000190 7f ae dd be 65 23 2b 3e a8 4a c4 bd 50 cb 6a 3d
       -0.43297192 0.1671272 -0.09584552 0.0573228
0001a0 60 ff 9c 3d 4c 20 9d 3d d1 a6 54 3e e9 85 50 be
       0.076658964 0.07672176 0.2076676 -0.20363583
0001b0 f4 d1 70 bd 6a ed 8d 3e 8d de 5d 3d e9 be bf bd
       -0.058793977 0.27720195 0.05416732 -0.09362585
0001c0 70 88 ca 3e 7c ed 75 be eb a1 ac bd 83 b1 94 3e
       0.3955722 -0.24016374 -0.08429321 0.2904168
0001d0 3f dd 4e bd 09 ea 8c 3d 0b 9b 3a 3d 98 46 af be
       -0.050503965 0.06880576 0.045558017 -0.34233546
0001e0 7f 46 da 3c be 85 8e be b6 2d 88 3c 0a 62 37 bd
       0.026644943 -0.27836412 0.01662336 -0.04477123
0001f0 f5 ad 1a 3e 2e 37 85 3e da 6e d3 3d 12 05 6d be
       0.15105422 0.2601866 0.10323878 -0.23146465
000200 b7 95 32 3e 52 fc 8b 3d 47 88 da 3e d8 fd f6 3c
       0.17439924 0.06835236 0.42682096 0.030150339
000210 e0 41 83 3e b4 b3 87 be 0a c7 18 3e 5a 52 0f be
       0.25636196 -0.2650429 0.14919677 -0.13996258
000220 7c 78 7b 3d 70 ae 1f 3e 60 2a 83 be 47 38 bc bd
       0.0613942 0.15593886 -0.25618267 -0.091904216
000230 55 d8 72 bd 47 e0 86 3d 5f bb 69 3e 6f df ee be
       -0.05928834 0.06585746 0.22825383 -0.4665484
000240 9d 95 9c bd 8f cd 50 be d5 59 81 be e9 43 bb 3e
       -0.07645724 -0.20390914 -0.2526385 0.3657525
000250 37 f4 98 bd 33 05 1b 3f 06 29 17 be 89 9a fc 3b
       -0.07468455 0.6055481 -0.14761743 0.0077088517
000260 be b8 3f 3e f7 ea 10 3e fc 91 71 bd a0 79 3f be
       0.18722817 0.14152132 -0.058977112 -0.1869874
000270 34 9e a5 be bc c9 aa bc 59 5e 6a bd 95 24 dd bd
       -0.32347262 -0.020848148 -0.057218883 -0.10797993
000280 dc 3f 3f 3e b6 c5 d3 3c 81 b2 9b 3e 0f 9b da be
       0.18676704 0.025851112 0.30409625 -0.42696425
000290 bc 4d 55 be ad 51 16 be 03 49 8f 3d e3 c3 11 bf
       -0.20830435 -0.14679594 0.06996348 -0.56939524
0002a0 50 72 c4 3d f8 e6 8e 3e 5e 40 d5 3d 6f 0c 88 be
       0.09592116 0.2791059 0.10412668 -0.26571986
0002b0 56 22 9a 3e ba fc 9d bd 60 52 19 be eb f5 5b 3d
       0.3010432 -0.077142194 -0.1497283 0.053701323
0002c0 b3 80 a4 3e 49 46 d6 3e fd 70 00 bf b4 25 47 be
       0.3212944 0.41850498 -0.50172406 -0.19447976
0002d0 d5 ef d9 3c c1 80 34 be e5 fb 22 3e 6b 34 85 3e
       0.026603619 -0.1762724 0.15916403 0.26016554
0002e0 f7 6f ae bc 5c f5 1a bd 13 13 9b be 17 cc b3 be
       -0.021293623 -0.03783165 -0.3028799 -0.35116646
0002f0 4d 7f 59 3d 24 ce 2a be 9b 3e 5b be d3 3c 41 3e
       0.05309992 -0.16680199 -0.21410601 0.18870859
000300 f1 b1 c3 3c cb 83 4e 3e 4e b2 46 be 30 00 d9 be
       0.02388856 0.20167463 -0.19403955 -0.42382956
000310 ff fe aa 3e 21 8d e5 3e a0 3e fb 3e 36 ce 7a be
       0.33397672 0.44834235 0.49071217 -0.24492726
000320 66 60 99 be 9f 78 38 be 22 b2 a2 3e ac 0f 38 3e
       -0.2995636 -0.18014763 0.3177653 0.17974728
000330 d2 4d c0 3e 43 f0 e6 bd 99 d7 5a be 86 5e 9c be
       0.37559372 -0.11276295 -0.21371306 -0.30540866
000340 f0 8c 38 3e 6d f3 d0 3e bd 55 99 3e e0 a8 60 3d
       0.18022513 0.4081072 0.29948226 0.05484855
000350 7b 7c 23 3e 95 f7 78 3e 7b b4 8d bd 97 7f db 3e
       0.15965454 0.24313195 -0.069191895 0.4287078
000360 a2 c8 ae 3d 16 d7 8c 3e cc a5 ea 3e d8 b5 16 be
       0.085343614 0.27507848 0.45829618 -0.14717805
000370 0b f9 a8 be 4e a8 76 be 7e 84 4f 3e 42 32 74 3e
       -0.33002505 -0.2408764 0.20265386 0.23847297
000380 41 d9 ab be 02 14 d3 3d 3b ed 01 bf 1c eb e0 3e
       -0.3356419 0.103065506 -0.5075261 0.43929374
000390 e0 15 e7 3e d6 db f3 be 69 a2 1d 3d 57 19 ea be
       0.45133877 -0.4762866 0.038484965 -0.45722458
0003a0 63 bd 9f 3d 5d de 08 bd 37 b4 93 be 21 e1 0e be
       0.077997945 -0.033415187 -0.2884843 -0.13953067
0003b0 ca 0a e9 3d d5 e5 2f bd 94 0f 83 be c2 af 2a 3e
       0.11379011 -0.042943794 -0.25597823 0.16668609
0003c0 95 d9 1d be 25 8d 89 3e 53 db 15 be 1c b3 e6 be
       -0.15415032 0.26865497 -0.14634447 -0.45058525
0003d0 a5 ed 29 3e bb de 00 be c3 42 79 bd 4e dc 9a 3e
       0.1659456 -0.12584965 -0.060854685 0.30246204
0003e0 64 ce a1 3e b1 9f 4d 3e 05 6e 30 3e fd 90 96 3e
       0.31602776 0.20080449 0.17229469 0.29407492
0003f0 41 16 25 be 9d 6f 08 be 9b 59 22 bf ee b6 fd 3d
       -0.1612177 -0.13323827 -0.6341798 0.12388407

blocks.1.to_q.weight f4 [128, 8]
000000 69 e7 17 3e 4c d6 5f 3e c4 c5 07 3e 06 0a 9b 3e
       0.1483437 0.21859092 0.13259035 0.30281085
000010 48 d9 e6 3c 0e 20 69 3e 9c 82 8a be f5 91 bd 3d
       0.02817978 0.22766134 -0.27052772 0.09256355
000020 c4 ce 94 3e 92 7f ad 3d 9b da 42 be dd 6b d0 3d
       0.29064 0.08471598 -0.19028704 0.10176823
000030 2d 94 dc be 00 37 3e 3e 4f 32 82 3d 22 24 e2 3d
       -0.430818 0.18575668 0.06357252 0.11042048
000040 9f 8f 4a 3e ff ac c7 3d a0 86 4f be c6 d6 88 bc
       0.1978135 0.09749793 -0.20266199 -0.016703974
000050 42 90 ae 3d a5 04 84 3d ce 2a 50 be b4 56 6e 3d
       0.08523609 0.064461984 -0.20328829 0.058188155
000060 20 fc 6e be b0 c5 90 3e 90 b9 8e be 70 a4 3b 3d
       -0.23338366 0.28275824 -0.27875948 0.045811117
000070 07 09 d7 bd b3 d9 b9 bd 61 cf 82 3e 8c 46 ce 3d
       -0.10499769 -0.09074726 0.25548843 0.100720495
000080 10 3d 39 3e 7d d1 57 be 3f 23 a7 3e 64 2b d7 be
       0.180897 -0.21076007 0.32644078 -0.42025292
000090 de 1d dc be c5 bc 8a be 51 8f 19 be 3a 1c d6 bd
       -0.42991537 -0.27097145 -0.14996077 -0.104546025
0000a0 52 68 fd bd b4 e6 0c 3d b1 98 0f be c7 d5 2b 3e
       -0.12373413 0.034399703 -0.14023091 0.16780768
0000b0 e0 45 96 3d e5 77 94 3d 4a 54 e5 be b5 53 4a be
       0.07337546 0.072494306 -0.4479087 -0.19758494
0000c0 fd ef 06 bd b9 2e 9b 3e 2d 95 b5 3c 16 a3 c5 bd
       -0.032943714 0.30309084 0.02216586 -0.09650247
0000d0 96 48 65 be 0b 1a 37 3e 68 36 f8 3e ff 97 5e be
       -0.2239097 0.17881028 0.4847901 -0.2173767
0000e0 bd 38 8b 3e 19 8e 69 be 44 67 af 3e ed 9b 68 be
       0.27191725 -0.22808112 0.34258473 -0.22715731
0000f0 f3 04 08 3e 03 6e d5 bd d5 df ff bd 8b 50 89 bb
       0.13283138 -0.10421374 -0.124938644 -0.0041905097
000100 8b f4 bd 3e 56 f2 29 3b 0d c0 2e bd 20 6b 9c 3d
       0.37100634 0.0025931797 -0.042663623 0.0763762
000110 13 92 bf 3d 2b 40 78 bc 38 5e fb bc 0c f0 f3 3e
       0.09354033 -0.015152018 -0.030684575 0.4764408
000120 6a 86 f9 bc e9 b8 31 be 03 12 94 be 0a df f2 3d
       -0.030459601 -0.17355694 -0.28919992 0.118589476
000130 e3 66 9a be 48 52 80 be 34 71 dd 3d 3a d2 89 bd
       -0.3015662 -0.25062776 0.108126074 -0.06729551
000140 13 3d 54 3e 55 a2 b2 be 30 d9 7f 3e 33 6f 09 3d
       0.20726423 -0.34889475 0.24985194 0.033553313
000150 13 08 97 bd 65 13 6b 3e 85 94 d9 3e 00 c4 0a 3c
       -0.07374587 0.22956617 0.42496124 0.008469582
000160 81 a7 af be ed e6 97 3e ba 80 18 be 0f a0 85 be
       -0.34307483 0.2966837 -0.14892855 -0.26098678
000170 82 3d fd 3d 3f e4 c5 3c 96 12 89 be d5 1a a1 3e
       0.12365247 0.024156688 -0.26771992 0.31465784
000180 d2 40 1d 3d e9 ac 32 be 2a 2a 96 3e 5b 8b e1 3c
       0.038391896 -0.17448772 0.29329044 0.02753227
000190 53 08 1f 3d 17 d8 95 be fc ec 01 3e 11 4d 63 be
       0.038826298 -0.29266426 0.12688059 -0.22197367
0001a0 4a 3a fd bd e0 8c a4 3d 8d 98 37 be c5 16 ac 3e
       -0.123646334 0.08034682 -0.17929287 0.33611122
0001b0 4e ba ce be 0a de f3 3d 33 9b f3 3e d5 ea d3 be
       -0.40376514 0.11907585 0.47579345 -0.413901
0001c0 91 01 04 be 3d ad 70 be 5e 58 33 be 09 92 a8 3e
       -0.12891223 -0.23503585 -0.17514178 0.32923916
0001d0 2d 60 c4 be 47 3d 67 3e 4e 69 71 3d fc 67 a0 3d
       -0.38354626 0.22581969 0.058938317 0.078323334
0001e0 26 53 b1 3c 60 54 68 3e 3e a2 b8 be 7a f6 8a 3e
       0.021646094 0.22688437 -0.3606128 0.27141172
0001f0 96 7a 33 3d f3 35 8a 3d 33 60 81 be e5 01 ca bb
       0.04381808 0.06748571 -0.25268707 -0.0061647766
000200 b2 fe a5 be 7f 57 9a bd fe 16 3f 3e 1a 89 d7 bd
       -0.3242088 -0.0753622 0.18661115 -0.10524197
000210 cd 01 8a be 98 eb f5 bd 75 ae 85 3e 6a ff ae 3e
       -0.269545 -0.120078266 0.26109663 0.3417924
000220 6d fc 6b be 38 9b 65 3d 2c 89 91 3e 75 d8 87 bb
       -0.23045512 0.05605623 0.28424966 -0.0041456767
000230 26 23 d5 3c 99 2f 99 be a9 15 9e be 24 99 30 3c
       0.026017737 -0.29919127 -0.308759 0.010778699
000240 40 ed 88 bd d9 8f d3 3c b7 14 47 3e b1 bf 56 be
       -0.06685877 0.025825428 0.19441496 -0.20971562
000250 73 5d c7 3e fd 38 01 3d 82 f8 a1 bd da c8 dd bd
       0.38938484 0.03154849 -0.07908727 -0.10829325
000260 01 7f aa 3e 31 f2 ae 3e 5c cb c3 be aa b7 1a be
       0.3330002 0.34169152 -0.38241088 -0.15109125
000270 55 e8 95 bd 56 19 22 be d4 8c ca be 83 08 af 3d
       -0.073197044 -0.15829977 -0.39560568 0.08546545
000280 b8 c3 59 3e 54 fd e6 3d f7 fc 85 3e ab c1 8f 3e
       0.21266067 0.11278787 0.2616956 0.28077444
000290 fa c3 25 3e c8 71 d0 bd 12 6f c6 bc 82 4a c6 3e
       0.1618804 -0.10177952 -0.024222884 0.3872872
0002a0 4d b9 2b 3e c5 11 89 bd f4 fc b5 3e 28 6c 7a be
       0.16769905 -0.066928424 0.3554455 -0.24455321
0002b0 3d 70 b2 be 89 88 b0 bd e4 05 3f 3f 38 70 a2 3b
       -0.34851256 -0.08619792 0.74618363 0.004957225
0002c0 d4 a1 9c 3e ec 86 70 be 4a e7 89 3e 5a 01 c6 be
       0.30592215 -0.23488969 0.26934272 -0.38672906
0002d0 ed 23 70 3e 88 37 87 3e c8 1f 94 be f7 24 a9 be
       0.23451205 0.26409554 -0.28930497 -0.33036014
0002e0 98 2c 58 bc 35 a7 dd 3e e6 91 d4 3e 69 2b 10 3e
       -0.013194226 0.4329163 0.41517562 0.1407906
0002f0 64 d9 d9 be 94 a2 89 3e 31 94 80 3e b9 69 81 be
       -0.42548668 0.2688185 0.2511306 -0.25275972
000300 6d 8a 2f 3e 67 af 07 be db 75 8d be ed 22 32 3b
       0.17142649 -0.13250504 -0.2762898 0.0027181462
000310 14 c9 92 be d0 ff 97 be 53 e5 e1 be cf 83 e5 bd
       -0.28669035 -0.29687357 -0.44120273 -0.11206781
000320 77 c2 a6 3e bb 7a 43 3d 13 e1 7e be d7 a6 84 bd
       0.3257024 0.047724467 -0.24890547 -0.06477135
000330 ce dc 7e bd 4e c2 97 be 54 ea bb bd 20 8a a4 3e
       -0.062222295 -0.2964043 -0.09175554 0.3213663
000340 5f e1 d9 be 86 71 53 be bd 91 61 be 22 ef e8 bd
       -0.42554757 -0.20648775 -0.22028251 -0.11373736
000350 ad 07 14 3d c5 c9 a5 be 4b eb 36 bd 6e 33 4c be
       0.036140133 -0.323805 -0.044657987 -0.19941494
000360 a8 7c b8 3e 32 02 a3 be 78 72 c2 3d 26 53 b7 3e
       0.36032605 -0.31837612 0.094944894 0.35805625
000370 04 45 b8 be 98 2a 39 3d 0c 78 d2 3e bd ff 51 be
       -0.35990155 0.045206636 0.41107213 -0.20507713
000380 b3 2f ab be 1e e5 21 be ce 1f 8f be 9f 32 1b be
       -0.3343483 -0.15810058 -0.27953953 -0.15156029
000390 b1 7a ac be 91 d5 50 3e 00 1d ca 3e df 32 6a be
       -0.33687356 0.20393969 0.3947525 -0.22870968
0003a0 80 ad e5 3e 0c 7a b7 be 4c 0d 65 3e ec e1 63 be
       0.44858932 -0.35835302 0.22368354 -0.22254151
0003b0 b1 2c 21 3e 61 88 91 be ce bf 8b bc 91 9f dc bd
       0.15739705 -0.2842436 -0.017059233 -0.107726224
0003c0 da 6e 4f be 38 fc 3c 3e 1a 9f b8 3d 63 22 58 be
       -0.2025713 0.18455589 0.09014721 -0.21106867
0003d0 f4 0d 15 3e 0a 35 85 be c6 40 0d bf d7 1b 1a 3d
       0.14556104 -0.26017028 -0.5517696 0.037624206
0003e0 9c e2 9c bd 94 c2 85 be c8 99 5d 3e f2 a9 37 bd
       -0.0766041 -0.26125014 0.21640694 -0.044839807
0003f0 01 29 1c be f6 f5 18 3e 45 72 88 3e 09 61 9a 3e
       -0.15250017 0.14937577 0.2664968 0.30152157
