weights/benchmark-three/fourierkan_vit_10epochs.pth (torch, 48655 bytes, 29 tensors)

v_class f4 [1, 8]
00000000: 0aad be3e 0403 343f d5fe da3d 1ef5 303f
00000010: b4ed 1c3d 03ad be3e 384f fa3d b8ce 1c3f
0.37241393 0.703171 0.106931366 0.6912402 0.03831263 0.37241372 0.12222141 0.6125293

linear_mapper.fouriercoeffs f4 [2, 8, 16, 28]
00000000: b00f fcbd b873 c4bd fb7d d1bd b2a8 95be
00000010: bb6a 7dbe af15 c5be 3f59 9cbe 9850 96be
00000020: 2623 24be 5799 b5bc 4deb 31be d7b3 97be
00000030: 7239 97be 58f0 80be fefd 36be 666f 49bd
00000040: 252b c4bc 1e95 38be 35b6 86be e310 7bbe
00000050: d278 8bbe 747c 08be ec2b f7bd ebc9 b2bd
00000060: df35 fcbd d498 04be a3da 18be f0c3 bfbd
00000070: 588b 81be e109 7dbe 484c 85be 56f1 5abe
00000080: f315 a1be 0244 88be b7ba 67be 2cd4 1ebe
00000090: ee50 86be 70bd b6be 253e babe e2cf c3be
000000a0: 403b abbe ae4c 02be e52f 2dbe 7885 3bbe
000000b0: f59f 9abe 186c 59be b02d c0be a4b6 96be
000000c0: 2564 7cbe ccef 46be a50c 39be 2631 56be
000000d0: ac7c 8dbe f466 33be 3837 61be 9bc3 2fbe
000000e0: e108 b0be 730c b6be 9a5d cbbe 0522 b0be
000000f0: 0d17 a0be 01be 1bbe 0f09 96be d237 5fbe
00000100: 5800 70be 5138 6bbe c3de c2bd de10 e4bd
00000110: dad3 05be c715 7fbe 5ac8 c5be 92b4 9dbe
00000120: 451a adbe 8517 62be 6df5 3dbe 7827 3abe
00000130: ceb7 60be 1baf 96be b9f0 b2be a431 77be
00000140: ee00 43be b829 82be 9984 c0be 45d1 bbbe
00000150: 6ffa 68be 8ece 86be 6479 88be b0f6 b3be
00000160: a187 acbe d28c c3be 6166 c7be 3bbe 93be
00000170: 7fda bbbe 76fd 9ebe 38e3 5fbe 9d9f 8dbe
00000180: 4e8b e2be d320 a5be e384 98be 5b03 99be
00000190: f918 6cbe 8f86 4abe 07bb 2fbe 9eb1 90be
000001a0: 0454 a3be 4f93 9bbe 076d a5be aae8 98be
000001b0: 5090 78be a8b4 3bbe 4db3 8dbe 0e69 aebe
000001c0: 98d1 97be 8d41 5bbe 5562 71be 5480 6abe
000001d0: a9cb 8cbe 3f2d a2be acff 98be 9fa6 33be
000001e0: 6c83 fbbd 98fb bfbd 51ca 13be 463a 2ebe
000001f0: f0d3 38be ad88 4fbe 3269 14be e263 14be
00000200: 4fe6 debd 1e4c 4ebe cd99 acbe 63e7 9dbe
00000210: 703e 61be ba92 d8bd d46a 2cbe 2a69 58be
00000220: 02b4 48be de2a 63be 1fa5 7fbe d58c 85bd
00000230: 55b0 79be 65b0 22be e56a 80be 7e38 88be
00000240: 3615 e5be 3d6a d1be 9d4b b8be 1e77 95be
00000250: 0d5e 85be 6ee2 86be 3680 afbe 21e8 babe
00000260: f71a bfbe c5ed 9ebe 5212 9ebe abd2 34be
00000270: 87a8 d1be 1d84 c3be d84d edbe 3f15 bdbe
00000280: 8705 e4be e445 8fbe 5e5f 89be e243 98be
00000290: b113 8bbe 2483 9fbe 32cc 82be cb3c a2be
000002a0: 2b8e abbe 3325 71be 626b 80be d238 98be
000002b0: e39a acbe 7b6b 47be ab88 5bbe ed7a 61be
000002c0: d341 b8be 075d b9be 7fb6 bebe 9438 90be
000002d0: 35e7 91be 1b4c b1be aa61 c2be 4228 c7be
000002e0: f76c c9be b852 c9be d68a b5be 85dc 6bbe
000002f0: 5ddb 3ebe b848 8bbe b9f5 6abe 412e 6fbe
00000300: fd26 32be d59f 9bbe 13b6 5fbe 6830 88be
00000310: a44e 9abe f6db 7ebe 98d1 84be 61ea 6fbe
00000320: d299 8abe 89ba 27be f780 84be 3910 88be
00000330: 9024 64be e7ca 64be aed2 87be 6573 a4be
00000340: e03e b8be 161a a8be 5a1b 83be 722b 76be
00000350: 73bc 5ebe 3664 5dbe 8925 74be da54 a8be
00000360: 2165 66be 697d 2bbe f3f0 b4be ec87 80be
00000370: cf8d 9fbe 6a3a a1be 39b3 3fbe df8a f1bd
00000380: 343b 5ebe 2eec c1bd dc61 11be 2d68 6fbe
00000390: 4936 90be 23a7 97be 52e9 8dbe 9998 17be
000003a0: b9f0 30be eb56 39be e880 85be b2c2 83be
000003b0: ccb3 62be 59aa 47be 42d6 10be fbb2 dbbd
000003c0: 3cb6 4dbe 0179 56be 4180 9abe 8521 8bbe
000003d0: a2d0 9cbe 30cd 5fbe 4083 50be a5cd d9bd
000003e0: 2582 d7bd d253 34be 5bd7 8fbd 55b4 90bd
000003f0: d65d 5bbe 8172 60be 12a7 6abe 0eaf 88be
-0.1230768 -0.09592384 -0.10229107 -0.29230267 -0.24747746 -0.38493106 -0.3053684 -0.29358363
-0.16029033 -0.022167845 -0.17374916 -0.29629394 -0.29536015 -0.25183368 -0.17870328 -0.049178503
-0.023946354 -0.18025634 -0.26310888 -0.2451816 -0.27240616 -0.13328725 -0.12068924 -0.08729919
-0.123149626 -0.12948924 -0.14927153 -0.09363544 -0.25301623 -0.247108 -0.2603476 -0.21381125
-0.31462058 -0.26614386 -0.2262982 -0.15510625 -0.2623362 -0.35691404 -0.36375538 -0.3824454
-0.33443642 -0.12724563 -0.16912802 -0.18312633 -0.30200163 -0.2123264 -0.37534857 -0.2943622
-0.24647577 -0.19427413 -0.1807123 -0.20917186 -0.2763418 -0.17519742 -0.2199372 -0.17164461
-0.34381774 -0.35556373 -0.3971985 -0.34400955 -0.31267586 -0.152092 -0.29303786 -0.21798638
-0.23437631 -0.22970702 -0.09515145 -0.1113603 -0.13069096 -0.24910651 -0.3862942 -0.30801827
-0.33809105 -0.22079284 -0.18550654 -0.18179119 -0.21945116 -0.2943047 -0.34949282 -0.2414003
-0.19043323 -0.25422454 -0.37601164 -0.36683097 -0.22751783 -0.26329464 -0.26655114 -0.35149145
-0.33697227 -0.38193375 -0.38945296 -0.28856072 -0.36690137 -0.3105275 -0.21864021 -0.27660838
-0.44246906 -0.32251605 -0.29788885 -0.29885373 -0.23056401 -0.19777893 -0.17161189 -0.2826051
-0.31900036 -0.30385825 -0.32309744 -0.2986501 -0.24273801 -0.18330634 -0.27675858 -0.34064525
-0.29652095 -0.21411724 -0.23572667 -0.22900516 -0.2749913 -0.31675145 -0.29882562 -0.1754403
-0.12280926 -0.093741596 -0.14432646 -0.17014417 -0.18049598 -0.20266981 -0.14493254 -0.14491227
-0.10883772 -0.20146224 -0.3371109 -0.30840597 -0.21996474 -0.10574861 -0.16837627 -0.21133867
-0.19599918 -0.22184321 -0.24965332 -0.06521002 -0.24383672 -0.15887602 -0.25081554 -0.266056
-0.44742745 -0.40901366 -0.35995188 -0.29192442 -0.26048318 -0.26344627 -0.34277505 -0.36505225
-0.3732526 -0.3104078 -0.30873352 -0.17658488 -0.4094889 -0.38186732 -0.46348453 -0.36930272
-0.44535467 -0.2798301 -0.26830572 -0.2973929 -0.2716346 -0.3115474 -0.25546414 -0.31687006
-0.33506903 -0.23549347 -0.25081927 -0.2973085 -0.3371192 -0.19474594 -0.21438853 -0.22019549
-0.3598772 -0.36203787 -0.37248608 -0.28168166 -0.2849671 -0.34628376 -0.37965137 -0.38897902
-0.39340946 -0.39320922 -0.35457486 -0.2303334 -0.18638368 -0.27203918 -0.22945298 -0.23357488
-0.17397685 -0.3039538 -0.218468 -0.2659943 -0.30138123 -0.24888596 -0.25941157 -0.23429252
-0.2707048 -0.16379751 -0.25879642 -0.26574877 -0.22279572 -0.22343026 -0.26527923 -0.3211929
-0.3598547 -0.32832402 -0.25606805 -0.2404001 -0.21751575 -0.21620259 -0.23842444 -0.32877237
-0.22499515 -0.16747059 -0.3534008 -0.251037 -0.3116288 -0.3148988 -0.18720712 -0.11794066
-0.21702272 -0.09468876 -0.14197487 -0.23379584 -0.28166416 -0.29619703 -0.27717072 -0.14804305
-0.17279328 -0.18099563 -0.2607491 -0.25734478 -0.221389 -0.19498576 -0.14144233 -0.10727497
-0.20089048 -0.20944597 -0.30175975 -0.2717401 -0.30627924 -0.21855617 -0.20362568 -0.10634927
-0.1052287 -0.176101 -0.07023498 -0.070656456 -0.21422514 -0.2191868 -0.22915295 -0.26696056

linear_mapper.bias f4 [1, 8]
00000000: 2ced 6fbe 707c 9b3e 1e0c e0be e1f7 54be
00000010: d8d4 e93c b83b bfbe 3cfc fc3b fc7f 8cbe
-0.23430318 0.30368376 -0.43759245 -0.20797683 0.028543875 -0.3735025 0.0077204984 -0.27441394

blocks.0.q_mappings.0.fouriercoeffs f4 [2, 4, 4, 4]
00000000: 0d8c cf3d 67fe f73c 3820 443c 31fa 54bd
00000010: 362e 33be 2743 53bd 3fc1 f73c ab38 1cbe
00000020: 3392 ddbd 4600 86be bade 16bd d02b 3dbd
00000030: 7e5b 953e 1657 03be b61c 9f3d ac35 a93e
00000040: a8d9 4d3e e260 50bd f472 903d 5d87 f5bd
00000050: aa43 d4bd 1c71 80bd 2c14 debd 70ed a83b
00000060: acc7 cdbd 4476 e4bc 1031 e638 2f94 f63d
00000070: 8f17 40be b2ce 553e f704 62be 316d 51bd
00000080: b970 22be 3647 2e3d fe38 04be 7f16 0b3d
00000090: aa20 3d3c ec53 b3bd 2da6 273e b11b f7bd
000000a0: 5a61 be3e 8b2a e23b 5bae ea3d 9026 f43d
000000b0: 3803 813d 1408 efbe 4bd6 d1be 3516 91bd
000000c0: 5d57 03be 7e8a 18bd 614e 45bd f57e 96ba
000000d0: f8f0 e7bd cdff 093d 189f a7bc 242f 83bc
000000e0: 6b2a 30be e420 253c 1545 ac3d 069c d8bc
000000f0: d6ff e3bb 6ea6 a23e 5ba2 6f3e a612 213e
00000100: e3ef 92bc 005c 6f3c a68f 5cbd 5f38 2bbd
00000110: a162 38bd 936b ddbd 0c78 503e f0b1 9abd
00000120: f618 5dbb d870 42be 0b28 85bd 3dd3 b3bc
00000130: f473 d83e d4a8 d1be 8409 323e fae1 0b3e
00000140: e1e3 9cbd 0f03 5d3c fbd3 f63b f4dd 97bd
00000150: 94a2 863e e0dc ae3d 70ca af3d 5002 82be
00000160: 5f85 563d 0250 fbbd 2ef4 2ebe ec67 a23d
00000170: 1fa2 76be 8e02 c43c 8d57 1d3d 754b 433d
00000180: 49f2 833d 5468 d6bd 5a19 8cbd 186a 433e
00000190: 9ed2 963d 2dc6 393d e587 ebbd d905 d4bc
000001a0: f3d9 b03e 9d5a 213e 7358 6e3d 10c1 6b3e
000001b0: 0e04 32bd 5bf6 1d3d 29e9 853d f3c8 3ebd
000001c0: f2b3 ae3d 3a77 11be 0de4 c4bc e6b1 e6bd
000001d0: 7b94 113e 5c8c 96be 612b 263d f8cc ab3c
000001e0: fe12 a83d 7cb5 debb 2c81 b7bd 5f2b f2bd
000001f0: e865 313e 08aa 6bbe de39 943e d2a8 ca3e
0.101341344 0.030272676 0.011970572 -0.051996414 -0.17498097 -0.051577713 0.030243514 -0.15255992
-0.10818901 -0.26172084 -0.036833502 -0.04618436 0.29171365 -0.1282619 0.07769148 0.3304876
0.2010256 -0.050873645 0.070531756 -0.11988709 -0.103644684 -0.06271574 -0.10843691 0.005155258
-0.1004785 -0.027888425 0.00010976393 0.120399825 -0.18758987 0.20879629 -0.22072206 -0.051129524
-0.15863313 0.04254838 -0.12912366 0.033957 0.011543432 -0.08756241 0.16371985 -0.120658286
0.37183648 0.006902044 0.11459037 0.11921418 0.06299442 -0.4668585 -0.40983805 -0.07084314
-0.12826295 -0.03724145 -0.04817045 -0.0011481928 -0.11325258 0.033691216 -0.020461604 -0.01601369
-0.17203681 0.0100786425 0.08411614 -0.026441585 -0.0069579883 0.317676 0.23401777 0.1572977
-0.017936653 0.014609337 -0.05384793 -0.041801807 -0.045015935 -0.10811534 0.20358294 -0.0755347
-0.0033736802 -0.18988359 -0.06501778 -0.021951312 0.42275965 -0.40949118 0.17386442 0.13660422
-0.07660652 0.013489499 0.0075325943 -0.07415381 0.26295912 0.08538222 0.08583534 -0.2539239
0.052373286 -0.1227112 -0.17085335 0.07929978 -0.24085282 0.023927 0.038413573 0.047679383
0.064426966 -0.10469118 -0.06840773 0.1908344 0.07364391 0.04535501 -0.11500529 -0.025881695
0.34541282 0.15757222 0.05818982 0.23022866 -0.043460898 0.03856502 0.065386124 -0.04657836
0.085304156 -0.14205638 -0.024034524 -0.112644 0.14216797 -0.2940396 0.040568713 0.02097176
0.082067475 -0.006796537 -0.089601845 -0.11824679 0.1732403 -0.2301408 0.289504 0.39581925

blocks.0.q_mappings.0.bias f4 [1, 4]
00000000: 4166 9dbd 9c97 8b3d a7c7 c63c b18a 84bc
-0.07685519 0.068160266 0.024265124 -0.016179414

blocks.0.q_mappings.1.fouriercoeffs f4 [2, 4, 4, 4]
00000000: a72b 9c3e c77f 85bd 7a82 52bf 36c2 103f
00000010: deba b93e 521b f8be 59a8 2cbe f426 ee3c
00000020: e00b db3e f59a a53e f5fc 02be 49a8 18be
00000030: db30 963b b038 77be adc9 be3e ed18 2cbe
00000040: 8be9 de3e ceaa bb3d 945b b2be afad 123f
00000050: d4b2 533f ca36 febe e5fe 533f bada a8be
00000060: dc9f ce3e 6763 93bd 1043 283f cc26 5ebe
00000070: e9a8 c5bd 8963 86be c18f 3e3f a756 733e
00000080: fca9 5ebe 4f4f ac3d 9318 98be 53a5 283f
00000090: faf6 94bc 8087 3dbf aa92 a33f 81ca c0be
000000a0: 5c5e c23e 28d7 f03d 85c9 52bc 3aaf ce3d
000000b0: 981c b9be c8dd 823d 1f5e ed3e 99a6 0a3f
000000c0: ef32 b0be c038 11be 9378 f83e 9ef9 bebe
000000d0: ec8a 11bf d8e1 e53e ed90 b7be 8b2a 85bd
000000e0: 14f4 403e 6537 01bf 6253 863e f117 c4be
000000f0: fa93 ebbb bb9a e5bd 6e1f d6be 9f97 ad3e
00000100: 0af5 493e 6e33 35be 88ef a33e 6674 283f
00000110: ee52 3a3e b933 3fbf 71b6 76bd e50c debd
00000120: cab3 75be 5778 933e 87a2 00bd 08cf 39bf
00000130: 051c d2be 5fc2 a43d 04f4 73be e2f7 cd3e
00000140: 342f 193f 10b7 81bd 07dd 493e 5e92 113f
00000150: 9fd9 333f 735a 623f 59f4 273f 298f 99be
00000160: ab55 1c3f 9ed4 c43e 607f e33c d48d 58be
00000170: 025d a33d c5b9 98be c71f 3d3e c00e 063f
00000180: b6b2 3d3e 92f9 3cbf fc44 44be 4337 083f
00000190: cab7 f23e 2c33 5fbe 0c83 44bb 9421 9a3e
000001a0: 8314 9dbe 9349 033e 38b8 84be b06c 1ebf
000001b0: 2a2e e63d 0882 04bf 082d e73e 5eeb 0ebd
000001c0: 8383 c9be d64f 0c3f c9af 60be 7739 11bf
000001d0: beb7 1abf 66f8 1d3d 9f2b 4fbe b3f6 ad3e
000001e0: 6122 d93d 34c6 55bf 8c28 f53e 0d68 443e
000001f0: c56b 7a3e 9025 da3e 1eb9 1d3d f46a a0be
0.30502054 -0.06518512 -0.8223034 0.5654634 0.3627538 -0.48458344 -0.16861095 0.029071309
0.42782497 0.32344785 -0.12791808 -0.14907946 0.0045834607 -0.24142718 0.3726324 -0.16806383
0.43537554 0.09163438 -0.34835494 0.5729627 0.82694745 -0.49651176 0.82810813 -0.32979375
0.40356338 -0.07196694 0.6572733 -0.21694487 -0.09651358 -0.26247814 0.744381 0.23763524
-0.21744531 0.084135644 -0.2970625 0.65877265 -0.018184174 -0.7403488 1.2779133 -0.37654498
0.37962615 0.11759788 -0.012865429 0.100920156 -0.36154628 0.06389958 0.4636087 0.5416046
-0.3441386 -0.14181805 0.4852949 -0.37299818 -0.568526 0.44898868 -0.35852757 -0.06502255
0.18843108 -0.5047515 0.2623549 -0.38299516 -0.007189271 -0.11211153 -0.41820854 0.3390474
0.19722381 -0.176954 0.32018685 0.6580261 0.18195698 -0.746883 -0.060232583 -0.10842303
-0.23994365 0.2880275 -0.031405 -0.7258153 -0.41037002 0.08044886 -0.23823553 0.40228182
0.5983765 -0.063337445 0.19713221 0.56863964 0.7025394 0.88419265 0.6560722 -0.29992035
0.6106822 0.38443464 0.027770698 -0.21147853 0.07976724 -0.2982923 0.18469153 0.52366257
0.18525204 -0.73818314 -0.1916694 0.5320932 0.47405845 -0.21796864 -0.0029985337 0.30103743
-0.30679712 0.12821035 -0.25921798 -0.61884594 0.11239274 -0.5176091 0.45151544 -0.034892432
-0.39358148 0.5480932 -0.21942057 -0.5672831 -0.6043662 0.03856697 -0.20231484 0.3397728
0.106022604 -0.8350556 0.47882497 0.19180317 0.24455173 0.42606783 0.03850662 -0.313316

blocks.0.q_mappings.1.bias f4 [1, 4]
00000000: ec91 c9be 7785 113f ee78 ef3e 731f 06bf
-0.39369142 0.56844276 0.4677195 -0.5239174

blocks.0.k_mappings.0.fouriercoeffs f4 [2, 4, 4, 4]
00000000: 3f59 613e fd07 3b3e 6f1e 4c3e ddb9 45bc
00000010: 64b3 333d 6a40 843e cae2 c1bd efbd d5bd
00000020: 60dd 37be 091c bdbd 1ee5 913e f2de 59bd
00000030: 84b0 42bd 2ab0 173c 5a76 cabd b1c4 c93e
00000040: 8664 2b3d dcfa eebd f2c9 f6bc b248 143e
00000050: 45fe 01be 89e1 013e 8af1 b83c 7af1 633e
00000060: e0c4 233e 4da2 d8be 307c 1dbc 78f2 a7bd
00000070: 9845 d1bd f2fd 22bd 0bca c43d 7ca3 963b
00000080: 5c79 5d3d e156 f0bc 2290 003d bd74 473d
00000090: b5aa cfbc ae9a 27bd 68e0 f33d 1d9c 993c
000000a0: acc4 1e3d 81b5 88bd 6292 c43c 4f9b 4a3d
000000b0: 1e6d 663d 4f1f bfbe 8aa6 86be f404 0cbe
000000c0: 5df8 22be 2bfb e83d 32ba a23d fca0 21bd
000000d0: 581c dc3c 9a52 a0bd 2756 8cbd 5e60 21bc
000000e0: 7258 00be 5843 953d e83a ab3d 3d1c c7bd
000000f0: 6cb3 88be aae7 e93d 22b6 963e e750 4e3e
00000100: 04a1 603d a06f debd 20f6 84bd 8936 ccbd
00000110: 025e 1bbd 0ede 5cbd 8bb3 083e b2fa da3c
00000120: 375d 9dbc 7224 9abe 3da2 50be c207 c9bd
00000130: d453 c53e ad53 f2bd eeef e23c 99ea bd3d
00000140: 1cbb 8bbd 27dd 88bd 78ff 5cbd b53c 06be
00000150: 9288 433e cf61 353e 9e08 933d 5679 11be
00000160: a798 9f3c 084b 4b3c 9719 9b3e 2698 27be
00000170: 87ad 19be 6633 07be fd59 13bb d4ad f53c
00000180: aa5e 383c 5580 58be 0d19 b6bd 158b 873c
00000190: e3bb c8bd 0dce e43c 22e3 0cbd 439f ed3d
000001a0: 8c53 5d3e 8f74 cf3d ff0d c3be 2dcc 98be
000001b0: 6de4 35be 778e 173d f4d9 113e d59e c6be
000001c0: c1c6 003e 62a3 373d 62f0 89bd f554 0cbe
000001d0: 4dbb 043e 41fb 553e 9ee8 23bc bb64 7ebe
000001e0: 3e44 cf3d 45b2 c93d e382 07be 90ba 30be
000001f0: 2a61 b23e d6a3 92bd 28c7 543e 0e3b 953e
0.22006701 0.18264766 0.19933484 -0.012068239 0.043872252 0.25830394 -0.09467085 -0.104366176
-0.17955542 -0.09233863 0.28495115 -0.053191133 -0.04753162 0.009258309 -0.09885855 0.39407876
0.041843913 -0.116689414 -0.030125592 0.14480856 -0.12694652 0.12683691 0.022576112 0.22260085
0.1599307 -0.42311326 -0.009612128 -0.08200544 -0.10218352 -0.039792962 0.09608849 0.0045971256
0.054070815 -0.029338302 0.031387456 0.048695315 -0.025349954 -0.040919 0.119080365 0.018751198
0.03876178 -0.06675244 0.023995582 0.04946452 0.056256406 -0.37328574 -0.26298934 -0.13673764
-0.15915056 0.113760315 0.0794567 -0.039460167 0.026868984 -0.07828255 -0.0685237 -0.009849636
-0.12533739 0.072882354 0.08360845 -0.09722183 -0.26699388 0.114211395 0.2943583 0.2014805
0.054841056 -0.108611345 -0.06492257 -0.09971339 -0.03793145 -0.053922705 0.1334974 0.026730869
-0.019209487 -0.3010593 -0.20374389 -0.09815933 0.38540518 -0.11832366 0.027702298 0.092732616
-0.06822798 -0.066828065 -0.05395457 -0.13109095 0.19095066 0.17713092 0.07179378 -0.14206442
0.01948197 0.012408026 0.3029296 -0.16366634 -0.15007602 -0.132032 -0.0022484057 0.029990114
0.011253038 -0.21142705 -0.08891497 0.016545812 -0.098014615 0.027930284 -0.0343963 0.116026424
0.21613902 0.10129654 -0.38096616 -0.29843274 -0.17762919 0.0370011 0.14243299 -0.38793054
0.12575819 0.04483355 -0.067353025 -0.13704284 0.12962075 0.20896627 -0.010004191 -0.24843113
0.10120438 0.09848455 -0.13233523 -0.17258668 0.34839755 -0.071601555 0.20779097 0.29146618

blocks.0.k_mappings.0.bias f4 [1, 4]
00000000: ba64 573c 93f0 1b3d 1046 273d 08f4 c03b
0.013146574 0.038071226 0.0408383 0.005888466

blocks.0.k_mappings.1.fouriercoeffs f4 [2, 4, 4, 4]
00000000: fa89 123e 14fe 333e aae5 083f 24a1 5ebe
00000010: 2eab 4ebe 53f1 c1be 2469 17be 5621 ba3d
00000020: e56d c53e 6265 92bd c9d0 1ebe d2f5 283f
00000030: 6c15 14bf 0842 9a3e 3eb3 4bbf dddf 16bd
00000040: 6be6 bd3e c71d d73e 3ad5 333f 7f2e 3d3f
00000050: 4e72 803c 5cb8 f13d 310a bfbe 9702 633f
00000060: 5952 373f 6081 2e3e b955 91be 4ddb 5f3f
00000070: f368 1f3e 3ad7 63bf 80d4 87be b68c 27be
00000080: 4d96 b8bd 1ae9 8b3e 1b21 e93e 4458 8b3d
00000090: f6aa a03d 2c89 16be e764 9ebe 2a24 a23e
000000a0: c10c c13d a61e 173e 2b60 78bd 09d4 28be
000000b0: 2e6a 033e d3b0 a93c 8a80 e0bd b905 3dbe
000000c0: 545f a4bd b07e 83be f544 73bf f176 713e
000000d0: 4be6 a03e 9e8e 0c3f 31bf ee3e d38a b1bd
000000e0: caa5 07bf 92dd 9abe 9a80 2bbe 7111 ecbe
000000f0: c581 0abc 1ae2 813e 0f35 e33d bc11 8bbe
00000100: 8c06 1c3f fa69 e13d 25a1 86bd 478e 34bf
00000110: d02e 91bd 6c75 13be a526 edbc d5c2 413d
00000120: b519 98be 5a5b 0cbf 6c23 103e 8508 573c
00000130: 5ff5 de3e 5c86 debe fc41 303d 02c6 11be
00000140: c3d0 c43e 71e7 33be caf5 d8be 101b 653e
00000150: 9036 7b3d cc5d a5bd 5e1e 1bbf 19e0 dfbe
00000160: e59e 8f3e f967 58bd 5453 e1be e07a 9b3c
00000170: 2f64 f43e 02f3 49be 9c4f 5bbf a1aa 2dbe
00000180: 071e 063f ecc9 ca3e 0d18 4ebf 339a 47bf
00000190: f22b c73d 4d6e 01bf c0b5 24bf e1b8 383e
000001a0: b4de 073e fb6e 963d 7949 723f d725 dbbe
000001b0: 7a1a 813e d9bd 9c3d 78ef 73bf 001e 9e3d
000001c0: cedc ec3e e6c1 5d3e 8e83 d4be a5f1 2b3f
000001d0: 66cb 1dbd 872f be3e 3f5b b43e d694 55be
000001e0: 60bb 1abe b4cd 873e 4603 afbe c1ae 2bbf
000001f0: c772 00bf 0bf6 32be 15f7 543e 746a f0bd
0.14310446 0.17577392 0.5347544 -0.21741158 -0.20182487 -0.37879428 -0.14786202 0.090883896
0.38560405 -0.071482435 -0.15509333 0.6600009 -0.5784519 0.30128503 -0.79570377 -0.036834586
0.37089857 0.42014906 0.7024723 0.7389907 0.015679505 0.11802742 -0.37312463 0.88675827
0.7161003 0.1704154 -0.28385714 0.87444 0.15567379 -0.89000285 -0.26529312 -0.1636227
-0.090130426 0.2732628 0.4553307 0.06803945 0.07845108 -0.14700764 -0.30936357 0.31668216
0.09426261 0.14757785 -0.060638588 -0.16487135 0.12833473 0.0207142 -0.10962017 -0.18459214
-0.08025995 -0.25682592 -0.95027095 0.23580529 0.314257 0.54905117 0.46630242 -0.08669057
-0.5298735 -0.3024717 -0.16748276 -0.46107057 -0.008453791 0.25367814 0.110941045 -0.27161968
0.6094749 0.110065416 -0.06573705 -0.705296 -0.07089007 -0.14400262 -0.028949091 0.047304947
-0.29707113 -0.5482689 0.14076012 0.01312459 0.43546578 -0.43461883 0.043031678 -0.1423569
0.38440523 -0.17568757 -0.42375022 0.22373605 0.06133133 -0.08074531 -0.6059321 -0.4372566
0.28050914 -0.05283353 -0.44008887 0.01897949 0.47732684 -0.19721606 -0.8566835 -0.16959621
0.5238957 0.3960718 -0.8050545 -0.77969664 0.09725179 -0.5055893 -0.6433983 0.18039276
0.13268548 0.073453866 0.9464336 -0.42802307 0.25215513 0.07653398 -0.95287275 0.07720566
0.4626221 0.21655998 -0.41506618 0.67165595 -0.038524054 0.37145635 0.35225865 -0.20857558
-0.1511054 0.26524127 -0.34182185 -0.6706353 -0.50175136 -0.1747667 0.2079738 -0.11739054

blocks.0.k_mappings.1.bias f4 [1, 4]
00000000: ed7c 113d 9a5d a13c 5312 553c 2a43 29bd
0.03551953 0.019697953 0.013004857 -0.04132382

blocks.0.v_mappings.0.fouriercoeffs f4 [2, 4, 4, 4]
00000000: 86ae c8bb cb62 a43d fe9d 963d 280c 953d
00000010: cb17 813d a065 503d e703 7bbc ac64 1b3d
00000020: c457 393d 469f d73d 627a a8bc 8b3f 353c
00000030: b06a 33bd add5 333f 2892 92bf 6176 69be
00000040: ccdd 6dbb 9062 afbd 0e80 993c 33c6 86bd
00000050: 2fd1 33bd 315e 5d3d 49ac 80be ffa4 62bd
00000060: e3e7 f1bf eed7 f3bd 32d2 fa3e b1f0 d23d
00000070: 64f7 903d e9c3 15be bf12 ee3d 6c28 5abd
00000080: 9c50 01bd fa86 0fbd 40c2 e0bc 5163 7b3c
00000090: 3ea9 5a3d c485 dfbd e69b 0f3e 4c6a 56bd
000000a0: bed2 023d 2aae fdbc 77e8 94bb 256b 18bd
000000b0: 30a7 82bf a28b 51be c5e8 673d 61a3 96be
000000c0: 4aba 483d 54bd 9c3c df2d c93d 7f49 e93d
000000d0: a70e 513b aeef 71bd 28a7 20bd 8a26 7438
000000e0: 6d38 733d 027c 98be d772 08be 2b33 2f3d
000000f0: c7fa 213e ff60 b4bd 89c2 203f cc58 a23e
00000100: 926e 43bc 375a d33c 010b 823c 7d3b 7e3d
00000110: 55f5 99bd 3426 a13d 3719 b5bd 43ab 223d
00000120: f938 2e3b b94a 44bc ce12 463c 1e82 b13d
00000130: 2464 463f 43dd 413f 5ece 853c 6218 2c3d
00000140: 5b84 553d cc5e 033d 6a00 0cbd 7718 153e
00000150: ea46 fabb 4f5c 2abd c5d5 b9bc 500f 5b3e
00000160: 6ff0 2c3f d4b1 c03e 11ce fd3e bdfe e5bd
00000170: 0355 efbd d314 e63d 64e1 09bd 24b1 aabd
00000180: 3006 153d 2af8 77bd eb7b fd3b 2695 1dbd
00000190: 48a1 8b3d 3c29 2e3d 373e f6bc 18c6 38bd
000001a0: c6bb 383c 2683 b13c a27f eebc 09c6 99bc
000001b0: 0328 413f fff3 ad3e 8254 debe 8c3e 97be
000001c0: dd85 aa3d 7742 0c3e 78d1 94bd d70c e1bc
000001d0: a9d2 d1bd 82e4 7dbd 7596 b33d 8d1e 90bc
000001e0: 455b 213d 8c76 9b3d 14b3 0ebd f101 7bbd
000001f0: 50f9 adbe ca72 993f 8bff 43bd 7273 0b3f
-0.0061243204 0.08026656 0.07354353 0.07277709 0.06303366 0.050878167 -0.015320755 0.037937805
0.045249715 0.10528426 -0.02056617 0.011062513 -0.043802917 0.7024792 -1.1450853 -0.22799064
-0.0036295531 -0.08563721 0.018737819 -0.06580772 -0.043900665 0.054044906 -0.25131443 -0.055333134
-1.8898891 -0.1190642 0.4898849 0.102998145 0.07078436 -0.14625515 0.11624669 -0.053261206
-0.031571016 -0.035040833 -0.027436376 0.015343503 0.05338406 -0.10914186 0.14024314 -0.052347466
0.03193926 -0.030966837 -0.0045443135 -0.037211556 -1.0207272 -0.20463422 0.05661847 -0.29421523
0.049005784 0.019133247 0.09823202 0.113909714 0.0031899603 -0.059066467 -0.039221913 5.8210026e-05
0.059379984 -0.2978211 -0.13325058 0.042773407 0.1581832 -0.08807563 0.6279684 0.31708372
-0.0119282175 0.025799854 0.015874388 0.06206845 -0.075174965 0.07868615 -0.088427 0.03971411
0.0026584251 -0.011980706 0.012089444 0.08667396 0.7749655 0.75728244 0.016333755 0.04201544
0.052128177 0.032072827 -0.034180082 0.14560114 -0.007637848 -0.04159194 -0.022684941 0.2139256
0.6755437 0.37635672 0.4957128 -0.11230228 -0.116861366 0.11234441 -0.033662215 -0.08334568
0.036382854 -0.060539402 0.0077357194 -0.038472317 0.06817871 0.042519793 -0.030058963 -0.045110792
0.011275237 0.021668982 -0.029113594 -0.018771188 0.7545168 0.33975217 -0.4342385 -0.29539907
0.08326314 0.1369723 -0.072665155 -0.027471943 -0.10245258 -0.0619855 0.08768932 -0.017592693
0.039393682 0.075909704 -0.03483875 -0.06128115 -0.33979273 1.1988156 -0.047851127 0.5447303

blocks.0.v_mappings.0.bias f4 [1, 4]
00000000: 9156 9fbd 3f92 09be 987f 013e aba8 39be
-0.07780183 -0.13434695 0.1264633 -0.18130748

blocks.0.v_mappings.1.fouriercoeffs f4 [2, 4, 4, 4]
00000000: 3cf8 9cbe 8c48 e7be 7658 d1be 7a20 ccbe
00000010: 325f f4be d008 80bd 048e 2b3f cd43 4cbe
00000020: 10ca 1fbf 36ad 073f ae21 eb3d 7c23 87bd
00000030: 2b2c 65be 6c2e d83e fcba 3e3f 4087 87be
00000040: 0bb1 68be 6557 2f3e ef1c 4dbf 7fe1 bebe
00000050: 8270 643d a981 993e c060 95bd 0570 33bf
00000060: 034e 493e 3839 1cbf a0e6 85be 9635 67be
00000070: a784 1fbf 49f1 003f a0d3 e33b 5130 363d
00000080: 2f23 b8bd 7382 873b ff19 c13e 4245 c73e
00000090: 65c3 9fbd e13c 78be f1a1 ccbd 36ba bf3e
000000a0: e971 b43e 946d 2c3f 53b0 9bbc 7f26 ce3d
000000b0: b36d b7be d72b 9ebf 963b acbe abba aabe
000000c0: 2b58 f3be e38d df3d b13c 49be 0308 9f3d
000000d0: 1871 38be 5ce2 f3be 6049 c03d 78ec 47be
000000e0: bf10 003e 13ca e73c 6d34 86be a8a9 133f
000000f0: 12a0 213d 7933 c83d d4ab ac3e 5a21 153e
00000100: 7b1f 04bd 9457 403f d489 ccbe a21a ef3a
00000110: 546e e7be 3009 c6ba 010a c7bd 2c24 463e
00000120: c24b c73c 8394 bfbe 530c 983e 7c16 b7bd
00000130: ecf2 44be fb70 bcbe d2ef d2bc 0e68 01bf
00000140: 18ed a43d 9e2b 313f 41c5 3ebe ad6a 1abe
00000150: 9ccd debe f251 09bd 1b11 c53e fd14 583e
00000160: 3488 3f3e a559 4ebf 1196 80be 24e2 3abd
00000170: aae4 a6be 570d e0bc 49a1 d63e 49fe fa3d
00000180: 768d a53d 822d d83e efe1 7e3e c045 17be
00000190: 573b 1abe adf6 82be 55e5 31be a584 8bbe
000001a0: b888 60be 1d07 bc3e 2039 a5be d9ff 96be
000001b0: 8f7d 823e 4108 133e e7b6 d53d aad7 8dbd
000001c0: 999e e8be b9e9 ad3d ab60 58be 3bec cb3e
000001d0: 5984 533e 6a65 b93e fc6e 0bbe 7173 c4bd
000001e0: e73d 85be f6f0 fe3d 21e5 9bbe 9b08 87be
000001f0: 8932 be3d af7f ea3d f847 dfbd 5e63 f3be
-0.30658138 -0.45172536 -0.40887803 -0.39868528 -0.47728878 -0.06251681 0.67013574 -0.19947739
-0.624177 0.52998674 0.11481033 -0.06598565 -0.2238013 0.42222917 0.74504066 -0.26470375
-0.22723787 0.17123182 -0.80122274 -0.37281415 0.05577136 0.29981735 -0.07293844 -0.70092803
0.19658665 -0.6102481 -0.26152515 -0.22579035 -0.62311786 0.5036817 0.006952718 0.044479672
-0.08991086 0.004135424 0.37715146 0.38920027 -0.078009404 -0.24241973 -0.09991825 0.37446755
0.35243157 0.673547 -0.019004976 0.10065936 -0.3582588 -1.2357129 -0.3363921 -0.3334554
-0.47528204 0.109157346 -0.19652058 0.077652 -0.18011892 -0.47633636 0.09388995 -0.195238
0.12506388 0.028294599 -0.26211873 0.5768075 0.039459296 0.09775443 0.33724844 0.14563504
-0.032256585 0.75133634 -0.39948905 0.001824219 -0.4520136 -0.0015108939 -0.09718705 0.19349736
0.024328116 -0.37417993 0.29696903 -0.089398354 -0.19233292 -0.36804947 -0.02574912 -0.505494
0.080530345 0.6920718 -0.18629934 -0.15079756 -0.43516243 -0.033525415 0.38489613 0.21101756
0.18704301 -0.80605537 -0.25114492 -0.04562582 -0.32596332 -0.027350111 0.41919926 0.12255532
0.08083622 0.4222222 0.24890874 -0.14772701 -0.15061699 -0.25578824 -0.1737264 -0.27249637
-0.21927154 0.36724177 -0.32270145 -0.2949207 0.2548642 0.14358617 0.104352765 -0.069259
-0.454335 0.08491845 -0.21130626 0.39828667 0.20655955 0.36210185 -0.13616556 -0.09592331
-0.2602379 0.124483034 -0.3044825 -0.26373753 0.092869826 0.11450135 -0.10902399 -0.4753675

blocks.0.v_mappings.1.bias f4 [1, 4]
00000000: ad71 2dbe e236 843e 0a97 b2bd c7df b6bd
-0.16937895 0.25823122 -0.08720215 -0.08929401

blocks.1.q_mappings.0.fouriercoeffs f4 [2, 4, 4, 4]
00000000: bdc4 353e 20ad 03be 02da 07be 5995 81be
00000010: 6126 823e d4a1 bf3d 1f95 28be b5c2 73bd
00000020: bb3a 4fbe 26f1 30bc b10e 90be 9378 6dbe
00000030: 3380 9ebd c741 30bb c43c ae3e 52b5 ac3e
00000040: 5672 f83d 2739 afbe 0044 143e 0575 033f
00000050: ed85 d53c f282 c23d 948b 113e e88c 873d
00000060: c505 7b3e e04c ad3e f49e 163e 75fc fcbd
00000070: ec0c 393e 45ab 913c b919 de3e 759b 69be
00000080: 8663 e2bd 86a6 85bd 8244 543e bfb2 03be
00000090: 819f 803e 0d8b 4bbd 9de5 133e f65d 6ebb
000000a0: 241d 3abe 08a4 76be 462a f13e 7a4d 7dbd
000000b0: 7926 243d 13d9 253d 2e9a 91be 5456 8c3e
000000c0: 843e 09bf 1625 c2be ff62 82be de6d 8b3e
000000d0: 4b82 01bf 16cc 50bc f2ce 43bd 08a5 823e
000000e0: 737f 973b 662b 59be fbec 75be 3337 9cbe
000000f0: 7367 9bbe 7f51 ee3c fb65 96be 815c 57bd
00000100: da9e 823e 74db c83e a195 c0be fab6 93bb
00000110: 265e a83e f77e 27be 8f1a 8dbe 6362 e73c
00000120: 28d8 7f3e fd54 3fbd 510f c43e e4dc b23d
00000130: 3295 9bbc 6eeb 16be 47d3 743e b78a 27bd
00000140: 195b c03e 3523 e23c a9b1 f73d 80be 573c
00000150: fd63 bd3d 6e35 4fbe 1ffa a13d 489e 9dbc
00000160: cf80 7ebe b347 533e 8a73 b13e 505e f33b
00000170: 4193 50be 29d7 633e 0eee dbbe a110 913c
00000180: e7ae 74bd 927c 57be 45b7 ca3e 2006 2f3d
00000190: cf5c 58bd 6e26 5cbe f92d 353e 1345 a93d
000001a0: dd95 693e 0ace 0dbf 5f2e 5abd 2af1 3dbe
000001b0: 49e9 ffbd 1507 aabd 8412 bc3d e69e 083e
000001c0: 5fd7 9e3e 39c9 80be 89dd 473e 2dce 853e
000001d0: 6774 973e b79b 123e d569 86bd 81f1 9bbe
000001e0: a90b 52be 39b1 d1be 2f7e 243f 9a6a bbbe
000001f0: 82ed 563c 5f60 e53e 6561 cf3b 072d 4fbd
0.17750831 -0.1285901 -0.13266757 -0.25309256 0.25419906 0.09357038 -0.16463135 -0.05951186
-0.20237248 -0.010799682 -0.2813621 -0.23190527 -0.07739296 -0.0026894675 0.34030735 0.33732086
0.12131183 -0.3422329 0.14479065 0.5135043 0.026064837 0.09497632 0.14213401 0.066186726
0.2451392 0.33847713 0.14709073 -0.1235284 0.18071336 0.017781863 0.43379 -0.22813208
-0.11054139 -0.065259025 0.20729259 -0.12861155 0.25121692 -0.049693156 0.1444306 -0.0036371923
-0.18175179 -0.2408601 0.47102565 -0.061841466 0.040075753 0.04049022 -0.28437942 0.27409613
-0.53611016 -0.3791892 -0.25466153 0.2723226 -0.50589436 -0.01274397 -0.04780478 0.25516534
0.0046233474 -0.21207961 -0.24016182 -0.30510864 -0.30352363 0.029091595 -0.2937468 -0.052578453
0.2551182 0.3922993 -0.37614158 -0.0045078965 0.3288433 -0.16357027 -0.27559325 0.028245157
0.24984801 -0.04671191 0.38292935 0.08733538 -0.01899204 -0.14738247 0.23908721 -0.040903773
0.37569502 0.027604679 0.12094433 0.013167977 0.09247587 -0.20235226 0.07909035 -0.019240513
-0.24853824 0.2063282 0.34658462 0.0074270144 -0.20368673 0.22250046 -0.4295506 0.017708125
-0.059737112 -0.21043614 0.3959295 0.04273045 -0.052822884 -0.21499035 0.17693318 0.08265128
0.22811075 -0.55392516 -0.05326688 -0.18549028 -0.124956675 -0.08302132 0.09183219 0.13341865
0.3102369 -0.2515352 0.19518103 0.26133862 0.29580995 0.14317213 -0.065631546 -0.3045769
-0.2051226 -0.40955523 0.6425504 -0.36604768 0.01311815 0.44800088 0.006328749 -0.05058005

blocks.1.q_mappings.0.bias f4 [1, 4]
00000000: c875 c6bd eed0 113e b769 133d f206 0ebe
-0.09690434 0.14239857 0.03598949 -0.13869837

blocks.1.q_mappings.1.fouriercoeffs f4 [2, 4, 4, 4]
00000000: bbcd b63e c3dc d3be 7435 f13d 054d b23e
00000010: 19b0 0fbe fe0a 38bf 6982 9bbe ea2c 463c
00000020: 6702 ad3d 5eca 07bd c71b 113e 10af 7c3e
00000030: 7872 f4be ac91 bdbe 87bb 5dbe 1d6a 0e3f
00000040: 0e54 cfbd 8e76 6b3f 0d02 02be b0e8 bcbd
00000050: 01cd 0f3f 7ae6 713f 7699 51be 110b 0c3e
00000060: e876 fb3d 602e 4e3f 61fd 9ebe c1d0 b9bd
00000070: eb17 283f f1ab 373e 0274 713e 202c 62be
00000080: 6e9e a0be 5506 063e 3596 0dbd 82e1 8abe
00000090: e926 8abc 0c70 823e 8bf4 6a3d 9c77 b9bd
000000a0: a418 f53d f297 c8bd 386a f4bd 06e2 e0be
000000b0: d066 10bf 2657 7ebd 09ce ad3d fc6a 84be
000000c0: 0720 00bf f70f fe3e 19eb 25be 6cfd 56be
000000d0: 63fd e33b 927f 733e 3955 efbe 73d1 d93d
000000e0: 49ce 03be 69ff 0d3e 19d3 a8bd 92be eabe
000000f0: 4fe0 b53e 87ad 51be dfcc c3bd 43e7 b43d
00000100: 5001 6e3f 7267 59be 2b74 fdbd 8656 df3e
00000110: 5aaf a83d 5c87 d2be 9ac6 1c3d bb7d f43d
00000120: 21c5 30be bacf ccbe 9364 b93e 817c 113d
00000130: a408 17bf 4627 953e a7e7 23bd ba1c 813e
00000140: 01c4 fcbe 4527 72be 224a b0bd 2cbb de3e
00000150: f57f 093f 8044 26bd 617d 74be 1a8a b3bd
00000160: 6fad 473f 882e fe3e 959c a7be e6d5 e3be
00000170: 99d4 5f3f 9ce4 b13e 6930 3c3f dfa5 19be
00000180: 70ac b0be 0985 fcbd 2324 00bf d461 1b3f
00000190: 0a83 103f 576a b83c 3bda c5be 7738 993e
000001a0: 920a a0be e436 473e 822b 153e bc9e 80be
000001b0: 9351 1bbf bae2 1b3e 2e9c 8a3e e0d8 03bd
000001c0: b312 20bf d4cc e53d 4a72 cf3e 2d27 9dbd
000001d0: cb41 eb3e 13e6 cbbd 0303 8fbe 78a1 87be
000001e0: 92e5 043e 4abd 4c3e 1230 a0bd 6af2 fcbe
000001f0: 5ac8 213f 6e64 f3be 99d5 493e f4f9 4f3e
0.35703835 -0.41379365 0.117777735 0.34824386 -0.1403202 -0.7189177 -0.30372933 0.012095669
0.08447724 -0.033151977 0.14170752 0.24676156 -0.47743583 -0.370252 -0.21653567 0.55630666
-0.10123454 0.91977775 -0.12696095 -0.09224069 0.56172186 0.94492304 -0.20468697 0.13676096
0.12278539 0.8053951 -0.31052688 -0.0907302 0.65661496 0.17936684 0.2357941 -0.22087145
-0.31370872 0.13088353 -0.034567077 -0.27125174 -0.016864257 0.2547611 0.05736212 -0.09056017
0.119675905 -0.09794606 -0.11934322 -0.43922442 -0.5640688 -0.06209483 0.08486564 -0.25862873
-0.5004887 0.49621555 -0.16202964 -0.2099511 0.0069576963 0.23779133 -0.46744707 0.106356524
-0.1287166 0.13866962 -0.08243389 -0.4584852 0.35522696 -0.20476352 -0.095605604 0.08833172
0.9297075 -0.21230868 -0.12375673 0.436207 0.08236571 -0.41118896 0.03827534 0.11938044
-0.17262699 -0.40002233 0.36209545 0.035519127 -0.5899756 0.29131526 -0.040015843 0.2521723
-0.4936829 -0.23647793 -0.0860789 0.43502176 0.5371087 -0.04059267 -0.23875953 -0.08766575
0.77999014 0.49644876 -0.3273665 -0.4449913 0.87433773 0.34744728 0.7351137 -0.15004681
-0.3450656 -0.12330062 -0.5005514 0.6069615 0.5644995 0.022511644 -0.3864306 0.29925892
-0.31258065 0.19454533 0.14567378 -0.25121105 -0.6067135 0.15223208 0.2707228 -0.03218925
-0.6252853 0.112207085 0.40516883 -0.07673488 0.45948634 -0.099559925 -0.27931985 -0.26490378
0.12978199 0.19994083 -0.07821669 -0.49403697 0.6319634 -0.4753756 0.19710387 0.20310193

blocks.1.q_mappings.1.bias f4 [1, 4]
00000000: 405e 36bf c288 883f ffe2 20bf 5885 863e
-0.71237564 1.0666735 -0.6284637 0.26273608

blocks.1.k_mappings.0.fouriercoeffs f4 [2, 4, 4, 4]
00000000: 4888 9abd 107b a5bd 9116 88bc 377a 31be
00000010: cdd2 a13e 3b53 633e de25 753e 84b5 41be
00000020: 3dcc a5be 35c0 983d 794e 52bd 2b81 f73d
00000030: 6e8b 273d 27ec 98be 43f5 86be cead 293e
00000040: 3c59 9cbe d002 24bd 8593 5e3d 4d54 35bd
00000050: 8f86 513e b55b a3bc 996c 073e d4b8 a33e
00000060: 9cfb 23bf 2865 20be abf7 99bd 7362 2abe
00000070: da20 f2bd cf51 db3b 853f be3e 8ec4 dabd
00000080: e941 883e 76ba d53e 929f 51be 5c03 2a3e
00000090: 1506 22bd 65ff 413e 8d1f ffbe 3430 473e
000000a0: 8e83 813e 0ff8 8d3e 1123 d33d 08c0 773d
000000b0: 6693 b9be 6214 98bd d35c 973d 41ee e9bc
000000c0: a26a dabe af4d 8f3d 14ae 66be 88bb 84bc
000000d0: 043a 11bf 01a7 0e3e e8d5 29bd fd31 56be
000000e0: f0e5 33bf 4e21 e0be 713d 87bd d915 8abe
000000f0: 50c3 39bf 6676 6dbe 1fc5 16be 68f0 8cbe
00000100: 7490 f23d c92b 7d3e c4fc f63d 2d63 113e
00000110: 624e a2be d105 dcbc 8eab 2e3e 1fae d9bd
00000120: 6b4e 7cbe b771 4b3e 7034 253d 171b 2d3f
00000130: 02ec a93e 76c3 b83c ff4f bd3d ce52 7bbd
00000140: c064 113e a672 8bbe 1ead bbbd 735e 053f
00000150: ddb9 5cbe 9f46 2abd 8f2d 4abe 31a1 59be
00000160: b160 0b3d a3bd c9be ccfc a03e 814a 763e
00000170: 4818 66bd 1961 57be 60b3 b8be 7726 013e
00000180: 6668 f83d 433a 05be 72a5 c9bd 751c ca3d
00000190: 96b0 d83d f721 143e d809 953d c925 dbbd
000001a0: 8434 063e d55d 03bf f7ce b13c 9023 16bf
000001b0: 150e 7dbb 08b3 acbd a730 353e 5b2c 983d
000001c0: 7076 b33d 1d07 77be b979 d7bd 8fbd 113e
000001d0: 9249 6a3c 8bd4 1abd 98e1 c73d fc05 ad3d
000001e0: 070f 823d 2884 733d dfa7 8abe eced a5bd
000001f0: edb1 c5be d8e1 2a3e 6b3a 653e 396e 4bbe
-0.07545525 -0.08080113 -0.016612323 -0.17331778 0.3160614 0.22199719 0.23940226 -0.18916899
-0.32382384 0.074585356 -0.05134437 0.12085184 0.040904455 -0.2986767 -0.26358995 0.16570207
-0.3053683 -0.040041745 0.054339904 -0.04426985 0.20461486 -0.01994119 0.1322502 0.3197695
-0.640558 -0.15663588 -0.07517942 -0.16639118 -0.11822672 0.006693102 0.37157837 -0.10682021
0.26612785 0.4174382 -0.20471027 0.16602844 -0.03955658 0.18945082 -0.4982876 0.19451982
0.2529568 0.27728316 0.10309423 0.06048587 -0.3624527 -0.07425763 0.07390752 -0.028555991
-0.4265948 0.06997239 -0.22527343 -0.016202703 -0.5672915 0.13930894 -0.041463763 -0.20917507
-0.7027273 -0.4377541 -0.06603516 -0.26969793 -0.7256365 -0.23189697 -0.14723633 -0.27527165
0.118439585 0.24723734 0.1205993 0.14197989 -0.31700426 -0.026858242 0.1705763 -0.10628914
-0.24639289 0.19867598 0.04033321 0.6761946 0.33187872 0.02255414 0.09243774 -0.061358266
0.1419859 -0.27235907 -0.09163879 0.52097243 -0.21555276 -0.041571256 -0.19743942 -0.21252896
0.03402776 -0.39402494 0.3144287 0.24051858 -0.0561755 -0.21033134 -0.36074352 0.1261233
0.121292874 -0.13010506 -0.09846009 0.09868709 0.10580556 0.14466082 0.07277268 -0.10700566
0.1310597 -0.5131505 0.021705134 -0.58648014 -0.003861313 -0.08432585 0.1769434 0.07430335
0.087628245 -0.24123807 -0.10521264 0.14232467 0.014299767 -0.037800353 0.097598255 0.08448407
0.063505225 0.059452206 -0.270812 -0.081020206 -0.3861231 0.16687715 0.22385566 -0.19866265

blocks.1.k_mappings.0.bias f4 [1, 4]
00000000: da81 73bd fdf3 0bbc 3dd3 793d 0004 e6bd
-0.059450008 -0.008542058 0.06099247 -0.11231232

blocks.1.k_mappings.1.fouriercoeffs f4 [2, 4, 4, 4]
00000000: 6c6d d2be 7673 f6be 60b6 12bf 42a4 0fbf
00000010: c3dc 16bf 424e 06bf 5d4b c0be ff8d 743d
00000020: e338 22bf 8eee 8bbe dba6 dbbe 6335 31bf
00000030: 2596 04bf a4b8 0fbf e509 32bf 1187 d0bd
00000040: 0b43 303f 15f6 d53e 70fe 383f 4ed1 353f
00000050: 89a2 533f 7bd7 5d3f d422 693e e6a9 233e
00000060: 2074 6b3f 4c58 6bbd d50e 2c3e b8f0 b33e
00000070: 16cd 533f 8c6b 413f 5d9c 9a3f f3ec be3e
00000080: e63b 493f 721d 68be 21d7 c4bc d800 29be
00000090: 5a8b a13e 788f 48bf 4cc6 963e 7a14 17bf
000000a0: e899 133f 30d6 3b3d fdae 8fbc aa6e 04be
000000b0: da91 7b3d 16d1 14bf a7f2 59bc 2d10 61be
000000c0: 5931 353f 9380 de3d d2a0 0e3f c554 e73e
000000d0: 3aa7 6abe eb5a 983e 7e62 af3e 0868 5c3e
000000e0: 55a0 5c3e 8388 703c 96e9 013e 0652 b33e
000000f0: da55 af3e 68ab a43e 5be7 e23e 9182 b73e
00000100: 6f04 06bf 017d ecbe f873 aebe 9205 6b3e
00000110: 4854 12be 0ca4 e93e 64a5 1fbf c213 f4bd
00000120: 89ca 9abc e3a3 553e 8b38 253f b6c0 55be
00000130: eb5f a13e ba2b b63e c8c4 c9be 9a01 fd3d
00000140: f4e0 0c3f df5f e73d a7ba 0ebd a4d3 4c3e
00000150: c723 1c3f 2971 1e3e 1236 0f3f 0c3e ac3e
00000160: e8b8 80be 95b5 afbe 1ff1 d4be b953 97bd
00000170: e5b6 07be 972e 4c3c 485a e8bd e123 0d3f
00000180: c513 6bbd 55ea 0d3e 26bb b1be 401b eb3c
00000190: 6c77 3bbe dd7c 513d 9217 f0be 80e3 913d
000001a0: 6cd6 8fbe 709a b73d e03e 483d e98a d3be
000001b0: 4711 a93c 6f8c 0e3f 24b9 19bf f7eb 633e
000001c0: 0ce4 493d a927 babe 2585 753e ce0e 0a3e
000001d0: a2fa 283e bcf5 d03e d90d f03e e685 973d
000001e0: 45df 883e c731 07be 0b01 4bbd 8340 f4bd
000001f0: 083b 6a3e 6fd0 59be b76b fd3d dea7 0a3f
-0.41099107 -0.48134965 -0.5730953 -0.5611001 -0.58930606 -0.5246316 -0.37557498 0.05970573
-0.6336805 -0.2733044 -0.42900738 -0.69222087 -0.517916 -0.56141114 -0.6954635 -0.10182012
0.688523 0.41789308 0.7226324 0.710225 0.82669884 0.8665692 0.22767192 0.1598278
0.9197407 -0.057457253 0.16802533 0.3514459 0.8273481 0.7555473 1.2078968 0.37290153
0.7860702 -0.22667482 -0.024028363 -0.16504228 0.3155163 -0.78343916 0.29448164 -0.5901562
0.5765672 0.045858562 -0.017539496 -0.1293284 0.06141839 -0.5813154 -0.013302482 -0.21978827
0.70778424 0.10864367 0.5571414 0.45181862 -0.22915354 0.29756865 0.3425483 0.2152406
0.21545537 0.014680984 0.12686762 0.35023516 0.34245187 0.32162023 0.44317135 0.35841802
-0.52350515 -0.4618912 -0.34072852 0.22951344 -0.14289963 0.4563297 -0.6236174 -0.11917831
-0.018895404 0.20863299 0.645394 -0.20874295 0.31518492 0.35580236 -0.39407945 0.12353821
0.5503075 0.11297583 -0.034845974 0.2000261 0.6099209 0.15472855 0.5594188 0.33641088
-0.25141072 -0.34318224 -0.4159021 -0.07389016 -0.13253362 0.01246228 -0.11345345 0.5513287
-0.0573919 0.13858922 -0.34713095 0.028699517 -0.18307275 0.05114447 -0.46892983 0.0712347
-0.28093278 0.089650035 0.048888087 -0.41316918 0.020638121 0.55683035 -0.6004813 0.22257982
0.049289748 -0.36358383 0.23976572 0.1348221 0.16501859 0.4081248 0.46885565 0.07398586
0.2673284 -0.13202582 -0.04956154 -0.11926367 0.22874081 -0.21270917 0.123740606 0.54162395

blocks.1.k_mappings.1.bias f4 [1, 4]
00000000: 62c0 013d d76b 45bd 552d 113c 6d26 dabb
0.03167761 -0.048198547 0.008860906 -0.0066574127

blocks.1.v_mappings.0.fouriercoeffs f4 [2, 4, 4, 4]
00000000: 4a77 493e 71b5 1e3f 34ff a73e a488 dfbe
00000010: 3535 f0bd 036a 1f3e 299c aa3e 4a73 56be
00000020: 29b3 31be a6b9 b53e be53 333f 856c 88be
00000030: b98a c33e 6e70 e23e 2972 393e 2aae e4bd
00000040: 53c2 cf3e 78b1 433f 24f2 e43e 6051 f0be
00000050: 98c0 bdbe cbe9 cf3e e707 80bd 225a 21be
00000060: 1e83 2bbd df97 613e c4ae 5e3f ec57 533e
00000070: 4930 8dbe dfdb ac3e 4608 043f 069b f3be
00000080: 6d76 d6bd 4a1e e9be d41c 8c3b f62f 87be
00000090: 913e 00bd cbb4 89be e3f2 1d3d b21c 59be
000000a0: 74d7 5fbe 5abc 6cbe a8ae 31bf cbf5 ffbe
000000b0: e825 cbbd 304c 87be 1bb6 cdbe 316b 333e
000000c0: 6c7c 05be cc88 673f cdbf 0d3f 2e8e 87be
000000d0: 0c87 5d3e a6b5 f83e c737 a2bd 9f7a 55be
000000e0: 909a d33e cb60 5e3f 5019 993e 841f dd3d
000000f0: a960 73bd dabd 683e 2c9d 4c3e 9513 383e
00000100: 0ae2 e5bd 64ad 85bc e135 933d 2f18 d93d
00000110: 027e b9bc 8591 9abe 1f70 03be e238 b43d
00000120: b495 873b 0e82 6fbe ae9d 233e 2873 073d
00000130: e32f a63e 6cca bb3d b27c 4ebe 9abd 203d
00000140: 6eb0 27be 68af c7ba 48d2 323e 41b4 953c
00000150: aa60 703d 782c e7be 70a1 8d3e 2663 003e
00000160: be71 89be 62b6 b63d d154 8d3e 722e 61be
00000170: 5559 42bc 59fe 30be 8565 b5be 86f8 a13e
00000180: 6bb3 ccbc 21b9 fd3d be4a 8d3e 7856 cbbd
00000190: 585d 8cbe 32c2 103e ced6 803e 234e 6d3d
000001a0: 6792 73be 59c2 d7bd bcce cd3c b5bf 77be
000001b0: 437d 843e 4efe 07bd 040c 8f3e d6d0 943a
000001c0: 9788 19bf 16c9 3a3e d7aa 08be f928 8c3d
000001d0: 930d 3cbe 440c 35be 4520 593c f4d6 793e
000001e0: d975 433c 58a9 493e 2005 6dbd cb19 35bc
000001f0: 79d2 2d3d e56e d7be 1c91 353e 9089 d8bd
0.19674411 0.6199561 0.32811892 -0.43658936 -0.117288984 0.15567784 0.33322266 -0.20942417
-0.173535 0.354932 0.70049655 -0.26645294 0.38191774 0.44226402 0.18109955 -0.11166032
0.40577945 0.7644267 0.4471599 -0.46937084 -0.37061 0.40608057 -0.06251507 -0.15757039
-0.04187309 0.2203059 0.8698542 0.20639008 -0.275759 0.33761498 0.51575124 -0.4757921
-0.10471807 -0.4553092 0.0042758975 -0.2640378 -0.031309668 -0.26895747 0.038561713 -0.21202353
-0.21859533 -0.23118725 -0.6940713 -0.49992213 -0.099193394 -0.26425314 -0.40177998 0.17521359
-0.13035744 0.9044311 0.5537079 -0.26475662 0.21633548 0.48576087 -0.07920795 -0.20847557
0.4132886 0.86866444 0.29902124 0.10797027 -0.059418354 0.22728673 0.19981831 0.1797622
-0.11224754 -0.01631803 0.07188011 0.10600316 -0.022643093 -0.30189148 -0.1283574 0.08799912
0.004137719 -0.23389456 0.15978119 0.033068806 0.3245841 0.09169468 -0.20164755 0.03924332
-0.16375896 -0.001523477 0.17463028 0.018274428 0.058685936 -0.45151114 0.2766223 0.12537822
-0.2684459 0.089215055 0.27603772 -0.21990374 -0.011862119 -0.17284526 -0.35429016 0.3163492
-0.024987897 0.12388826 0.27596086 -0.09928602 -0.27414966 0.1413658 0.25163883 0.057935845
-0.23786317 -0.10535116 0.025122993 -0.24194224 0.25876817 -0.03320151 0.27938855 0.0011353742
-0.59974045 0.1824077 -0.1334642 0.068437524 -0.18364553 -0.1768046 0.013252323 0.24398404
0.011929953 0.19693506 -0.057866216 -0.011053513 0.04243705 -0.42076793 0.17731136 -0.10573113

blocks.1.v_mappings.0.bias f4 [1, 4]
00000000: 6d74 84bd 87ae 26be 6cef 313e 1fe6 8c3d
-0.06467519 -0.16277514 0.17376488 0.068798296

blocks.1.v_mappings.1.fouriercoeffs f4 [2, 4, 4, 4]
00000000: c40c 8f3c fbc9 0e3f bb59 b83e c042 833e
00000010: 8aa1 6abd e285 8b3e 214b f1bd 826c 403e
00000020: 1b0b e1be 5696 d43e cb28 1e3e e41b c3be
00000030: 3db7 09bf 7d4f 6f3e 321e 4b3e 4a80 ed3e
00000040: a2c0 a43e a976 6d3d 0807 f9bd e103 20be
00000050: 6c3b 633e 66de 97be 72bf 2ebe 9b60 18be
00000060: 9a45 d93d 260b 46be d9b5 27bd 1b30 cfbd
00000070: 2ddb f33d 8b92 e8be 6a64 94be 560c 2dbe
00000080: a0fa 1d3e c05a 7a3e 34c3 ac3e 442e 383e
00000090: b65d 3bbf 1b72 46bf 9239 01bf a441 413e
000000a0: 4960 87be d974 81be 192f 423e 3fa5 aebd
000000b0: 6613 a7be 6777 093f c46a 013f 63f8 d4bc
000000c0: 81a0 e3be c581 17be 3b2c 6ebe 19e0 30be
000000d0: d4c0 bc3e a264 ed3d 58ee 0ebe fc8d aabd
000000e0: b7e9 c2be 6a35 83be c940 a9bd 7275 123c
000000f0: 3735 bb3e fc7c b73d b6fd a0bd b185 d2bd
00000100: fb51 833e 6e03 1abd caef a0bb 467b 49bd
00000110: 2d03 ab3c fbc7 9a3e a19d 893d 5007 263e
00000120: a5a3 b3be 964f 103d db35 d7bd ca7a a3be
00000130: 6111 e6be b852 e93d ae1c eabd 1309 0ebd
00000140: 81e2 debe 9a4c 82be 80bd b73e 5024 d6be
00000150: 724e 9c3e 15c3 c4be 4c8e b6be 6612 153e
00000160: 34e5 133d f2cb 9c3e 10a0 0e3e a7d3 3a3d
00000170: 98b0 4c3e 9461 edbd 9ec5 7d3e ade4 91be
00000180: 6234 3bbc f0c1 c1be 3820 6fbe 14a8 2d3d
00000190: dafc 5a3d ebdc 10bf 74fe 893e a66f 963d
000001a0: 03e3 94be 6b41 08bf ef06 fc3d 3280 67bd
000001b0: e96a 72bc b2d3 a23e 93f4 303e 98ba e6bd
000001c0: ea95 8d3e e963 aa3a a940 26bc 5060 b4bc
000001d0: c76a 02bf 00b3 d2bd cc96 9b3d 773a d4bd
000001e0: 47b4 ae3e 55f4 493e 04d5 1d3e 5c47 72be
000001f0: 92ad 15bf e758 77be 4653 0bbe 1d1d ce3e
0.017462142 0.5577695 0.3600596 0.25636864 -0.057282962 0.27250582 -0.11781908 0.18791392
-0.43953785 0.41520947 0.15445249 -0.38107216 -0.53795224 0.23370166 0.19835737 0.4638694
0.32178217 0.05797449 -0.12159544 -0.1562648 0.22190636 -0.29661864 -0.17065218 -0.14880602
0.106089786 -0.1934019 -0.040944908 -0.10116597 0.11907039 -0.45424303 -0.2898286 -0.16899237
0.15427637 0.24448681 0.33742678 0.17986399 -0.73189867 -0.7751786 -0.5047847 0.18872696
-0.26440647 -0.2528446 0.18963279 -0.08527612 -0.32631987 0.5369782 0.50553536 -0.025997346
-0.44458392 -0.14795597 -0.2325906 -0.17272986 0.36865866 0.1159146 -0.13958108 -0.083278626
-0.38068935 -0.2562669 -0.0826431 0.008939134 0.36564037 0.08959386 -0.078608915 -0.10279406
0.25648484 -0.037600927 -0.0049113976 -0.04918983 0.020875538 0.30230698 0.067195185 0.16213727
-0.35085788 0.03523215 -0.10508319 -0.31929618 -0.44935134 0.113927305 -0.114312515 -0.034676623
-0.43532184 -0.25449067 0.35886765 -0.4182458 0.305286 -0.38430086 -0.3565544 0.145578
0.036107257 0.30624348 0.13928246 0.045612004 0.1998924 -0.11590877 0.24782416 -0.28494778
-0.011426063 -0.37843275 -0.23352134 0.04239662 0.053463794 -0.56587094 0.26951945 0.07345514
-0.29079446 -0.5322482 0.1230601 -0.05651874 -0.014795997 0.31802136 0.17280798 -0.11266059
0.27653438 0.0012999746 -0.010147252 -0.022018582 -0.5094418 -0.10288048 0.075971216 -0.10362714
0.34121916 0.19722112 0.1541329 -0.23660034 -0.5846797 -0.24155007 -0.13605985 0.40256587

blocks.1.v_mappings.1.bias f4 [1, 4]
00000000: 56a6 dcbe 0a6f 2a3e 8396 04be 084c 103e
-0.43095654 0.1664392 -0.1294804 0.14091504
