weights/benchmark-one/kan_vit_10epochs.pth (torch, 40336 bytes, 57 tensors)

v_class f4 [1, 8]
0	0x3ed8a2f7	0.42311832
1	0x3efb04bd	0.49027053
2	0x3ec9ad80	0.39390182
3	0xbe5e9564	-0.21736676
4	0x3fe96406	1.823365
5	0x3d956ae1	0.07295776
6	0x3fb1ee23	1.3900799
7	0x3f047f45	0.517567

linear_mapper.base_weight f4 [8, 16]
0	0x3e7b906f	0.24566816
1	0xbdf908f0	-0.12159908
2	0xbe8bbbbb	-0.27291664
3	0xbd8441d0	-0.06457865
4	0x3f7b5854	0.98181653
5	0x3e96275d	0.29326907
6	0x3de377ce	0.11106835
7	0x3f8099d9	1.004695
8	0x3f8d721c	1.1050448
9	0x3e95bc53	0.29245242
10	0x3f00bba3	0.5028631
11	0x3fa3e520	1.2804298
12	0x3f04567a	0.5169445
13	0xbe5e2b6e	-0.21696255
14	0xbe67667c	-0.22597688
15	0x3ec84c54	0.39120734
16	0x3e79ed7e	0.24407002
17	0x3e9f7a72	0.31148106
18	0x3ee00a63	0.43757924
19	0x3e3b7bc1	0.18308927
20	0xbe9085ba	-0.28227025
21	0xbe69cf52	-0.22832993
22	0xbc178c17	-0.009249709
23	0x3ed493a6	0.41518897
24	0xbef334fb	-0.47501358
25	0x3f41241b	0.7544572
26	0x3f3f1b24	0.7465079
27	0xbdae0b51	-0.08498252
28	0xbc57a3c9	-0.013161608
29	0x3efb7b34	0.49117434
30	0x3f0304e8	0.5117936
31	0xbf53e690	-0.82773685
32	0xbe538b4a	-0.20658603
33	0xbe9342c0	-0.28761864
34	0xbe684358	-0.2268194
35	0xbeafde94	-0.343495
36	0x3d71f17d	0.05906819
37	0xbe0051b6	-0.1253117
38	0xbe7bb240	-0.24579716
39	0x3e101b5e	0.1407294
40	0x3f90249b	1.1261171
41	0x3f06c1db	0.5263955
42	0x3f7802bc	0.9687917
43	0x3f73d818	0.9525161
44	0x3ef99d0a	0.48752624
45	0xbd44b310	-0.04802233
46	0x3ea86cd4	0.3289553
47	0xbc884e6c	-0.016638957
48	0x3e92a449	0.28640965
49	0xbed210d2	-0.41028458
50	0xbf056c1b	-0.5211808
51	0x3e0265e5	0.12734182
52	0x3eecbb16	0.46236485
53	0x3f18e5dd	0.59725744
54	0x3f06a770	0.5259924
55	0x3f28341f	0.6570453
56	0x3ee4b44f	0.44668815
57	0x3e0f2970	0.13980651
58	0x3ecb4e8d	0.39708367
59	0x3ec14514	0.37748015
60	0xbed0aa39	-0.4075487
61	0xbeb9724f	-0.36220023
62	0xbf084ef9	-0.532455
63	0x3d7824e1	0.060582045
64	0x3e08e791	0.13369586
65	0xbeabc020	-0.33545017
66	0xbe4d5551	-0.20052077
67	0xbef76b0f	-0.48323867
68	0xbe093595	-0.13399346
69	0xbf1de641	-0.61679465
70	0xbe2adcb4	-0.16685754
71	0xbe17c6bb	-0.14821903
72	0xbdadae06	-0.08480458
73	0xbf04d888	-0.518929
74	0xbe2a8615	-0.1665271
75	0xbd196d07	-0.037457492
76	0xbcbdb393	-0.023156917
77	0xbf3bedf1	-0.73409945
78	0xbf0bb3b7	-0.545711
79	0x3e4fdb8d	0.20298596
80	0xbebbb489	-0.36661175
81	0xbe6f8258	-0.23389566
82	0xbd8e01a6	-0.06933908
83	0xbe7d3b52	-0.2472966
84	0xbf29bc70	-0.6630316
85	0xbe3fea7b	-0.18741791
86	0xbd4f4456	-0.05060228
87	0xbf51ed85	-0.8200305
88	0xbf2c59a3	-0.67324275
89	0x3f1e3d01	0.61811835
90	0x3f1fcc69	0.6242128
91	0xbed3507d	-0.41272345
92	0xbea0905e	-0.31360143
93	0xbe140a6a	-0.14457098
94	0xbeb5b365	-0.3548843
95	0xbef862c3	-0.4851285
96	0x3e6ec146	0.23315915
97	0x3ce6ff3a	0.028197873
98	0xbdb0e678	-0.086377084
99	0x3dca3e39	0.09875149
100	0x3d940fd2	0.0722958
101	0x3e7d8067	0.24756013
102	0x3d8adf8e	0.06780921
103	0x3d088a1d	0.03333484
104	0xbe8785d6	-0.26469296
105	0x3df99482	0.12186529
106	0x3e0a4414	0.13502532
107	0xbe2c65e7	-0.16835748
108	0xbf2dd3de	-0.6790141
109	0xbeb9b3be	-0.36269945
110	0xbe5dce69	-0.2166077
111	0xbf162a6c	-0.5865848
112	0x3e8fc4dc	0.2807988
113	0xbd44d8d3	-0.048058342
114	0xbcb83ad8	-0.022488996
115	0xbd565f91	-0.052337233
116	0x3eab61a0	0.3347292
117	0xbed6656c	-0.41874254
118	0xbebe1014	-0.37121642
119	0xbeba6c4b	-0.36410746
120	0x3ee72c57	0.45151016
121	0xbdf12f72	-0.117766276
122	0xbd631afa	-0.05544565
123	0xbe7bb805	-0.24581917
124	0x3e8908a9	0.2676442
125	0xbe9486ab	-0.29008994
126	0xbed4543a	-0.4147051
127	0xbee8ed94	-0.45493758

linear_mapper.spline_weight f4 [8, 16, 8]
0	0x3b14e53e	0.0022719647
1	0x3c2a8f63	0.010410163
2	0xbda68fbb	-0.08132883
3	0xbd4eafab	-0.0504605
4	0x3cc25f62	0.023727123
5	0x3ee2e472	0.44314915
6	0xbea4b3d1	-0.3216844
7	0xbf0b7e1d	-0.5448931
8	0xbb757c97	-0.0037458295
9	0xbc56b296	-0.013104102
10	0x3d02c99f	0.031930562
11	0x3cf7f7fa	0.030269612
12	0xbd1021de	-0.03518855
13	0x3d981642	0.0742612
14	0xbd3aef12	-0.04563815
15	0x3cc4f719	0.024043607
16	0xbb2479e9	-0.0025097078
17	0xbba96db5	-0.005170549
18	0x3d6512d9	0.055926178
19	0x3cf18899	0.02948408
20	0xbd462a0f	-0.048379954
21	0x3d985ff2	0.07440175
22	0xbe0b9dd1	-0.13634421
23	0xbe132d02	-0.14372638
24	0xb8af515d	-8.359805e-05
25	0xba87f699	-0.0010373174
26	0x3dc09b9a	0.09404679
27	0x3d82e453	0.06391206
28	0xbd7ce83c	-0.061744913
29	0xbe368696	-0.17824778
30	0xbdbfd9d6	-0.09367721
31	0xbe02bb17	-0.12766682
32	0x3ab818cc	0.0014045476
33	0x3c22ff53	0.009948569
34	0xbe5a6e10	-0.21331048
35	0xbe3c0091	-0.18359591
36	0xbcb23830	-0.021755308
37	0x3e33007c	0.17480654
38	0x3f7850fb	0.96998566
39	0x3faeb1ea	1.3648045
40	0x3b5a5793	0.0033316358
41	0x3bd57827	0.0065145674
42	0xbd6ebee8	-0.05828753
43	0xbc362fc9	-0.011119791
44	0x3cef3361	0.029199304
45	0xbe041fb7	-0.12902723
46	0x3e2d748b	0.16938989
47	0x3e870794	0.2637297
48	0xbb069770	-0.002053704
49	0xbc0eb998	-0.008711241
50	0xbda3ebe8	-0.0800398
51	0xbd69db1f	-0.057093736
52	0x3d946ce6	0.07247333
53	0x3daf2449	0.08551843
54	0x3e33300f	0.17498802
55	0x3ddca239	0.10773129
56	0x3b8f28d1	0.0043688794
57	0x3c33928d	0.010960233
58	0xbe5d46b0	-0.21608996
59	0xbdf68cb6	-0.12038557
60	0x3da8c9db	0.08241626
61	0x3e0d530e	0.13801214
62	0x3f27ba79	0.6551891
63	0x3f6bbdec	0.9208667
64	0x3bab877a	0.005234656
65	0x3c535811	0.012899415
66	0xbe5ac6c2	-0.21364883
67	0xbdf51051	-0.11966003
68	0xbc351438	-0.011052184
69	0x3ee8a6f5	0.45439878
70	0x3f3f9c09	0.74847466
71	0x3f7909be	0.9728049
72	0xbb1c69dd	-0.002386681
73	0xbc33a325	-0.01096419
74	0xbe29c36d	-0.16578455
75	0xbe0ef125	-0.13959177
76	0x3ac3dce2	0.0014943148
77	0x3f9ded39	1.233802
78	0x3eac1fa3	0.33617887
79	0xbe2f29fc	-0.1710586
80	0xba134d49	-0.00056191214
81	0xbb807d4b	-0.003921186
82	0x3e422a03	0.18961339
83	0x3e132df5	0.14373
84	0xbd8cc611	-0.06873716
85	0xbf83c9d7	-1.0295972
86	0xbd86c4cb	-0.06580504
87	0x3e6c086c	0.23050088
88	0x3b5482da	0.0032426626
89	0x3bc0d9d1	0.0058853407
90	0xbea8c055	-0.32959238
91	0xbe7ceb9c	-0.24699253
92	0xbc3c17e9	-0.01148031
93	0x3fa355f9	1.2760612
94	0x3f7192fb	0.943649
95	0x3f8a0272	1.0781996
96	0xbbc0b936	-0.005881454
97	0xbc8e6a60	-0.017384708
98	0x3d5245e7	0.051336195
99	0x3c1a6578	0.009423606
100	0xbd513f39	-0.051085684
101	0xbd4b4f4b	-0.049636167
102	0xbeb7107a	-0.35754758
103	0xbef8eccc	-0.48618162
104	0x3b6fa509	0.0036566874
105	0x3c18755b	0.0093053235
106	0x3d1ea6fe	0.038733475
107	0x3d47f998	0.048822016
108	0xbd6f1563	-0.058370005
109	0x3d6bfeb8	0.057615966
110	0xbca78d65	-0.020453164
111	0xbce3eaec	-0.02782198
112	0x3b8a0f33	0.0042132377
113	0x3c21b447	0.009869642
114	0x3d4e7e5a	0.050413467
115	0x3d7a18ca	0.061058797
116	0xbd6abfeb	-0.057311933
117	0xbde061cb	-0.109561525
118	0x3dbb1960	0.09135699
119	0x3e63b77d	0.22237964
120	0xba93f6ff	-0.001128882
121	0xbb9355e1	-0.0044963215
122	0xbd527b6b	-0.05138723
123	0xbcc3652e	-0.023851957
124	0x3d72acf4	0.059246972
125	0xbe3c08e6	-0.1836277
126	0x3ecd262e	0.4006819
127	0x3f052584	0.5201037
128	0x3ae10a3a	0.0017169185
129	0x3a0d3011	0.00053858856
130	0xbefd556b	-0.4947923
131	0xbe873065	-0.2640411
132	0x3dd121bc	0.102115124
133	0x3f033760	0.5125637
134	0xbcc55f1b	-0.024093201
135	0xbf038395	-0.51372653
136	0xbbccee11	-0.0062539657
137	0xbc939b29	-0.018018322
138	0xbf84bfd8	-1.0371046
139	0xbf5a3b09	-0.8524633
140	0x3dc57114	0.096407086
141	0x3f58fe4a	0.84763014
142	0xbd3960ea	-0.04525844
143	0xbf14f778	-0.5819011
144	0xb99396b6	-0.00028150313
145	0x3a706916	0.00091709325
146	0xbf8ef938	-1.1169806
147	0xbf695f74	-0.91161275
148	0xbe53e2db	-0.20692007
149	0x3f805583	1.0026096
150	0x3eba8060	0.36426067
151	0xbe8b9f0d	-0.27269784
152	0xbac95cf6	-0.0015362788
153	0xbc0e1d21	-0.008673937
154	0x3cc68462	0.024233047
155	0x3b62ecfb	0.0034626115
156	0x3c360d31	0.0111115435
157	0xbe03333d	-0.12812515
158	0x3cdb6ea4	0.026786156
159	0x3e812821	0.25225928
160	0x3ad9cfaa	0.0016617675
161	0x3b895f06	0.004192236
162	0x3f16b592	0.58870804
163	0x3eacafb3	0.33727798
164	0xbe8b528a	-0.2721141
165	0xbf096f80	-0.5368576
166	0x3ee17e2a	0.44041568
167	0x3f88a1a0	1.0674324
168	0xbb0e7cc8	-0.0021741856
169	0xbc019ba4	-0.007910643
170	0xbefcea64	-0.49397576
171	0xbe8f1c48	-0.27951264
172	0x3e84d51d	0.25943843
173	0x3e2d422e	0.16919777
174	0xbe9a36d3	-0.30119953
175	0xbf05b7ae	-0.522334
176	0xb988c909	-0.00026089724
177	0x3b238a83	0.0024954386
178	0x3f3a7fa9	0.72851044
179	0x3f02932c	0.51005816
180	0xbe87fb49	-0.26558903
181	0xbf44bd3e	-0.7685126
182	0x3e8be77e	0.27325052
183	0x3eeac9ba	0.4585703
184	0x3b1e5e9d	0.002416528
185	0x3beea4a8	0.007282812
186	0x3ecfc8fe	0.40583032
187	0x3eb764f2	0.35819203
188	0xbc5920d9	-0.01325246
189	0xbecd69a9	-0.40119675
190	0xbdd10a1e	-0.10207008
191	0x3e3ac4fa	0.18239203
192	0x3b531d00	0.003221333
193	0x3c50b876	0.012739291
194	0xbce9d0c2	-0.028541926
195	0xbd1ac665	-0.03778686
196	0x3dc5b76b	0.09654125
197	0xbe91963a	-0.28434926
198	0x3e767ae7	0.24070321
199	0x3f485a84	0.78263116
200	0xb9adff34	-0.00033187272
201	0xbb7d003c	-0.0038604876
202	0xbe94c5a7	-0.29057047
203	0xbed441be	-0.41456407
204	0xbf1f1db0	-0.62154675
205	0x3f40bae1	0.75285155
206	0x3f84c805	1.0373541
207	0x3eec42d0	0.46144724
208	0xb8d71a9c	-0.00010256955
209	0x3b38ce12	0.0028199
210	0x3eadd20c	0.33949316
211	0x3eb81df2	0.35960346
212	0x3f1f7125	0.6228202
213	0xbf003f7f	-0.5009689
214	0xbf91b179	-1.1382285
215	0xbec5f83c	-0.3866595
216	0xb9802a47	-0.00024445562
217	0xbb0d5b83	-0.0021569438
218	0xbebc96de	-0.36833853
219	0xbeaa4eb3	-0.33263168
220	0xbdc35a19	-0.09538669
221	0x3f36e400	0.7144165
222	0xbdeb2c96	-0.114831135
223	0xbf583a65	-0.84464103
224	0x3a553134	0.0008132637
225	0x3befe2d4	0.007320741
226	0x3e0b245c	0.13588089
227	0xbcb48f81	-0.022041084
228	0xbda58296	-0.08081548
229	0x3e8c8a3c	0.27449214
230	0xbdfde63e	-0.12397431
231	0xbeb26359	-0.3484142
232	0x3bc66d41	0.0060555045
233	0x3c808a97	0.015691085
234	0x3f6991dd	0.91238195
235	0x3f55abea	0.83465445
236	0x3e807896	0.25092
237	0xbfa13b87	-1.2596291
238	0xbf177067	-0.5915589
239	0xbe7fb47e	-0.24971196
240	0xba906528	-0.0011016475
241	0xbbd24e67	-0.0064180377
242	0x3f8e1fa0	1.1103401
243	0x3f512056	0.81689966
244	0xbdecb77d	-0.11558435
245	0xbf9ffc9c	-1.2498965
246	0x3d909d4d	0.07061253
247	0x3f08cca7	0.53437275
248	0x3ac905f4	0.0015336857
249	0x3bf3733d	0.007429509
250	0xbed2ecf6	-0.41196412
251	0xbe1ee7ea	-0.15518156
252	0x3eba1e8a	0.36351424
253	0x3f0f6d1e	0.56025875
254	0xbf798d5b	-0.97481316
255	0xbfdb7d96	-1.7147701

linear_mapper.spline_scaler f4 [8, 16]
0	0xbbc53a82	-0.0060189376
1	0x3af29b4c	0.0018509417
2	0x3c28f4b0	0.010312244
3	0x3d3cd3ba	0.046100356
4	0x3f2c2c70	0.67255306
5	0xbc5c6a74	-0.013453115
6	0xbcd54d3d	-0.026037807
7	0x3e6489d9	0.2231821
8	0x3eb70a17	0.35749885
9	0x3efe365f	0.49650857
10	0xbef91573	-0.48649177
11	0x3f408872	0.752082
12	0xbcdb636f	-0.026780812
13	0xbc1fb558	-0.009747826
14	0xbc245f90	-0.0100325495
15	0xbd3d1734	-0.046164706
16	0x3ec79c02	0.38986212
17	0x3f8d70fd	1.1050106
18	0x3f9ed291	1.240801
19	0xbd23f0ba	-0.040024497
20	0xbedf3e9a	-0.4360245
21	0xbe2cd53d	-0.16878219
22	0xbf2493f1	-0.6428824
23	0xbe81dcc2	-0.25363737
24	0xbe53d1a2	-0.20685437
25	0x3f6e0e1b	0.92990273
26	0xbf832c56	-1.0247905
27	0x3ed4ff9f	0.41601273
28	0x3c9961b7	0.018723352
29	0xbf9ef436	-1.2418277
30	0xbf9b2e08	-1.2123423
31	0x3f942849	1.1574794
32	0x3d532f06	0.051558517
33	0x3d5baca0	0.053631425
34	0xbbc9a27b	-0.0061534024
35	0xbd15685a	-0.03647647
36	0xbe88d91b	-0.26728138
37	0xbea35d3d	-0.31907073
38	0x3bd3fb38	0.0064691566
39	0xbec3612c	-0.38160074
40	0xbf623cf5	-0.88374263
41	0x3ed2aff1	0.41149858
42	0x3f14c854	0.58118176
43	0xbf4d512e	-0.80201995
44	0xbea08634	-0.3135239
45	0xbe9d054c	-0.30668104
46	0xbe33bd2b	-0.1755263
47	0xbb6db36b	-0.0036270272
48	0xbe1bbd3c	-0.15208906
49	0x3bbf4e35	0.0058381804
50	0x3c2e2c85	0.0106307315
51	0xbdc94927	-0.09828406
52	0xbf4195fa	-0.7561947
53	0x3b1ac73d	0.002361729
54	0x3bac1772	0.0052518183
55	0xbf17def2	-0.5932456
56	0x3e8ff5df	0.28117272
57	0x3c5b02ba	0.013367349
58	0x3e635339	0.22199716
59	0xbf160729	-0.58604676
60	0x39e92c0e	0.00044474046
61	0x3c6a55d6	0.014302691
62	0xbdbd9efb	-0.09258839
63	0x3e9d41d6	0.3071429
64	0x3c7d585b	0.01546296
65	0xbe28760d	-0.16451283
66	0xbee6714c	-0.45008314
67	0xbeed12e2	-0.4630347
68	0xbe0d949e	-0.13826224
69	0x3f38f352	0.7224628
70	0x3f029b83	0.5101854
71	0xbe64ea18	-0.22354925
72	0x3e2a0a25	0.16605432
73	0xbe843261	-0.25819686
74	0x3d8d0122	0.06884982
75	0xbd8b0b6c	-0.06789288
76	0x3e81b79a	0.2533539
77	0xbf189dcf	-0.59615797
78	0x3ee71496	0.45132893
79	0xbb37db48	-0.0028054286
80	0xbee614b1	-0.4493766
81	0x3e7a8d4f	0.24467967
82	0xbbe88fd2	-0.007097223
83	0x3d7eeae9	0.062235747
84	0x3f432e54	0.76242566
85	0xbf284051	-0.6572314
86	0x3ee5d882	0.44891745
87	0x3f93bf84	1.1542821
88	0xbed45f4d	-0.4147896
89	0xbce4f9b4	-0.027951099
90	0xbddbe86d	-0.10737691
91	0x3e4fc9c6	0.20291814
92	0x3e2dbccb	0.1696655
93	0xbe88522a	-0.26625186
94	0xbe980ce3	-0.29697332
95	0x3e7be114	0.24597579
96	0xbd204b20	-0.039134145
97	0x3b3a508c	0.0028429357
98	0xbc0cd3d3	-0.008595425
99	0xbed2ccf4	-0.41171992
100	0xb9fc155e	-0.00048081105
101	0x3dbdf518	0.092752635
102	0xba2bebd6	-0.00065582746
103	0xbe294d9e	-0.16533515
104	0x3ebe4d4b	0.37168345
105	0xbead0a93	-0.3379713
106	0xbe9dc0a5	-0.3081104
107	0x3eacf347	0.33779356
108	0xbee3cc13	-0.44491634
109	0xbecec992	-0.4038816
110	0xbec074b7	-0.37589046
111	0xbf02b669	-0.51059586
112	0x3de9dbc3	0.11418869
113	0x3e01c1e3	0.12671618
114	0x3d320e78	0.04347083
115	0x3e117b9a	0.14207307
116	0xbd8003da	-0.062507346
117	0x3d5ac746	0.0534127
118	0x3e9946c5	0.29936805
119	0x3e9bcb5e	0.30428594
120	0xbec3c2d4	-0.3823458
121	0x3e6525b4	0.22377664
122	0x3e450915	0.19241746
123	0x3eef10fb	0.46692643
124	0xbea1b689	-0.31584576
125	0xbe4a86f8	-0.19778049
126	0xbe11576e	-0.14193508
127	0xbf0823ae	-0.5317944

linear_mapper.grid f4 [16, 12]
0	0xc00ccccd	-2.2
1	0xbfe66666	-1.8
2	0xbfb33333	-1.4
3	0xbf800000	-1.0
4	0xbf19999a	-0.6
5	0xbe4ccccc	-0.19999999
6	0x3e4cccd0	0.20000005
7	0x3f19999a	0.6
8	0x3f800000	1.0
9	0x3fb33334	1.4000001
10	0x3fe66666	1.8
11	0x400ccccd	2.2
12	0xc00ccccd	-2.2
13	0xbfe66666	-1.8
14	0xbfb33333	-1.4
15	0xbf800000	-1.0
16	0xbf19999a	-0.6
17	0xbe4ccccc	-0.19999999
18	0x3e4cccd0	0.20000005
19	0x3f19999a	0.6
20	0x3f800000	1.0
21	0x3fb33334	1.4000001
22	0x3fe66666	1.8
23	0x400ccccd	2.2
24	0xc00ccccd	-2.2
25	0xbfe66666	-1.8
26	0xbfb33333	-1.4
27	0xbf800000	-1.0
28	0xbf19999a	-0.6
29	0xbe4ccccc	-0.19999999
30	0x3e4cccd0	0.20000005
31	0x3f19999a	0.6
32	0x3f800000	1.0
33	0x3fb33334	1.4000001
34	0x3fe66666	1.8
35	0x400ccccd	2.2
36	0xc00ccccd	-2.2
37	0xbfe66666	-1.8
38	0xbfb33333	-1.4
39	0xbf800000	-1.0
40	0xbf19999a	-0.6
41	0xbe4ccccc	-0.19999999
42	0x3e4cccd0	0.20000005
43	0x3f19999a	0.6
44	0x3f800000	1.0
45	0x3fb33334	1.4000001
46	0x3fe66666	1.8
47	0x400ccccd	2.2
48	0xc00ccccd	-2.2
49	0xbfe66666	-1.8
50	0xbfb33333	-1.4
51	0xbf800000	-1.0
52	0xbf19999a	-0.6
53	0xbe4ccccc	-0.19999999
54	0x3e4cccd0	0.20000005
55	0x3f19999a	0.6
56	0x3f800000	1.0
57	0x3fb33334	1.4000001
58	0x3fe66666	1.8
59	0x400ccccd	2.2
60	0xc00ccccd	-2.2
61	0xbfe66666	-1.8
62	0xbfb33333	-1.4
63	0xbf800000	-1.0
64	0xbf19999a	-0.6
65	0xbe4ccccc	-0.19999999
66	0x3e4cccd0	0.20000005
67	0x3f19999a	0.6
68	0x3f800000	1.0
69	0x3fb33334	1.4000001
70	0x3fe66666	1.8
71	0x400ccccd	2.2
72	0xc00ccccd	-2.2
73	0xbfe66666	-1.8
74	0xbfb33333	-1.4
75	0xbf800000	-1.0
76	0xbf19999a	-0.6
77	0xbe4ccccc	-0.19999999
78	0x3e4cccd0	0.20000005
79	0x3f19999a	0.6
80	0x3f800000	1.0
81	0x3fb33334	1.4000001
82	0x3fe66666	1.8
83	0x400ccccd	2.2
84	0xc00ccccd	-2.2
85	0xbfe66666	-1.8
86	0xbfb33333	-1.4
87	0xbf800000	-1.0
88	0xbf19999a	-0.6
89	0xbe4ccccc	-0.19999999
90	0x3e4cccd0	0.20000005
91	0x3f19999a	0.6
92	0x3f800000	1.0
93	0x3fb33334	1.4000001
94	0x3fe66666	1.8
95	0x400ccccd	2.2
96	0xc00ccccd	-2.2
97	0xbfe66666	-1.8
98	0xbfb33333	-1.4
99	0xbf800000	-1.0
100	0xbf19999a	-0.6
101	0xbe4ccccc	-0.19999999
102	0x3e4cccd0	0.20000005
103	0x3f19999a	0.6
104	0x3f800000	1.0
105	0x3fb33334	1.4000001
106	0x3fe66666	1.8
107	0x400ccccd	2.2
108	0xc00ccccd	-2.2
109	0xbfe66666	-1.8
110	0xbfb33333	-1.4
111	0xbf800000	-1.0
112	0xbf19999a	-0.6
113	0xbe4ccccc	-0.19999999
114	0x3e4cccd0	0.20000005
115	0x3f19999a	0.6
116	0x3f800000	1.0
117	0x3fb33334	1.4000001
118	0x3fe66666	1.8
119	0x400ccccd	2.2
120	0xc00ccccd	-2.2
121	0xbfe66666	-1.8
122	0xbfb33333	-1.4
123	0xbf800000	-1.0
124	0xbf19999a	-0.6
125	0xbe4ccccc	-0.19999999
126	0x3e4cccd0	0.20000005
127	0x3f19999a	0.6
128	0x3f800000	1.0
129	0x3fb33334	1.4000001
130	0x3fe66666	1.8
131	0x400ccccd	2.2
132	0xc00ccccd	-2.2
133	0xbfe66666	-1.8
134	0xbfb33333	-1.4
135	0xbf800000	-1.0
136	0xbf19999a	-0.6
137	0xbe4ccccc	-0.19999999
138	0x3e4cccd0	0.20000005
139	0x3f19999a	0.6
140	0x3f800000	1.0
141	0x3fb33334	1.4000001
142	0x3fe66666	1.8
143	0x400ccccd	2.2
144	0xc00ccccd	-2.2
145	0xbfe66666	-1.8
146	0xbfb33333	-1.4
147	0xbf800000	-1.0
148	0xbf19999a	-0.6
149	0xbe4ccccc	-0.19999999
150	0x3e4cccd0	0.20000005
151	0x3f19999a	0.6
152	0x3f800000	1.0
153	0x3fb33334	1.4000001
154	0x3fe66666	1.8
155	0x400ccccd	2.2
156	0xc00ccccd	-2.2
157	0xbfe66666	-1.8
158	0xbfb33333	-1.4
159	0xbf800000	-1.0
160	0xbf19999a	-0.6
161	0xbe4ccccc	-0.19999999
162	0x3e4cccd0	0.20000005
163	0x3f19999a	0.6
164	0x3f800000	1.0
165	0x3fb33334	1.4000001
166	0x3fe66666	1.8
167	0x400ccccd	2.2
168	0xc00ccccd	-2.2
169	0xbfe66666	-1.8
170	0xbfb33333	-1.4
171	0xbf800000	-1.0
172	0xbf19999a	-0.6
173	0xbe4ccccc	-0.19999999
174	0x3e4cccd0	0.20000005
175	0x3f19999a	0.6
176	0x3f800000	1.0
177	0x3fb33334	1.4000001
178	0x3fe66666	1.8
179	0x400ccccd	2.2
180	0xc00ccccd	-2.2
181	0xbfe66666	-1.8
182	0xbfb33333	-1.4
183	0xbf800000	-1.0
184	0xbf19999a	-0.6
185	0xbe4ccccc	-0.19999999
186	0x3e4cccd0	0.20000005
187	0x3f19999a	0.6
188	0x3f800000	1.0
189	0x3fb33334	1.4000001
190	0x3fe66666	1.8
191	0x400ccccd	2.2

blocks.0.q_mappings.0.base_weight f4 [4, 4]
0	0xbdb70b05	-0.08937649
1	0xbf65029a	-0.89457095
2	0x3e307212	0.17231014
3	0x3e28a634	0.16469651
4	0x3f07af3b	0.53001755
5	0xbe866e24	-0.26255906
6	0x3ef912ef	0.48647258
7	0xbde619fe	-0.11235426
8	0xbf2fc535	-0.6866029
9	0x3ed07aad	0.40718594
10	0xbee15e31	-0.44017175
11	0x3e690170	0.22754455
12	0xbd615e6f	-0.0550217
13	0xbef0863b	-0.4697741
14	0xbe86ea2f	-0.26350543
15	0x3de4925d	0.11160729

blocks.0.q_mappings.0.spline_weight f4 [4, 4, 8]
0	0xbf4334b2	-0.7625228
1	0xbf13aa90	-0.5768213
2	0x3eceec76	0.4041478
3	0x3eff1c8b	0.49826464
4	0xbdd767b4	-0.10517827
5	0xbec62c6a	-0.3870576
6	0xbe2fc3b1	-0.17164494
7	0x3eb0064c	0.34379804
8	0x3e1fb972	0.15598086
9	0xbdb48522	-0.088144556
10	0xbf0ea638	-0.5572238
11	0xbf0a4cf0	-0.5402365
12	0xbe9a1d16	-0.30100316
13	0xbf8a108e	-1.0786302
14	0x3ed731bc	0.42030132
15	0x3f4eefc4	0.80834603
16	0x3f59ed2f	0.8512754
17	0x3e65cfa8	0.22442496
18	0x3e8bf33a	0.27334005
19	0xbea048c7	-0.31305525
20	0xbd99147a	-0.07474609
21	0x3efe12ea	0.49623805
22	0x3f890aee	1.070646
23	0xbea5734d	-0.3231453
24	0x3f650fc5	0.8947719
25	0x3f1ddca6	0.6166481
26	0xbf06b236	-0.5261568
27	0x3d1785fc	0.03699301
28	0x3cd214bd	0.025644654
29	0x3d824507	0.06360822
30	0x3efdea00	0.4959259
31	0x3ec6665e	0.38749975
32	0xbea0876c	-0.3135332
33	0xbe14e557	-0.14540611
34	0x3e8187e0	0.25298977
35	0x3cf8fdfc	0.030394547
36	0xbd460471	-0.04834408
37	0xbe792f28	-0.24334395
38	0x3e009429	0.12556519
39	0x3ff33fc7	1.9003838
40	0x3ee6bdd3	0.450667
41	0x3ed6796c	0.41889513
42	0xbe6db80b	-0.23214738
43	0xbd9668f8	-0.0734424
44	0x3db66c9b	0.089074336
45	0x3f26d506	0.651688
46	0xbdc75da3	-0.09734657
47	0xbc6cb6f5	-0.014447917
48	0x3f708857	0.9395804
49	0x3ee2789d	0.44232646
50	0x3eb411ec	0.35169923
51	0x3dc0467f	0.09388446
52	0xbdec3a77	-0.11534589
53	0x3d80521b	0.062656604
54	0x3e46879a	0.19387665
55	0xbf96b4e4	-1.1773953
56	0xbfb531ce	-1.4155824
57	0xbf86a6a5	-1.0519606
58	0x3ebb78bf	0.3661556
59	0xbe8e9324	-0.27846634
60	0xbe2ae55a	-0.16689053
61	0x3e06fca3	0.13182311
62	0xbda4fee5	-0.0805643
63	0xbe25ac31	-0.16178967
64	0x3e899bf7	0.26876804
65	0x3ddc8f34	0.10769501
66	0xbe284722	-0.16433385
67	0x3d9b192e	0.07573162
68	0x3e5d3f4f	0.21606182
69	0x3eb2e40b	0.34939608
70	0xbe81d273	-0.25355873
71	0xc00cae39	-2.1981337
72	0xbdac7380	-0.084204674
73	0x3d13afd0	0.03605634
74	0x3e456024	0.19274956
75	0xbe753e0b	-0.23949449
76	0xbf022ba3	-0.50847834
77	0xbfcd9567	-1.6061219
78	0xbd92b78e	-0.071639165
79	0x3d7ff391	0.062488142
80	0xbf7f3210	-0.99685764
81	0xbef7b2d3	-0.4837862
82	0xbeb3378d	-0.3500332
83	0xbe79c41a	-0.24391213
84	0x3cbff405	0.023431787
85	0xbde935b6	-0.11387198
86	0x3dccd813	0.100021504
87	0x3fac92a1	1.3482248
88	0x3f87cb51	1.0608922
89	0x3f3d7c19	0.74017483
90	0xbdb8cf42	-0.09023906
91	0x3d616096	0.055023752
92	0xbc692a72	-0.014231311
93	0xbb89619d	-0.0041925446
94	0x3d02efaf	0.03196686
95	0x3ddccd19	0.10781307
96	0x3e40572f	0.18783258
97	0xbd93da36	-0.07219355
98	0xbeeda221	-0.46412757
99	0xbd352835	-0.044227798
100	0x3e4d4c77	0.200487
101	0x3f3d0dfb	0.7384946
102	0x3ebf5e35	0.37376562
103	0xc01559ee	-2.3336139
104	0x3ee93191	0.4554563
105	0x3e495b48	0.19663727
106	0x3e6a57f2	0.22885111
107	0x3e2a8bf4	0.1665495
108	0x3e06b8c8	0.13156426
109	0xbf5b77cf	-0.8572969
110	0xba836446	-0.0010024391
111	0xbc2554c9	-0.010091015
112	0xbf1715c0	-0.5901756
113	0xbe0b57f1	-0.13607766
114	0xbcbceacd	-0.02306118
115	0xbe840b23	-0.25789747
116	0xbd5d676a	-0.0540537
117	0x3a8c56d9	0.0010707035
118	0x3e33c951	0.17557265
119	0x3f9f666e	1.2453134
120	0x3fccea5e	1.6009023
121	0x3f7e3514	0.9929974
122	0xbeb51cdb	-0.35373577
123	0x3e1fec45	0.15617473
124	0x3e266fb8	0.16253555
125	0xbdcfe607	-0.10151296
126	0xbcbe952e	-0.023264494
127	0xbc61d9cb	-0.013784836

blocks.0.q_mappings.0.spline_scaler f4 [4, 4]
0	0x3f064ca8	0.5246072
1	0xbf75ccfc	-0.96015906
2	0xbf0d969c	-0.55307937
3	0xbecbf2e0	-0.39833736
4	0x3e6ecf62	0.23321298
5	0xbcc262ac	-0.023728691
6	0xbf2daba6	-0.6784004
7	0x3e47b758	0.19503534
8	0x3e93194e	0.28730243
9	0x3e6d76fe	0.23189923
10	0xbf199f70	-0.6000891
11	0x3c0ef9ab	0.008726518
12	0x3f9bb4ec	1.2164588
13	0x3e774b24	0.24149758
14	0xbee27158	-0.442271
15	0x3d0eeb89	0.034892593

blocks.0.q_mappings.0.grid f4 [4, 12]
0	0xc00ccccd	-2.2
1	0xbfe66666	-1.8
2	0xbfb33333	-1.4
3	0xbf800000	-1.0
4	0xbf19999a	-0.6
5	0xbe4ccccc	-0.19999999
6	0x3e4cccd0	0.20000005
7	0x3f19999a	0.6
8	0x3f800000	1.0
9	0x3fb33334	1.4000001
10	0x3fe66666	1.8
11	0x400ccccd	2.2
12	0xc00ccccd	-2.2
13	0xbfe66666	-1.8
14	0xbfb33333	-1.4
15	0xbf800000	-1.0
16	0xbf19999a	-0.6
17	0xbe4ccccc	-0.19999999
18	0x3e4cccd0	0.20000005
19	0x3f19999a	0.6
20	0x3f800000	1.0
21	0x3fb33334	1.4000001
22	0x3fe66666	1.8
23	0x400ccccd	2.2
24	0xc00ccccd	-2.2
25	0xbfe66666	-1.8
26	0xbfb33333	-1.4
27	0xbf800000	-1.0
28	0xbf19999a	-0.6
29	0xbe4ccccc	-0.19999999
30	0x3e4cccd0	0.20000005
31	0x3f19999a	0.6
32	0x3f800000	1.0
33	0x3fb33334	1.4000001
34	0x3fe66666	1.8
35	0x400ccccd	2.2
36	0xc00ccccd	-2.2
37	0xbfe66666	-1.8
38	0xbfb33333	-1.4
39	0xbf800000	-1.0
40	0xbf19999a	-0.6
41	0xbe4ccccc	-0.19999999
42	0x3e4cccd0	0.20000005
43	0x3f19999a	0.6
44	0x3f800000	1.0
45	0x3fb33334	1.4000001
46	0x3fe66666	1.8
47	0x400ccccd	2.2

blocks.0.q_mappings.1.base_weight f4 [4, 4]
0	0x3de52270	0.11188209
1	0x3f0d056b	0.5508639
2	0x3d380849	0.044929776
3	0x3f0ce62b	0.5503871
4	0xbe79d175	-0.24396308
5	0x3f3884fb	0.7207791
6	0xbf07c44c	-0.530339
7	0x3e2eabf4	0.17057782
8	0xbf04fa72	-0.5194465
9	0xbeee3ac1	-0.465292
10	0x3f374f2b	0.71605176
11	0xbdbdb95c	-0.0926387
12	0x3ca4ce79	0.020117985
13	0x3eac4fbb	0.3365458
14	0x3dfa7cdf	0.122308485
15	0x3ec50f13	0.38488063

blocks.0.q_mappings.1.spline_weight f4 [4, 4, 8]
0	0xbe60d8ae	-0.21957657
1	0xbe09717e	-0.134222
2	0x3c21c6a6	0.009874022
3	0x3d090784	0.033454433
4	0xbeb9f049	-0.36316136
5	0x3f1ae20d	0.60501176
6	0x3f34ae18	0.70578146
7	0xbe7902fb	-0.24317543
8	0x3ebc9694	0.36833632
9	0xbdd737a2	-0.10508658
10	0xbe4c69a0	-0.19962168
11	0xbedb1c59	-0.42795065
12	0xbf833988	-1.0251932
13	0x3d5daf24	0.054122105
14	0x3ee2fb75	0.4433247
15	0x3e17d380	0.14826775
16	0xbcaa53c1	-0.02079189
17	0xbf2523b2	-0.6450759
18	0xbecbfcce	-0.39841312
19	0xbe20a7d1	-0.15689017
20	0xbe809d39	-0.2511995
21	0xbdacc03f	-0.084351055
22	0x3eb08b02	0.34481055
23	0x3e54ac8c	0.20768946
24	0x3eeaf12e	0.4588713
25	0x3ef8a1e5	0.48561016
26	0x3f26395f	0.6493129
27	0x3f5a0217	0.8515944
28	0x3f75f6ed	0.96079904
29	0x3f90e604	1.1320195
30	0x3f2af522	0.66780293
31	0x3d51dcc1	0.051235918
32	0x3e521eaa	0.2051951
33	0xbbf711fc	-0.0075399857
34	0xbe6ffc14	-0.23436004
35	0xbee62d61	-0.44956496
36	0x3d8544c8	0.065072596
37	0xbf437504	-0.76350427
38	0xbf3c577d	-0.73570997
39	0x3e9d41b9	0.30714205
40	0x3ef7d492	0.48404366
41	0x3ce4d2a2	0.027932469
42	0xbe8d65cd	-0.2761673
43	0xbf02ffb8	-0.51171446
44	0xbf83f126	-1.0307968
45	0xbe2a30e7	-0.16620217
46	0x3e78768b	0.2426397
47	0xbd6b40e2	-0.057434924
48	0x3e4cef68	0.20013201
49	0x3f1b349a	0.6062714
50	0x3da9f524	0.0829871
51	0xbd5bce05	-0.053663272
52	0x3dd95bfd	0.106132485
53	0xbddcaf8d	-0.10775671
54	0xbe44248b	-0.19154565
55	0x3cdc0609	0.026858347
56	0x3d6afb3b	0.0573685
57	0x3edb0e9c	0.42784584
58	0x3ee9cbf5	0.4566342
59	0x3f04d3c6	0.5188564
60	0x3f1846af	0.59482855
61	0x3f345029	0.70434815
62	0x3f08fd82	0.5351182
63	0x3d25a653	0.040441822
64	0x3ed3ca00	0.4136505
65	0x3e21b015	0.15789826
66	0xbde9895f	-0.114031546
67	0xbe852688	-0.2600596
68	0x3e3b047f	0.18263434
69	0xbf046df8	-0.517303
70	0xbeea8218	-0.4580238
71	0x3e968df8	0.2940519
72	0x3f07e7b5	0.5308793
73	0x3e0f977c	0.1402263
74	0xbd9d9711	-0.07694829
75	0xbeb3c0d1	-0.35108045
76	0xbf82288b	-1.0168623
77	0xbaada76d	-0.0013248749
78	0x3f0d563f	0.55209726
79	0x3de17ffa	0.11010738
80	0x3c552339	0.013008886
81	0x3f38e038	0.7221713
82	0x3e5cfe85	0.21581466
83	0x3dcc78c9	0.099839754
84	0xbf12b0e0	-0.5730114
85	0xbe2ae1c5	-0.16687687
86	0x3ba2bd7b	0.0049664355
87	0x3e101cba	0.14073458
88	0xbe970654	-0.29497015
89	0xbe6e489c	-0.23269886
90	0x3e48935c	0.19587463
91	0x3eced5a5	0.40397373
92	0x3f141284	0.5784075
93	0x3f3d0908	0.73841906
94	0x3f328515	0.6973432
95	0x3e92b45b	0.28653225
96	0xbeadb408	-0.33926415
97	0xbe7b6ed4	-0.24553996
98	0x3d80f30f	0.0629636
99	0x3eed02d1	0.4629121
100	0xbdc4bcb1	-0.096063025
101	0x3f1514eb	0.58235043
102	0x3f087a29	0.533114
103	0xbe97dfde	-0.29662985
104	0x3e5a9898	0.21347272
105	0xbe714609	-0.23561873
106	0xbe85a1ba	-0.2609995
107	0xbef7c16b	-0.48389754
108	0xbf8914fa	-1.0709527
109	0x3b8da63f	0.0043227966
110	0x3ed2c2c6	0.41164225
111	0x3e32854e	0.17433664
112	0xbd169db1	-0.03677148
113	0x3edd11ba	0.43177587
114	0x3ec9494d	0.39313737
115	0x3e0d1930	0.1377914
116	0x3e2a6815	0.16641267
117	0xbd0aa83c	-0.033851847
118	0xbe978cd0	-0.2959962
119	0xbe46b1d5	-0.19403775
120	0xbf0c0d61	-0.54707915
121	0xbe6cd2f6	-0.2312735
122	0xbef7a8aa	-0.48370868
123	0xbf3ff400	-0.7498169
124	0xbf51bcfb	-0.81928986
125	0xbf788339	-0.9707523
126	0xbf099f76	-0.53758943
127	0xbd48d0a7	-0.04902711

blocks.0.q_mappings.1.spline_scaler f4 [4, 4]
0	0x3de6a391	0.112616666
1	0x3eebb812	0.46038872
2	0xbefc4463	-0.49270925
3	0x3f59fe84	0.85153985
4	0x3e305422	0.17219594
5	0x3e7bbfa6	0.24584827
6	0xbd60867f	-0.054815765
7	0x3e947b20	0.29000187
8	0xbe3d2071	-0.18469407
9	0xbedd7cbc	-0.43259227
10	0x3d3ceb57	0.046122875
11	0xbf201da7	-0.62545246
12	0xbe1371da	-0.143989
13	0x3f1bdc51	0.6088305
14	0x3eba9eff	0.3644943
15	0xbf469b67	-0.77580875

blocks.0.q_mappings.1.grid f4 [4, 12]
0	0xc00ccccd	-2.2
1	0xbfe66666	-1.8
2	0xbfb33333	-1.4
3	0xbf800000	-1.0
4	0xbf19999a	-0.6
5	0xbe4ccccc	-0.19999999
6	0x3e4cccd0	0.20000005
7	0x3f19999a	0.6
8	0x3f800000	1.0
9	0x3fb33334	1.4000001
10	0x3fe66666	1.8
11	0x400ccccd	2.2
12	0xc00ccccd	-2.2
13	0xbfe66666	-1.8
14	0xbfb33333	-1.4
15	0xbf800000	-1.0
16	0xbf19999a	-0.6
17	0xbe4ccccc	-0.19999999
18	0x3e4cccd0	0.20000005
19	0x3f19999a	0.6
20	0x3f800000	1.0
21	0x3fb33334	1.4000001
22	0x3fe66666	1.8
23	0x400ccccd	2.2
24	0xc00ccccd	-2.2
25	0xbfe66666	-1.8
26	0xbfb33333	-1.4
27	0xbf800000	-1.0
28	0xbf19999a	-0.6
29	0xbe4ccccc	-0.19999999
30	0x3e4cccd0	0.20000005
31	0x3f19999a	0.6
32	0x3f800000	1.0
33	0x3fb33334	1.4000001
34	0x3fe66666	1.8
35	0x400ccccd	2.2
36	0xc00ccccd	-2.2
37	0xbfe66666	-1.8
38	0xbfb33333	-1.4
39	0xbf800000	-1.0
40	0xbf19999a	-0.6
41	0xbe4ccccc	-0.19999999
42	0x3e4cccd0	0.20000005
43	0x3f19999a	0.6
44	0x3f800000	1.0
45	0x3fb33334	1.4000001
46	0x3fe66666	1.8
47	0x400ccccd	2.2

blocks.0.k_mappings.0.base_weight f4 [4, 4]
0	0xbe8e41da	-0.27784616
1	0xbe8f6321	-0.28005317
2	0x3f05e215	0.522981
3	0x3f6cc0ea	0.92481863
4	0x3f6129a5	0.8795417
5	0x3d1d2f8f	0.038375434
6	0x3f316038	0.69287443
7	0x3f5b148b	0.8557822
8	0xbf628b62	-0.8849393
9	0xbf1fe516	-0.6245893
10	0xbe78f749	-0.24313082
11	0xbe1e7bcf	-0.15476917
12	0xbf158235	-0.58401805
13	0x3d133a15	0.035944063
14	0xbc12139d	-0.008915809
15	0x3e37842c	0.17921513

blocks.0.k_mappings.0.spline_weight f4 [4, 4, 8]
0	0xbf132b64	-0.57488084
1	0xbe3d6141	-0.1849413
2	0xbfb6b755	-1.4274698
3	0xbed06e39	-0.40709093
4	0x3ffc6e2f	1.9721125
5	0x3f7eca56	0.9952749
6	0x3fbce1a2	1.4756358
7	0xbeeec25c	-0.4663266
8	0xbf440333	-0.7656738
9	0xbf6e2607	-0.93026775
10	0xbfb2fb6a	-1.3982975
11	0xbfac3423	-1.3453411
12	0xbfe2417b	-1.7676233
13	0xbfb5a066	-1.4189575
14	0xbfa0a244	-1.254952
15	0xbf401a84	-0.7504046
16	0x3f9edd7c	1.2411342
17	0xbf497c24	-0.7870505
18	0xbde6a436	-0.112617895
19	0x3dfbcb02	0.1229458
20	0x3ef60d0f	0.48056838
21	0xbe672bcb	-0.225753
22	0xbf3e6a5e	-0.74381053
23	0xbd0d8c65	-0.03455772
24	0x3fda2b38	1.7044439
25	0x3f5e43b1	0.8682204
26	0xbe8969a4	-0.2683841
27	0x3f491981	0.7855454
28	0xbeffe3c9	-0.49978474
29	0xbe7780ba	-0.24170199
30	0x3f18d687	0.5970234
31	0x3f2dc595	0.6787961
32	0xbec9a4a5	-0.39383426
33	0x3e4329bc	0.19058889
34	0x3e6210ca	0.22076717
35	0xbf2605e7	-0.64852756
36	0x3f7d4285	0.98929626
37	0xbf291759	-0.6605125
38	0x3eb460f2	0.35230213
39	0xbef6bb5e	-0.48189825
40	0xbd8daabe	-0.06917332
41	0x3e0cc8d4	0.13748485
42	0x3de85d11	0.11345876
43	0xbc9b2644	-0.018939145
44	0x3ded7522	0.11594607
45	0x3c99f528	0.018793657
46	0xbdfab36b	-0.122412525
47	0xbe3c811c	-0.18408626
48	0xbf41ae66	-0.75656736
49	0xbe84e79f	-0.25957963
50	0xbe1ac718	-0.1511501
51	0x3eb2963d	0.34880248
52	0x3f77fe4a	0.9687239
53	0x3f857dab	1.0428976
54	0x3f8dfaaf	1.1092128
55	0x3f6ae14a	0.91750014
56	0x3f80e851	1.0070897
57	0xbf9160ca	-1.1357663
58	0xbf8f86e7	-1.1213044
59	0x3eb145dc	0.3462361
60	0x3dbf4706	0.093397185
61	0xbfc01402	-1.5006106
62	0xbea17d02	-0.31540686
63	0x3ec5467a	0.38530332
64	0xbeec2745	-0.4612371
65	0x3e1a09cd	0.15042801
66	0x3e5df23d	0.21674438
67	0xbf31b382	-0.6941453
68	0x3e6a0fb4	0.22857553
69	0xbf79c786	-0.97570074
70	0x3eee727c	0.4657172
71	0xbf3573e5	-0.70879966
72	0xbebf358f	-0.3734555
73	0xbcf1d917	-0.029522462
74	0x3d23bdf9	0.039976094
75	0xbde436f5	-0.11143295
76	0x3de8994e	0.113573655
77	0x3d9137d9	0.0709073
78	0xbdfa8197	-0.122317486
79	0xbe5fb732	-0.21847227
80	0xbf78a508	-0.9712682
81	0xbebb280b	-0.36553988
82	0xbde84eab	-0.1134313
83	0x3ef49a53	0.4777399
84	0x3f64b319	0.8933578
85	0x3f6d92c0	0.9280205
86	0x3f81ea0a	1.0149548
87	0x3f2d5252	0.67703736
88	0x3f96a1c3	1.1768116
89	0xbf7334d9	-0.95002514
90	0xbf883288	-1.0640421
91	0x3ee27ec8	0.4423735
92	0x3d5bedba	0.05369351
93	0xbfb5ba46	-1.4197471
94	0xbeb32121	-0.34986213
95	0x3eb263e0	0.34841824
96	0xbf4876ba	-0.7830616
97	0x3d988a5b	0.07448264
98	0x3efb0665	0.49028316
99	0xbf65b624	-0.8973105
100	0x3d3c3af1	0.04595465
101	0xbe972325	-0.29519
102	0x3f3e7f5b	0.7441308
103	0x3f2e2208	0.6802068
104	0xbf82fe66	-1.0233886
105	0xbf85aaa7	-1.0442704
106	0xbf25592f	-0.6458921
107	0xbe87f2d5	-0.26552454
108	0xbd4200c2	-0.047364004
109	0xbc066d4b	-0.008204768
110	0xbc9aa13d	-0.018875713
111	0x3e43feb5	0.19140132
112	0x3f56e60e	0.83944786
113	0xbe018073	-0.12646656
114	0xbe769341	-0.2407961
115	0xbdd8886a	-0.10572894
116	0x3ed4815f	0.41504952
117	0xbf41f909	-0.7577062
118	0xbf4a9937	-0.7914004
119	0xbea0853a	-0.31351644
120	0xbd677ebb	-0.056517344
121	0xbe488562	-0.19582132
122	0x3e0895e1	0.13338424
123	0x3d91ce5f	0.0711944
124	0xbe565ada	-0.20933095
125	0x3dc23e6c	0.09484562
126	0x3da19205	0.07889179
127	0xbeb33b5a	-0.3500622

blocks.0.k_mappings.0.spline_scaler f4 [4, 4]
0	0xbff43992	-1.9080069
1	0xc0038949	-2.0552542
2	0xbff742be	-1.9317243
3	0xbfa598c8	-1.293725
4	0xbf612211	-0.87942606
5	0xbc7718a4	-0.015081558
6	0x3f8746d6	1.0568492
7	0xbfaa2e49	-1.3295375
8	0x3f3f4276	0.74710786
9	0x3e218b62	0.15775827
10	0xbf8d177b	-1.1022791
11	0x3fca0c42	1.5784991
12	0x3f98c748	1.1935816
13	0xbf49c0e4	-0.7880995
14	0xbf757944	-0.9588816
15	0x3d563eb8	0.052305907

blocks.0.k_mappings.0.grid f4 [4, 12]
0	0xc00ccccd	-2.2
1	0xbfe66666	-1.8
2	0xbfb33333	-1.4
3	0xbf800000	-1.0
4	0xbf19999a	-0.6
5	0xbe4ccccc	-0.19999999
6	0x3e4cccd0	0.20000005
7	0x3f19999a	0.6
8	0x3f800000	1.0
9	0x3fb33334	1.4000001
10	0x3fe66666	1.8
11	0x400ccccd	2.2
12	0xc00ccccd	-2.2
13	0xbfe66666	-1.8
14	0xbfb33333	-1.4
15	0xbf800000	-1.0
16	0xbf19999a	-0.6
17	0xbe4ccccc	-0.19999999
18	0x3e4cccd0	0.20000005
19	0x3f19999a	0.6
20	0x3f800000	1.0
21	0x3fb33334	1.4000001
22	0x3fe66666	1.8
23	0x400ccccd	2.2
24	0xc00ccccd	-2.2
25	0xbfe66666	-1.8
26	0xbfb33333	-1.4
27	0xbf800000	-1.0
28	0xbf19999a	-0.6
29	0xbe4ccccc	-0.19999999
30	0x3e4cccd0	0.20000005
31	0x3f19999a	0.6
32	0x3f800000	1.0
33	0x3fb33334	1.4000001
34	0x3fe66666	1.8
35	0x400ccccd	2.2
36	0xc00ccccd	-2.2
37	0xbfe66666	-1.8
38	0xbfb33333	-1.4
39	0xbf800000	-1.0
40	0xbf19999a	-0.6
41	0xbe4ccccc	-0.19999999
42	0x3e4cccd0	0.20000005
43	0x3f19999a	0.6
44	0x3f800000	1.0
45	0x3fb33334	1.4000001
46	0x3fe66666	1.8
47	0x400ccccd	2.2

blocks.0.k_mappings.1.base_weight f4 [4, 4]
0	0xbf291925	-0.6605399
1	0x3cd477c7	0.02593602
2	0x3e99d0fc	0.30042255
3	0xbe4640bf	-0.19360636
4	0xbe9116bf	-0.28337666
5	0x3e9c40a1	0.30518058
6	0x3f53b220	0.8269367
7	0xbf1d3fee	-0.61425674
8	0x3f028884	0.50989556
9	0xbeb0bb10	-0.34517717
10	0xbef90524	-0.48636734
11	0x3e14828f	0.14502929
12	0xbf03680a	-0.51330626
13	0xbe2a9aba	-0.16660586
14	0x3f344148	0.7041211
15	0xbe052ac2	-0.13004592

blocks.0.k_mappings.1.spline_weight f4 [4, 4, 8]
0	0xbd82350b	-0.063577734
1	0x3d641444	0.05568339
2	0x3e57b75f	0.21066044
3	0x3e9a97ed	0.30194035
4	0x3e90a372	0.282497
5	0x3e86993a	0.26288778
6	0xbef0823a	-0.46974355
7	0xbfa2b71d	-1.2712132
8	0x3d797345	0.060900945
9	0x3c4b5f9c	0.012412932
10	0xbd74efa8	-0.059798867
11	0x3ac7144f	0.0015188548
12	0xbe216d13	-0.15764265
13	0x3cf24131	0.029572101
14	0x3f4da986	0.803368
15	0x3e8756c0	0.26433372
16	0x3e0dff70	0.13866973
17	0xbf1084db	-0.5645272
18	0xbeb80348	-0.35940003
19	0xbf1d1b7a	-0.6137005
20	0x3ed94c50	0.42441034
21	0x3e58eefc	0.21184915
22	0x3e3f958d	0.18709393
23	0xbf55e6fa	-0.8355557
24	0x3f717160	0.9431362
25	0x3de14ccb	0.11000975
26	0xbe3bfbde	-0.18357798
27	0xbea2fc2b	-0.31833014
28	0x3e5532e9	0.20820202
29	0x3e8ec8eb	0.27887663
30	0x3e278dcc	0.16362685
31	0xbe2fedc3	-0.17180543
32	0xbed0dac9	-0.4079192
33	0xbe636e83	-0.22210126
34	0xbe1d9de5	-0.15392263
35	0xbe91baba	-0.28462774
36	0xbe3e5987	-0.1858884
37	0xbeee3c64	-0.4653045
38	0x3e98dd67	0.29856417
39	0x3fa9d97e	1.3269498
40	0xbdca0c0b	-0.09865578
41	0xbe663b98	-0.2248367
42	0x3cfa6ef2	0.030570481
43	0x3dd0c0d5	0.1019303
44	0x3ec3b58f	0.38224456
45	0x3e14acbb	0.14519016
46	0xbf8e3312	-1.1109335
47	0xbd81e15d	-0.06341813
48	0xbd571377	-0.052508797
49	0x3f515a1f	0.8177814
50	0x3ee1a8e1	0.44074157
51	0x3f13c039	0.57715183
52	0xbec63956	-0.3871562
53	0xbf59d81e	-0.85095394
54	0xbf3c3a80	-0.73526764
55	0x3f2d1e12	0.6762401
56	0xbf0fa01b	-0.56103677
57	0x3e8b3e4c	0.27195966
58	0x3f4828ee	0.78187454
59	0x3f55812a	0.83400214
60	0xbe30cbd3	-0.17265253
61	0xbeb642dd	-0.35597888
62	0xbe9a25bf	-0.30106923
63	0xbc006544	-0.007836644
64	0xbd135e8f	-0.03597885
65	0xbdb66b2a	-0.08907159
66	0xbe3e23bf	-0.18568324
67	0xbe85cbda	-0.2613209
68	0xbe7fbb45	-0.24973781
69	0xbe7f5822	-0.24935964
70	0x3ed08536	0.40726632
71	0x3fa247b8	1.2678137
72	0xbcebc63a	-0.028781045
73	0xbdfe90b7	-0.12429946
74	0x3cfbfa97	0.030759139
75	0x3d3bf779	0.045890305
76	0x3e6f4d7d	0.23369403
77	0xbc8e606f	-0.017379967
78	0xbf4f03cf	-0.80865186
79	0xbe47ac35	-0.19499286
80	0x3e26fe5b	0.16307966
81	0xbf1a7ba6	-0.6034492
82	0xbebc44de	-0.36771291
83	0xbf303698	-0.68833303
84	0x3ed8e30a	0.42360717
85	0x3ebd04db	0.36917767
86	0x3e99c7d0	0.30035257
87	0xbf51ff2d	-0.8202999
88	0x3f456af6	0.77116334
89	0x3b3ee84a	0.0029130154
90	0xbeb112b9	-0.34584597
91	0xbeeded58	-0.4647014
92	0x3e46ac8d	0.1940176
93	0x3e9bd240	0.30433846
94	0x3e1b79e8	0.15183222
95	0xbe2a8ae8	-0.16654551
96	0x3e22efb7	0.15911756
97	0xbc4bfbdc	-0.012450185
98	0xbe779314	-0.241772
99	0xbe9b4663	-0.30327138
100	0xbe8ff5f0	-0.28117323
101	0xbe737e08	-0.23778546
102	0x3f008e92	0.50217545
103	0x3fa004e0	1.2501488
104	0xbda2d040	-0.07949877
105	0xbe178868	-0.14798129
106	0xbe6e7d5e	-0.23290011
107	0x3beabbb1	0.007163488
108	0xbe0bd111	-0.13653971
109	0x3d0e038d	0.034671355
110	0x3f927ff5	1.1445299
111	0x3e4da06d	0.20080729
112	0x3dd49c17	0.10381334
113	0xbeff2465	-0.49832454
114	0xbe8bea66	-0.2732727
115	0xbf095995	-0.53652316
116	0x3eb508bd	0.3535823
117	0x3dca88b1	0.09889353
118	0x3de0f72c	0.10984644
119	0xbf45f5a5	-0.7732795
120	0x3f86cbb2	1.0530913
121	0x3e7ed849	0.24887194
122	0xbceecb1d	-0.029149586
123	0xbe5a2c85	-0.21306045
124	0x3e67192e	0.22568199
125	0x3e7febb8	0.24992263
126	0x3e12d6b7	0.1433972
127	0xbe20ee09	-0.15715803

blocks.0.k_mappings.1.spline_scaler f4 [4, 4]
0	0x3ee77b24	0.45211136
1	0x3e754f9f	0.23956154
2	0x3f3e9734	0.7444947
3	0x3ed199e9	0.40937737
4	0xbf26c283	-0.6514055
5	0xbefc2870	-0.492496
6	0xbf1122fa	-0.56693995
7	0xbf17dbba	-0.5931965
8	0x3eda891f	0.4268274
9	0x3e8c0535	0.27347723
10	0xbf30f6e1	-0.6912671
11	0xbec61761	-0.38689712
12	0xbefb2235	-0.49049535
13	0x3f494428	0.78619623
14	0x3ed87079	0.4227331
15	0x3f01a54d	0.50642854

blocks.0.k_mappings.1.grid f4 [4, 12]
0	0xc00ccccd	-2.2
1	0xbfe66666	-1.8
2	0xbfb33333	-1.4
3	0xbf800000	-1.0
4	0xbf19999a	-0.6
5	0xbe4ccccc	-0.19999999
6	0x3e4cccd0	0.20000005
7	0x3f19999a	0.6
8	0x3f800000	1.0
9	0x3fb33334	1.4000001
10	0x3fe66666	1.8
11	0x400ccccd	2.2
12	0xc00ccccd	-2.2
13	0xbfe66666	-1.8
14	0xbfb33333	-1.4
15	0xbf800000	-1.0
16	0xbf19999a	-0.6
17	0xbe4ccccc	-0.19999999
18	0x3e4cccd0	0.20000005
19	0x3f19999a	0.6
20	0x3f800000	1.0
21	0x3fb33334	1.4000001
22	0x3fe66666	1.8
23	0x400ccccd	2.2
24	0xc00ccccd	-2.2
25	0xbfe66666	-1.8
26	0xbfb33333	-1.4
27	0xbf800000	-1.0
28	0xbf19999a	-0.6
29	0xbe4ccccc	-0.19999999
30	0x3e4cccd0	0.20000005
31	0x3f19999a	0.6
32	0x3f800000	1.0
33	0x3fb33334	1.4000001
34	0x3fe66666	1.8
35	0x400ccccd	2.2
36	0xc00ccccd	-2.2
37	0xbfe66666	-1.8
38	0xbfb33333	-1.4
39	0xbf800000	-1.0
40	0xbf19999a	-0.6
41	0xbe4ccccc	-0.19999999
42	0x3e4cccd0	0.20000005
43	0x3f19999a	0.6
44	0x3f800000	1.0
45	0x3fb33334	1.4000001
46	0x3fe66666	1.8
47	0x400ccccd	2.2

blocks.0.v_mappings.0.base_weight f4 [4, 4]
0	0xbeb6e769	-0.35723427
1	0x3daf88e5	0.085710324
2	0x3f0b1abf	0.54337686
3	0x3eb20f53	0.34777316
4	0xbeb309a3	-0.3496829
5	0xbf9892a5	-1.1919752
6	0xbf0f5610	-0.55990696
7	0x3ddb1069	0.10696489
8	0x3eb73f6b	0.35790572
9	0x3fcec9e4	1.6155362
10	0x3f2b0299	0.6680084
11	0x3ed55908	0.41669488
12	0xbc90957f	-0.01764941
13	0xbfa190db	-1.2622331
14	0xbf716239	-0.942905
15	0xbed9bc90	-0.42526674

blocks.0.v_mappings.0.spline_weight f4 [4, 4, 8]
0	0x3ec1bb91	0.37838414
1	0x3dd56522	0.1041968
2	0x3df8d1d1	0.12149394
3	0x3e51cc89	0.2048818
4	0x3d5d4ef8	0.05403039
5	0x3f38c4a6	0.7217506
6	0x3e996d82	0.2996636
7	0xbeff16e0	-0.4982214
8	0xbec795b7	-0.3898141
9	0xbf01b383	-0.5066454
10	0xbeddca45	-0.43318382
11	0xbf285a99	-0.6576324
12	0xbf69c63b	-0.913181
13	0xbf64178a	-0.8909842
14	0xbf161026	-0.5861839
15	0xbe858773	-0.26079902
16	0xbf984992	-1.1897452
17	0x3e9ae78e	0.30254787
18	0x3ed4f57a	0.41593534
19	0x3f194139	0.59865147
20	0x3ec5daff	0.38643643
21	0xbc4d5900	-0.012533426
22	0x3e850d3c	0.2598666
23	0x3e63f0ad	0.2225978
24	0xbfef028d	-1.8672653
25	0xbf160cc6	-0.5861324
26	0xbf4daacd	-0.80338746
27	0x3d04c04e	0.03240996
28	0xbe87bff1	-0.26513627
29	0xbe59d0b1	-0.21271016
30	0x3f392237	0.7231783
31	0x3fa1c033	1.263678
32	0x3e230324	0.15919167
33	0x3e8922e1	0.26784423
34	0xbca3e567	-0.020006848
35	0xbe9fd1b3	-0.31214675
36	0xbdfa5190	-0.12222588
37	0xbeafa66a	-0.3430665
38	0x3e3385e7	0.17531548
39	0x3ed49269	0.41517952
40	0xbdafc271	-0.08582009
41	0xbdef710c	-0.11691484
42	0xbea2f50a	-0.31827575
43	0xbe6bfa9a	-0.23044816
44	0x3cd3ddb2	0.025862549
45	0x3e6a5c38	0.22886741
46	0x3e89b464	0.2689544
47	0x3e71aad7	0.23600326
48	0x3f36c53b	0.713947
49	0x3f35a826	0.709597
50	0x3f0976d3	0.53696936
51	0x3bab73c9	0.0052323085
52	0x3dabf4f6	0.08396332
53	0x3f20182e	0.62536895
54	0xbc51b905	-0.01280046
55	0xbed975f2	-0.42472798
56	0xbeb34cce	-0.35019535
57	0xbf5c3412	-0.86016953
58	0xbf6475be	-0.8924216
59	0x3e642b65	0.22282179
60	0x3ec59ddc	0.38597
61	0xbe005693	-0.12533025
62	0xbe4661c8	-0.19373238
63	0xbf667b0b	-0.900315
64	0x3dfd7d22	0.12377383
65	0x3e8e2910	0.27765703
66	0x3df3bfaf	0.11901795
67	0xbe99f9ac	-0.30073297
68	0xbe979e61	-0.2961302
69	0xbf3b9be9	-0.73284775
70	0xbdb10a44	-0.08644536
71	0x3ea17159	0.3153179
72	0x3e5b9026	0.21441707
73	0xbd3bd9e1	-0.045862082
74	0xbe594bca	-0.21220317
75	0x3ee52511	0.44754842
76	0x3f951eee	1.1650064
77	0x3f97f0b1	1.1870328
78	0x3f70fe17	0.9413771
79	0x3f405b8e	0.751397
80	0x3f174c08	0.5910039
81	0x3f87857e	1.0587614
82	0x3f19bc52	0.6005298
83	0xbe7e50d5	-0.24835522
84	0xbe55e4ca	-0.20888057
85	0x3e28d187	0.16486178
86	0xbf1feb4c	-0.6246841
87	0xbf9a3bf4	-1.2049546
88	0x3cf176d3	0.029475605
89	0x3f20b41a	0.62774813
90	0x3f88a56a	1.067548
91	0xbdf0322a	-0.11728318
92	0xbeb34dcf	-0.350203
93	0x3eb3ceb1	0.3511863
94	0x3f2a4a17	0.665193
95	0x3fbbba86	1.4666297
96	0x3e271118	0.16315114
97	0x3e7dcd43	0.24785332
98	0xbdd99d7f	-0.10625743
99	0xbe92310c	-0.28553045
100	0x3e11f95c	0.1425528
101	0xbec9eb44	-0.39437306
102	0x3de77c8c	0.11303052
103	0x3ed589e0	0.41706753
104	0xbce520f8	-0.027969822
105	0x3d5770fe	0.052597992
106	0xbd098cce	-0.033581547
107	0xbde177cb	-0.11009177
108	0x3cba96f7	0.022777064
109	0x3e7e4e0a	0.24834457
110	0x3e99f37f	0.30068585
111	0x3e459d1a	0.1929821
112	0xbf777a4e	-0.96671
113	0xbf095612	-0.5364696
114	0xbec74b83	-0.38924798
115	0x3e23f752	0.16012314
116	0x3b999ad7	0.004687648
117	0xbf025f54	-0.5092671
118	0x3c9194d1	0.017771157
119	0x3ee31ec7	0.4435942
120	0xbf1037f4	-0.5633538
121	0xbf3f8ffb	-0.7482907
122	0xbf5134a8	-0.8172097
123	0x3ea46a6a	0.32112437
124	0x3eb81f40	0.35961342
125	0xbe92bdfd	-0.28660575
126	0xbf0126b5	-0.5044969
127	0xbf8ea250	-1.1143284

blocks.0.v_mappings.0.spline_scaler f4 [4, 4]
0	0x3f1de9ef	0.6168508
1	0xbf6f8e9b	-0.93576974
2	0x4000225c	2.0020971
3	0xbf2b4078	-0.66895247
4	0x3e1963bd	0.14979453
5	0xbe3302c2	-0.17481521
6	0x3f45ab6e	0.77214706
7	0x3f011ee7	0.5043778
8	0xbf81580a	-1.0104992
9	0x3f79c12b	0.97560376
10	0xbf71996d	-0.94374734
11	0x3fa990c9	1.324731
12	0x3e8693c2	0.26284605
13	0xbcbead0a	-0.02327587
14	0xbf3a9402	-0.7288209
15	0x3f536f37	0.82591575

blocks.0.v_mappings.0.grid f4 [4, 12]
0	0xc00ccccd	-2.2
1	0xbfe66666	-1.8
2	0xbfb33333	-1.4
3	0xbf800000	-1.0
4	0xbf19999a	-0.6
5	0xbe4ccccc	-0.19999999
6	0x3e4cccd0	0.20000005
7	0x3f19999a	0.6
8	0x3f800000	1.0
9	0x3fb33334	1.4000001
10	0x3fe66666	1.8
11	0x400ccccd	2.2
12	0xc00ccccd	-2.2
13	0xbfe66666	-1.8
14	0xbfb33333	-1.4
15	0xbf800000	-1.0
16	0xbf19999a	-0.6
17	0xbe4ccccc	-0.19999999
18	0x3e4cccd0	0.20000005
19	0x3f19999a	0.6
20	0x3f800000	1.0
21	0x3fb33334	1.4000001
22	0x3fe66666	1.8
23	0x400ccccd	2.2
24	0xc00ccccd	-2.2
25	0xbfe66666	-1.8
26	0xbfb33333	-1.4
27	0xbf800000	-1.0
28	0xbf19999a	-0.6
29	0xbe4ccccc	-0.19999999
30	0x3e4cccd0	0.20000005
31	0x3f19999a	0.6
32	0x3f800000	1.0
33	0x3fb33334	1.4000001
34	0x3fe66666	1.8
35	0x400ccccd	2.2
36	0xc00ccccd	-2.2
37	0xbfe66666	-1.8
38	0xbfb33333	-1.4
39	0xbf800000	-1.0
40	0xbf19999a	-0.6
41	0xbe4ccccc	-0.19999999
42	0x3e4cccd0	0.20000005
43	0x3f19999a	0.6
44	0x3f800000	1.0
45	0x3fb33334	1.4000001
46	0x3fe66666	1.8
47	0x400ccccd	2.2

blocks.0.v_mappings.1.base_weight f4 [4, 4]
0	0xbd6031e4	-0.05473508
1	0x3f032a6b	0.512366
2	0xbf5135e3	-0.8172285
3	0x3ef2bcbd	0.4740962
4	0xbefa8266	-0.4892761
5	0xbeeea94d	-0.4661354
6	0x3f8d3037	1.1030339
7	0xbbf81a70	-0.007571511
8	0x3f0d5a75	0.5521615
9	0x3e19581d	0.14975019
10	0x3e842d4a	0.25815803
11	0x3f251dc3	0.6449854
12	0x3f89075e	1.0705373
13	0x3e8d348d	0.27579156
14	0xbfad9f4e	-1.3564241
15	0x3ef3a165	0.47584072

blocks.0.v_mappings.1.spline_weight f4 [4, 4, 8]
0	0x3f6450ba	0.8918568
1	0x3f80186a	1.000745
2	0x3ed5d285	0.41762176
3	0x3f05c7e2	0.5225812
4	0x3f0ea7d0	0.5572481
5	0x3f2da197	0.6782469
6	0x3e9d97d1	0.3077989
7	0x3e77e1c2	0.24207214
8	0x3db516e8	0.0884226
9	0xbe08f6f1	-0.1337545
10	0x3e1870ef	0.14886831
11	0x3eef0a06	0.46687335
12	0x3f1fbca6	0.6239723
13	0x3e92c372	0.28664738
14	0xbf48d18a	-0.7844473
15	0xbf465a46	-0.77481496
16	0x3f9544e2	1.1661646
17	0x3f6d3042	0.9265176
18	0x3f11db8e	0.5697564
19	0xbe7c95d8	-0.24666536
20	0xbe501959	-0.2032217
21	0xbdd6d45a	-0.104897216
22	0xbedeb837	-0.4349992
23	0x3e24a46d	0.16078348
24	0xc006a16d	-2.1036026
25	0xbf29ceb1	-0.6633101
26	0xbe8c5adf	-0.2741308
27	0xbf69dc7d	-0.91352063
28	0xbe4af564	-0.19820172
29	0x3f7199b2	0.94375145
30	0x3e99b153	0.300181
31	0xbe7a5a3e	-0.24448487
32	0xbee43708	-0.44573236
33	0xbf0796ed	-0.5296467
34	0xbf5ea7fb	-0.8697507
35	0xbf8933a8	-1.0718889
36	0xbf526d0a	-0.8219763
37	0x3e841ab9	0.25801638
38	0x3e3a7063	0.18206935
39	0xbda970df	-0.082734816
40	0x3dff7dd9	0.124751754
41	0x3c856af6	0.016286355
42	0xbceb5133	-0.028725242
43	0xbee1b811	-0.44085744
44	0xbdc17f0f	-0.09448063
45	0x3f409e97	0.7524199
46	0x3ed112b8	0.40834594
47	0xbf57dac9	-0.84318215
48	0xbdb2e0ca	-0.08734281
49	0xc00fc8e3	-2.2466362
50	0xbdc20a76	-0.094746515
51	0x3f8ecf44	1.1157002
52	0xbd0941e8	-0.03351012
53	0xbf882aa4	-1.0638013
54	0xbf87337c	-1.0562587
55	0x3e7df0d1	0.24798895
56	0xbf90d0db	-1.1313738
57	0xbfa3faac	-1.2810874
58	0x3d9aad71	0.075526126
59	0x3fa3a527	1.2784775
60	0x3ee41ad1	0.4455171
61	0xbbce6d5c	-0.0062996577
62	0xbed55333	-0.41665038
63	0xbf355fea	-0.7084948
64	0x3e8dd986	0.2770502
65	0x3f389970	0.7210913
66	0x3f250367	0.64458317
67	0x3f191331	0.5979491
68	0x3e68aedd	0.22722955
69	0xbe87fe63	-0.2656127
70	0x3f59f70c	0.8514259
71	0xbed878f5	-0.42279783
72	0x3f32a424	0.6978171
73	0x3e2bdee1	0.1678424
74	0x3e8eac08	0.27865624
75	0xbd016f9f	-0.03160059
76	0xbcd5a8ab	-0.026081404
77	0xbe05a0b0	-0.13049579
78	0xbf6dbcb9	-0.9286609
79	0xbe17fcac	-0.1484248
80	0x3fafff41	1.3749772
81	0xbe23c237	-0.15992056
82	0xbe1ae06a	-0.1512467
83	0xbf1d5187	-0.61452526
84	0xbec9af77	-0.39391682
85	0x3ef5d8d8	0.48017
86	0x3ef5ce45	0.48008934
87	0xbf8d73ea	-1.1050999
88	0xc0004b6c	-2.0046034
89	0xc009ec6a	-2.1550546
90	0xc02187df	-2.523918
91	0xbf9c8c27	-1.2230271
92	0x3d45e434	0.048313335
93	0x3e0af3c3	0.1356955
94	0x3dd6fd02	0.10497476
95	0x3d984723	0.07435443
96	0xbc27582a	-0.010213891
97	0x3e9ae15b	0.30250058
98	0x3e8f7700	0.28020477
99	0x3f4bd9db	0.79629296
100	0x3f535731	0.8255492
101	0x3f046be2	0.51727116
102	0x3f9956f7	1.1979665
103	0xbf4b95fe	-0.79525745
104	0xbeeecf40	-0.46642494
105	0xbee412ef	-0.44545695
106	0xbea523e4	-0.32253945
107	0x3e47fe91	0.19530703
108	0x3f96f848	1.179452
109	0x3edc15cd	0.42985383
110	0x3eb5884e	0.35455555
111	0x3ec95d26	0.3932888
112	0xbf03ffd4	-0.5156224
113	0x3e11baba	0.14231387
114	0x3fb62d36	1.4232547
115	0xbd044417	-0.032291498
116	0xbf072d10	-0.52803135
117	0xbee87132	-0.4539886
118	0xbe726ec9	-0.23675074
119	0x3fe50139	1.7890998
120	0xc0489947	-3.1343553
121	0xc08981bb	-4.2970862
122	0xc066bbc7	-3.605211
123	0xbf348b13	-0.7052471
124	0xbc0fa75a	-0.008767927
125	0x3e885330	0.26625967
126	0x3efd7ef4	0.4951092
127	0xbe8e567b	-0.27800354

blocks.0.v_mappings.1.spline_scaler f4 [4, 4]
0	0x3f68ef39	0.90990025
1	0xbf125792	-0.5716487
2	0x3f2eb5ad	0.68245965
3	0x3f457722	0.7713491
4	0xbf896d6a	-1.0736516
5	0xbf092809	-0.53576714
6	0xbf6e436b	-0.9307162
7	0xbf4748a1	-0.778452
8	0xbf876b21	-1.0579568
9	0x3f58ed1b	0.84736794
10	0xbf9948dc	-1.197536
11	0xbe9f067a	-0.3105963
12	0xbf48f9dc	-0.78506255
13	0xbf6d3cf1	-0.92671114
14	0x3fdb6733	1.7140869
15	0xbf3a7dee	-0.72848403

blocks.0.v_mappings.1.grid f4 [4, 12]
0	0xc00ccccd	-2.2
1	0xbfe66666	-1.8
2	0xbfb33333	-1.4
3	0xbf800000	-1.0
4	0xbf19999a	-0.6
5	0xbe4ccccc	-0.19999999
6	0x3e4cccd0	0.20000005
7	0x3f19999a	0.6
8	0x3f800000	1.0
9	0x3fb33334	1.4000001
10	0x3fe66666	1.8
11	0x400ccccd	2.2
12	0xc00ccccd	-2.2
13	0xbfe66666	-1.8
14	0xbfb33333	-1.4
15	0xbf800000	-1.0
16	0xbf19999a	-0.6
17	0xbe4ccccc	-0.19999999
18	0x3e4cccd0	0.20000005
19	0x3f19999a	0.6
20	0x3f800000	1.0
21	0x3fb33334	1.4000001
22	0x3fe66666	1.8
23	0x400ccccd	2.2
24	0xc00ccccd	-2.2
25	0xbfe66666	-1.8
26	0xbfb33333	-1.4
27	0xbf800000	-1.0
28	0xbf19999a	-0.6
29	0xbe4ccccc	-0.19999999
30	0x3e4cccd0	0.20000005
31	0x3f19999a	0.6
32	0x3f800000	1.0
33	0x3fb33334	1.4000001
34	0x3fe66666	1.8
35	0x400ccccd	2.2
36	0xc00ccccd	-2.2
37	0xbfe66666	-1.8
38	0xbfb33333	-1.4
39	0xbf800000	-1.0
40	0xbf19999a	-0.6
41	0xbe4ccccc	-0.19999999
42	0x3e4cccd0	0.20000005
43	0x3f19999a	0.6
44	0x3f800000	1.0
45	0x3fb33334	1.4000001
46	0x3fe66666	1.8
47	0x400ccccd	2.2

blocks.1.q_mappings.0.base_weight f4 [4, 4]
0	0xbf16e923	-0.5894949
1	0xbd3bc641	-0.045843367
2	0xbdb83574	-0.089945704
3	0x3f2bbbeb	0.67083615
4	0xbe88689b	-0.26642308
5	0xbefec412	-0.49758965
6	0x3e3ce2ab	0.18445842
7	0xbea81222	-0.32826334
8	0x3f1d1999	0.61367184
9	0xbefbe5c9	-0.4919875
10	0xbe1fcfe6	-0.1560665
11	0xbf2e8158	-0.6816611
12	0xbedfe628	-0.43730283
13	0x3f1e3e73	0.6181404
14	0x3e08c4c1	0.13356306
15	0x3f48777d	0.78307325
