weights/benchmark-one/kan_vit_5epochs.pth (torch, 40275 bytes, 57 tensors)

v_class f4 [1, 8]
0	0x3eec60b6	0.46167535
1	0x3ef88d98	0.48545527
2	0x3eb047e5	0.3442985
3	0xbdd07dc8	-0.10180241
4	0x3fe34ff7	1.7758778
5	0x3d85a9c8	0.06526524
6	0x3fa838c4	1.3142323
7	0x3eff9147	0.49915525

linear_mapper.base_weight f4 [8, 16]
0	0x3e35b27e	0.1774387
1	0xbddb06fe	-0.10694693
2	0xbe27810a	-0.16357818
3	0x3f0f77c8	0.56042147
4	0x3f45e39b	0.77300423
5	0x3e783af3	0.24241237
6	0x3e0c7223	0.13715415
7	0x3f7b8517	0.98249954
8	0x3f87a6d2	1.0597785
9	0x3e736da4	0.23772293
10	0x3f17136a	0.59014
11	0x3f877435	1.0582339
12	0x3f3bb53a	0.73323405
13	0x3e11e158	0.14246118
14	0x3e059cd9	0.13048114
15	0x3e760dcd	0.24028702
16	0x3ecd5c70	0.40109587
17	0x3ea50fc3	0.32238588
18	0x3e8d6685	0.2761728
19	0xbd94bdf1	-0.07262791
20	0xbcb56c35	-0.022146324
21	0xbdc84d75	-0.09780399
22	0x3df3556c	0.11881527
23	0x3e9aefaa	0.30260974
24	0xbea7528d	-0.3268017
25	0x3edc015e	0.42969793
26	0x3eeba5d0	0.46024942
27	0xbda01a89	-0.07817561
28	0x3e9c2d33	0.30503234
29	0x3ed10fb3	0.4083229
30	0x3efda120	0.4953699
31	0xbf0ba16e	-0.545432
32	0xbe8566d2	-0.26055008
33	0xbf1898da	-0.5960823
34	0xbf09753f	-0.5369453
35	0xbeafe372	-0.34353215
36	0x3ea9f45d	0.33194247
37	0x3de12f3a	0.10995336
38	0x3d9cbdf1	0.07653416
39	0x3e96534c	0.29360425
40	0x3f7db7a8	0.9910836
41	0x3f1d0ce7	0.6134781
42	0x3f6e0170	0.92970943
43	0x3f66f165	0.9021209
44	0x3f0047a8	0.5010934
45	0xbd890d1e	-0.06691955
46	0x3e348e2a	0.17632356
47	0xbba6686c	-0.005078366
48	0x3e136433	0.14393692
49	0xbee762b7	-0.451925
50	0xbe87ad86	-0.26499575
51	0x3e16d6a5	0.14730318
52	0x3ec48430	0.383821
53	0x3ef2aac4	0.4739591
54	0x3e938587	0.2881281
55	0x3f10ab7f	0.5651168
56	0x3f057ce9	0.5214372
57	0x3dfdc0d4	0.12390295
58	0x3eb12bd1	0.34603742
59	0x3ebaf0a2	0.36511713
60	0xbdca7865	-0.09886245
61	0xbf123bea	-0.5712267
62	0xbedc4a26	-0.4302532
63	0xbe31e5b6	-0.17372784
64	0x3debdca3	0.115166925
65	0xbeb2e039	-0.34936693
66	0xbe956b14	-0.29183257
67	0xbf0e43da	-0.55572283
68	0xbe21d32b	-0.1580321
69	0xbf0d7cf3	-0.5526878
70	0xbe9d87b0	-0.30767584
71	0xbdf4a44c	-0.119454
72	0xbe8d3c94	-0.2758528
73	0xbf018f25	-0.50609046
74	0xbe5e7f89	-0.21728338
75	0xbdff92e0	-0.12479186
76	0xbe2afb29	-0.16697372
77	0xbf55835e	-0.83403575
78	0xbed03c4b	-0.40671
79	0x3e86bc2a	0.26315433
80	0xbea3a016	-0.31958073
81	0xbd14c890	-0.036324084
82	0x3e7d3019	0.24725379
83	0xbea7f786	-0.32806033
84	0xbf2b1986	-0.6683582
85	0xbe1cd952	-0.15317276
86	0x3df38a68	0.11891633
87	0xbf5f214b	-0.87160176
88	0xbf3477be	-0.7049521
89	0x3ef33b55	0.47506204
90	0x3f076a43	0.5289652
91	0xbea5423f	-0.32277104
92	0xbe6d4ff8	-0.23175037
93	0xbe1409ce	-0.14456865
94	0xbe9cb4cc	-0.30606687
95	0xbe5b2f75	-0.21404822
96	0x3e622b92	0.22086933
97	0xbd0493f0	-0.032367647
98	0xbd7378d8	-0.059441417
99	0x3d0ac04a	0.033874787
100	0x3d5b8e08	0.05360225
101	0x3e685525	0.2268873
102	0x3e027956	0.12741598
103	0x3d16f4e4	0.03685464
104	0xbe4634bf	-0.19356059
105	0x3db1de53	0.08684983
106	0x3dbdd871	0.092697985
107	0xbe09a55d	-0.13441987
108	0xbf1e2c35	-0.61786205
109	0xbeb427bb	-0.35186562
110	0xbdec5e4b	-0.115414225
111	0xbf1a6516	-0.60310495
112	0x3e2bab5f	0.16764592
113	0xbe77b24d	-0.2418911
114	0xbe2c79cd	-0.16843338
115	0x3ce8c360	0.028413475
116	0x3e78e0ec	0.24304551
117	0xbe9780bf	-0.29590413
118	0xbeadd14c	-0.33948743
119	0xbe8dda05	-0.27705398
120	0x3ef8c633	0.48588714
121	0xbe1a6d97	-0.15080868
122	0xbda9a0c2	-0.08282615
123	0xbe04a2ec	-0.12952775
124	0x3e4ac49f	0.19801567
125	0xbed8334a	-0.4222663
126	0xbee21797	-0.44158623
127	0xbe9a33b5	-0.30117574

linear_mapper.spline_weight f4 [8, 16, 8]
0	0x3b14e539	0.0022719635
1	0x3c2a8f62	0.010410162
2	0xbca8b5f9	-0.020594584
3	0xbcbb555a	-0.022867847
4	0xbca5705f	-0.020195184
5	0x3ef36bf7	0.47543308
6	0xbe524287	-0.2053319
7	0xbf0a68de	-0.54066265
8	0xbb757c97	-0.0037458295
9	0xbc56b296	-0.013104102
10	0xbc5e83ed	-0.013581258
11	0xb9712d3f	-0.00023000407
12	0xbd2b66a1	-0.04184592
13	0x3ef1aa83	0.47200403
14	0x3d8e03fd	0.069343545
15	0xbc803140	-0.015648484
16	0xbb2479e9	-0.0025097078
17	0xbba96db5	-0.005170549
18	0x3dc13a46	0.09434943
19	0x3d56ac7e	0.052410595
20	0xbd4b3011	-0.049606387
21	0xbdb7a533	-0.08967056
22	0x3d128e0c	0.035779998
23	0x3dd158c8	0.10222012
24	0xb8af515d	-8.359805e-05
25	0xba87f699	-0.0010373174
26	0x3d575a9b	0.052576642
27	0x3d11cdc7	0.035596635
28	0xbd445df4	-0.047941163
29	0x3e5111d0	0.20416951
30	0xbe800af7	-0.25008366
31	0xbecb9664	-0.39763176
32	0x3ab818cc	0.0014045476
33	0x3c22ff53	0.009948569
34	0xbdce07e7	-0.10060101
35	0xbdcf3db6	-0.10119192
36	0xbd1a61b3	-0.03769083
37	0x3d4abbbf	0.049495455
38	0x3f61c89c	0.8819673
39	0x3f905c1a	1.1278107
40	0x3b5a5793	0.0033316358
41	0x3bd57827	0.0065145674
42	0xbd52927b	-0.051409226
43	0xbc252bc6	-0.010081237
44	0x3c23f471	0.01000701
45	0xbe095afc	-0.13413614
46	0x3e2c9b70	0.1685617
47	0x3e69d34f	0.22834514
48	0xbb069770	-0.002053704
49	0xbc0eb998	-0.008711241
50	0xbda53caf	-0.08068215
51	0xbd8383dc	-0.064216346
52	0x3d895644	0.06705907
53	0x3eb806bf	0.35942647
54	0x3e300cd2	0.1719239
55	0x3d60af20	0.054854512
56	0x3b8f28d1	0.0043688794
57	0x3c33928d	0.010960233
58	0xbe0c7a65	-0.13718565
59	0xbd8ab94e	-0.06773625
60	0x3d423f0c	0.047423407
61	0x3cf78099	0.030212687
62	0x3f4bff4a	0.79686415
63	0x3f878559	1.058757
64	0x3bab877a	0.005234656
65	0x3c535811	0.012899415
66	0xbe4590d9	-0.19293536
67	0xbdf5c8a8	-0.12001163
68	0xbca356fb	-0.019938936
69	0x3f5ad432	0.85480034
70	0x3f2b3607	0.66879314
71	0x3f459c13	0.77191275
72	0xbb1c69dd	-0.002386681
73	0xbc33a325	-0.01096419
74	0xbe16268f	-0.14663146
75	0xbde50b9d	-0.11183856
76	0x3cf3a948	0.029743806
77	0x3f8a7d03	1.08194
78	0x3e948a5e	0.29011816
79	0xbd2510dd	-0.040299285
80	0xba134d49	-0.00056191214
81	0xbb807d4b	-0.003921186
82	0x3e20f31f	0.15717743
83	0x3dfaa4c8	0.12238461
84	0xbd966c48	-0.07344872
85	0xbf5f0799	-0.8712097
86	0xbe547eee	-0.20751545
87	0xbd51fe25	-0.05126776
88	0x3b5482da	0.0032426626
89	0x3bc0d9d1	0.0058853407
90	0xbe502553	-0.20326738
91	0xbe16bad1	-0.14719702
92	0xbc3d6a60	-0.011561006
93	0x3f4342b6	0.7627367
94	0x3f744b3b	0.9542729
95	0x3f7d1e10	0.98873997
96	0xbbc0b936	-0.005881454
97	0xbc8e6a60	-0.017384708
98	0x3db9ad4a	0.090662554
99	0x3d12adec	0.035810396
100	0xbd805c0f	-0.06267559
101	0xbeb5f415	-0.35537782
102	0xbef1fefa	-0.47264844
103	0xbf1aff8e	-0.60546196
104	0x3b6fa509	0.0036566874
105	0x3c18755b	0.0093053235
106	0x3d0e5833	0.034752082
107	0x3d3e8343	0.0465119
108	0xbd52a53d	-0.051427115
109	0x3d47cca8	0.04877916
110	0xbcf91e4d	-0.030409956
111	0xbc2ceaa9	-0.010553994
112	0x3b8a0f33	0.0042132377
113	0x3c21b447	0.009869642
114	0x3d24c322	0.040225156
115	0x3d482ba9	0.048869763
116	0xbd6a1654	-0.0571502
117	0x3cb7f560	0.022455871
118	0xbc370799	-0.011171245
119	0x3d44e548	0.048070222
120	0xba93f6ff	-0.001128882
121	0xbb9355e1	-0.0044963215
122	0xbc9df577	-0.019282086
123	0x3af3e0ae	0.0018606388
124	0x3d6edef6	0.0583181
125	0xbebad5d5	-0.36491266
126	0x3ed2daf1	0.41182664
127	0x3f0e1dc0	0.55514145
128	0x3ae10a29	0.0017169166
129	0x3a0d2fe3	0.0005385859
130	0xbf1d4231	-0.61429125
131	0xbec1c0a9	-0.378423
132	0xbd3773b6	-0.044788085
133	0x3f1ada24	0.60489106
134	0x3dceb7fd	0.10093687
135	0xbead6128	-0.33863187
136	0xbbccee11	-0.0062539657
137	0xbc939b29	-0.018018322
138	0xbf8cadcd	-1.099054
139	0xbf6d8ec0	-0.92795944
140	0xbd8dd3cb	-0.06925162
141	0x3f8a9c7d	1.0829006
142	0xbd59436c	-0.053042814
143	0xbf2f9640	-0.6858864
144	0xb99396b6	-0.00028150313
145	0x3a706916	0.00091709325
146	0xbf5f5138	-0.87233305
147	0xbf30c017	-0.69043106
148	0xbe4df885	-0.20114334
149	0x3f496d69	0.7868257
150	0x3e6d878f	0.23196243
151	0xbe83d252	-0.257464
152	0xbac95cf6	-0.0015362788
153	0xbc0e1d21	-0.008673937
154	0xbd4a4342	-0.04938055
155	0xbbc1f6fa	-0.0059193345
156	0x3daad418	0.08341235
157	0xbe6f5bbe	-0.2337484
158	0x3d8e5c58	0.06951207
159	0x3eb9db6c	0.36300218
160	0x3ad9cfaa	0.0016617675
161	0x3b895f06	0.004192236
162	0x3f4904d0	0.7852297
163	0x3f0c0a39	0.547031
164	0xbd94b020	-0.07260156
165	0xbf57d564	-0.84309983
166	0x3e8648a0	0.26227283
167	0x3f5ad824	0.85486054
168	0xbb0e7cc8	-0.0021741856
169	0xbc019ba4	-0.007910643
170	0xbf1b99f1	-0.6078177
171	0xbeb4537a	-0.35219938
172	0x3e62e39c	0.22157139
173	0x3e8e5d08	0.27805352
174	0xbe78ce46	-0.24297437
175	0xbf29bcbb	-0.66303605
176	0xb988c909	-0.00026089724
177	0x3b238a83	0.0024954386
178	0x3f1c0d21	0.60957533
179	0x3ef0c716	0.4702689
180	0xbd8c47bb	-0.06849619
181	0xbf144510	-0.5791788
182	0xbca13bf0	-0.0196819
183	0x3defc504	0.117074996
184	0x3b1e5e9d	0.002416528
185	0x3beea4a8	0.007282812
186	0x3ee65c35	0.44992223
187	0x3ec0e8c3	0.37677583
188	0xbc881876	-0.016613226
189	0xbed57371	-0.41689637
190	0x3c2f4bc9	0.010699221
191	0x3e92b1eb	0.28651366
192	0x3b531d00	0.003221333
193	0x3c50b876	0.012739291
194	0x3d083cce	0.033261113
195	0x3d0a754d	0.033803273
196	0x3e20c0f1	0.15698601
197	0xbd5ccbc9	-0.053905282
198	0x3d61cb06	0.05512526
199	0x3ed2c5fe	0.4116668
200	0xb9adff34	-0.00033187272
201	0xbb7d003c	-0.0038604876
202	0xbeb784ee	-0.35843605
203	0xbed583b2	-0.41702038
204	0xbeb0114d	-0.343882
205	0x3f2bfdce	0.6718415
206	0x3f0a10e1	0.53932005
207	0x3e05f2d6	0.13080916
208	0xb8d71a9c	-0.00010256955
209	0x3b38ce12	0.0028199
210	0x3e9a0dd1	0.30088666
211	0x3e94bddb	0.29051098
212	0x3ed50bc6	0.41610545
213	0xbeb37e51	-0.3505731
214	0xbf38e26b	-0.72220486
215	0xbeae9a2d	-0.34102002
216	0xb9802a47	-0.00024445562
217	0xbb0d5b83	-0.0021569438
218	0xbeaa807b	-0.33301148
219	0xbeb38f78	-0.35070395
220	0xbe322fd7	-0.17401062
221	0x3f46b1ac	0.77614856
222	0xbe0f6262	-0.14002374
223	0xbf491564	-0.78548265
224	0x3a553134	0.0008132637
225	0x3befe2d4	0.007320741
226	0xbd79565a	-0.060873367
227	0xbe44b9d8	-0.19211519
228	0xbe849f53	-0.25902805
229	0x3e73d543	0.23811822
230	0x3e75ce5e	0.24004504
231	0x3e01d71d	0.12679715
232	0x3bc66d41	0.0060555045
233	0x3c808a97	0.015691085
234	0x3f557189	0.83376366
235	0x3f58402f	0.84472936
236	0x3e9e55c2	0.30924803
237	0xbf9a6843	-1.2063068
238	0xbefe2543	-0.49637803
239	0xbea38942	-0.31940657
240	0xba906528	-0.0011016475
241	0xbbd24e67	-0.0064180377
242	0x3f633bdf	0.8876323
243	0x3f2be191	0.6714106
244	0x3da62fd3	0.081145905
245	0xbf833e27	-1.0253342
246	0xbde01291	-0.10941041
247	0x3f12f577	0.574058
248	0x3ac905f4	0.0015336857
249	0x3bf3733d	0.007429509
250	0xbf2c5c3e	-0.6732825
251	0xbec45540	-0.3834629
252	0x3e9025b6	0.2815377
253	0x3f54244d	0.8286789
254	0xbf38a9fa	-0.72134364
255	0xbfb28dab	-1.3949484

linear_mapper.spline_scaler f4 [8, 16]
0	0x3d72cbcb	0.059276383
1	0xbd3be117	-0.04586896
2	0x3b23bec9	0.0024985543
3	0xbcc1a5d6	-0.023638647
4	0x3f31dbba	0.694759
5	0x3debeb4d	0.115194894
6	0x3e858865	0.26080623
7	0x3eebaadb	0.4602879
8	0x3f0057dd	0.5013407
9	0x3f0ea251	0.55716425
10	0xbf1947bc	-0.5987508
11	0x3f22f846	0.63660085
12	0xbe445987	-0.19174777
13	0x389084ad	6.891168e-05
14	0x3c1f91bf	0.009739338
15	0x3e733a12	0.23752621
16	0x3f0c80c7	0.54884
17	0x3facbf1c	1.3495822
18	0x3f866579	1.0499717
19	0xbc46e6a2	-0.012139948
20	0xbf338600	-0.7012634
21	0x3ed322a8	0.41237378
22	0xbf051ca9	-0.51996857
23	0xbeac1392	-0.3360868
24	0xbe76e334	-0.24110109
25	0x3f2acf63	0.66722697
26	0xbf3e3f4d	-0.7431534
27	0x3f0d1ced	0.5512226
28	0x3ec1b5bb	0.37833962
29	0xbfa1c246	-1.2637413
30	0xbf839b96	-1.0281856
31	0x3f94d8bd	1.1628643
32	0x3b159978	0.002282707
33	0x3d265e4d	0.040617276
34	0x3d21c73f	0.039496657
35	0xbe440d77	-0.19145761
36	0xbedac5f8	-0.42729163
37	0xbec9c1ae	-0.39405578
38	0xbdd8a3dd	-0.105781294
39	0xbf09a803	-0.5377199
40	0xbf5d79d6	-0.8651403
41	0x3f03e8a7	0.51526874
42	0x3f1f1e42	0.62155545
43	0xbf358d6c	-0.7091892
44	0xbeda8e30	-0.42686605
45	0xbe8c30be	-0.27380937
46	0xbdfe0e58	-0.124050796
47	0xbb868ad8	-0.004105907
48	0xbe910f09	-0.28331783
49	0x3da942f1	0.08264721
50	0xbdfa2e71	-0.12215889
51	0xbe897921	-0.26850227
52	0xbf436c10	-0.76336765
53	0x3e10397e	0.14084432
54	0xbe0db2b8	-0.13837707
55	0xbf0617a3	-0.52379817
56	0x3eea3f1d	0.45751277
57	0x3e35cf55	0.17754872
58	0x3e121900	0.14267349
59	0xbf21bd0d	-0.63179094
60	0x3bd2eead	0.006437144
61	0x3cd02d6b	0.025412282
62	0xbb809bd8	-0.003924828
63	0xb98cf48f	-0.0002688509
64	0xbcff25ae	-0.031145897
65	0xbdb67487	-0.089089446
66	0xbf0cc961	-0.5499478
67	0xbef7cffe	-0.48400873
68	0xbe3e031e	-0.18555877
69	0x3f2e85cb	0.681729
70	0x3f00f9f8	0.5038142
71	0xbddd6eb0	-0.108121276
72	0x3eb18409	0.34671047
73	0xbec80a75	-0.39070478
74	0x3ec3efda	0.3826893
75	0x3e0ef6c6	0.13961324
76	0x3e928419	0.28616408
77	0xbf283940	-0.65712357
78	0x3ede1e83	0.43382654
79	0xbe2ae404	-0.16688544
80	0xbe9b6eaf	-0.30357882
81	0x3e9e354c	0.30900037
82	0x3e2b32bf	0.16718577
83	0x3e2f0677	0.1709231
84	0x3f34b5e1	0.70590025
85	0xbf4660f1	-0.7749167
86	0x3f2f93cf	0.68584913
87	0x3f7d0420	0.9883442
88	0xbf18e6c7	-0.5972714
89	0xbefab326	-0.48964804
90	0xbeb01fc1	-0.34399226
91	0x3e66d119	0.22540702
92	0x3ea45a11	0.32099965
93	0xbe972b9f	-0.29525468
94	0xbeb7e3f0	-0.3591609
95	0x3cdb7060	0.026786983
96	0xbdc5e9fb	-0.09663769
97	0xbcc64771	-0.024203988
98	0xbb3cec51	-0.002882738
99	0xbed0b7aa	-0.40765125
100	0xbb242ac5	-0.0025049907
101	0x3e0de119	0.13855399
102	0xbd088286	-0.0333276
103	0xbe512c17	-0.20426975
104	0x3eb1e4c0	0.34744835
105	0xbe9e5268	-0.30922246
106	0xbebcc5d8	-0.36869693
107	0x3e9e03e6	0.3086235
108	0xbea91e5e	-0.3303098
109	0xbec6d568	-0.3883469
110	0xbe719925	-0.23593576
111	0xbef26e36	-0.4734971
112	0x3c09b7cb	0.008405636
113	0xbcc767aa	-0.024341423
114	0x3e25b341	0.16181661
115	0xbcf0bc7b	-0.02938675
116	0xbc86b527	-0.016443802
117	0xbb171349	-0.0023052266
118	0x3e88ac89	0.26694134
119	0x3eaed066	0.3414337
120	0xbed0e797	-0.4080169
121	0x3e5552e2	0.20832399
122	0x3ee043d6	0.43801755
123	0x3efd14ef	0.49430034
124	0xbe90ce3a	-0.28282338
125	0xbe4faa6e	-0.20279858
126	0xbe9f0806	-0.3106081
127	0xbebab2cf	-0.36464545

linear_mapper.grid f4 [16, 12]
0	0xc00ccccd	-2.2
1	0xbfe66666	-1.8
2	0xbfb33333	-1.4
3	0xbf800000	-1.0
4	0xbf19999a	-0.6
5	0xbe4ccccc	-0.19999999
6	0x3e4cccd0	0.20000005
7	0x3f19999a	0.6
8	0x3f800000	1.0
9	0x3fb33334	1.4000001
10	0x3fe66666	1.8
11	0x400ccccd	2.2
12	0xc00ccccd	-2.2
13	0xbfe66666	-1.8
14	0xbfb33333	-1.4
15	0xbf800000	-1.0
16	0xbf19999a	-0.6
17	0xbe4ccccc	-0.19999999
18	0x3e4cccd0	0.20000005
19	0x3f19999a	0.6
20	0x3f800000	1.0
21	0x3fb33334	1.4000001
22	0x3fe66666	1.8
23	0x400ccccd	2.2
24	0xc00ccccd	-2.2
25	0xbfe66666	-1.8
26	0xbfb33333	-1.4
27	0xbf800000	-1.0
28	0xbf19999a	-0.6
29	0xbe4ccccc	-0.19999999
30	0x3e4cccd0	0.20000005
31	0x3f19999a	0.6
32	0x3f800000	1.0
33	0x3fb33334	1.4000001
34	0x3fe66666	1.8
35	0x400ccccd	2.2
36	0xc00ccccd	-2.2
37	0xbfe66666	-1.8
38	0xbfb33333	-1.4
39	0xbf800000	-1.0
40	0xbf19999a	-0.6
41	0xbe4ccccc	-0.19999999
42	0x3e4cccd0	0.20000005
43	0x3f19999a	0.6
44	0x3f800000	1.0
45	0x3fb33334	1.4000001
46	0x3fe66666	1.8
47	0x400ccccd	2.2
48	0xc00ccccd	-2.2
49	0xbfe66666	-1.8
50	0xbfb33333	-1.4
51	0xbf800000	-1.0
52	0xbf19999a	-0.6
53	0xbe4ccccc	-0.19999999
54	0x3e4cccd0	0.20000005
55	0x3f19999a	0.6
56	0x3f800000	1.0
57	0x3fb33334	1.4000001
58	0x3fe66666	1.8
59	0x400ccccd	2.2
60	0xc00ccccd	-2.2
61	0xbfe66666	-1.8
62	0xbfb33333	-1.4
63	0xbf800000	-1.0
64	0xbf19999a	-0.6
65	0xbe4ccccc	-0.19999999
66	0x3e4cccd0	0.20000005
67	0x3f19999a	0.6
68	0x3f800000	1.0
69	0x3fb33334	1.4000001
70	0x3fe66666	1.8
71	0x400ccccd	2.2
72	0xc00ccccd	-2.2
73	0xbfe66666	-1.8
74	0xbfb33333	-1.4
75	0xbf800000	-1.0
76	0xbf19999a	-0.6
77	0xbe4ccccc	-0.19999999
78	0x3e4cccd0	0.20000005
79	0x3f19999a	0.6
80	0x3f800000	1.0
81	0x3fb33334	1.4000001
82	0x3fe66666	1.8
83	0x400ccccd	2.2
84	0xc00ccccd	-2.2
85	0xbfe66666	-1.8
86	0xbfb33333	-1.4
87	0xbf800000	-1.0
88	0xbf19999a	-0.6
89	0xbe4ccccc	-0.19999999
90	0x3e4cccd0	0.20000005
91	0x3f19999a	0.6
92	0x3f800000	1.0
93	0x3fb33334	1.4000001
94	0x3fe66666	1.8
95	0x400ccccd	2.2
96	0xc00ccccd	-2.2
97	0xbfe66666	-1.8
98	0xbfb33333	-1.4
99	0xbf800000	-1.0
100	0xbf19999a	-0.6
101	0xbe4ccccc	-0.19999999
102	0x3e4cccd0	0.20000005
103	0x3f19999a	0.6
104	0x3f800000	1.0
105	0x3fb33334	1.4000001
106	0x3fe66666	1.8
107	0x400ccccd	2.2
108	0xc00ccccd	-2.2
109	0xbfe66666	-1.8
110	0xbfb33333	-1.4
111	0xbf800000	-1.0
112	0xbf19999a	-0.6
113	0xbe4ccccc	-0.19999999
114	0x3e4cccd0	0.20000005
115	0x3f19999a	0.6
116	0x3f800000	1.0
117	0x3fb33334	1.4000001
118	0x3fe66666	1.8
119	0x400ccccd	2.2
120	0xc00ccccd	-2.2
121	0xbfe66666	-1.8
122	0xbfb33333	-1.4
123	0xbf800000	-1.0
124	0xbf19999a	-0.6
125	0xbe4ccccc	-0.19999999
126	0x3e4cccd0	0.20000005
127	0x3f19999a	0.6
128	0x3f800000	1.0
129	0x3fb33334	1.4000001
130	0x3fe66666	1.8
131	0x400ccccd	2.2
132	0xc00ccccd	-2.2
133	0xbfe66666	-1.8
134	0xbfb33333	-1.4
135	0xbf800000	-1.0
136	0xbf19999a	-0.6
137	0xbe4ccccc	-0.19999999
138	0x3e4cccd0	0.20000005
139	0x3f19999a	0.6
140	0x3f800000	1.0
141	0x3fb33334	1.4000001
142	0x3fe66666	1.8
143	0x400ccccd	2.2
144	0xc00ccccd	-2.2
145	0xbfe66666	-1.8
146	0xbfb33333	-1.4
147	0xbf800000	-1.0
148	0xbf19999a	-0.6
149	0xbe4ccccc	-0.19999999
150	0x3e4cccd0	0.20000005
151	0x3f19999a	0.6
152	0x3f800000	1.0
153	0x3fb33334	1.4000001
154	0x3fe66666	1.8
155	0x400ccccd	2.2
156	0xc00ccccd	-2.2
157	0xbfe66666	-1.8
158	0xbfb33333	-1.4
159	0xbf800000	-1.0
160	0xbf19999a	-0.6
161	0xbe4ccccc	-0.19999999
162	0x3e4cccd0	0.20000005
163	0x3f19999a	0.6
164	0x3f800000	1.0
165	0x3fb33334	1.4000001
166	0x3fe66666	1.8
167	0x400ccccd	2.2
168	0xc00ccccd	-2.2
169	0xbfe66666	-1.8
170	0xbfb33333	-1.4
171	0xbf800000	-1.0
172	0xbf19999a	-0.6
173	0xbe4ccccc	-0.19999999
174	0x3e4cccd0	0.20000005
175	0x3f19999a	0.6
176	0x3f800000	1.0
177	0x3fb33334	1.4000001
178	0x3fe66666	1.8
179	0x400ccccd	2.2
180	0xc00ccccd	-2.2
181	0xbfe66666	-1.8
182	0xbfb33333	-1.4
183	0xbf800000	-1.0
184	0xbf19999a	-0.6
185	0xbe4ccccc	-0.19999999
186	0x3e4cccd0	0.20000005
187	0x3f19999a	0.6
188	0x3f800000	1.0
189	0x3fb33334	1.4000001
190	0x3fe66666	1.8
191	0x400ccccd	2.2

blocks.0.q_mappings.0.base_weight f4 [4, 4]
0	0xbd2cb1dc	-0.042161807
1	0xbf412dcc	-0.75460505
2	0x3e9ab853	0.30218753
3	0x3ed9f81e	0.4257211
4	0x3ec134f8	0.37735724
5	0xbe9f666e	-0.31132835
6	0x3edf6869	0.43634346
7	0xbe0681e9	-0.13135494
8	0xbf0a82d4	-0.5410588
9	0x3ed822b0	0.42213964
10	0xbed08c89	-0.4073222
11	0x3e70260a	0.23452011
12	0xbe4e3c38	-0.20140159
13	0xbed885a1	-0.4228945
14	0xbe9730ec	-0.29529512
15	0x3e10b4e6	0.14131507

blocks.0.q_mappings.0.spline_weight f4 [4, 4, 8]
0	0x3ea906cd	0.33013
1	0x3edf1e91	0.43578008
2	0xbdcb3a69	-0.0992325
3	0xbf111fda	-0.56689227
4	0x3ccc6924	0.024952479
5	0x3e944667	0.28959963
6	0xbdf5b263	-0.11996915
7	0xbf5069fd	-0.81411725
8	0xbeb1c6a6	-0.3472187
9	0xbe9a93f8	-0.30191016
10	0xbeb5847b	-0.35452637
11	0xbf16fae6	-0.5897659
12	0xbf0902c5	-0.5351985
13	0xbf7724b5	-0.96540385
14	0x3ea0a4ed	0.31375828
15	0x3f18184e	0.59412086
16	0x3f05886a	0.52161276
17	0x3e0719a6	0.13193378
18	0x3e5d0811	0.21585108
19	0xbe6861c4	-0.22693545
20	0xbe912a69	-0.2835267
21	0x3e578dba	0.21050158
22	0x3e76e455	0.2411054
23	0xbdfcc331	-0.12341917
24	0x3f37990a	0.71717894
25	0x3ed6d6a2	0.41960627
26	0xbe9756fa	-0.29558545
27	0x3e03ee24	0.12883812
28	0x3bc09156	0.0058767004
29	0xbe440b6a	-0.19144979
30	0x3e89c0df	0.2690496
31	0x3da5a470	0.080880046
32	0xbd8e5239	-0.069492765
33	0xbd9efb54	-0.07762781
34	0x3dd92ee9	0.106046505
35	0x3deea1e2	0.116519704
36	0xbe34c0d8	-0.17651689
37	0xbe6aea34	-0.22940904
38	0xbd4ad933	-0.049523544
39	0x3facb0f7	1.3491505
40	0x3f043d87	0.51656383
41	0x3e029241	0.12751104
42	0xbd43b60a	-0.047781028
43	0xbd03a3d0	-0.032138646
44	0x3ea2928d	0.31752434
45	0x3f767243	0.962681
46	0xbd498e01	-0.04920769
47	0xbd0745ed	-0.03302567
48	0x3edf55ee	0.43620247
49	0x3eb92039	0.36157396
50	0x3ed35674	0.41276896
51	0x3dd021a1	0.10162664
52	0xbaa4de24	-0.001257841
53	0x3de4bc43	0.111687206
54	0xbe305b26	-0.1722227
55	0xbf1ec1ec	-0.6201465
56	0xbf74000d	-0.9531258
57	0xbebd1584	-0.36930478
58	0x3ea04797	0.3130462
59	0xbdda430d	-0.1065732
60	0xbe3fdde5	-0.1873699
61	0x3cf03340	0.029321313
62	0xbdb1297c	-0.08650491
63	0x3d12acd9	0.03580937
64	0x3d2ae46d	0.04172175
65	0x3d85a8ae	0.06526314
66	0xbd5a5b08	-0.05330947
67	0xbcee2c31	-0.029073806
68	0x3e897016	0.26843327
69	0x3e9e1498	0.30875087
70	0x3db31653	0.087444924
71	0xbfcfe414	-1.6241479
72	0xbe8bb964	-0.2728988
73	0xbd7f19c1	-0.06228042
74	0x3dcb50bc	0.09927508
75	0x3dcf07aa	0.10108884
76	0xbebf74ac	-0.373937
77	0xbf3d7385	-0.74004394
78	0x3dc8567e	0.09782122
79	0x3ccc51b2	0.0249413
80	0xbee7e58e	-0.45292324
81	0xbed4d8ce	-0.4157166
82	0xbed24b59	-0.4107311
83	0xbe8083d7	-0.25100586
84	0xbdc89e2e	-0.097957954
85	0xbe17be4a	-0.14818683
86	0x3ec81d17	0.39084694
87	0x3f7697a2	0.96325123
88	0x3ee39914	0.44452727
89	0x3ec938dd	0.39301196
90	0x3c2776f7	0.0102212345
91	0xbc083626	-0.008313691
92	0x3a21fdfe	0.00061795104
93	0xbc4cea9b	-0.012507106
94	0x3bac1b98	0.005252313
95	0xbd2bc3ba	-0.041934706
96	0x3d0d57c4	0.034507528
97	0x3be8d342	0.007105262
98	0xbdf5cc14	-0.120018154
99	0xbdd73746	-0.105085894
100	0x3e5cfcf6	0.21580872
101	0x3e8ca3c2	0.27468687
102	0x3e823fa9	0.25439194
103	0xbf9f4467	-1.244275
104	0xbe512099	-0.20422591
105	0xbe3522da	-0.17689076
106	0xbd86e9d3	-0.06587567
107	0xbd63157c	-0.05544041
108	0xbe671965	-0.22568281
109	0xbf08f04e	-0.53491676
110	0xbc6f27a2	-0.014596852
111	0xbdecd793	-0.11564555
112	0xbeb46add	-0.3523778
113	0xbeb45fa5	-0.3522922
114	0xbe947d01	-0.2900162
115	0xbe2f2153	-0.17102556
116	0x3d7101cd	0.058839608
117	0x3beb69c1	0.0071842377
118	0x3e9ef0b6	0.31043023
119	0x3f0b8bbb	0.54510087
120	0x3f96ea22	1.1790202
121	0x3f05b8ac	0.5223491
122	0xbe8f36fd	-0.2797164
123	0x3dd035c9	0.10166509
124	0x3e6af2b6	0.2294415
125	0xbc12cdbf	-0.0089601865
126	0xbd883b25	-0.06651906
127	0xbde36179	-0.11102576

blocks.0.q_mappings.0.spline_scaler f4 [4, 4]
0	0xbef5f749	-0.48040226
1	0xbf50b662	-0.81528294
2	0xbed61387	-0.41811773
3	0xbeb253a0	-0.34829426
4	0x3e79b402	0.24385074
5	0x3e446893	0.19180517
6	0xbf08b7e4	-0.53405595
7	0x3e14d601	0.14534761
8	0x3e8b226e	0.27174705
9	0x3dc8db30	0.09807432
10	0xbeeefdfa	-0.46678144
11	0xbb966c47	-0.0045905444
12	0x3f1b2861	0.6060849
13	0x3ea1db04	0.31612408
14	0xbef44c2d	-0.47714368
15	0x3e8a8891	0.27057317

blocks.0.q_mappings.0.grid f4 [4, 12]
0	0xc00ccccd	-2.2
1	0xbfe66666	-1.8
2	0xbfb33333	-1.4
3	0xbf800000	-1.0
4	0xbf19999a	-0.6
5	0xbe4ccccc	-0.19999999
6	0x3e4cccd0	0.20000005
7	0x3f19999a	0.6
8	0x3f800000	1.0
9	0x3fb33334	1.4000001
10	0x3fe66666	1.8
11	0x400ccccd	2.2
12	0xc00ccccd	-2.2
13	0xbfe66666	-1.8
14	0xbfb33333	-1.4
15	0xbf800000	-1.0
16	0xbf19999a	-0.6
17	0xbe4ccccc	-0.19999999
18	0x3e4cccd0	0.20000005
19	0x3f19999a	0.6
20	0x3f800000	1.0
21	0x3fb33334	1.4000001
22	0x3fe66666	1.8
23	0x400ccccd	2.2
24	0xc00ccccd	-2.2
25	0xbfe66666	-1.8
26	0xbfb33333	-1.4
27	0xbf800000	-1.0
28	0xbf19999a	-0.6
29	0xbe4ccccc	-0.19999999
30	0x3e4cccd0	0.20000005
31	0x3f19999a	0.6
32	0x3f800000	1.0
33	0x3fb33334	1.4000001
34	0x3fe66666	1.8
35	0x400ccccd	2.2
36	0xc00ccccd	-2.2
37	0xbfe66666	-1.8
38	0xbfb33333	-1.4
39	0xbf800000	-1.0
40	0xbf19999a	-0.6
41	0xbe4ccccc	-0.19999999
42	0x3e4cccd0	0.20000005
43	0x3f19999a	0.6
44	0x3f800000	1.0
45	0x3fb33334	1.4000001
46	0x3fe66666	1.8
47	0x400ccccd	2.2

blocks.0.q_mappings.1.base_weight f4 [4, 4]
0	0x3e21d3ff	0.15803526
1	0x3f0cf423	0.55060023
2	0x3d36844d	0.044559766
3	0x3f162934	0.5865662
4	0xbe52ee08	-0.20598614
5	0x3f33fc79	0.7030712
6	0xbf0bc471	-0.5459662
7	0x3e545afd	0.20737834
8	0xbf357c78	-0.7089305
9	0xbf15e0b3	-0.5854599
10	0x3f2ede6d	0.68308145
11	0xbe78e85e	-0.24307391
12	0x3d500ebb	0.050795298
13	0x3ea0fb04	0.3144151
14	0x3df86283	0.121281646
15	0x3ed8e106	0.4235918

blocks.0.q_mappings.1.spline_weight f4 [4, 4, 8]
0	0xbe94a0bf	-0.2902889
1	0xbe21a27d	-0.1578464
2	0x3e7939c7	0.24338447
3	0xbac7566a	-0.0015208249
4	0xbe614a65	-0.22001036
5	0x3f3ffb4c	0.74992824
6	0x3f35e434	0.71051335
7	0xbe367585	-0.17818268
8	0xbdd08350	-0.10181296
9	0xbe1c40c7	-0.15259086
10	0xbddf8e93	-0.10915866
11	0xbf069c1a	-0.5258194
12	0xbf12774a	-0.5721327
13	0x3eed1489	0.4630473
14	0x3eb1d531	0.34732965
15	0x3e383932	0.17990568
16	0xbf5dccd0	-0.86640644
17	0xbf5934ca	-0.84846175
18	0xbe7cfc2a	-0.24705568
19	0xbda24cf4	-0.07924834
20	0xbec9555f	-0.39322945
21	0xbe8d2610	-0.27568102
22	0x3e9ee2f3	0.31032524
23	0x3e8487c1	0.25884822
24	0x3ec75cfd	0.38938132
25	0x3eb29fda	0.34887582
26	0x3ed8c846	0.42340297
27	0x3e9bd9e3	0.30439672
28	0x3f7ee7bb	0.9957234
29	0x3f8a944e	1.0826509
30	0x3f15243b	0.5825841
31	0x3d95670e	0.07295047
32	0x3e5cec27	0.2157446
33	0x3dfb8175	0.12280551
34	0xbe9ee418	-0.31033397
35	0x3d0526ed	0.032507826
36	0x3dd7ec0e	0.10543071
37	0xbf778bfd	-0.9669798
38	0xbf537525	-0.82600623
39	0x3e43f5cb	0.19136731
40	0x3e176084	0.14782912
41	0x3dce143a	0.10062452
42	0x3d762d50	0.060101807
43	0xbedbb15e	-0.42908758
44	0xbf0e8f74	-0.5568764
45	0x3ee8648c	0.4538921
46	0x3e634176	0.2219294
47	0x3cf5d237	0.030007465
48	0x3f6a4284	0.91507745
49	0x3f50fb8d	0.81633836
50	0x3e06a619	0.13149299
51	0xbca948cf	-0.0206646
52	0x3e9ec4d8	0.31009555
53	0x3e05e0d6	0.1307405
54	0xbe8d0064	-0.2753936
55	0xbdcacb3b	-0.099020444
56	0x3edaf872	0.42767674
57	0x3f288c69	0.6583925
58	0x3f1b261e	0.6060504
59	0x3ec80e78	0.3907354
60	0x3f7a873f	0.9786262
61	0x3f675ba9	0.9037424
62	0x3f0b5f12	0.5444194
63	0x3dad0dc2	0.0844989
64	0x3e9b5dfd	0.30345145
65	0x3de95cc9	0.113946505
66	0xbe954b8f	-0.2915921
67	0x3e4ae6c1	0.19814588
68	0x3e0f8795	0.14016564
69	0xbf4e3f1d	-0.80565053
70	0xbefd2eb8	-0.49449706
71	0x3e844af9	0.2583845
72	0x3bd8206c	0.006595662
73	0x3dd4858d	0.10377035
74	0x3e8245d2	0.25443894
75	0xbdf788a9	-0.12086613
76	0xbe946def	-0.28990123
77	0x3ef3ee7c	0.47642887
78	0x3f081734	0.53160405
79	0x3e71366f	0.23555921
80	0x3e94303c	0.2894305
81	0x3f45e48b	0.77301854
82	0x3ec0a7d8	0.37628055
83	0x3e997bbe	0.2997722
84	0xbe99d548	-0.30045533
85	0x3e651056	0.22369513
86	0x3ce4d99b	0.027935794
87	0x3e314f74	0.17315465
88	0x3ec888ba	0.39166814
89	0x3e5259c2	0.20542052
90	0x3eaa9615	0.33317629
91	0x3e8d8c23	0.27645978
92	0x3f620a9a	0.88297427
93	0x3f54ea6e	0.8317021
94	0x3f369323	0.7131826
95	0x3ed223bc	0.41042888
96	0xbea06537	-0.3132722
97	0xbe2b9b9b	-0.16758578
98	0x3e6f41d7	0.2336496
99	0x3d0704b7	0.03296348
100	0xbde91208	-0.11380392
101	0x3f52d351	0.82353693
102	0x3f3bcb9c	0.7335756
103	0xbe5aa6b3	-0.21352653
104	0xbe2fa46f	-0.1715257
105	0xbe6fced7	-0.23418747
106	0xbe22bae5	-0.15891607
107	0xbf10c8bc	-0.56556296
108	0xbf1d9e49	-0.6156965
109	0x3ee38eaa	0.44444782
110	0x3e9c746a	0.30557567
111	0x3e2c8d23	0.16850714
112	0x3f5d61c7	0.8647732
113	0x3f393584	0.72347283
114	0x3e7fbc08	0.24974072
115	0x3d48b950	0.049004853
116	0x3eb8b547	0.36075804
117	0x3e5d3e22	0.21605733
118	0xbe8cd8bb	-0.27509102
119	0xbe8088ad	-0.25104275
120	0xbed18e38	-0.40928817
121	0xbdf49abe	-0.11943577
122	0xbe81392d	-0.25238934
123	0xbe7196f2	-0.23592737
124	0xbf65f73a	-0.8983036
125	0xbf78adc7	-0.97140163
126	0xbef168f4	-0.47150385
127	0xbd8125e8	-0.06306058

blocks.0.q_mappings.1.spline_scaler f4 [4, 4]
0	0xbe994878	-0.29938102
1	0x3edd9b2a	0.43282443
2	0xbf2404c1	-0.64069754
3	0x3f4da53f	0.8033027
4	0x3f0bbe68	0.5458741
5	0x3e6cae1a	0.2311329
6	0x3e8c514d	0.27405778
7	0x3f086950	0.53285694
8	0xbf11847c	-0.5684278
9	0xbeefd28d	-0.46840325
10	0xbe4eae52	-0.20183685
11	0xbf4a7627	-0.79086536
12	0xbefb8d6f	-0.49131343
13	0x3f1033ee	0.5632924
14	0x3f036f87	0.5134205
15	0xbf46764d	-0.7752426

blocks.0.q_mappings.1.grid f4 [4, 12]
0	0xc00ccccd	-2.2
1	0xbfe66666	-1.8
2	0xbfb33333	-1.4
3	0xbf800000	-1.0
4	0xbf19999a	-0.6
5	0xbe4ccccc	-0.19999999
6	0x3e4cccd0	0.20000005
7	0x3f19999a	0.6
8	0x3f800000	1.0
9	0x3fb33334	1.4000001
10	0x3fe66666	1.8
11	0x400ccccd	2.2
12	0xc00ccccd	-2.2
13	0xbfe66666	-1.8
14	0xbfb33333	-1.4
15	0xbf800000	-1.0
16	0xbf19999a	-0.6
17	0xbe4ccccc	-0.19999999
18	0x3e4cccd0	0.20000005
19	0x3f19999a	0.6
20	0x3f800000	1.0
21	0x3fb33334	1.4000001
22	0x3fe66666	1.8
23	0x400ccccd	2.2
24	0xc00ccccd	-2.2
25	0xbfe66666	-1.8
26	0xbfb33333	-1.4
27	0xbf800000	-1.0
28	0xbf19999a	-0.6
29	0xbe4ccccc	-0.19999999
30	0x3e4cccd0	0.20000005
31	0x3f19999a	0.6
32	0x3f800000	1.0
33	0x3fb33334	1.4000001
34	0x3fe66666	1.8
35	0x400ccccd	2.2
36	0xc00ccccd	-2.2
37	0xbfe66666	-1.8
38	0xbfb33333	-1.4
39	0xbf800000	-1.0
40	0xbf19999a	-0.6
41	0xbe4ccccc	-0.19999999
42	0x3e4cccd0	0.20000005
43	0x3f19999a	0.6
44	0x3f800000	1.0
45	0x3fb33334	1.4000001
46	0x3fe66666	1.8
47	0x400ccccd	2.2

blocks.0.k_mappings.0.base_weight f4 [4, 4]
0	0xbe49bdc4	-0.19701296
1	0xbea3b177	-0.31971332
2	0x3f01b16c	0.5066135
3	0x3f35e3a1	0.7105046
4	0x3f552513	0.83259696
5	0x3d1c1a3a	0.03811095
6	0x3f26c032	0.65137017
7	0x3f504028	0.81347895
8	0xbf5a4436	-0.8526033
9	0xbf1c4770	-0.61046505
10	0xbe598e2c	-0.2124564
11	0xbe057f4f	-0.13036846
12	0xbecf7d12	-0.4052511
13	0xbd611ad9	-0.054957245
14	0xbcce6b93	-0.02519778
15	0x3d901e67	0.07037049

blocks.0.k_mappings.0.spline_weight f4 [4, 4, 8]
0	0xbf310f7d	-0.6916426
1	0xbea1070f	-0.31450698
2	0xbf1a4170	-0.602561
3	0xbeb9c99f	-0.36286637
4	0x401a3c83	2.4099433
5	0x3fa2da73	1.2722915
6	0x3f2b678a	0.66954863
7	0xbfb88943	-1.4416889
8	0xbecee8ba	-0.4041193
9	0xbd585416	-0.052814566
10	0xbe46809b	-0.19384997
11	0xbf614b94	-0.8800595
12	0xbfb7ea1c	-1.436832
13	0xbfd37b97	-1.6522092
14	0xbf804991	-1.0022451
15	0xbeefd543	-0.46842393
16	0x3f30e9b6	0.69106615
17	0xbf0da165	-0.55324394
18	0xbf3039e3	-0.6883833
19	0xbdde7cd2	-0.10863651
20	0x3f1af077	0.6052317
21	0x3e1945dc	0.14968055
22	0xbf107d4d	-0.56441194
23	0xbf60f8f6	-0.87879884
24	0x3fc66e69	1.5502445
25	0x3f61af23	0.8815786
26	0xbc418e52	-0.011813717
27	0x3ed736e2	0.4203406
28	0x3d1e872a	0.03870312
29	0xbe993cf5	-0.2992932
30	0x3ebd57ba	0.36980993
31	0x3f56be79	0.8388439
32	0xbec25e51	-0.37962583
33	0xbcf80415	-0.030275384
34	0x3c210123	0.009826931
35	0xbedd31cc	-0.43202055
36	0x3f951257	1.1646222
37	0x3f207178	0.6267314
38	0x3f53a741	0.82677084
39	0x3dd66403	0.104682945
40	0x3e190640	0.1494379
41	0x3e445380	0.19172478
42	0x3e9b5d3f	0.3034458
43	0x3e1fb0c3	0.15594773
44	0x3e02b971	0.12766053
45	0xbdaf3344	-0.085547
46	0xbe2a380a	-0.1662294
47	0xbe2f5d4f	-0.17125438
48	0xbf0d2bb1	-0.5514479
49	0xbe49846b	-0.1967942
50	0xbdfd5c3d	-0.12371109
51	0x3f3301fa	0.6992489
52	0x3f53dc83	0.8275835
53	0x3f228c2e	0.6349515
54	0x3f15bb4a	0.58488905
55	0x3f0c8232	0.5488616
56	0x3f837a18	1.0271635
57	0xbec3d191	-0.38245824
58	0xbf34f3d0	-0.7068453
59	0x3e97991c	0.29609
60	0x3e38922d	0.18024512
61	0xbfbf8f98	-1.4965696
62	0xbe6965e2	-0.22792771
63	0x3e9d72ff	0.30751798
64	0x3dcc8840	0.09986925
65	0x3c286478	0.01027786
66	0xbda55e32	-0.08074607
67	0x3e170666	0.14748535
68	0xbecbd9b9	-0.39814547
69	0x3da95788	0.082686484
70	0xbebbb5f9	-0.36662272
71	0x3d537726	0.0516273
72	0x3c6e1cdd	0.014533249
73	0x3df679f2	0.12034978
74	0x3e91cbe5	0.28475872
75	0x3e376da6	0.17912921
76	0x3dc163af	0.09442841
77	0xbd423ae4	-0.047419444
78	0xbe39343e	-0.18086335
79	0xbe4341d2	-0.19068077
80	0xbf429ad7	-0.76017517
81	0xbeadf591	-0.33976415
82	0xbddd81ae	-0.1081575
83	0x3f4599d0	0.77187824
84	0x3f35884c	0.709111
85	0x3f112330	0.56694317
86	0x3f1834d9	0.5945564
87	0x3ecc4e69	0.39903572
88	0x3fa00848	1.2502527
89	0xbe9ba11b	-0.3039635
90	0xbf34e109	-0.70655876
91	0x3ebcc13b	0.36866173
92	0x3e5214b9	0.20515718
93	0xbfb3a16b	-1.4033636
94	0xbe9e67ec	-0.3093866
95	0x3e8114a6	0.25211066
96	0xbf00c91c	-0.5030687
97	0x3d84adc0	0.06478453
98	0x3ee5f018	0.4490974
99	0xbe9f7bc2	-0.31149107
100	0xbea1fc13	-0.3163763
101	0x3e01f416	0.12690768
102	0x3ec4153f	0.3829746
103	0x3eff1998	0.49824214
104	0xbf8a9166	-1.0825622
105	0xbf1ef25e	-0.6208857
106	0xbeda8948	-0.42682862
107	0xbe3c192b	-0.18368976
108	0x3de0a81a	0.10969563
109	0xbe491043	-0.1963511
110	0xbe394e4d	-0.18096276
111	0xbcc7dad9	-0.024396347
112	0x3f7d52c5	0.9895442
113	0xbedf6a16	-0.43635625
114	0xbf269275	-0.65067226
115	0x3dd2c72b	0.102918945
116	0x3f100412	0.5625621
117	0xbf3009ee	-0.6876515
118	0xbee2a710	-0.44268084
119	0xbe918cbf	-0.28427693
120	0x3ee7104f	0.4512963
121	0x3dfc1605	0.123088874
122	0x3e355b67	0.17710648
123	0x3e2f1907	0.17099391
124	0xbe901310	-0.28139544
125	0xbd446a0b	-0.047952693
126	0x3da86363	0.082220815
127	0xbea815fa	-0.32829267

blocks.0.k_mappings.0.spline_scaler f4 [4, 4]
0	0xbffffde9	-1.9999362
1	0xbfbf1d7d	-1.4930874
2	0xbfb1104d	-1.38331
3	0xbf54e13d	-0.83156186
4	0xbf790493	-0.97272605
5	0xbe6135fb	-0.21993248
6	0x3f62e45e	0.8862971
7	0xbf995cc4	-1.1981435
8	0xbdabe5f7	-0.08393472
9	0x3e569610	0.20955682
10	0xbf71fad8	-0.9452338
11	0x3fbaf0e8	1.4604769
12	0x3f05b027	0.5222191
13	0xbf332576	-0.69979036
14	0xbfb888bb	-1.4416727
15	0xbe117b8e	-0.14207289

blocks.0.k_mappings.0.grid f4 [4, 12]
0	0xc00ccccd	-2.2
1	0xbfe66666	-1.8
2	0xbfb33333	-1.4
3	0xbf800000	-1.0
4	0xbf19999a	-0.6
5	0xbe4ccccc	-0.19999999
6	0x3e4cccd0	0.20000005
7	0x3f19999a	0.6
8	0x3f800000	1.0
9	0x3fb33334	1.4000001
10	0x3fe66666	1.8
11	0x400ccccd	2.2
12	0xc00ccccd	-2.2
13	0xbfe66666	-1.8
14	0xbfb33333	-1.4
15	0xbf800000	-1.0
16	0xbf19999a	-0.6
17	0xbe4ccccc	-0.19999999
18	0x3e4cccd0	0.20000005
19	0x3f19999a	0.6
20	0x3f800000	1.0
21	0x3fb33334	1.4000001
22	0x3fe66666	1.8
23	0x400ccccd	2.2
24	0xc00ccccd	-2.2
25	0xbfe66666	-1.8
26	0xbfb33333	-1.4
27	0xbf800000	-1.0
28	0xbf19999a	-0.6
29	0xbe4ccccc	-0.19999999
30	0x3e4cccd0	0.20000005
31	0x3f19999a	0.6
32	0x3f800000	1.0
33	0x3fb33334	1.4000001
34	0x3fe66666	1.8
35	0x400ccccd	2.2
36	0xc00ccccd	-2.2
37	0xbfe66666	-1.8
38	0xbfb33333	-1.4
39	0xbf800000	-1.0
40	0xbf19999a	-0.6
41	0xbe4ccccc	-0.19999999
42	0x3e4cccd0	0.20000005
43	0x3f19999a	0.6
44	0x3f800000	1.0
45	0x3fb33334	1.4000001
46	0x3fe66666	1.8
47	0x400ccccd	2.2

blocks.0.k_mappings.1.base_weight f4 [4, 4]
0	0xbf0529b5	-0.52016765
1	0x3deaefc1	0.11471511
2	0x3e9fd079	0.3121374
3	0x3ce0b26a	0.027428824
4	0xbe6e6270	-0.23279738
5	0x3eaafca9	0.3339589
6	0x3f30bab6	0.690349
7	0xbf18a124	-0.5962088
8	0x3ed79061	0.4210234
9	0xbece5c80	-0.40304947
10	0xbee0ecf2	-0.43930775
11	0xbc7caab1	-0.015421555
12	0xbec9101d	-0.39270106
13	0xbdcaa651	-0.098950036
14	0x3f3d631d	0.7397936
15	0x3dbe7500	0.0929966

blocks.0.k_mappings.1.spline_weight f4 [4, 4, 8]
0	0x3da8736d	0.08225141
1	0x3e00f967	0.1259514
2	0xbca2fa59	-0.019894766
3	0x3e3f3f68	0.18676531
4	0x3e887607	0.26652548
5	0x3e2305c8	0.15920174
6	0xbecdce43	-0.40196428
7	0xbf80c28e	-1.0059373
8	0x3d8e4d5d	0.069483496
9	0xbd20f270	-0.039293706
10	0xbd755aa6	-0.059900902
11	0xbe59a99f	-0.21256112
12	0xbc14e00a	-0.009086618
13	0xbd1f3d23	-0.038876664
14	0x3f43d07e	0.7649001
15	0x3f1b285e	0.6060847
16	0x3e1d14ed	0.15340014
17	0xbeff4682	-0.4985848
18	0xbeb2c82f	-0.34918353
19	0xbf2396e1	-0.639021
20	0x3f0e8fa7	0.55687946
21	0x3ef59dfd	0.47972098
22	0xbe3265f7	-0.17421709
23	0xbf9cdaff	-1.2254332
24	0x3f300b63	0.68767375
25	0x3eadfad9	0.33980444
26	0xbee0b8b0	-0.43890905
27	0xbeec6624	-0.46171677
28	0x3d17c069	0.03704873
29	0x3eaab972	0.3334461
30	0x3e69f235	0.22846301
31	0xbe71ad6e	-0.23601314
32	0xbeb2b6d9	-0.34905127
33	0xbe7d730b	-0.24750917
34	0x3bed197f	0.0072357054
35	0xbe1ba647	-0.15200149
36	0xbe948533	-0.29007873
37	0xbec9f3eb	-0.39443907
38	0x3e7ed81b	0.24887125
39	0x3f9201fe	1.1406858
40	0xbdf7c86e	-0.12098776
41	0xbe60f641	-0.21968938
42	0x3cf09dd4	0.029372133
43	0x3e84d37a	0.25942594
44	0x3e753355	0.23945363
45	0x3dc11e77	0.09429639
46	0xbf86db95	-1.0535761
47	0xbf07a8eb	-0.52992123
48	0xbdf8f7da	-0.12156649
49	0x3f09294e	0.5357865
50	0x3ed55107	0.4166338
51	0x3f201d18	0.62544394
52	0xbef67087	-0.48132727
53	0xbf821916	-1.0163906
54	0xbea789aa	-0.32722217
55	0x3f902674	1.1261735
56	0xbee25424	-0.4420482
57	0x3d6660bd	0.0562446
58	0x3f59b6fd	0.8504484
59	0x3f15c5da	0.5850502
60	0xbe265742	-0.16244224
61	0xbeb88f25	-0.3604671
62	0xbe9e65d2	-0.30937058
63	0x3e132647	0.1437007
64	0xbdb937d3	-0.09043851
65	0xbe0e728c	-0.13910884
66	0x3c8c5e9c	0.017134957
67	0xbe1f8e68	-0.15581667
68	0xbe945017	-0.28967354
69	0xbe373674	-0.17891866
70	0x3ebaea47	0.36506864
71	0x3f85a5aa	1.0441182
72	0xbd9d594b	-0.07683047
73	0xbd24b8f2	-0.04021544
74	0x3c3c121b	0.011478926
75	0x3e64bd5b	0.22337858
76	0x3de69e09	0.112606116
77	0x3db77cfa	0.08959384
78	0xbf4de724	-0.8043082
79	0xbf16f8e1	-0.5897351
80	0x3e3e7630	0.18599772
81	0xbeffcd5c	-0.49961364
82	0xbeb2e694	-0.34941542
83	0xbf3732a1	-0.7156163
84	0x3f06cdcd	0.5265778
85	0x3f1252eb	0.5715777
86	0xbda99e29	-0.0828212
87	0xbf9be674	-1.2179704
88	0x3f0b3a1b	0.54385537
89	0x3e567719	0.2094387
90	0xbf0ce2eb	-0.5503375
91	0xbefe1a20	-0.49629307
92	0x3d66612a	0.056245007
93	0x3eacdd9c	0.33762825
94	0x3e614815	0.22000153
95	0xbe6e8cfc	-0.23295969
96	0xbd6c5f4a	-0.057708062
97	0xbde3c5f8	-0.11121744
98	0xbc8c9d69	-0.017164903
99	0xbe4374e1	-0.19087555
100	0xbe8971d1	-0.26844648
101	0xbe0b6a20	-0.13614702
102	0x3eecc13d	0.4624118
103	0x3f82700b	1.0190443
104	0xbd27e3fb	-0.040988903
105	0xbe02e5a5	-0.12782915
106	0xbe3ba694	-0.18325263
107	0xbe4350eb	-0.19073837
108	0x3d1394f1	0.036030713
109	0xbbbec3d7	-0.005821686
110	0x3f82d6b1	1.0221769
111	0x3ee3a918	0.44464946
112	0x3dfa661a	0.122265056
113	0xbef7b0c5	-0.48377052
114	0xbe9c3ffe	-0.30517572
115	0xbf165498	-0.5872283
116	0x3f0209aa	0.50795996
117	0x3ec989e8	0.39363027
118	0xbe6ed372	-0.23322847
119	0xbf98e457	-1.1944684
120	0x3f4c6eb1	0.798564
121	0x3ef208ec	0.47272432
122	0xbeb412e8	-0.35170674
123	0xbed4ca8d	-0.41560784
124	0x3d71add6	0.059003673
125	0x3eaf1ed2	0.34203202
126	0x3e44c2b4	0.19214898
127	0xbe76c63c	-0.24099058

blocks.0.k_mappings.1.spline_scaler f4 [4, 4]
0	0x3e92a2f2	0.28639942
1	0x3ec2b1ed	0.38026372
2	0x3f6a5794	0.91539884
3	0x3f25900f	0.6467294
4	0xbf0f7375	-0.5603555
5	0xbf16da25	-0.5892661
6	0xbf26e95c	-0.6519983
7	0xbf2ea7c3	-0.68224734
8	0x3e968cf0	0.29404402
9	0x3eda3aa4	0.42622864
10	0xbf5248c7	-0.821423
11	0xbf0abe02	-0.5419618
12	0xbeaf887c	-0.34283817
13	0x3f55054f	0.83211225
14	0x3f22063f	0.6329078
15	0x3f4b6d80	0.7946396

blocks.0.k_mappings.1.grid f4 [4, 12]
0	0xc00ccccd	-2.2
1	0xbfe66666	-1.8
2	0xbfb33333	-1.4
3	0xbf800000	-1.0
4	0xbf19999a	-0.6
5	0xbe4ccccc	-0.19999999
6	0x3e4cccd0	0.20000005
7	0x3f19999a	0.6
8	0x3f800000	1.0
9	0x3fb33334	1.4000001
10	0x3fe66666	1.8
11	0x400ccccd	2.2
12	0xc00ccccd	-2.2
13	0xbfe66666	-1.8
14	0xbfb33333	-1.4
15	0xbf800000	-1.0
16	0xbf19999a	-0.6
17	0xbe4ccccc	-0.19999999
18	0x3e4cccd0	0.20000005
19	0x3f19999a	0.6
20	0x3f800000	1.0
21	0x3fb33334	1.4000001
22	0x3fe66666	1.8
23	0x400ccccd	2.2
24	0xc00ccccd	-2.2
25	0xbfe66666	-1.8
26	0xbfb33333	-1.4
27	0xbf800000	-1.0
28	0xbf19999a	-0.6
29	0xbe4ccccc	-0.19999999
30	0x3e4cccd0	0.20000005
31	0x3f19999a	0.6
32	0x3f800000	1.0
33	0x3fb33334	1.4000001
34	0x3fe66666	1.8
35	0x400ccccd	2.2
36	0xc00ccccd	-2.2
37	0xbfe66666	-1.8
38	0xbfb33333	-1.4
39	0xbf800000	-1.0
40	0xbf19999a	-0.6
41	0xbe4ccccc	-0.19999999
42	0x3e4cccd0	0.20000005
43	0x3f19999a	0.6
44	0x3f800000	1.0
45	0x3fb33334	1.4000001
46	0x3fe66666	1.8
47	0x400ccccd	2.2

blocks.0.v_mappings.0.base_weight f4 [4, 4]
0	0xbeb78d22	-0.35849863
1	0x3bc6f2ed	0.0060714395
2	0x3f0acd08	0.542191
3	0x3ebb33b6	0.3656289
4	0xbed6e836	-0.41974038
5	0xbf9db060	-1.231945
6	0xbeb255d8	-0.3483112
7	0x3c908d07	0.017645372
8	0x3ed5e0d2	0.41773087
9	0x3fa75c21	1.307499
10	0x3f4c9b2a	0.7992426
11	0x3ef40f90	0.47668123
12	0xbdc7219a	-0.09723206
13	0xbfb36cf9	-1.4017631
14	0xbf3057a8	-0.6888375
15	0xbec38d41	-0.38193706

blocks.0.v_mappings.0.spline_weight f4 [4, 4, 8]
0	0x3e8a4072	0.27002293
1	0x3dfdbd01	0.12389565
2	0x3e650d07	0.22368251
3	0x3ec868b4	0.39142382
4	0x3e312ef9	0.17303075
5	0x3f176bf4	0.591491
6	0x3e4b7ff9	0.19873036
7	0xbedd6342	-0.4323979
8	0x3dc8c000	0.09802246
9	0xbe059a6e	-0.13047192
10	0xbe6bea1e	-0.23038527
11	0xbee0228f	-0.43776366
12	0xbf3ee5f9	-0.7456966
13	0xbf6ebbf8	-0.9325557
14	0xbf264e5a	-0.64963305
15	0xbe90e657	-0.28300735
16	0xbf76f2d3	-0.9646427
17	0x3e776178	0.24158275
18	0x3ee03e6e	0.4379763
19	0x3ef20f7a	0.47277433
20	0x3eb4fad9	0.35347632
21	0xbe9ccf02	-0.30626684
22	0x3d2455d0	0.0401209
23	0x3c8b922a	0.01703747
24	0xbf910f9d	-1.133289
25	0xbfac1c46	-1.3446128
26	0xbf4752d7	-0.7786078
27	0x3df7dccb	0.1210266
28	0xbe376cb7	-0.17912565
29	0xbea7b6b7	-0.32756588
30	0x3eaaf557	0.33390304
31	0x3f3b6c5b	0.7321221
32	0x3e9d2d7d	0.30698767
33	0x3ebc7d6e	0.36814445
34	0x3d3ab993	0.045587134
35	0xbe8a9be9	-0.27072075
36	0x3cecdd51	0.028914126
37	0xbe539f52	-0.20666245
38	0x3c310958	0.01080545
39	0x3da91198	0.08255309
40	0xbd4ed882	-0.050499447
41	0xbde75d68	-0.11297113
42	0xbeb03b1f	-0.34420106
43	0xbebc5a34	-0.3678757
44	0xbdb1cb5a	-0.08681364
45	0x3ebba39b	0.3664826
46	0x3ea8decc	0.3298248
47	0x3e6c57ed	0.23080416
48	0x3f575367	0.84111637
49	0x3f1fef80	0.62474823
50	0x3ed13c7e	0.40866464
51	0x3b185e82	0.002324969
52	0x3de43293	0.11142459
53	0x3f1f12eb	0.6213824
54	0x3db68d29	0.08913643
55	0xbee872d0	-0.45400095
56	0x3d109887	0.03530171
57	0xbefc6505	-0.49295822
58	0xbf01f4f4	-0.50764394
59	0x3ebd34b3	0.3695427
60	0x3ec171b8	0.37782073
61	0x3caf7eed	0.021422828
62	0xbcf25200	-0.029580116
63	0xbf593980	-0.84853363
64	0x3ea6ad7d	0.32554236
65	0x3eb3de09	0.35130337
66	0x3c202ddf	0.0097765615
67	0xbea997bd	-0.3312358
68	0xbe003754	-0.12521106
69	0xbec9a292	-0.39381844
70	0xbe23ccb5	-0.15996058
71	0x3d6e3e39	0.05816481
72	0x3dab0f9f	0.08352589
73	0x3cb68368	0.022279456
74	0xbe83276e	-0.2561602
75	0xbdccefe1	-0.10006691
76	0x3edbd076	0.4293248
77	0x3f872fa9	1.056142
78	0x3f6598a0	0.8968601
79	0x3f2223a5	0.6333564
80	0x3f304707	0.6885838
81	0x3f1f5ab5	0.6224778
82	0x3ec07f3a	0.37597066
83	0xbe19e0d8	-0.15027177
84	0xbc8e5cb9	-0.017378198
85	0x3ea62e6f	0.324573
86	0xbe5d92c0	-0.21638012
87	0xbf3d4f5e	-0.7394923
88	0xbdd39dbd	-0.103328206
89	0x3ee2c45f	0.44290444
90	0x3f2b421f	0.6689777
91	0xbe7602d6	-0.2402452
92	0xbe99da6b	-0.30049452
93	0x3e02b711	0.12765147
94	0x3ec35d3d	0.38157073
95	0x3fb05704	1.3776555
96	0x3e6054b0	0.21907306
97	0x3e8d59e0	0.27607632
98	0xb91abdee	-0.00014757339
99	0xbe813d85	-0.25242248
100	0x3d67bcad	0.05657642
101	0xbe903e2b	-0.2817243
102	0xbd446bee	-0.047954492
103	0x3e322422	0.17396596
104	0x3d336444	0.043796793
105	0x3b09df17	0.0021037513
106	0xbe5ea618	-0.21743047
107	0xbe31f5f0	-0.17378974
108	0x3e0df04a	0.13861194
109	0x3f0bd160	0.54616356
110	0x3ecbbec6	0.39793986
111	0x3e7d2999	0.247229
112	0xbf528c18	-0.82245016
113	0xbf011d2e	-0.5043515
114	0xbe905005	-0.2818605
115	0x3e1df9f0	0.15427375
116	0x3c9af9f6	0.018918019
117	0xbefe1844	-0.49627888
118	0xbdbcc731	-0.0921768
119	0x3e92549b	0.28580174
120	0xbdc0372e	-0.09385525
121	0xbf1e028d	-0.6172264
122	0xbf1a7f0e	-0.6035012
123	0x3e95b48e	0.29239315
124	0x3e92717b	0.28602204
125	0xbdd7248b	-0.10505017
126	0xbddc41fc	-0.10754773
127	0xbf4010eb	-0.75025815

blocks.0.v_mappings.0.spline_scaler f4 [4, 4]
0	0x3f214e2f	0.63009924
1	0xbf5585c2	-0.83407223
2	0x3fd34f25	1.6508528
3	0xbf15a1ab	-0.5844981
4	0x3e66c1b2	0.22534826
5	0xbe9e5011	-0.3092046
6	0x3f48b6f0	0.7840414
7	0x3ef172fb	0.47158036
8	0xbf58c5c7	-0.84676784
9	0x3f4acfb4	0.7922318
10	0xbf352d4d	-0.7077225
11	0x3f4d4ba4	0.80193543
12	0x3e5dc587	0.21657382
13	0xbea2b000	-0.31774902
14	0xbf2068fe	-0.62660205
15	0x3ee2d7dd	0.44305316

blocks.0.v_mappings.0.grid f4 [4, 12]
0	0xc00ccccd	-2.2
1	0xbfe66666	-1.8
2	0xbfb33333	-1.4
3	0xbf800000	-1.0
4	0xbf19999a	-0.6
5	0xbe4ccccc	-0.19999999
6	0x3e4cccd0	0.20000005
7	0x3f19999a	0.6
8	0x3f800000	1.0
9	0x3fb33334	1.4000001
10	0x3fe66666	1.8
11	0x400ccccd	2.2
12	0xc00ccccd	-2.2
13	0xbfe66666	-1.8
14	0xbfb33333	-1.4
15	0xbf800000	-1.0
16	0xbf19999a	-0.6
17	0xbe4ccccc	-0.19999999
18	0x3e4cccd0	0.20000005
19	0x3f19999a	0.6
20	0x3f800000	1.0
21	0x3fb33334	1.4000001
22	0x3fe66666	1.8
23	0x400ccccd	2.2
24	0xc00ccccd	-2.2
25	0xbfe66666	-1.8
26	0xbfb33333	-1.4
27	0xbf800000	-1.0
28	0xbf19999a	-0.6
29	0xbe4ccccc	-0.19999999
30	0x3e4cccd0	0.20000005
31	0x3f19999a	0.6
32	0x3f800000	1.0
33	0x3fb33334	1.4000001
34	0x3fe66666	1.8
35	0x400ccccd	2.2
36	0xc00ccccd	-2.2
37	0xbfe66666	-1.8
38	0xbfb33333	-1.4
39	0xbf800000	-1.0
40	0xbf19999a	-0.6
41	0xbe4ccccc	-0.19999999
42	0x3e4cccd0	0.20000005
43	0x3f19999a	0.6
44	0x3f800000	1.0
45	0x3fb33334	1.4000001
46	0x3fe66666	1.8
47	0x400ccccd	2.2

blocks.0.v_mappings.1.base_weight f4 [4, 4]
0	0xbdbc0349	-0.09180314
1	0x3f1f6357	0.62260956
2	0xbf5fee62	-0.8747312
3	0x3ee37df6	0.44432038
4	0xbe93b525	-0.2884914
5	0xbed1f7d7	-0.410094
6	0x3f7f6dcd	0.9977692
7	0xbd92bb07	-0.07164579
8	0x3ec92b26	0.39290732
9	0x3d210998	0.03931579
10	0x3e5ef241	0.217721
11	0x3f221118	0.63307333
12	0x3f79dcdc	0.9760263
13	0x3f0bfab7	0.54679435
14	0xbf8e2e83	-1.1107944
15	0x3eec7ae8	0.4618752

blocks.0.v_mappings.1.spline_weight f4 [4, 4, 8]
0	0x3f82ada3	1.020924
1	0x3f6a8850	0.91614246
2	0x3f048643	0.5176737
3	0x3ebbeb22	0.3670283
4	0x3e86d13d	0.2633151
5	0x3e62016b	0.22070853
6	0xbdffb126	-0.1248496
7	0x3e19087a	0.1494464
8	0x3e221878	0.15829647
9	0xbca9b4db	-0.020716121
10	0x3e42be58	0.19017923
11	0x3dbc14f5	0.09183685
12	0x3e3c295b	0.18375151
13	0x3e39f28b	0.18158929
14	0xbf4f26cf	-0.8091859
15	0xbeebfd30	-0.46091604
16	0x3f802e7a	1.0014184
17	0x3f4ab4ec	0.79182315
18	0x3f1632c0	0.5867119
19	0xbe7b283e	-0.2452707
20	0xbe2f11ad	-0.17096587
21	0xbe1c1f45	-0.15246303
22	0xbf179dd5	-0.5922521
23	0x3ec8be14	0.39207518
24	0xbfe6dc88	-1.8036051
25	0xbfd6cd88	-1.6781473
26	0xbeb3bd59	-0.35105398
27	0xbecc1c02	-0.39865118
28	0x3d975255	0.073887505
29	0x3f2e2835	0.680301
30	0x3dfbd712	0.12296881
31	0xbe8d3eb7	-0.2758691
32	0xbeb9a453	-0.36258182
33	0xbf4cee0b	-0.80050725
34	0xbf156638	-0.583591
35	0xbf4e8458	-0.8067069
36	0xbf4e90fe	-0.8068999
37	0xbb16ec5f	-0.0023029072
38	0x3c9dcb5c	0.019262008
39	0xbea32bf0	-0.3186946
40	0x3e032220	0.12805986
41	0xbd17c853	-0.03705628
42	0xbe8aa8a9	-0.27081802
43	0xbef49011	-0.47766164
44	0x3dc4c3df	0.09607672
45	0x3f2c8689	0.67392784
46	0x3e81d59c	0.25358284
47	0xbf4d0b30	-0.80095196
48	0xbef918d0	-0.48651743
49	0xc00d735b	-2.2101657
50	0x3ebdbe9a	0.3705948
51	0x3f3396e7	0.70152134
52	0xbd706705	-0.058691997
53	0xbf83ee21	-1.0307046
54	0xbf77275f	-0.9654445
55	0x3f233e7f	0.63767236
56	0x3f8af245	1.0855185
57	0x3fedab5b	1.8567919
58	0x400262a1	2.0372698
59	0x3f9b959e	1.2155035
60	0x3e9c86ba	0.30571538
61	0xbd07d6a0	-0.033163667
62	0xbec4a59e	-0.38407606
63	0xbf0ac83a	-0.5421177
64	0x3e4df756	0.20113882
65	0x3f0fc47e	0.561592
66	0x3f2d952f	0.6780576
67	0x3f1bb44f	0.60822004
68	0x3ce8a779	0.02840017
69	0x3e1943f4	0.14967328
70	0x3f80b87c	1.00563
71	0xbde8e086	-0.113709494
72	0x3e928192	0.2861448
73	0x3eb15517	0.3463523
74	0x3e4cf337	0.20014654
75	0xbe6b2c77	-0.2296618
76	0xbe9551a6	-0.29163855
77	0xbc030020	-0.007995635
78	0xbf27df7d	-0.6557539
79	0xbebdd2bc	-0.3707484
80	0x3fa1c1f4	1.2637315
81	0x3eb0f509	0.34561947
82	0xbe5d5a14	-0.21616393
83	0xbf37ad71	-0.71749026
84	0xbeb1585d	-0.34637728
85	0x3f0fdeff	0.5619964
86	0x3e7b8da2	0.24565747
87	0xbf11cb57	-0.56950897
88	0xc008eae1	-2.1393359
89	0xc0083f92	-2.12888
90	0xbff6354e	-1.9235017
91	0xbf7f3d48	-0.9970288
92	0xbdd75687	-0.10514551
93	0x3e5ba2c3	0.21448807
94	0x3dd6cdd9	0.10488481
95	0xbdfa0e60	-0.12209773
96	0x3e7e2b92	0.24821308
97	0x3f1a38d2	0.6024295
98	0x3efb3964	0.49067223
99	0x3f263003	0.6491701
100	0x3f2a6290	0.66556644
101	0x3f084832	0.5323516
102	0x3f56779b	0.83776253
103	0xbf3123dd	-0.6919535
104	0xbecf240d	-0.40457192
105	0xbe9fa73c	-0.31182277
106	0xbe0e5f62	-0.13903573
107	0x3e137394	0.14399558
108	0x3f625f89	0.88427025
109	0x3ecf5245	0.40492454
110	0x3d93129f	0.07181286
111	0x3ea9793a	0.331003
112	0xbf05affb	-0.5222165
113	0x3eb0c862	0.3452788
114	0x3f9148ce	1.1350343
115	0x3e11399f	0.14182137
116	0xbe8d8c4b	-0.27646098
117	0xbed22f61	-0.41051772
118	0x3dfa3ab1	0.12218226
119	0x3fb844a9	1.4395953
120	0xc03655cf	-2.8489873
121	0xc050014d	-3.2500794
122	0xc05592b5	-3.3370793
123	0xbf849b10	-1.0359821
124	0xbee96e8b	-0.4559215
125	0x3e37522c	0.1790244
126	0x3eef71ca	0.46766502
127	0xbe5ac399	-0.21363677

blocks.0.v_mappings.1.spline_scaler f4 [4, 4]
0	0x3f6769a0	0.90395546
1	0xbec724fd	-0.38895407
2	0x3f34c348	0.70610476
3	0x3f136c35	0.57586986
4	0xbf88c6c6	-1.0685661
5	0xbf0ce096	-0.5503019
6	0xbf52e9d5	-0.8238805
7	0xbf230117	-0.6367354
8	0xbf84e4e2	-1.038235
9	0x3f33d46f	0.7024602
10	0xbfab5647	-1.3385705
11	0xbe52c68b	-0.2058355
12	0xbf5c481d	-0.86047536
13	0xbf30141f	-0.687807
14	0x3fb42a9f	1.4075507
15	0xbf4c6eb7	-0.7985644

blocks.0.v_mappings.1.grid f4 [4, 12]
0	0xc00ccccd	-2.2
1	0xbfe66666	-1.8
2	0xbfb33333	-1.4
3	0xbf800000	-1.0
4	0xbf19999a	-0.6
5	0xbe4ccccc	-0.19999999
6	0x3e4cccd0	0.20000005
7	0x3f19999a	0.6
8	0x3f800000	1.0
9	0x3fb33334	1.4000001
10	0x3fe66666	1.8
11	0x400ccccd	2.2
12	0xc00ccccd	-2.2
13	0xbfe66666	-1.8
14	0xbfb33333	-1.4
15	0xbf800000	-1.0
16	0xbf19999a	-0.6
17	0xbe4ccccc	-0.19999999
18	0x3e4cccd0	0.20000005
19	0x3f19999a	0.6
20	0x3f800000	1.0
21	0x3fb33334	1.4000001
22	0x3fe66666	1.8
23	0x400ccccd	2.2
24	0xc00ccccd	-2.2
25	0xbfe66666	-1.8
26	0xbfb33333	-1.4
27	0xbf800000	-1.0
28	0xbf19999a	-0.6
29	0xbe4ccccc	-0.19999999
30	0x3e4cccd0	0.20000005
31	0x3f19999a	0.6
32	0x3f800000	1.0
33	0x3fb33334	1.4000001
34	0x3fe66666	1.8
35	0x400ccccd	2.2
36	0xc00ccccd	-2.2
37	0xbfe66666	-1.8
38	0xbfb33333	-1.4
39	0xbf800000	-1.0
40	0xbf19999a	-0.6
41	0xbe4ccccc	-0.19999999
42	0x3e4cccd0	0.20000005
43	0x3f19999a	0.6
44	0x3f800000	1.0
45	0x3fb33334	1.4000001
46	0x3fe66666	1.8
47	0x400ccccd	2.2

blocks.1.q_mappings.0.base_weight f4 [4, 4]
0	0xbf430341	-0.7617684
1	0xbdb1603a	-0.08660932
2	0xbdb5934f	-0.088659875
3	0x3ecdef04	0.40221417
4	0x3e37c8ff	0.17947768
5	0xbec4ab79	-0.38412073
6	0x3bc6d3ab	0.0060677133
7	0xbe776a82	-0.24161723
8	0x3f058142	0.52150357
9	0xbf192933	-0.5982849
10	0x3e759f9e	0.2398667
11	0xbf32faad	-0.6991375
12	0xbed171fa	-0.4090727
13	0x3f34e977	0.7066874
14	0xbe576f26	-0.21038494
15	0x3f4a7a48	0.79092836
