weights/benchmark-one/kan_vit_8epochs.pth (torch, 40275 bytes, 57 tensors)

v_class f4 [1, 8]
0	0x3eb4e4c0	0.35330772
1	0x3f13e379	0.5776897
2	0x3ed73439	0.4203203
3	0x3d24dd9a	0.0402504
4	0x3fd9f866	1.702893
5	0x3c71b019	0.014751458
6	0x3faf2b5c	1.3685107
7	0x3efe5c28	0.49679685

linear_mapper.base_weight f4 [8, 16]
0	0x3ecd4471	0.4009128
1	0xbe8b3d7d	-0.2719535
2	0xbe59ff70	-0.21288848
3	0x3e787d54	0.24266559
4	0x3f47315f	0.7780971
5	0x3e094e98	0.13408887
6	0x3d8d24d9	0.06891794
7	0x3f404595	0.75106174
8	0x3f958fe9	1.1684543
9	0x3e6579df	0.22409771
10	0x3f11e8e9	0.5699602
11	0x3f93cde6	1.154721
12	0x3f1eebfb	0.6207883
13	0xbcabf91c	-0.020992808
14	0xbe00d644	-0.12581736
15	0x3ea73bdc	0.32662857
16	0x3efff7b4	0.4999367
17	0x3ed76daf	0.4207587
18	0x3eac3bf7	0.336395
19	0xbda7253a	-0.08161397
20	0xbdb81bc1	-0.08989669
21	0xbe368200	-0.17823029
22	0x3da428f3	0.08015623
23	0x3e8e91ee	0.2784571
24	0xbec4326b	-0.38319716
25	0x3f2582f5	0.6465295
26	0x3f3b48e1	0.7315808
27	0xbcdc6e11	-0.026907953
28	0x3edfea2c	0.43733346
29	0x3f11d642	0.56967556
30	0x3eb4b683	0.35295495
31	0xbf4f5c3c	-0.81000113
32	0xbe4aeed0	-0.19817662
33	0xbe760241	-0.24024297
34	0xbe544e64	-0.20733029
35	0xbef0371c	-0.46917045
36	0x3dab483e	0.083633885
37	0xbdce53f9	-0.1007461
38	0xbec46190	-0.38355684
39	0x3ddc8ae7	0.10768681
40	0x3f764467	0.96198124
41	0x3ede4600	0.4341278
42	0x3f48b5a5	0.7840217
43	0x3f4e1527	0.80501026
44	0x3ee372b7	0.44423458
45	0xbde82ef2	-0.11337079
46	0x3eab8405	0.3349916
47	0x3d97cd14	0.074121624
48	0x3e273af7	0.16331087
49	0xbee0848e	-0.4385113
50	0xbec9d23d	-0.39418212
51	0xbd1f7535	-0.038930137
52	0x3ed19ec0	0.4094143
53	0x3ee590f4	0.44837153
54	0x3ee675da	0.4501179
55	0x3f3e85fc	0.74423194
56	0x3eec028b	0.4609569
57	0x3e527adf	0.20554684
58	0x3ea39a05	0.31953445
59	0x3e9b336f	0.30312678
60	0xbe3527b2	-0.17690924
61	0xbecc7c49	-0.39938572
62	0xbf03fba8	-0.5155587
63	0xbd3b49ea	-0.045724787
64	0x3d89b8ec	0.06724724
65	0xbe847f33	-0.25878295
66	0xbe7a7083	-0.24456982
67	0xbeefc218	-0.4682777
68	0xbe1da47c	-0.15394777
69	0xbf156da8	-0.5837045
70	0xbe7dc6ef	-0.24782918
71	0xbe17dd61	-0.14830543
72	0xbe8d783f	-0.27630803
73	0xbee74b96	-0.45174855
74	0xbe060992	-0.13089588
75	0xbe67998f	-0.22617172
76	0xbe41e55a	-0.18935147
77	0xbf3bb3ab	-0.73321027
78	0xbf025938	-0.50917387
79	0x3dde0c09	0.10842139
80	0xbe06d133	-0.1316574
81	0xbd97a1bf	-0.074038975
82	0x3e128fbd	0.14312644
83	0xbebe7552	-0.37198883
84	0xbef56979	-0.47932032
85	0xbeb0172b	-0.34392676
86	0xbdb10b28	-0.08644706
87	0xbf517f52	-0.818349
88	0xbf118bbf	-0.5685386
89	0x3ebc285d	0.36749545
90	0x3ecfa994	0.40559065
91	0xbe9d30f0	-0.307014
92	0xbe477f5a	-0.19482175
93	0xbe25f8e7	-0.1620823
94	0xbea352e9	-0.31899193
95	0xbe6eb42c	-0.23310918
96	0x3e8594a5	0.2608997
97	0x3d3795b8	0.044820517
98	0xbd50fba2	-0.051021226
99	0x3d5eb3be	0.054370634
100	0x3ddff5c8	0.10935551
101	0x3e73f763	0.2382484
102	0x3d861799	0.0654747
103	0x3dc4f15c	0.09616348
104	0xbe4b0eb7	-0.19829832
105	0x3e0b2ec1	0.13592054
106	0x3dadc172	0.084841624
107	0xbe033056	-0.12811407
108	0xbf376f28	-0.71653986
109	0xbeae04ce	-0.3398804
110	0xbe03ced2	-0.12871864
111	0xbf0b8c45	-0.5451091
112	0x3e66b658	0.22530496
113	0xbce57f11	-0.028014692
114	0xbd1cfb7c	-0.03832577
115	0x3b8ce5a0	0.0042998344
116	0x3eb5fa5c	0.35542572
117	0xbebb92d1	-0.3663545
118	0xbea20fa4	-0.31652558
119	0xbe9d0643	-0.3066884
120	0x3ed54049	0.41650608
121	0xbe5673ad	-0.20942564
122	0x3ca54092	0.020172391
123	0xbe165891	-0.14682223
124	0x3e58351f	0.21114014
125	0xbeb6e9bc	-0.357252
126	0xbee438dd	-0.44574633
127	0xbeace484	-0.33768094

linear_mapper.spline_weight f4 [8, 16, 8]
0	0x3b14e537	0.002271963
1	0x3c2a8f61	0.010410161
2	0xbda20180	-0.07910442
3	0xbd29f584	-0.041493908
4	0x3c52d839	0.012868934
5	0x3efb5e38	0.4909532
6	0xbe53a632	-0.20668867
7	0xbf00fabe	-0.503826
8	0xbb757c97	-0.0037458295
9	0xbc56b296	-0.013104102
10	0x3d507049	0.050888333
11	0x3d305924	0.04305376
12	0xbd2d3e2d	-0.042295624
13	0xbcf6cc58	-0.030126736
14	0x3dc8f390	0.09812081
15	0x3d93c27a	0.07214828
16	0xbb2479e9	-0.0025097078
17	0xbba96db5	-0.005170549
18	0x3db2c282	0.08728506
19	0x3d35f81a	0.04442606
20	0xbd6284b9	-0.055302355
21	0x3be9d00d	0.0071353973
22	0x3bab3b72	0.0052255923
23	0x3d0b236d	0.03396933
24	0xb8af515d	-8.359805e-05
25	0xba87f699	-0.0010373174
26	0x3dc02050	0.09381163
27	0x3d7fb92d	0.062432457
28	0xbd4637aa	-0.04839293
29	0x3d74b8a6	0.059746407
30	0xbe3d2590	-0.1847136
31	0xbe8d762a	-0.27629215
32	0x3ab818cc	0.0014045476
33	0x3c22ff53	0.009948569
34	0xbe330cb3	-0.17485313
35	0xbe0d8619	-0.13820685
36	0x3c79e30b	0.015251885
37	0xbe52734b	-0.20551793
38	0x3f4c9230	0.79910564
39	0x3fb0fb66	1.3826721
40	0x3b5a5793	0.0033316358
41	0x3bd57827	0.0065145674
42	0xbd1389d3	-0.03602011
43	0x3b9fd6d1	0.004877903
44	0x3c1435ca	0.009046027
45	0xbebe14e5	-0.37125316
46	0x3e2cc63b	0.16872494
47	0x3e89b0f5	0.2689282
48	0xbb069770	-0.002053704
49	0xbc0eb998	-0.008711241
50	0xbd642129	-0.055695686
51	0xbd3e8b80	-0.046519756
52	0x3d7d096d	0.061776567
53	0xbcba2be7	-0.022726012
54	0x3debc679	0.11512465
55	0x3dc09551	0.0940348
56	0x3b8f28d1	0.0043688794
57	0x3c33928d	0.010960233
58	0xbe0f36f7	-0.13985811
59	0xbd54719d	-0.051866163
60	0x3dcee58d	0.10102377
61	0xbea2028f	-0.31642577
62	0x3f0651a0	0.524683
63	0x3f6487eb	0.89269894
64	0x3bab877a	0.005234656
65	0x3c535811	0.012899415
66	0xbe716d0d	-0.23576756
67	0xbe0af6c7	-0.135707
68	0xbcc05dd4	-0.02348224
69	0x3f214a27	0.6300377
70	0x3f48d223	0.78445643
71	0x3f81ad32	1.013098
72	0xbb1c69dd	-0.002386681
73	0xbc33a325	-0.01096419
74	0xbe3d181c	-0.18466228
75	0xbe0fd6c3	-0.14046769
76	0x3d0827b0	0.033240974
77	0x3f9bb11f	1.2163428
78	0x3e5adabb	0.21372502
79	0xbe3f159c	-0.18660587
80	0xba134d49	-0.00056191214
81	0xbb807d4b	-0.003921186
82	0x3e3636a1	0.17794277
83	0x3e119bb3	0.14219551
84	0xbd7b9840	-0.061424494
85	0xbf8afadf	-1.085781
86	0xbe076a7c	-0.13224214
87	0x3e161f08	0.14660275
88	0x3b5482da	0.0032426626
89	0x3bc0d9d1	0.0058853407
90	0xbe78bb7a	-0.24290267
91	0xbe295290	-0.16535401
92	0xbcdae07c	-0.02671837
93	0x3f3004ae	0.6875714
94	0x3f8683bc	1.0508952
95	0x3f93dd3b	1.1551889
96	0xbbc0b936	-0.005881454
97	0xbc8e6a60	-0.017384708
98	0x3de1c74a	0.110243395
99	0x3d14243c	0.03616737
100	0xbd990e04	-0.074733764
101	0xbe3f35ff	-0.18672942
102	0xbecdef00	-0.40221405
103	0xbf133fb3	-0.5751907
104	0x3b6fa509	0.0036566874
105	0x3c18755b	0.0093053235
106	0x3d054442	0.0325358
107	0x3d33abcf	0.04386502
108	0xbd58b740	-0.052909136
109	0x3d688ce7	0.056775
110	0xbd1d5460	-0.038410544
111	0xbc81531f	-0.015786706
112	0x3b8a0f33	0.0042132377
113	0x3c21b447	0.009869642
114	0x3d2c471d	0.042060006
115	0x3d4e0512	0.050297804
116	0xbd803b06	-0.06261258
117	0xbd0a1c35	-0.033718307
118	0xbd281b8a	-0.04104189
119	0x3ba48ad0	0.0050214306
120	0xba93f6ff	-0.001128882
121	0xbb9355e1	-0.0044963215
122	0xbd520a09	-0.0512791
123	0xbcc3e8c5	-0.023914704
124	0x3d3c88af	0.04602879
125	0xbe57db23	-0.21079688
126	0x3eefbd49	0.468241
127	0x3f10f266	0.5661987
128	0x3ae10a2d	0.001716917
129	0x3a0d2ffa	0.0005385872
130	0xbf3c7ba9	-0.7362619
131	0xbf00462f	-0.5010709
132	0xbdefbaef	-0.11705577
133	0x3f30afd6	0.69018304
134	0x3e26acb2	0.16276816
135	0xbe76c015	-0.24096711
136	0xbbccee11	-0.0062539657
137	0xbc939b29	-0.018018322
138	0xbfa3d02c	-1.2797904
139	0xbf8c27f6	-1.0949695
140	0xbd25dd38	-0.040494174
141	0x3f838d33	1.0277466
142	0x3da57c79	0.08080382
143	0xbf17f7a1	-0.59362227
144	0xb99396b6	-0.00028150313
145	0x3a706916	0.00091709325
146	0xbf8f43d1	-1.1192571
147	0xbf59a94d	-0.8502396
148	0xbe173760	-0.14767218
149	0x3f586594	0.84529996
150	0x3e8d550c	0.27603948
151	0xbea78c32	-0.32724148
152	0xbac95cf6	-0.0015362788
153	0xbc0e1d21	-0.008673937
154	0x3dbe8567	0.09302788
155	0x3e0a0668	0.13479006
156	0x3d9d1b5d	0.07671235
157	0xbee7ea10	-0.45295763
158	0x3dce1ab7	0.10063689
159	0x3eeb7eff	0.45995328
160	0x3ad9cfaa	0.0016617675
161	0x3b895f06	0.004192236
162	0x3f5cbaac	0.8622234
163	0x3efa2a5c	0.48860443
164	0xbe9d99ba	-0.30781347
165	0xbf03a677	-0.5142588
166	0x3e8dd4b6	0.27701348
167	0x3f368c33	0.7130768
168	0xbb0e7cc8	-0.0021741856
169	0xbc019ba4	-0.007910643
170	0xbefe9e97	-0.4973037
171	0xbe809559	-0.25113943
172	0x3ea2fc5d	0.31833163
173	0x3e45525d	0.192697
174	0xbeb55a25	-0.35420337
175	0xbf2d5896	-0.67713296
176	0xb988c909	-0.00026089724
177	0x3b238a83	0.0024954386
178	0x3f336cae	0.7008771
179	0x3efddae4	0.49581063
180	0xbe109e85	-0.1412297
181	0xbf35aadb	-0.7096383
182	0x3dd8d6d0	0.10587847
183	0x3e774a1b	0.24149363
184	0x3b1e5e9d	0.002416528
185	0x3beea4a8	0.007282812
186	0x3e5c106a	0.21490636
187	0x3e54ff87	0.20800601
188	0x3db63b06	0.088979766
189	0xbe549b1a	-0.20762292
190	0xbd963588	-0.07334429
191	0xba1aef7c	-0.000591032
192	0x3b531d00	0.003221333
193	0x3c50b876	0.012739291
194	0xbd40af97	-0.047042456
195	0xbd734fca	-0.059402265
196	0x3e0c00a2	0.13672116
197	0xbdc395d9	-0.095500655
198	0x3da97785	0.0827475
199	0x3eedb5e8	0.46427846
200	0xb9adff34	-0.00033187272
201	0xbb7d003c	-0.0038604876
202	0xbec3e7f5	-0.38262907
203	0xbef4774f	-0.47747275
204	0xbeffbfe5	-0.4995109
205	0x3f636c65	0.8883727
206	0x3f4fd0c3	0.8117792
207	0x3e7485b1	0.23879124
208	0xb8d71a9c	-0.00010256955
209	0x3b38ce12	0.0028199
210	0x3e96449a	0.29349214
211	0x3ea16634	0.31523287
212	0x3f1e7d50	0.6190996
213	0xbe5154a0	-0.20442438
214	0xbf9865aa	-1.1906025
215	0xbf52c638	-0.8233371
216	0xb9802a47	-0.00024445562
217	0xbb0d5b83	-0.0021569438
218	0xbe3f7979	-0.18698682
219	0xbe990368	-0.2988541
220	0xbe6ce0ec	-0.23132676
221	0x3f1e249d	0.6177462
222	0x3c8db636	0.017298799
223	0xbf001b66	-0.50041807
224	0x3a553134	0.0008132637
225	0x3befe2d4	0.007320741
226	0x3cf1a6ff	0.029498575
227	0xbe1f4952	-0.15555313
228	0xbe968f1e	-0.29406065
229	0x3e21bc7a	0.15794554
230	0x3ed1b240	0.40956306
231	0x3e729b1a	0.23691979
232	0x3bc66d41	0.0060555045
233	0x3c808a97	0.015691085
234	0x3f8dc4b7	1.1075658
235	0x3f857330	1.0425777
236	0x3e82828e	0.2549023
237	0xbfb5ff0c	-1.4218459
238	0xbf1bee9a	-0.6091095
239	0xbed5cfcb	-0.41760096
240	0xba906528	-0.0011016475
241	0xbbd24e67	-0.0064180377
242	0x3f7fa976	0.9986795
243	0x3f377b75	0.71672755
244	0xbe207477	-0.15669428
245	0xbf960fdc	-1.172359
246	0x3e2e0ec2	0.16997817
247	0x3f5ee943	0.8707468
248	0x3ac905f4	0.0015336857
249	0x3bf3733d	0.007429509
250	0xbf0964a6	-0.536692
251	0xbe64760c	-0.22310656
252	0x3ed8faf7	0.4237897
253	0x3f1d6664	0.6148436
254	0xbf6fc5b2	-0.93661034
255	0xbfdbc476	-1.716933

linear_mapper.spline_scaler f4 [8, 16]
0	0x3cfff62f	0.03124532
1	0x3a8eda0b	0.0010898722
2	0x3b28e12d	0.002576898
3	0x3c19dede	0.009391515
4	0x3f2370eb	0.63844174
5	0xbd0eaecc	-0.034834668
6	0x3c162677	0.009164444
7	0x3e46b3e1	0.19404556
8	0x3ef336dc	0.47502792
9	0x3f0a0aef	0.53922933
10	0xbf19e4be	-0.6011466
11	0x3f22936a	0.63506186
12	0xbd1ca8aa	-0.038246788
13	0x3b70e868	0.0036759619
14	0x3a8e6e28	0.0010866569
15	0x3cd634c0	0.0261482
16	0x3f1cfa4c	0.6131942
17	0x3fafce30	1.3734798
18	0x3f8e7565	1.1129576
19	0xbe25f824	-0.1620794
20	0xbed78752	-0.4209543
21	0x3e1ab67a	0.15108672
22	0xbf15c3df	-0.58502
23	0xbdfc9025	-0.12332181
24	0xbdc6e9fd	-0.097125985
25	0x3f6012d2	0.8752872
26	0xbf84e6ad	-1.0382897
27	0x3ece56a9	0.4030049
28	0x3ec08734	0.37603152
29	0xbfbcf1b0	-1.4761257
30	0xbf93d909	-1.1550609
31	0x3f95a392	1.1690543
32	0xbd316edb	-0.04331861
33	0xbcc96317	-0.024583383
34	0xbd8aa6ac	-0.067700714
35	0x3d7c3f27	0.061583664
36	0xbe9b1e71	-0.30296662
37	0xbec6807e	-0.38769907
38	0xbdc8f084	-0.098115
39	0xbee3a526	-0.44461936
40	0xbf4f01f3	-0.8086235
41	0x3ed728a4	0.42023194
42	0x3f069758	0.5257468
43	0xbf44c0a5	-0.7685645
44	0xbed7ef02	-0.42174536
45	0xbebb1afe	-0.3654403
46	0xbe919edf	-0.28441522
47	0xbce01bfa	-0.02735709
48	0xbe5b4556	-0.21413168
49	0x3c352605	0.011056428
50	0x3b3a4e14	0.0028427886
51	0xbe328958	-0.17435205
52	0xbf2d46b8	-0.67686033
53	0xbc1fb7ac	-0.009748381
54	0x3d74c8b1	0.059761707
55	0xbf2e45f1	-0.6807547
56	0x3ed63128	0.41834378
57	0xbbbc6272	-0.0057490403
58	0x3e23cf07	0.15996943
59	0xbf235822	-0.63806355
60	0xbb817e92	-0.003951856
61	0x3d1e444d	0.038639355
62	0xbd8f6c52	-0.07003082
63	0x3ddef8ca	0.108872965
64	0x3d97a982	0.07405378
65	0xbdb68e59	-0.089138694
66	0xbf10286c	-0.5631168
67	0xbec1664a	-0.37773353
68	0xbe978b85	-0.29598632
69	0x3f19a489	0.60016686
70	0x3f159b3d	0.5844
71	0xbde74863	-0.112931035
72	0x3ecc0822	0.39849955
73	0xbea76fd6	-0.32702512
74	0x3c1effcb	0.0097045405
75	0xbddba036	-0.10723917
76	0x3e13d816	0.14437899
77	0xbf15eb62	-0.5856229
78	0x3eeb001a	0.45898515
79	0xbd25f86e	-0.040520124
80	0xbedc43cd	-0.43020478
81	0x3e4d0b43	0.20023827
82	0x3ea0f1eb	0.3143457
83	0x3ed16f92	0.40905434
84	0x3f0649f7	0.5245661
85	0xbf4c6ded	-0.79855233
86	0x3f3dc504	0.74128747
87	0x3f7f3f80	0.9970627
88	0xbef47ae3	-0.47750005
89	0xbe9feff3	-0.31237754
90	0xbe4bd0bb	-0.19903843
91	0x3e917543	0.28409776
92	0x3e3c9aa8	0.18418372
93	0xbe89e623	-0.26933393
94	0xbebbbb19	-0.36666182
95	0xbc5ab7cf	-0.013349487
96	0xbc801cea	-0.015638787
97	0x3a0c4aa1	0.0005351697
98	0xbb187b30	-0.0023266785
99	0xbec42efe	-0.38317102
100	0xbc1582c3	-0.009125414
101	0x3e2cb45e	0.1686568
102	0xbca93f27	-0.020659996
103	0xbe04699a	-0.12930909
104	0x3e5ac821	0.21365406
105	0xbe91e135	-0.28492132
106	0xbe8ee808	-0.279114
107	0x3ea9f1af	0.33192202
108	0xbec24948	-0.37946534
109	0xbedebf50	-0.43505335
110	0xbeb99e75	-0.36253706
111	0xbf04d95d	-0.5189417
112	0xbbf62be7	-0.007512558
113	0x3bf21005	0.0073871636
114	0x3e40b8ef	0.18820547
115	0x3cf4961a	0.02985673
116	0x3b9acc30	0.004724048
117	0x3bab02b0	0.0052188262
118	0x3eb19817	0.34686348
119	0x3edeaf0d	0.43492928
120	0xbe973ceb	-0.29538664
121	0x3cb62db5	0.022238592
122	0x3ec35dd7	0.38157532
123	0x3eb5806d	0.35449544
124	0xbe774332	-0.24146727
125	0xbe08ce9a	-0.13360062
126	0xbe71b180	-0.23602867
127	0xbeb994c8	-0.36246324

linear_mapper.grid f4 [16, 12]
0	0xc00ccccd	-2.2
1	0xbfe66666	-1.8
2	0xbfb33333	-1.4
3	0xbf800000	-1.0
4	0xbf19999a	-0.6
5	0xbe4ccccc	-0.19999999
6	0x3e4cccd0	0.20000005
7	0x3f19999a	0.6
8	0x3f800000	1.0
9	0x3fb33334	1.4000001
10	0x3fe66666	1.8
11	0x400ccccd	2.2
12	0xc00ccccd	-2.2
13	0xbfe66666	-1.8
14	0xbfb33333	-1.4
15	0xbf800000	-1.0
16	0xbf19999a	-0.6
17	0xbe4ccccc	-0.19999999
18	0x3e4cccd0	0.20000005
19	0x3f19999a	0.6
20	0x3f800000	1.0
21	0x3fb33334	1.4000001
22	0x3fe66666	1.8
23	0x400ccccd	2.2
24	0xc00ccccd	-2.2
25	0xbfe66666	-1.8
26	0xbfb33333	-1.4
27	0xbf800000	-1.0
28	0xbf19999a	-0.6
29	0xbe4ccccc	-0.19999999
30	0x3e4cccd0	0.20000005
31	0x3f19999a	0.6
32	0x3f800000	1.0
33	0x3fb33334	1.4000001
34	0x3fe66666	1.8
35	0x400ccccd	2.2
36	0xc00ccccd	-2.2
37	0xbfe66666	-1.8
38	0xbfb33333	-1.4
39	0xbf800000	-1.0
40	0xbf19999a	-0.6
41	0xbe4ccccc	-0.19999999
42	0x3e4cccd0	0.20000005
43	0x3f19999a	0.6
44	0x3f800000	1.0
45	0x3fb33334	1.4000001
46	0x3fe66666	1.8
47	0x400ccccd	2.2
48	0xc00ccccd	-2.2
49	0xbfe66666	-1.8
50	0xbfb33333	-1.4
51	0xbf800000	-1.0
52	0xbf19999a	-0.6
53	0xbe4ccccc	-0.19999999
54	0x3e4cccd0	0.20000005
55	0x3f19999a	0.6
56	0x3f800000	1.0
57	0x3fb33334	1.4000001
58	0x3fe66666	1.8
59	0x400ccccd	2.2
60	0xc00ccccd	-2.2
61	0xbfe66666	-1.8
62	0xbfb33333	-1.4
63	0xbf800000	-1.0
64	0xbf19999a	-0.6
65	0xbe4ccccc	-0.19999999
66	0x3e4cccd0	0.20000005
67	0x3f19999a	0.6
68	0x3f800000	1.0
69	0x3fb33334	1.4000001
70	0x3fe66666	1.8
71	0x400ccccd	2.2
72	0xc00ccccd	-2.2
73	0xbfe66666	-1.8
74	0xbfb33333	-1.4
75	0xbf800000	-1.0
76	0xbf19999a	-0.6
77	0xbe4ccccc	-0.19999999
78	0x3e4cccd0	0.20000005
79	0x3f19999a	0.6
80	0x3f800000	1.0
81	0x3fb33334	1.4000001
82	0x3fe66666	1.8
83	0x400ccccd	2.2
84	0xc00ccccd	-2.2
85	0xbfe66666	-1.8
86	0xbfb33333	-1.4
87	0xbf800000	-1.0
88	0xbf19999a	-0.6
89	0xbe4ccccc	-0.19999999
90	0x3e4cccd0	0.20000005
91	0x3f19999a	0.6
92	0x3f800000	1.0
93	0x3fb33334	1.4000001
94	0x3fe66666	1.8
95	0x400ccccd	2.2
96	0xc00ccccd	-2.2
97	0xbfe66666	-1.8
98	0xbfb33333	-1.4
99	0xbf800000	-1.0
100	0xbf19999a	-0.6
101	0xbe4ccccc	-0.19999999
102	0x3e4cccd0	0.20000005
103	0x3f19999a	0.6
104	0x3f800000	1.0
105	0x3fb33334	1.4000001
106	0x3fe66666	1.8
107	0x400ccccd	2.2
108	0xc00ccccd	-2.2
109	0xbfe66666	-1.8
110	0xbfb33333	-1.4
111	0xbf800000	-1.0
112	0xbf19999a	-0.6
113	0xbe4ccccc	-0.19999999
114	0x3e4cccd0	0.20000005
115	0x3f19999a	0.6
116	0x3f800000	1.0
117	0x3fb33334	1.4000001
118	0x3fe66666	1.8
119	0x400ccccd	2.2
120	0xc00ccccd	-2.2
121	0xbfe66666	-1.8
122	0xbfb33333	-1.4
123	0xbf800000	-1.0
124	0xbf19999a	-0.6
125	0xbe4ccccc	-0.19999999
126	0x3e4cccd0	0.20000005
127	0x3f19999a	0.6
128	0x3f800000	1.0
129	0x3fb33334	1.4000001
130	0x3fe66666	1.8
131	0x400ccccd	2.2
132	0xc00ccccd	-2.2
133	0xbfe66666	-1.8
134	0xbfb33333	-1.4
135	0xbf800000	-1.0
136	0xbf19999a	-0.6
137	0xbe4ccccc	-0.19999999
138	0x3e4cccd0	0.20000005
139	0x3f19999a	0.6
140	0x3f800000	1.0
141	0x3fb33334	1.4000001
142	0x3fe66666	1.8
143	0x400ccccd	2.2
144	0xc00ccccd	-2.2
145	0xbfe66666	-1.8
146	0xbfb33333	-1.4
147	0xbf800000	-1.0
148	0xbf19999a	-0.6
149	0xbe4ccccc	-0.19999999
150	0x3e4cccd0	0.20000005
151	0x3f19999a	0.6
152	0x3f800000	1.0
153	0x3fb33334	1.4000001
154	0x3fe66666	1.8
155	0x400ccccd	2.2
156	0xc00ccccd	-2.2
157	0xbfe66666	-1.8
158	0xbfb33333	-1.4
159	0xbf800000	-1.0
160	0xbf19999a	-0.6
161	0xbe4ccccc	-0.19999999
162	0x3e4cccd0	0.20000005
163	0x3f19999a	0.6
164	0x3f800000	1.0
165	0x3fb33334	1.4000001
166	0x3fe66666	1.8
167	0x400ccccd	2.2
168	0xc00ccccd	-2.2
169	0xbfe66666	-1.8
170	0xbfb33333	-1.4
171	0xbf800000	-1.0
172	0xbf19999a	-0.6
173	0xbe4ccccc	-0.19999999
174	0x3e4cccd0	0.20000005
175	0x3f19999a	0.6
176	0x3f800000	1.0
177	0x3fb33334	1.4000001
178	0x3fe66666	1.8
179	0x400ccccd	2.2
180	0xc00ccccd	-2.2
181	0xbfe66666	-1.8
182	0xbfb33333	-1.4
183	0xbf800000	-1.0
184	0xbf19999a	-0.6
185	0xbe4ccccc	-0.19999999
186	0x3e4cccd0	0.20000005
187	0x3f19999a	0.6
188	0x3f800000	1.0
189	0x3fb33334	1.4000001
190	0x3fe66666	1.8
191	0x400ccccd	2.2

blocks.0.q_mappings.0.base_weight f4 [4, 4]
0	0xbe22ba8a	-0.15891472
1	0xbf54f132	-0.83180535
2	0x3e20f150	0.15717053
3	0x3e4e965c	0.20174545
4	0x3ee68de3	0.45030126
5	0xbea1f6cb	-0.316336
6	0x3eda8e17	0.4268653
7	0xbe50d386	-0.2039319
8	0xbf2a8058	-0.6660209
9	0x3ecf3663	0.4047118
10	0xbec963b9	-0.39333895
11	0x3e975ba2	0.29562098
12	0xbe4fed63	-0.203054
13	0xbf07fe61	-0.53122526
14	0xbe96960c	-0.29411352
15	0x3e20e87b	0.15713684

blocks.0.q_mappings.0.spline_weight f4 [4, 4, 8]
0	0xbf755d22	-0.95845234
1	0xbf0cf45a	-0.5506035
2	0x3f02a14a	0.5102736
3	0x3eacfdd1	0.33787397
4	0xbde1a525	-0.11017827
5	0xbe7ef250	-0.24897122
6	0x3ed5d278	0.41762137
7	0x3f0173ab	0.5056712
8	0x3dbcc84b	0.0921789
9	0xbdd50cab	-0.10402807
10	0xbf06bf73	-0.5263588
11	0xbe8ccb93	-0.27499065
12	0xbf1ff9fd	-0.62490827
13	0xbf5f7706	-0.8729099
14	0x3f028e42	0.5099832
15	0x3f1d73dc	0.6150491
16	0x3f6c8dea	0.92404044
17	0x3e285024	0.16436821
18	0x3e14303b	0.14471523
19	0xbe8a6888	-0.27032876
20	0xbec6f48c	-0.3885845
21	0x3ec7ba3c	0.39009273
22	0x3f96adb3	1.1771759
23	0xbe01901b	-0.12652628
24	0x3fa05b23	1.2527813
25	0x3f537a00	0.8260803
26	0xbea8e7f1	-0.32989457
27	0x3d6325c0	0.055455923
28	0xbe0076e8	-0.12545359
29	0xbe0fac9c	-0.14030689
30	0x3edecefc	0.43517292
31	0x3efe560a	0.49675018
32	0xbe2209c8	-0.15824044
33	0xbdca2f65	-0.09872321
34	0x3e353b4b	0.176984
35	0xbd34e4ab	-0.044163387
36	0xbe42bb4c	-0.1901676
37	0xbe61ddad	-0.22057219
38	0x3e2dfb92	0.16990498
39	0x3fafd9a1	1.373829
40	0xbeb6e0f1	-0.35718492
41	0xbed449af	-0.41462466
42	0xbd9d6b38	-0.07686466
43	0xbe2bd4ce	-0.16780397
44	0x3dd3f484	0.10349372
45	0x3e1a7c12	0.15086392
46	0x3dab0c02	0.083519
47	0xbd2efbca	-0.042720594
48	0x3f389591	0.7210322
49	0x3f02093a	0.5079533
50	0x3ec62077	0.38696644
51	0x3de5999f	0.112109415
52	0xbd9c5ef2	-0.07635297
53	0x3e0ead1d	0.13933225
54	0xbd7af389	-0.06126741
55	0xbf5ff82e	-0.8748807
56	0xbfcbcd3a	-1.5922005
57	0xbfa3d964	-1.2800717
58	0x3e4a07f9	0.19729604
59	0xbe55a3e5	-0.20863302
60	0xbe5182f3	-0.2046011
61	0x3dd76b93	0.10518565
62	0xbd9c3c3f	-0.076286785
63	0xbe3c6139	-0.18396463
64	0x3e00ae19	0.12566413
65	0x3da264db	0.07929393
66	0xbdef3cba	-0.116815045
67	0x3e357ef2	0.17724207
68	0x3eb421ec	0.3518213
69	0x3eac769e	0.33684248
70	0xbe949de8	-0.29026723
71	0xbfdbb7db	-1.7165483
72	0x3e2cb58f	0.16866134
73	0x3e274d11	0.16337992
74	0x3e137010	0.14398217
75	0x3e010bbd	0.12602134
76	0xbeb126e3	-0.3459998
77	0xbf9e1a1a	-1.2351716
78	0xbe243fdd	-0.16039987
79	0x3e2f963c	0.17147154
80	0xbf40fd3b	-0.753864
81	0xbf05b813	-0.52234
82	0xbeb30f4f	-0.34972617
83	0xbe828d01	-0.25498202
84	0xbd67a05d	-0.05654942
85	0xbe2f50e7	-0.17120706
86	0x3ecf15ba	0.40446264
87	0x3f9a6aec	1.206388
88	0x3f10d982	0.5658189
89	0x3f9de2ad	1.2334801
90	0xbc112545	-0.008858983
91	0x3cebf6a3	0.028804129
92	0x3d54277e	0.051795475
93	0xbd40c428	-0.04706207
94	0xbc9bf01f	-0.019035397
95	0x3db085a3	0.08619239
96	0x3dff7062	0.12472607
97	0x3bc0c6dc	0.005883081
98	0xbea13049	-0.3148215
99	0x3d3ae43c	0.045627818
100	0x3e8d3b2b	0.27584204
101	0x3edf4c46	0.4361288
102	0x3de5098e	0.11183463
103	0xbfc0e8e5	-1.5071074
104	0x3e48aa0e	0.1959612
105	0x3e3a923b	0.18219845
106	0x3d4b4bb4	0.049632743
107	0x3e053ccd	0.13011475
108	0xbe9de052	-0.30835205
109	0xbfaaab96	-1.3333614
110	0xbe0db2de	-0.13837764
111	0xbdf72b09	-0.12068755
112	0xbf14ec75	-0.58173305
113	0xbeb93af3	-0.36177787
114	0xbe14115c	-0.14459747
115	0xbe578a14	-0.21048766
116	0x3d3da774	0.046302274
117	0x3c9005ea	0.017580945
118	0x3ef22712	0.47295433
119	0x3fb5cb60	1.420269
120	0x3ff5162a	1.9147389
121	0x3fdbb85c	1.7165637
122	0xbe025a3c	-0.12729734
123	0x3e4dfe13	0.20116453
124	0x3e537648	0.2065059
125	0xbe0a1f6c	-0.13488549
126	0xbe2ac200	-0.16675568
127	0xbb6f0235	-0.0036469821

blocks.0.q_mappings.0.spline_scaler f4 [4, 4]
0	0x3f2ca76c	0.67442966
1	0xbf532427	-0.8247704
2	0xbf3246ae	-0.696391
3	0xbeeaae4b	-0.458361
4	0x3e558fc1	0.20855619
5	0x3dca4b17	0.098776035
6	0xbf260eac	-0.6486614
7	0x3e5efc58	0.21775949
8	0x3ea6ccf1	0.32578233
9	0x3e889e25	0.26683155
10	0xbf0e1aef	-0.5550985
11	0xbc57768b	-0.013150821
12	0x3f409495	0.7522672
13	0x3f17fb49	0.59367806
14	0xbf06ed81	-0.5270615
15	0x3ea575e2	0.323165

blocks.0.q_mappings.0.grid f4 [4, 12]
0	0xc00ccccd	-2.2
1	0xbfe66666	-1.8
2	0xbfb33333	-1.4
3	0xbf800000	-1.0
4	0xbf19999a	-0.6
5	0xbe4ccccc	-0.19999999
6	0x3e4cccd0	0.20000005
7	0x3f19999a	0.6
8	0x3f800000	1.0
9	0x3fb33334	1.4000001
10	0x3fe66666	1.8
11	0x400ccccd	2.2
12	0xc00ccccd	-2.2
13	0xbfe66666	-1.8
14	0xbfb33333	-1.4
15	0xbf800000	-1.0
16	0xbf19999a	-0.6
17	0xbe4ccccc	-0.19999999
18	0x3e4cccd0	0.20000005
19	0x3f19999a	0.6
20	0x3f800000	1.0
21	0x3fb33334	1.4000001
22	0x3fe66666	1.8
23	0x400ccccd	2.2
24	0xc00ccccd	-2.2
25	0xbfe66666	-1.8
26	0xbfb33333	-1.4
27	0xbf800000	-1.0
28	0xbf19999a	-0.6
29	0xbe4ccccc	-0.19999999
30	0x3e4cccd0	0.20000005
31	0x3f19999a	0.6
32	0x3f800000	1.0
33	0x3fb33334	1.4000001
34	0x3fe66666	1.8
35	0x400ccccd	2.2
36	0xc00ccccd	-2.2
37	0xbfe66666	-1.8
38	0xbfb33333	-1.4
39	0xbf800000	-1.0
40	0xbf19999a	-0.6
41	0xbe4ccccc	-0.19999999
42	0x3e4cccd0	0.20000005
43	0x3f19999a	0.6
44	0x3f800000	1.0
45	0x3fb33334	1.4000001
46	0x3fe66666	1.8
47	0x400ccccd	2.2

blocks.0.q_mappings.1.base_weight f4 [4, 4]
0	0x3e18c629	0.14919342
1	0x3f130c9b	0.5744111
2	0x3bd46473	0.006481701
3	0x3f0e50f2	0.5559226
4	0xbe5a7ee9	-0.21337475
5	0x3f3577e7	0.7088608
6	0xbf127ccb	-0.5722167
7	0x3e36beb1	0.1784618
8	0xbf2704de	-0.652418
9	0xbf12f109	-0.5739904
10	0x3f4a9756	0.7913717
11	0xbdf41e3d	-0.1191983
12	0x3d147c0c	0.036251113
13	0x3eabbebc	0.33543956
14	0x3dbb5217	0.09146517
15	0x3ec5f9d4	0.38667166

blocks.0.q_mappings.1.spline_weight f4 [4, 4, 8]
0	0xbe57cda8	-0.21074545
1	0xbbee673d	-0.0072754906
2	0xbe1f70a5	-0.15570314
3	0x3d83776f	0.064192645
4	0xbe8f70cd	-0.28015748
5	0x3ec4425a	0.38331872
6	0x3efc3f21	0.49266914
7	0xbe4fc118	-0.20288503
8	0x3d105a5d	0.035242427
9	0xbe14bbc1	-0.14524747
10	0xbdcd00c3	-0.10009911
11	0xbf2bcddf	-0.6711101
12	0xbfa0088c	-1.2502608
13	0x3d718b9b	0.05897103
14	0x3e95beee	0.2924723
15	0x3ed26625	0.41093555
16	0xbf2047b8	-0.62609434
17	0xbf49651f	-0.78669924
18	0xbe9299bb	-0.28632912
19	0xbe1bf1ad	-0.1522891
20	0xbebc42b1	-0.36769632
21	0x3de76bf8	0.1129989
22	0x3eca8e00	0.39561462
23	0x3e8aa142	0.27076155
24	0xbc11b0bb	-0.0088922335
25	0x3e891d08	0.26779962
26	0x3efe2866	0.49640197
27	0x3ee12591	0.43973973
28	0x3f6787b9	0.9044147
29	0x3f4f56ae	0.8099164
30	0x3f22a504	0.63533044
31	0x3d8267de	0.06367467
32	0x3e5f7a11	0.21823908
33	0xbd307d2e	-0.04308813
34	0x3e0a4253	0.13501863
35	0xbd36728c	-0.044542834
36	0x3e9b1cbf	0.3029537
37	0xbf0c409e	-0.547861
38	0xbf139269	-0.5764528
39	0x3e897189	0.26844433
40	0x3ea3e1bc	0.3200816
41	0x3dc27e78	0.09496778
42	0x3c54a9bd	0.012979922
43	0xbf0ac7c1	-0.5421105
44	0xbf857f56	-1.0429485
45	0x3d6c7f6d	0.05773871
46	0x3e0b3157	0.1359304
47	0x3e1d4372	0.1535776
48	0x3f4096c0	0.75230026
49	0x3f46c8d9	0.7765022
50	0x3def6e48	0.11690956
51	0x3d4492df	0.04799163
52	0x3eab4c74	0.33456767
53	0xbe72dd04	-0.23717123
54	0xbeaaf09f	-0.33386704
55	0xbdb5f5b8	-0.08884758
56	0xbc330011	-0.010925309
57	0x3f198bdb	0.5997903
58	0x3f3a5fab	0.7280223
59	0x3eef68f9	0.46759775
60	0x3f5c536e	0.86064804
61	0x3f303be8	0.6884141
62	0x3f15d6a2	0.5853063
63	0x3d8539f8	0.06505197
64	0x3d7cef61	0.061751727
65	0xbeaf5050	-0.3424096
66	0xbdb84de8	-0.089992344
67	0x3d17edd5	0.03709205
68	0x3ef5fbaf	0.48043582
69	0xbeaf0878	-0.3418615
70	0xbea64538	-0.32474685
71	0x3e8c69ea	0.27424556
72	0x3b172ef3	0.0023068755
73	0xbe5fe70d	-0.21865483
74	0xbe4697f4	-0.19393903
75	0xbf39749e	-0.7244357
76	0xbf84023c	-1.0313182
77	0xbcc88a78	-0.02448009
78	0x3eb9d447	0.36294767
79	0x3eac206a	0.3361848
80	0xbd828f4a	-0.063749865
81	0x3f247439	0.6423984
82	0x3e8ce0b0	0.27515173
83	0x3e80fcfb	0.2519301
84	0xbed40fd6	-0.41418332
85	0xbe4766d8	-0.19472826
86	0xbdd86278	-0.105656564
87	0x3db6794f	0.089098565
88	0xbefdb38f	-0.49551055
89	0xbeea6701	-0.4578171
90	0xb999895f	-0.00029284784
91	0x3d44bdb6	0.048032485
92	0x3f044c14	0.51678586
93	0x3f0491af	0.51784796
94	0x3f3b86c5	0.73252517
95	0x3ea4e2f9	0.32204416
96	0xbe567a3f	-0.2094507
97	0x3b7e2cfe	0.0038784142
98	0xbe6bceb7	-0.23028074
99	0x3d0cb070	0.03434795
100	0xbecf28ed	-0.4046091
101	0x3ed5503f	0.41662785
102	0x3ef9837c	0.48733127
103	0xbe94054e	-0.28910297
104	0xbd2d8753	-0.042365383
105	0xbe88b9d7	-0.26704285
106	0xbe4acbe9	-0.19804348
107	0xbf38b7e9	-0.72155625
108	0xbf9d34de	-1.2281759
109	0x3ddeb27e	0.108738884
110	0x3e8888a9	0.26666763
111	0x3ec408fa	0.382881
112	0x3f2ecfcc	0.6828582
113	0x3f313144	0.692158
114	0x3e9299b5	0.28632894
115	0x3dcf8ce8	0.101342976
116	0x3e9deb0d	0.30843392
117	0xbe0ec5e9	-0.13942684
118	0xbeb0b0f0	-0.34509993
119	0xbe80c601	-0.25151065
120	0xb926e1c8	-0.00015915104
121	0xbddb8275	-0.10718242
122	0xbeadecd8	-0.3396976
123	0xbed76ea9	-0.42076614
124	0xbf59bebb	-0.85056657
125	0xbf3421b2	-0.70363915
126	0xbf021f51	-0.50829035
127	0xbd51e940	-0.051247835

blocks.0.q_mappings.1.spline_scaler f4 [4, 4]
0	0x3b53133c	0.003220751
1	0x3f082b36	0.53190935
2	0xbf18c416	-0.59674203
3	0x3f30f891	0.6912928
4	0x3e59ad10	0.21257424
5	0x3e668060	0.22509909
6	0x3e42466c	0.18972176
7	0x3ee71fbc	0.451414
8	0xbe6f2415	-0.23353608
9	0xbebe9821	-0.3722544
10	0xbd91d2eb	-0.071203075
11	0xbf272309	-0.65287834
12	0xbe72297e	-0.2364864
13	0x3f2e7673	0.6814949
14	0x3eefc337	0.46828625
15	0xbf27833b	-0.65434617

blocks.0.q_mappings.1.grid f4 [4, 12]
0	0xc00ccccd	-2.2
1	0xbfe66666	-1.8
2	0xbfb33333	-1.4
3	0xbf800000	-1.0
4	0xbf19999a	-0.6
5	0xbe4ccccc	-0.19999999
6	0x3e4cccd0	0.20000005
7	0x3f19999a	0.6
8	0x3f800000	1.0
9	0x3fb33334	1.4000001
10	0x3fe66666	1.8
11	0x400ccccd	2.2
12	0xc00ccccd	-2.2
13	0xbfe66666	-1.8
14	0xbfb33333	-1.4
15	0xbf800000	-1.0
16	0xbf19999a	-0.6
17	0xbe4ccccc	-0.19999999
18	0x3e4cccd0	0.20000005
19	0x3f19999a	0.6
20	0x3f800000	1.0
21	0x3fb33334	1.4000001
22	0x3fe66666	1.8
23	0x400ccccd	2.2
24	0xc00ccccd	-2.2
25	0xbfe66666	-1.8
26	0xbfb33333	-1.4
27	0xbf800000	-1.0
28	0xbf19999a	-0.6
29	0xbe4ccccc	-0.19999999
30	0x3e4cccd0	0.20000005
31	0x3f19999a	0.6
32	0x3f800000	1.0
33	0x3fb33334	1.4000001
34	0x3fe66666	1.8
35	0x400ccccd	2.2
36	0xc00ccccd	-2.2
37	0xbfe66666	-1.8
38	0xbfb33333	-1.4
39	0xbf800000	-1.0
40	0xbf19999a	-0.6
41	0xbe4ccccc	-0.19999999
42	0x3e4cccd0	0.20000005
43	0x3f19999a	0.6
44	0x3f800000	1.0
45	0x3fb33334	1.4000001
46	0x3fe66666	1.8
47	0x400ccccd	2.2

blocks.0.k_mappings.0.base_weight f4 [4, 4]
0	0xbe24a081	-0.16076852
1	0xbe7429af	-0.23844026
2	0x3f57e7c3	0.84338015
3	0x3f89d343	1.0767597
4	0x3f6d3dd1	0.9267245
5	0x3d3db626	0.04631629
6	0x3f2a5a54	0.6654408
7	0x3f6420c1	0.8911248
8	0xbf6e8581	-0.9317246
9	0xbf220c58	-0.63300085
10	0xbe61c229	-0.22046722
11	0xbe508a7a	-0.20365325
12	0xbf02104f	-0.50806135
13	0xbde663ae	-0.11249481
14	0x3d3e4a48	0.04645756
15	0x3d99eb64	0.075156

blocks.0.k_mappings.0.spline_weight f4 [4, 4, 8]
0	0xbf29a509	-0.6626745
1	0xbe1ecb3a	-0.15507212
2	0xbf2debe1	-0.6793805
3	0xbd8ef19c	-0.06979677
4	0x3feb7c78	1.839736
5	0x3fa9ce09	1.3266002
6	0x3ef35b54	0.47530615
7	0xbfee24bc	-1.860496
8	0xbfb76e75	-1.4330584
9	0xbf40f5bc	-0.7537496
10	0xbf8ed1ee	-1.1157815
11	0xbf9f13b2	-1.2427886
12	0xbf8de987	-1.1086892
13	0xbf8dc938	-1.1077032
14	0xbf414b9c	-0.75505996
15	0xbdf8fe20	-0.121578455
16	0x3f57d0ac	0.84302783
17	0xbf0a7278	-0.54080915
18	0xbf493b21	-0.7860585
19	0xbe7108c6	-0.23538503
20	0x3f3caa96	0.73697793
21	0x3ee389dd	0.4444112
22	0xbf094fb6	-0.53637254
23	0xbf218e58	-0.63107824
24	0x3fe18a8e	1.7620409
25	0x3f09a9eb	0.537749
26	0xbe21ecba	-0.1581296
27	0x3f20f17a	0.62868464
28	0xbea9dda0	-0.331769
29	0xbcc3bfe5	-0.023895213
30	0x3f2fbd49	0.686482
31	0x3f1321ca	0.57473433
32	0xbeacac66	-0.3372528
33	0x3dec4f4e	0.11538564
34	0x3d462854	0.048378304
35	0xbf1a71f0	-0.60330105
36	0x3f37df53	0.7182514
37	0x3e3e2248	0.18567765
38	0x3f230b32	0.6368896
39	0xbd86ace8	-0.06575948
40	0xbe6eba9e	-0.23313376
41	0x3d58bc97	0.05291423
42	0x3eb9246a	0.36160594
43	0x3e9411fe	0.28919977
44	0x3e98dde7	0.29856798
45	0x3bfe60fe	0.007763027
46	0xbd374ef4	-0.04475303
47	0xbe2b1097	-0.16705547
48	0xbf192f41	-0.5983773
49	0xbe4bed17	-0.19914661
50	0x3d26ce33	0.04072399
51	0x3f1e915f	0.6194057
52	0x3f61c9d1	0.8819857
53	0x3f380725	0.718859
54	0x3f465ca2	0.77485096
55	0x3f084d9a	0.5324341
56	0x3fa08355	1.2540079
57	0xbe40b5f3	-0.18819408
58	0xbf60ce4a	-0.8781477
59	0x3ea7cff6	0.3277585
60	0x3e296715	0.16543229
61	0xbfaeeb85	-1.3665625
62	0xbe6fe022	-0.23425344
63	0x3ea9ce88	0.33165383
64	0xbeb583aa	-0.35452014
65	0x3e258f66	0.16167983
66	0x3c60507b	0.013691063
67	0xbf17595a	-0.59120715
68	0x3ec69881	0.38788226
69	0xbce963f8	-0.028490052
70	0x3eb471f1	0.3524318
71	0xbebf7697	-0.37395164
72	0xbed65c15	-0.41867128
73	0xbdc3c9df	-0.09559988
74	0x3e564adc	0.20926994
75	0x3e7ff695	0.24996407
76	0x3e7445f3	0.23854809
77	0x3d23152f	0.039815124
78	0xbd6ef6c7	-0.058340814
79	0xbe350022	-0.17675832
80	0xbf55298e	-0.8326653
81	0xbec4c521	-0.38431647
82	0x3da5be39	0.08092923
83	0x3f41b133	0.7566101
84	0x3f436631	0.76327807
85	0x3f2c1787	0.672234
86	0x3f55734d	0.8337906
87	0x3edf9529	0.43668488
88	0x3fb8928c	1.4419723
89	0xbe653d02	-0.22386554
90	0xbf61ea23	-0.8824789
91	0x3edcb484	0.43106472
92	0x3e3dc0fc	0.18530649
93	0xbfa700e6	-1.3047149
94	0xbeb078a4	-0.34467041
95	0x3e847681	0.2587166
96	0xbf156e87	-0.58371776
97	0x3e111a0e	0.14170095
98	0x3eb6e477	0.3572118
99	0xbf682095	-0.90674716
100	0x3d434977	0.047677483
101	0xbe2f8264	-0.17139584
102	0x3f3dc1b9	0.7412372
103	0x3f2afc8d	0.6679161
104	0xbfbf0a81	-1.492508
105	0xbf8c9eed	-1.0986
106	0xbf672e54	-0.90305066
107	0xbf1a5bc6	-0.60296285
108	0xbec2647f	-0.37967297
109	0xbe60a544	-0.21938044
110	0xbd6f17af	-0.058372196
111	0x3eeace9d	0.45860758
112	0x3f127097	0.5720305
113	0xbde68469	-0.11255724
114	0xbea7536e	-0.3268084
115	0xbe467596	-0.19380793
116	0x3f3c79ea	0.73623526
117	0x3dfa1d59	0.12212629
118	0xbece9181	-0.40345386
119	0xbe514b6d	-0.20438929
120	0x3ee109fb	0.43952927
121	0xbeda15a1	-0.42594627
122	0x3f2546ce	0.64561164
123	0x3ec85023	0.3912364
124	0xbe8cbfbe	-0.27490038
125	0x3de50e2a	0.11184342
126	0x3eb4314d	0.35193864
127	0xbf0787a2	-0.52941334

blocks.0.k_mappings.0.spline_scaler f4 [4, 4]
0	0xbfe94774	-1.8224931
1	0xbfc549f9	-1.54132
2	0xbf9b42fc	-1.2129817
3	0xbf7767f5	-0.96643
4	0xbefc2cbe	-0.49252886
5	0xbd6b7831	-0.05748767
6	0x3f67ca78	0.9054332
7	0xbf977b75	-1.1834551
8	0x3e8e2f83	0.27770624
9	0x3e1bba9b	0.15207903
10	0xbf80c554	-1.006022
11	0x3fbd186b	1.4773077
12	0x3f773d07	0.96577495
13	0xbfa3308b	-1.2749189
14	0xbf16b724	-0.588732
15	0xbefbf0ae	-0.49207062

blocks.0.k_mappings.0.grid f4 [4, 12]
0	0xc00ccccd	-2.2
1	0xbfe66666	-1.8
2	0xbfb33333	-1.4
3	0xbf800000	-1.0
4	0xbf19999a	-0.6
5	0xbe4ccccc	-0.19999999
6	0x3e4cccd0	0.20000005
7	0x3f19999a	0.6
8	0x3f800000	1.0
9	0x3fb33334	1.4000001
10	0x3fe66666	1.8
11	0x400ccccd	2.2
12	0xc00ccccd	-2.2
13	0xbfe66666	-1.8
14	0xbfb33333	-1.4
15	0xbf800000	-1.0
16	0xbf19999a	-0.6
17	0xbe4ccccc	-0.19999999
18	0x3e4cccd0	0.20000005
19	0x3f19999a	0.6
20	0x3f800000	1.0
21	0x3fb33334	1.4000001
22	0x3fe66666	1.8
23	0x400ccccd	2.2
24	0xc00ccccd	-2.2
25	0xbfe66666	-1.8
26	0xbfb33333	-1.4
27	0xbf800000	-1.0
28	0xbf19999a	-0.6
29	0xbe4ccccc	-0.19999999
30	0x3e4cccd0	0.20000005
31	0x3f19999a	0.6
32	0x3f800000	1.0
33	0x3fb33334	1.4000001
34	0x3fe66666	1.8
35	0x400ccccd	2.2
36	0xc00ccccd	-2.2
37	0xbfe66666	-1.8
38	0xbfb33333	-1.4
39	0xbf800000	-1.0
40	0xbf19999a	-0.6
41	0xbe4ccccc	-0.19999999
42	0x3e4cccd0	0.20000005
43	0x3f19999a	0.6
44	0x3f800000	1.0
45	0x3fb33334	1.4000001
46	0x3fe66666	1.8
47	0x400ccccd	2.2

blocks.0.k_mappings.1.base_weight f4 [4, 4]
0	0xbf242efa	-0.6413418
1	0x3d8e82c7	0.069585375
2	0x3e921834	0.2853409
3	0xbdbfb82a	-0.093612984
4	0xbea94b18	-0.33065104
5	0x3eac2739	0.33623675
6	0x3f2a001e	0.6640643
7	0xbf1ae117	-0.6049971
8	0x3f05b4a6	0.5222877
9	0xbec0ebb6	-0.37679833
10	0xbecd46e5	-0.4009315
11	0x3d402172	0.046906896
12	0xbefe637d	-0.4968528
13	0xbe05e497	-0.13075481
14	0x3f3760ad	0.7163189
15	0xbcb9dc9f	-0.022688208

blocks.0.k_mappings.1.spline_weight f4 [4, 4, 8]
0	0xbd4b1d4f	-0.049588498
1	0xbd85986c	-0.06523213
2	0x3c2a3a70	0.010389909
3	0x3dcb5797	0.09928816
4	0x3da3f647	0.08005958
5	0x3e86e267	0.26344606
6	0xbe9aac28	-0.3020947
7	0xbfa11b02	-1.2586367
8	0x3ea622bb	0.32448372
9	0x3b5a7048	0.0033331085
10	0x3dffd34c	0.124914736
11	0x3d86f843	0.06590321
12	0xbd87ca0d	-0.06630335
13	0xbcf0dc05	-0.029401788
14	0x3f3b0c66	0.73065794
15	0x3f29d28a	0.6633688
16	0x3ddb68a5	0.10713319
17	0xbf070d16	-0.5275434
18	0xbe82c4f0	-0.25540876
19	0xbf13e813	-0.5777599
20	0x3ef5eae1	0.4803076
21	0x3e6bbc28	0.23020995
22	0x3e0d7cf8	0.13817203
23	0xbf7b7cbe	-0.98237216
24	0x3f61ca33	0.88199157
25	0x3e9fcfb9	0.31213167
26	0xbea986f4	-0.33110774
27	0xbe3caf99	-0.1842636
28	0x3e03b81b	0.128632
29	0x3e6739ef	0.22580694
30	0x3e4027da	0.18765202
31	0xbe663fa8	-0.2248522
32	0xbe8ba1ab	-0.2727178
33	0xbde2fbb2	-0.11083163
34	0xbd47bc87	-0.048763778
35	0xbe11bb17	-0.14231525
36	0xbde352ce	-0.11099778
37	0xbecbd381	-0.39809802
38	0x3e7b2312	0.24525097
39	0x3fa966f9	1.323455
40	0xbe9fcebe	-0.3121242
41	0xbeb3129f	-0.34975144
42	0xbdb3df60	-0.0878284
43	0x3e55bf22	0.20873693
44	0x3ea24d7e	0.31699747
45	0x3dd476a3	0.10374191
46	0xbf87f7de	-1.0622518
47	0xbf1f625b	-0.62259454
48	0xbddeaf58	-0.10873288
49	0x3f018c17	0.50604385
50	0x3ecfe731	0.40606073
51	0x3f1996e1	0.5999585
52	0xbee67f94	-0.4501921
53	0xbf43d844	-0.7650187
54	0xbf0422bf	-0.5161552
55	0x3f5ca050	0.8618212
56	0xbf165cbc	-0.5873525
57	0x3e801b47	0.2502081
58	0x3f6eb574	0.93245625
59	0x3ef181df	0.47169396
60	0xbe2906ed	-0.16506548
61	0xbe8beb13	-0.27327785
62	0xbe91ab89	-0.28451183
63	0x3d92db18	0.07170695
64	0xbb2631da	-0.0025359304
65	0xbd0cd8bb	-0.034386378
66	0xbd29bd80	-0.041440487
67	0xbdb2fcc0	-0.087396145
68	0xbdd03f40	-0.10168314
69	0xbe818028	-0.25293088
70	0x3e9783f0	0.29592848
71	0x3fa63d37	1.2987431
72	0xbe91b910	-0.28461504
73	0xbdd9e1da	-0.10638781
74	0xbe0337fd	-0.12814327
75	0x3d1da2d4	0.038485363
76	0x3e46d3c1	0.19416715
77	0x3d2341cd	0.039857674
78	0xbf53bf56	-0.8271383
79	0xbf271f8c	-0.6528251
80	0x3e46ee0a	0.19426742
81	0xbef44067	-0.47705385
82	0xbe975093	-0.2955366
83	0xbf3b7acc	-0.7323425
84	0x3ee11409	0.43960598
85	0x3eac3a49	0.33638218
86	0x3e70d089	0.2351705
87	0xbf78c92c	-0.97181964
88	0x3f0b2f14	0.5436871
89	0xbdb7158f	-0.08939659
90	0xbf218d48	-0.63106203
91	0xbe97ed77	-0.2967336
92	0x3e098f70	0.13433623
93	0x3e8378b2	0.2567802
94	0x3e225926	0.1585432
95	0xbe5003cb	-0.20313947
96	0x3db34516	0.087534115
97	0x3de08401	0.10962678
98	0xbd08bb57	-0.033381786
99	0xbdb8bd4d	-0.09020481
100	0xbd9efad9	-0.07762689
101	0xbe786d37	-0.24260412
102	0x3ea7dcf7	0.3278577
103	0x3f9ffc3e	1.2498853
104	0x3e3e4c87	0.1858388
105	0xbdbf8499	-0.09351463
106	0x3ac5e12e	0.0015097016
107	0x3dc95b81	0.09831906
108	0xbd008e3d	-0.03138565
109	0xbcc35706	-0.023845207
110	0x3f7d93cb	0.9905364
111	0x3f070fca	0.5275847
112	0x3d71e6f0	0.05905813
113	0xbf0737f7	-0.5281977
114	0xbe3d559b	-0.18489687
115	0xbef63998	-0.48090816
116	0x3ed4b856	0.41546887
117	0x3e111059	0.14166392
118	0x3db5ee32	0.08883323
119	0xbf6daf41	-0.9284554
120	0x3f83c48b	1.0294355
121	0x3f060f5d	0.5236719
122	0xbe3bf64d	-0.18355675
123	0xbdec4cc1	-0.11538077
124	0x3e11696a	0.14200369
125	0x3e55d714	0.20882827
126	0x3e24427d	0.16040988
127	0xbe60e3f1	-0.21961953

blocks.0.k_mappings.1.spline_scaler f4 [4, 4]
0	0x3ec7045b	0.3887051
1	0x3eac6ad2	0.33675247
2	0x3f409704	0.7523043
3	0x3eec3c8e	0.4613995
4	0xbf160db1	-0.5861464
5	0xbf22f48c	-0.636544
6	0xbf03bda0	-0.5146122
7	0xbf1004e2	-0.5625745
8	0x3ecdc769	0.401912
9	0x3ee3e2aa	0.44508868
10	0xbf346c72	-0.70477974
11	0xbed057e7	-0.40692064
12	0xbedab06b	-0.4271272
13	0x3f43c01c	0.7646501
14	0x3ee22bd7	0.44174072
15	0x3f1789ca	0.59194624

blocks.0.k_mappings.1.grid f4 [4, 12]
0	0xc00ccccd	-2.2
1	0xbfe66666	-1.8
2	0xbfb33333	-1.4
3	0xbf800000	-1.0
4	0xbf19999a	-0.6
5	0xbe4ccccc	-0.19999999
6	0x3e4cccd0	0.20000005
7	0x3f19999a	0.6
8	0x3f800000	1.0
9	0x3fb33334	1.4000001
10	0x3fe66666	1.8
11	0x400ccccd	2.2
12	0xc00ccccd	-2.2
13	0xbfe66666	-1.8
14	0xbfb33333	-1.4
15	0xbf800000	-1.0
16	0xbf19999a	-0.6
17	0xbe4ccccc	-0.19999999
18	0x3e4cccd0	0.20000005
19	0x3f19999a	0.6
20	0x3f800000	1.0
21	0x3fb33334	1.4000001
22	0x3fe66666	1.8
23	0x400ccccd	2.2
24	0xc00ccccd	-2.2
25	0xbfe66666	-1.8
26	0xbfb33333	-1.4
27	0xbf800000	-1.0
28	0xbf19999a	-0.6
29	0xbe4ccccc	-0.19999999
30	0x3e4cccd0	0.20000005
31	0x3f19999a	0.6
32	0x3f800000	1.0
33	0x3fb33334	1.4000001
34	0x3fe66666	1.8
35	0x400ccccd	2.2
36	0xc00ccccd	-2.2
37	0xbfe66666	-1.8
38	0xbfb33333	-1.4
39	0xbf800000	-1.0
40	0xbf19999a	-0.6
41	0xbe4ccccc	-0.19999999
42	0x3e4cccd0	0.20000005
43	0x3f19999a	0.6
44	0x3f800000	1.0
45	0x3fb33334	1.4000001
46	0x3fe66666	1.8
47	0x400ccccd	2.2

blocks.0.v_mappings.0.base_weight f4 [4, 4]
0	0xbea2cf39	-0.31798723
1	0x3d95de55	0.07317797
2	0x3f121d76	0.57076204
3	0x3ea47e56	0.32127637
4	0xbee585d5	-0.44828668
5	0xbf9dcbeb	-1.2327856
6	0xbe99892a	-0.2998746
7	0x3d7e9b0e	0.06215959
8	0x3ebf6bbf	0.3738689
9	0x3fb6d1af	1.428274
10	0x3f19aafb	0.6002652
11	0x3ed1f395	0.4100615
12	0xbd975e74	-0.073910624
13	0xbfaeb6df	-1.3649558
14	0xbf729a09	-0.9476629
15	0xbebdd3a7	-0.3707554

blocks.0.v_mappings.0.spline_weight f4 [4, 4, 8]
0	0x3ebfef14	0.3748709
1	0x3dfd654b	0.12372836
2	0x3dd43de2	0.10363366
3	0x3e99f11c	0.30066764
4	0x3d04ee5c	0.03245388
5	0x3f32d04a	0.69849074
6	0x3eac81eb	0.3369287
7	0xbec5b238	-0.38612533
8	0xbe43ef2b	-0.19134204
9	0xbeab6a98	-0.33479762
10	0xbefa9b2e	-0.48946518
11	0xbf262145	-0.64894515
12	0xbf41526d	-0.75516397
13	0xbf66db6b	-0.90178555
14	0xbf60c27c	-0.8779676
15	0xbdbb0946	-0.09132628
16	0xbf970712	-1.1799033
17	0x3e97b4ef	0.2963023
18	0x3eed37ec	0.46331728
19	0x3f119f04	0.56883264
20	0x3ece9394	0.40346968
21	0xbe8777dc	-0.26458633
22	0x3e95a6ba	0.29228765
23	0x3cce00b0	0.025146812
24	0xbfaa545b	-1.3306993
25	0xbf816607	-1.0109261
26	0xbf4162a8	-0.7554116
27	0x3d5e2469	0.054233942
28	0xbe99852e	-0.2998442
29	0xbe8e3fb5	-0.2778298
30	0x3f2a6bd0	0.6657076
31	0x3f8fa39d	1.1221806
32	0x3e77457f	0.24147604
33	0x3ea20e66	0.3165161
34	0xbd293eae	-0.04131954
35	0xbeae474a	-0.34038764
36	0xbda8690b	-0.0822316
37	0xbe95aa70	-0.29231596
38	0x3db1f314	0.086889416
39	0x3e9e30fa	0.3089674
40	0x3d3ab5a0	0.045583367
41	0xbc2c28d8	-0.010507785
42	0xbe92e58b	-0.28690752
43	0xbefd3adb	-0.49458966
44	0x3d82fb38	0.063955724
45	0x3ee9b9e2	0.4564963
46	0x3ea3a9c3	0.31965455
47	0x3db7723c	0.08957335
48	0x3f4144ba	0.75495493
49	0x3f2b528b	0.66922826
50	0x3ed28252	0.41115052
51	0xbcc8c61a	-0.024508525
52	0x3dffef80	0.12496853
53	0x3f36618d	0.712426
54	0x39baeab8	0.00035651564
55	0xbf38b10a	-0.7214514
56	0xbe3e678f	-0.18594192
57	0xbf12726a	-0.5720583
58	0xbf3dd888	-0.74158525
59	0x3e734f27	0.23760663
60	0x3ec6ebe6	0.3885185
61	0xbd9f81ce	-0.0778843
62	0xbe2f1ce4	-0.17100865
63	0xbf7d7842	-0.99011624
64	0x3e82aaa2	0.25520808
65	0x3eab6da2	0.3348208
66	0x3d12778e	0.035758547
67	0xbeab562e	-0.33464187
68	0xbea411c9	-0.3204482
69	0xbf149a84	-0.5804827
70	0xbd906ea5	-0.07052354
71	0x3e882dcb	0.26597437
72	0x3e855b5b	0.2604626
73	0x3e3a73e2	0.18208268
74	0xbe2a80dd	-0.1665072
75	0xbe97ff80	-0.2968712
76	0x3f5c322d	0.8601406
77	0x3fc3cc4f	1.5296725
78	0x3f976cb1	1.1830045
79	0x3f515605	0.8177188
80	0x3f16b34e	0.5886735
81	0x3f5e8e24	0.8693564
82	0x3ef3cd17	0.4761741
83	0xbe67bb56	-0.22630057
84	0xbe13d989	-0.14438452
85	0x3e31c821	0.173615
86	0xbef379c2	-0.4755383
87	0xbf968b88	-1.1761332
88	0x3e05d718	0.13070333
89	0x3f0daf98	0.5534606
90	0x3f6b792d	0.91981775
91	0xbdeac078	-0.11462492
92	0xbeb38ae0	-0.3506689
93	0x3e662f3a	0.22478953
94	0x3f0f5e09	0.5600286
95	0x3fc27c7a	1.5194237
96	0x3e53b813	0.20675687
97	0x3e8b80f9	0.27246836
98	0xbdf70f0b	-0.12063416
99	0xbe931d42	-0.2873326
100	0x3db3851f	0.08765625
101	0xbe9fb627	-0.3119366
102	0x3d8b76ab	0.068097435
103	0x3e8969aa	0.26838428
104	0x3dc11d3c	0.09429404
105	0x3dac2579	0.08405585
106	0xbde4eb9d	-0.11177752
107	0xbe5956a3	-0.21224456
108	0x3e04ff0f	0.12987922
109	0x3ecd39de	0.40083212
110	0x3e9c9ea6	0.3058979
111	0xbd7c946e	-0.06166499
112	0xbf585e86	-0.8451923
113	0xbf019dc6	-0.5063137
114	0xbe94b8a5	-0.29047123
115	0x3de75e97	0.112973385
116	0xbd2fbbb5	-0.04290362
117	0xbf2d9cb3	-0.6781723
118	0xbd4a5cb9	-0.049404833
119	0x3f055f94	0.52098966
120	0xbe79e3d0	-0.2440331
121	0xbf0894b4	-0.533519
122	0xbf40824b	-0.7519881
123	0x3e80039f	0.25002763
124	0x3ebc6e7f	0.36803052
125	0xbe44ac1a	-0.19206277
126	0xbe794cd1	-0.2434571
127	0xbf72a2bd	-0.9477957

blocks.0.v_mappings.0.spline_scaler f4 [4, 4]
0	0x3f21d6c5	0.6321834
1	0xbf6b1246	-0.9182476
2	0x40047621	2.06971
3	0xbf2e7b13	-0.68156546
4	0x3e38a72f	0.18032525
5	0xbe85c7e1	-0.26129058
6	0x3f4477be	0.7674521
7	0x3ef39b24	0.475793
8	0xbf7c943e	-0.986637
9	0x3f9133d9	1.1343948
10	0xbf4f46f8	-0.80967665
11	0x3f8a7012	1.0815451
12	0x3e50e503	0.20399861
13	0xbdf50e07	-0.11965566
14	0xbf26e4fd	-0.6519316
15	0x3f1b7a3c	0.6073339

blocks.0.v_mappings.0.grid f4 [4, 12]
0	0xc00ccccd	-2.2
1	0xbfe66666	-1.8
2	0xbfb33333	-1.4
3	0xbf800000	-1.0
4	0xbf19999a	-0.6
5	0xbe4ccccc	-0.19999999
6	0x3e4cccd0	0.20000005
7	0x3f19999a	0.6
8	0x3f800000	1.0
9	0x3fb33334	1.4000001
10	0x3fe66666	1.8
11	0x400ccccd	2.2
12	0xc00ccccd	-2.2
13	0xbfe66666	-1.8
14	0xbfb33333	-1.4
15	0xbf800000	-1.0
16	0xbf19999a	-0.6
17	0xbe4ccccc	-0.19999999
18	0x3e4cccd0	0.20000005
19	0x3f19999a	0.6
20	0x3f800000	1.0
21	0x3fb33334	1.4000001
22	0x3fe66666	1.8
23	0x400ccccd	2.2
24	0xc00ccccd	-2.2
25	0xbfe66666	-1.8
26	0xbfb33333	-1.4
27	0xbf800000	-1.0
28	0xbf19999a	-0.6
29	0xbe4ccccc	-0.19999999
30	0x3e4cccd0	0.20000005
31	0x3f19999a	0.6
32	0x3f800000	1.0
33	0x3fb33334	1.4000001
34	0x3fe66666	1.8
35	0x400ccccd	2.2
36	0xc00ccccd	-2.2
37	0xbfe66666	-1.8
38	0xbfb33333	-1.4
39	0xbf800000	-1.0
40	0xbf19999a	-0.6
41	0xbe4ccccc	-0.19999999
42	0x3e4cccd0	0.20000005
43	0x3f19999a	0.6
44	0x3f800000	1.0
45	0x3fb33334	1.4000001
46	0x3fe66666	1.8
47	0x400ccccd	2.2

blocks.0.v_mappings.1.base_weight f4 [4, 4]
0	0xbd61f1fc	-0.055162415
1	0x3f32e8a1	0.69886214
2	0xbf76ae55	-0.9635976
3	0x3ee6f3e4	0.4510795
4	0xbd810140	-0.062990665
5	0xbe38603e	-0.18005463
6	0x3f890084	1.0703282
7	0xbdea20c2	-0.11432029
8	0x3f0af721	0.5428334
9	0x3d4b164e	0.04958182
10	0x3eb7957d	0.35856238
11	0x3f338d6c	0.7013767
12	0x3f69c370	0.9131384
13	0x3ed8cef3	0.4234539
14	0xbf8403b8	-1.0313635
15	0x3ee4a5e8	0.44657826

blocks.0.v_mappings.1.spline_weight f4 [4, 4, 8]
0	0x3f7cf81e	0.98816097
1	0x3f739ef6	0.9516443
2	0x3f25a4c0	0.64704514
3	0x3e88e14d	0.2673439
4	0x3d705926	0.05867877
5	0x3f23c05c	0.6396539
6	0xbd9a2af4	-0.07527724
7	0x3af8793b	0.0018957028
8	0x3ddb1ba7	0.10698634
9	0xbcbe23bc	-0.023210399
10	0x3ee3edbe	0.4451732
11	0x3f03ac10	0.5143442
12	0x3e8dbc21	0.27682593
13	0xbd26e94c	-0.040749833
14	0xbf6c474a	-0.9229628
15	0xbf061989	-0.52382714
16	0x3f7cbfa9	0.9872995
17	0x3f19ca96	0.60074747
18	0x3ee444c9	0.4458373
19	0xbe01fde3	-0.12694506
20	0x3d4972c1	0.049181703
21	0xbe86c863	-0.26324758
22	0xbf66f5f2	-0.9021903
23	0x3e47d809	0.19516005
24	0xc0024153	-2.035237
25	0xbfc6dc15	-1.5535914
26	0xbf4d3261	-0.80155
27	0xbf79155d	-0.9729822
28	0x3e083c00	0.13304138
29	0x3f5d89af	0.86538213
30	0x3e4a5430	0.19758677
31	0xbe7b6565	-0.24550398
32	0xbe66f9dc	-0.22556251
33	0xbf16ac06	-0.58856237
34	0xbf601cb5	-0.87543803
35	0xbf90feb3	-1.1327728
36	0xbf6eec3b	-0.9332921
37	0xbd0dc636	-0.034612857
38	0xbf0258f9	-0.5091701
39	0xbef95a11	-0.48701528
40	0x3e4c3e6d	0.19945689
41	0x3e1bfc49	0.15232958
42	0xbd89c7dc	-0.06727573
43	0xbe883224	-0.26600754
44	0x3e09b674	0.13448507
45	0x3ec37561	0.3817549
46	0x3f1f4996	0.6222166
47	0xbf5e630e	-0.86869895
48	0xbe7eea97	-0.24894176
49	0xc0147f80	-2.320282
50	0x3e8289c0	0.2549572
51	0x3f6d756f	0.92757314
52	0xbd137ca0	-0.036007524
53	0xbf7cf74b	-0.9881484
54	0xbf615a89	-0.8802877
55	0x3ee4a170	0.44654417
56	0x3fc5d459	1.5455428
57	0x3fce03d8	1.6094923
58	0x3fd1d9c1	1.6394578
59	0x3fd43166	1.6577575
60	0x3ef7a947	0.48371336
61	0xbd081165	-0.033219714
62	0xbeb094fb	-0.34488663
63	0xbf17948c	-0.5921104
64	0x3e90eb15	0.28304353
65	0x3f0445c1	0.51668936
66	0x3f1c156c	0.6097019
67	0x3f27071e	0.65245235
68	0x3e7160b3	0.23572044
69	0xbf11e039	-0.5698276
70	0x3f0de2ee	0.5542439
71	0xbe9af7ed	-0.30267277
72	0x3f0a9f74	0.54149556
73	0x3e1a26ec	0.1505391
74	0x3e2c978c	0.16854686
75	0xbe5e3bea	-0.21702543
76	0xbedc9e1a	-0.43089372
77	0xbed8cebf	-0.42345235
78	0xbf4ab357	-0.791799
79	0x3d9079cc	0.07054481
80	0x3fb1ba7c	1.3885036
81	0x3e0ac5ea	0.1355206
82	0xbea4034b	-0.32033762
83	0xbf107cc3	-0.5644037
84	0xbeae4961	-0.3404036
85	0x3ea6cf58	0.32580066
86	0x3ea90109	0.33008602
87	0xbf44d060	-0.76880455
88	0xbfdbe17e	-1.717819
89	0xbfe38e2f	-1.7777766
90	0xbffb5837	-1.9636296
91	0xbf9e9a45	-1.2390829
92	0x3dbcf5f1	0.09226597
93	0x3e85eba1	0.26156333
94	0x3e2c1b01	0.16807176
95	0xbe25c92c	-0.16190022
96	0xbd809927	-0.062792115
97	0x3e12ae83	0.14324383
98	0x3ed4b79c	0.41546333
99	0x3f24d8db	0.64393395
100	0x3f66f611	0.9021922
101	0x3f3a8fdb	0.72875756
102	0x3f9dd1c4	1.232964
103	0xbf30ec02	-0.6911012
104	0xbeebec92	-0.46078926
105	0xbed45c5c	-0.41476715
106	0xbd479ff7	-0.04873654
107	0x3eeaa120	0.45826054
108	0x3f7a2cfa	0.9772488
109	0x3f1fb367	0.6238312
110	0x3e143973	0.1447504
111	0x3f00b60e	0.50277793
112	0xbf1cc845	-0.6124309
113	0x3e489125	0.19586618
114	0x3fb06063	1.3779415
115	0x3dd55957	0.10417431
116	0xbea8dbec	-0.32980287
117	0xbeb6f7e5	-0.35736004
118	0x3d848e1b	0.06472417
119	0x3fc6d28e	1.5533006
120	0xc00af700	-2.1713257
121	0xc0820a38	-4.0637474
122	0xc08b827e	-4.359679
123	0xbfa15467	-1.2603883
124	0xbdc8ae49	-0.09798867
125	0x3e315686	0.17318162
126	0x3f060559	0.5235191
127	0xbde6e12c	-0.11273417

blocks.0.v_mappings.1.spline_scaler f4 [4, 4]
0	0x3f6910f2	0.9104148
1	0xbf1056fd	-0.56382734
2	0x3f0c686b	0.5484683
3	0x3f4629f7	0.77407783
4	0xbf8e7597	-1.1129636
5	0xbecb9c2a	-0.3976758
6	0xbf6b9000	-0.920166
7	0xbf272da2	-0.65304005
8	0xbf807912	-1.0036948
9	0x3f4f71d6	0.81033075
10	0xbf9770f8	-1.183135
11	0xbe9078ff	-0.28217313
12	0xbf5240a0	-0.8212986
13	0xbf548a7f	-0.8302383
14	0x3fc5c0c3	1.5449451
15	0xbf609229	-0.8772302

blocks.0.v_mappings.1.grid f4 [4, 12]
0	0xc00ccccd	-2.2
1	0xbfe66666	-1.8
2	0xbfb33333	-1.4
3	0xbf800000	-1.0
4	0xbf19999a	-0.6
5	0xbe4ccccc	-0.19999999
6	0x3e4cccd0	0.20000005
7	0x3f19999a	0.6
8	0x3f800000	1.0
9	0x3fb33334	1.4000001
10	0x3fe66666	1.8
11	0x400ccccd	2.2
12	0xc00ccccd	-2.2
13	0xbfe66666	-1.8
14	0xbfb33333	-1.4
15	0xbf800000	-1.0
16	0xbf19999a	-0.6
17	0xbe4ccccc	-0.19999999
18	0x3e4cccd0	0.20000005
19	0x3f19999a	0.6
20	0x3f800000	1.0
21	0x3fb33334	1.4000001
22	0x3fe66666	1.8
23	0x400ccccd	2.2
24	0xc00ccccd	-2.2
25	0xbfe66666	-1.8
26	0xbfb33333	-1.4
27	0xbf800000	-1.0
28	0xbf19999a	-0.6
29	0xbe4ccccc	-0.19999999
30	0x3e4cccd0	0.20000005
31	0x3f19999a	0.6
32	0x3f800000	1.0
33	0x3fb33334	1.4000001
34	0x3fe66666	1.8
35	0x400ccccd	2.2
36	0xc00ccccd	-2.2
37	0xbfe66666	-1.8
38	0xbfb33333	-1.4
39	0xbf800000	-1.0
40	0xbf19999a	-0.6
41	0xbe4ccccc	-0.19999999
42	0x3e4cccd0	0.20000005
43	0x3f19999a	0.6
44	0x3f800000	1.0
45	0x3fb33334	1.4000001
46	0x3fe66666	1.8
47	0x400ccccd	2.2

blocks.1.q_mappings.0.base_weight f4 [4, 4]
0	0xbf321217	-0.6955885
1	0xbe0d9396	-0.13825831
2	0x3ce8d6e4	0.02842278
3	0x3e8f4f14	0.2799002
4	0xbd0ceb87	-0.034404304
5	0xbeef670b	-0.46758303
6	0x3d6068da	0.054787494
7	0xbe8eb318	-0.27871013
8	0x3f1401ce	0.57815254
9	0xbf11ddb1	-0.569789
10	0x3c3f068f	0.011659279
11	0xbf1cd298	-0.6125884
12	0xbee3add3	-0.44468555
13	0x3f2ffd32	0.6874572
14	0xbc544fad	-0.012958449
15	0x3f36930e	0.7131814
