weights/benchmark-one/vanilla_vit_8epochs.pth (torch, 12297 bytes, 29 tensors)

v_class f4 [1, 8]
000000 90 2c ef bd 26 ee 1a be 39 25 00 3f 24 48 d0 3e
       -0.116784215 -0.15129909 0.500568 0.4068004
000010 94 20 28 3f 1e 4a 8c 3f 95 02 82 3f 46 9a dd 3e
       0.6567471 1.0960119 1.0157038 0.43281764

linear_mapper.weight f4 [8, 16]
000000 63 df 87 3f f9 ea 87 be 76 46 13 bf f5 20 82 3e
       1.0615047 -0.26546457 -0.5752939 0.2541577
000010 82 5b 95 3f af 42 59 3f 0f d2 d2 3e 6c d7 85 3f
       1.1668551 0.84867376 0.41175887 1.0456367
000020 aa da a5 3d 45 df cb be d2 1b 5e bd fe aa d9 3e
       0.080983475 -0.3981878 -0.05422575 0.4251327
000030 cc 13 e9 be 09 bc 25 be 8a 25 01 be 53 56 1b be
       -0.45522916 -0.16185011 -0.12611976 -0.15169649
000040 5d 25 26 be 8e bb 92 3d d2 a2 39 3e 6c 25 5b 3e
       -0.1622519 0.071646795 0.18128517 0.21400994
000050 e7 e9 da be e4 96 29 3e e4 c7 91 be 09 af 97 bd
       -0.42756578 0.16561466 -0.28472817 -0.07406432
000060 eb 51 53 3d 06 12 74 3e 7f e7 f6 bd 01 f3 83 3e
       0.051591795 0.23835 -0.12055873 0.25771335
000070 4c 5c 12 3e 7e 17 6a 3e 6f 38 72 3e 00 b9 11 3f
       0.14293021 0.22860524 0.2365434 0.5692291
000080 0e ca cc be fe 68 c4 3d ee 0f 6d be 7b f7 8e be
       -0.39997905 0.09590338 -0.23150608 -0.27923188
000090 f3 3a c7 3e a7 6e fb 3e cf 28 a0 3e 4d 0f 83 3e
       0.38912162 0.4910786 0.31281134 0.2559761
0000a0 33 a7 e0 3e a3 bb db bd 64 10 64 be 88 82 f9 3e
       0.43877563 -0.10729148 -0.22271878 0.487324
0000b0 c1 ad ab 3f 8a b5 89 3f 7d 8c 6f 3f 9a de a7 3f
       1.34124 1.0758526 0.93573743 1.3114808
0000c0 e5 7e 15 be cd 84 85 be d5 34 ff be 49 79 1e be
       -0.14599188 -0.2607788 -0.49844995 -0.15475954
0000d0 f6 b4 54 bf 2a c3 89 bf 13 8f a5 bf a7 a5 25 bf
       -0.83088624 -1.0762684 -1.2934288 -0.6470589
0000e0 f4 17 f3 3d d1 47 07 bf cd 12 0c bf 65 8a aa be
       0.11869803 -0.5284396 -0.5471619 -0.33308712
0000f0 86 8b 21 3f 24 e0 b6 3e 48 3a 39 3f 1d e2 3d 3f
       0.6310352 0.3571788 0.72354555 0.74173146
000100 6b 29 b3 be 23 7f 74 bd a1 bf 11 3e 1c 3d ca be
       -0.34992537 -0.05969156 0.14233257 -0.39499748
000110 80 48 87 3d c5 2e 11 bf 14 b1 8f be 5e f8 82 be
       0.06605625 -0.5671199 -0.28064787 -0.25580114
000120 22 0c 9a 3f 28 14 0f bf 50 b5 2d bf 3e 82 ed 3e
       1.2034953 -0.5589013 -0.67854786 0.4638843
000130 6d 45 c5 3f 39 d7 c3 3f de 6b d4 3f 53 61 0a 40
       1.5411812 1.5300056 1.6595418 2.1621902
000140 30 60 97 be 4d f4 c4 be d8 59 d7 be b3 66 73 bf
       -0.29565573 -0.38467637 -0.42060733 -0.9507858
000150 76 3b 0b bf 8c bc 8b be c6 c1 43 3e 4c 7b 6c be
       -0.54387605 -0.27292287 0.19116887 -0.23093909
000160 9a ce ee be d5 97 86 bd cf ac 1d 3f 37 28 68 3f
       -0.46642 -0.065719284 0.6159181 0.90686363
000170 a2 e0 7c be 44 9f 79 bf 6f 87 b2 bf 90 2c fb 3e
       -0.24695066 -0.97508645 -1.3947581 0.49057436
000180 b9 88 30 bf ff 79 e8 be ca 27 0f bf 13 b2 87 bf
       -0.6895862 -0.45405576 -0.5592009 -1.0601219
000190 87 f5 fb 3c 0b db 33 be 73 ca ca be c5 f8 0b bf
       0.030756725 -0.17564027 -0.39607581 -0.5467647
0001a0 ec 36 54 3f b0 56 0d bf ff d7 3f bf 8b 51 8e 3e
       0.82896304 -0.552104 -0.7493896 0.27796587
0001b0 5b 8f 85 3f 5c 76 30 3f 68 25 8d 3f 0c 36 a7 3f
       1.0434374 0.689306 1.102704 1.3063369
0001c0 a6 5d 0e bb 25 8c ff ba 38 15 65 3d a3 28 da 3d
       -0.00217233 -0.0019496722 0.05592844 0.10652282
0001d0 82 5c c8 3c 22 55 74 bf 9e b1 40 bf 94 44 e2 be
       0.024458174 -0.954424 -0.7527102 -0.44192946
0001e0 53 7e 64 3f fa e9 16 bf 1f a5 9d be bd ae 50 3f
       0.89255255 -0.5895077 -0.3079004 0.8151663
0001f0 4f 63 9f 3f 69 dd 63 3f db ea 9d 3f d4 ca da 3f
       1.2452182 0.8900972 1.2337297 1.7093148

linear_mapper.bias f4 [8]
000000 7f e9 31 3e 10 a5 e1 bd ad b4 2c be f2 e1 93 bd
       0.17374228 -0.11017811 -0.16865797 -0.0722083
000010 ac d9 a9 3c 21 51 dd 3e 4c 10 98 be 49 81 07 3f
       0.020733677 0.4322596 -0.29699934 0.5293165

blocks.0.q_mappings.0.weight f4 [4, 4]
000000 0b 9d 04 3f 26 be 12 be b6 ed 24 3e fb 5d a5 3d
       0.5180213 -0.14330348 0.16106305 0.08074566
000010 ac 10 ed 3f b9 76 ad 3e 27 92 bd 3f 5b 9d 94 3d
       1.8520713 0.3387964 1.4810227 0.07256576
000020 cf b3 03 40 3c e0 f2 be 4d 1a d5 3e ac b1 15 bf
       2.0578496 -0.47436702 0.41621628 -0.5847423
000030 5f 27 a8 3f f4 9c 39 3e 99 d7 0e 3c da fa c5 be
       1.3137015 0.18126279 0.008718395 -0.38667947

blocks.0.q_mappings.0.bias f4 [4]
000000 2e 0a a8 3e 0a b8 a9 bd bf 69 99 bd a2 dd 04 bf
       0.32820266 -0.08287056 -0.074908726 -0.51900685

blocks.0.q_mappings.1.weight f4 [4, 4]
000000 fd fb 05 3f 99 f8 86 be f9 5b 54 bf 0d 5b 20 3f
       0.5233763 -0.2636154 -0.8295284 0.6263893
000010 21 5c 19 bf f7 56 b4 bf be 85 98 3e 04 54 9a bf
       -0.599062 -1.408904 0.29789537 -1.205689
000020 15 cf 28 3f 16 e3 87 be c8 28 66 bf 65 0a 44 3d
       0.6594098 -0.2654044 -0.8990598 0.047861475
000030 8a a8 25 bf 09 69 0c 3e bf 93 7a 3f c0 74 55 bf
       -0.64710295 0.13711943 0.9788169 -0.8338127

blocks.0.q_mappings.1.bias f4 [4]
000000 c5 c2 81 3e c5 6e 92 bf fc c9 82 3e 87 4b 0a bf
       0.2534391 -1.1440054 0.25544727 -0.54021496

blocks.0.k_mappings.0.weight f4 [4, 4]
000000 3a a6 f8 bd b9 c0 0a 3f 6f dc bf 3d f5 5a a6 3a
       -0.1214108 0.5420032 0.09368216 0.0012691902
000010 f9 03 4a be ec dc d1 3f c2 ce 00 bf 4b af 9c be
       -0.19728078 1.6395545 -0.5031549 -0.30602488
000020 f5 ea 57 3f 4e 70 7b 3f 87 1e 26 be 30 e1 36 3d
       0.8434289 0.9821824 -0.16222583 0.04464835
000030 2f 52 06 3f 53 50 c0 3d 6d 86 9b bd bc 5d 96 bb
       0.5246915 0.09390321 -0.07593999 -0.0045888107

blocks.0.k_mappings.0.bias f4 [4]
000000 cf 93 f2 be 63 26 9c be 22 10 f9 3e 28 e1 a2 3e
       -0.47378394 -0.30498037 0.4864512 0.31812406

blocks.0.k_mappings.1.weight f4 [4, 4]
000000 05 6e 39 bf dc 9a b2 be c1 e5 38 bf 5d 0e 95 bf
       -0.724335 -0.34883773 -0.72225577 -1.1645008
000010 bc a0 77 3f f3 37 e8 be 85 5c 88 3e 1c a7 ec 3e
       0.96729636 -0.45355186 0.26633087 0.46221244
000020 75 b5 77 bf c6 9c 0f bf bf ef 0d bf 46 e3 15 bf
       -0.96761256 -0.5609859 -0.5544395 -0.58549917
000030 49 21 4c 3f ef 17 9f bd 45 2f 21 3f dc 04 f0 3e
       0.7973829 -0.07768237 0.6296275 0.46878707

blocks.0.k_mappings.1.bias f4 [4]
000000 2a 7a ce be 85 fc c7 3e fe c8 9f be cf e1 1e 3a
       -0.4032758 0.39059845 -0.31208032 0.000606087

blocks.0.v_mappings.0.weight f4 [4, 4]
000000 dc 82 ba bf 41 a9 2c 3f 0d 8a 40 3e 87 0f 68 3f
       -1.4571185 0.6744576 0.18802662 0.9064869
000010 62 e9 9a bf 49 f3 dc be 60 49 14 bf 12 dd 56 3f
       -1.2102473 -0.43154362 -0.5792446 0.83931077
000020 03 86 59 3f 46 70 1a 3f a4 36 5e 3f a9 2b eb be
       0.8497011 0.60327566 0.86802125 -0.45931748
000030 2a 91 e4 3e b2 54 01 c0 90 ff e6 bf 9c 48 2b bf
       0.44642 -2.0207944 -1.8046741 -0.6690767

blocks.0.v_mappings.0.bias f4 [4]
000000 6a df 49 3e 3a 9a 50 be c0 12 55 be 9f 08 6b 3e
       0.19714132 -0.20371333 -0.20807934 0.22952507

blocks.0.v_mappings.1.weight f4 [4, 4]
000000 3f d9 19 bf 42 e8 5a bf 32 cc 87 bf 8a 26 a0 3e
       -0.60097116 -0.8551065 -1.060919 0.31279403
000010 03 4c 93 bf 4e 0c 96 3e 68 cb f0 be 80 c6 8b bf
       -1.1507572 0.29306263 -0.47030187 -1.0919952
000020 2c 0a 89 bf 6a 35 3f bf 20 d0 d5 be a5 32 9b bf
       -1.0706229 -0.7469088 -0.4176035 -1.212483
000030 11 a8 12 3f 67 9c 05 bf 8a e8 36 3f d9 03 0c 3d
       0.572877 -0.52191776 0.71448576 0.034183357

blocks.0.v_mappings.1.bias f4 [4]
000000 8e 1d 05 3f 55 06 f1 be e6 0f 7b 3d 1a 51 1a bf
       0.5199822 -0.47075143 0.06129446 -0.6028

blocks.1.q_mappings.0.weight f4 [4, 4]
000000 55 4e bb 3e 59 51 80 3f 5a 05 8b be 3c 98 42 3d
       0.365832 1.0024825 -0.2715252 0.047508463
000010 17 e6 7e be bd ba 08 bf 8d 4b 00 3e 12 10 dd be
       -0.2489246 -0.5340994 0.1252882 -0.43176323
000020 5b 48 92 3e 9a 27 20 3f a7 ba bd 3e 4a 49 86 3c
       0.28570828 0.6256043 0.37056467 0.016392369
000030 ee a5 3c be d5 9c 4f 3f 6b c9 21 bd e8 b0 cf be
       -0.18422672 0.8109868 -0.039498728 -0.40564656

blocks.1.q_mappings.0.bias f4 [4]
000000 5c c4 92 be 3b 73 8b bd 8a b5 79 be 73 79 bc be
       -0.28665435 -0.06809088 -0.24385658 -0.36811408

blocks.1.q_mappings.1.weight f4 [4, 4]
000000 80 4a 1b bf 93 17 5d be 06 6d 04 bf 27 85 14 3f
       -0.6066055 -0.21591024 -0.51728857 0.58015674
000010 4f 8b 58 3f 83 42 e5 3d ac b6 20 3e eb 77 96 be
       0.8458757 0.11194327 0.15694684 -0.29388365
000020 49 3e 63 bf 7a 34 dc be f9 e2 6b 3e d8 37 ce bc
       -0.88766915 -0.43008786 0.23035802 -0.025173113
000030 55 0f 44 bf 44 23 c9 3c eb ef d5 bd 15 1b aa 3d
       -0.76585895 0.024552949 -0.10446151 0.08305947

blocks.1.q_mappings.1.bias f4 [4]
000000 01 fd e0 bd 89 81 f3 bd 56 7c cc be 64 7a dc be
       -0.10985757 -0.11889941 -0.3993861 -0.43062127

blocks.1.k_mappings.0.weight f4 [4, 4]
000000 af 34 83 be 31 06 29 3f 0b e5 db be c9 b8 dc 3e
       -0.25626132 0.6602507 -0.42948183 0.4310973
000010 ec f4 bd 3c ce dc 37 3e 6d b6 b5 3e f7 59 35 3e
       0.023188077 0.17955324 0.35490742 0.177101
000020 23 52 1e be 0e 78 10 3f 49 1d 19 3e cc 31 08 3f
       -0.1546102 0.5643319 0.14952578 0.53200984
000030 b7 3c e0 3d b6 4e 2f 3e 0a 33 02 3e 0f 35 02 be
       0.109490804 0.1711987 0.12714782 -0.12715553

blocks.1.k_mappings.0.bias f4 [4]
000000 29 a3 ad be 43 3e c6 bd 7d 2e c0 3e d3 f5 83 3e
       -0.33913544 -0.09679844 0.37535468 0.25773486

blocks.1.k_mappings.1.weight f4 [4, 4]
000000 0b 1e 77 be 02 38 9d be ce 28 c6 be 81 25 c1 bf
       -0.24132554 -0.30706793 -0.38703007 -1.508957
000010 29 7f 12 be 26 f5 98 be bc d5 f3 3e fb 0e 9a 3f
       -0.1430632 -0.29874533 0.47624004 1.2035822
000020 d4 4e e5 be 78 20 dd be ab cb 2c 3e d5 81 89 bf
       -0.44786704 -0.43188834 0.16874568 -1.0742747
000030 08 d0 63 be 42 85 97 3e 57 23 a6 be 99 8e 48 bf
       -0.22247326 0.29593855 -0.32448837 -0.78342587

blocks.1.k_mappings.1.bias f4 [4]
000000 d8 de 5b bd 39 67 cc bd 67 8b 8e be 6b 8f ef be
       -0.053679317 -0.09980626 -0.2784073 -0.46789107

blocks.1.v_mappings.0.weight f4 [4, 4]
000000 a3 13 ec bf 88 4b bc bf 39 f8 f2 3f 13 d3 33 bf
       -1.8443493 -1.471055 1.8982002 -0.7024395
000010 3a c3 ef bf f3 a1 22 bf d3 be 29 3f 90 2c e3 3f
       -1.8731453 -0.63528365 0.663068 1.7747974
000020 20 c9 1b 40 cb 96 a0 3f 3e d9 aa bf 9c 33 85 bf
       2.4341507 1.2546018 -1.3347547 -1.0406375
000030 5e f4 89 be 2b a1 48 3e ad 9e 90 bf 86 b9 76 40
       -0.2694425 0.1959273 -1.1298424 3.8550735

blocks.1.v_mappings.0.bias f4 [4]
000000 4a 63 3b bf a7 04 26 be c2 27 56 be d8 6a 4c 3f
       -0.7319838 -0.16212712 -0.20913604 0.7985053

blocks.1.v_mappings.1.weight f4 [4, 4]
000000 a2 7c af 3e 3e 01 88 3f 16 5a 31 3f c5 28 1d bf
       0.34274775 1.0625379 0.69278085 -0.61390334
000010 fb 56 82 bf 91 19 7a 3f 29 82 87 3f 56 94 2b 3f
       -1.0182794 0.9769526 1.0586597 0.6702322
000020 7d 61 fc be 33 2c 52 be 43 af 5a bf 2c 5d 2d bf
       -0.49293128 -0.20524673 -0.8542368 -0.67720294
000030 54 7a 81 3f a5 8b 2c 3f eb 11 89 3f 89 85 3e bf
       1.0115457 0.6740058 1.0708593 -0.7442251

blocks.1.v_mappings.1.bias f4 [4]
000000 ae e7 a0 3e d4 b0 6f bf 0d 41 f1 3e 39 2b 34 3f
       0.31426758 -0.93629193 0.47119942 0.7037845

mlp.0.weight f4 [10, 8]
000000 3b 47 59 3f 60 cb 78 3f af dc 4b bf b5 02 32 bf
       0.84874314 0.97185326 -0.7963361 -0.6953538
000010 a4 af d0 be 34 60 40 3f d6 85 f2 be a9 69 13 bf
       -0.40759003 0.75146794 -0.47367734 -0.575831
000020 06 c2 10 bf 9d 48 43 3d 25 00 d7 3d 11 ed 67 3f
       -0.56546056 0.04767667 0.104980744 0.9059611
000030 a0 62 d4 bf 8c 5d c5 be 86 c9 8c 3f 96 45 32 c0
       -1.6592598 -0.38547933 1.0999 -2.7854972
000040 6f be 9a 3e 4e 02 2c 3f 5c b9 b3 be e5 79 a3 3e
       0.30223414 0.67191017 -0.35102355 0.31928936
000050 d1 13 a9 3e bc 5d 12 bf 42 49 0e bf 3f c3 e1 3e
       0.3302293 -0.5717428 -0.5558053 0.44094273
000060 02 c9 f3 3d ef 4c ba 3e 5f bd 94 be 90 f1 0d be
       0.119035736 0.3638682 -0.2905073 -0.1386168
000070 a1 fb f0 3e 56 c5 b9 3e 2d 9a ba bd 1d 5b 55 bc
       0.47066978 0.36283368 -0.09111438 -0.013022211
000080 0b 17 85 be 51 45 9b be 2d c2 59 be 55 1b e3 be
       -0.25994143 -0.30326322 -0.21265478 -0.4435679
000090 45 f4 df 3e da e8 38 bf 45 a6 5f bd 5e bb 17 3f
       0.4374105 -0.72230303 -0.054601926 0.59270275
0000a0 e4 7b 07 3e d1 c8 ab 3e c7 42 02 3e 6c fe 65 bc
       0.13230854 0.33551648 0.12720786 -0.01403771
0000b0 44 c6 a0 be e6 f1 08 3f 85 52 97 be df 5b eb bd
       -0.31401265 0.5349411 -0.29555145 -0.114921324
0000c0 ce 44 00 be 1d 8c 8e 3f c5 c9 1f bf f0 00 4e 40
       -0.12526247 1.1136509 -0.6241725 3.2188072
0000d0 c0 f3 14 3e 1e 65 40 bf 4d 6b b7 3d 13 95 d5 3e
       0.14546108 -0.7515429 0.08956013 0.41715297
0000e0 87 2b 3f c0 98 4a bd bf a2 40 25 40 1c 0e ed 3e
       -2.9870317 -1.4788389 2.5820699 0.46299827
0000f0 4b 9b 2a 3f 15 34 b1 be ca e4 13 bf 26 12 2f 3f
       0.6664321 -0.34610048 -0.5777098 0.6838707
000100 00 ee 4b 3f 49 fc 3b be 4b 04 44 be 83 eb 7b bf
       0.79660034 -0.18357958 -0.19142263 -0.9840624
000110 ab 7a b2 be 31 1e ad bd 54 be 37 be 49 fa a1 3c
       -0.34859213 -0.08453024 -0.17943698 0.019772666
000120 b7 de b0 be 97 36 98 bf 8b 63 1f 3f e0 7d 8d bf
       -0.34544918 -1.189166 0.62261266 -1.1054039
000130 83 0d 17 3f e7 8a 93 3e e8 90 b4 3e 87 0d 99 3e
       0.5900499 0.28816912 0.35266805 0.29893133

mlp.0.bias f4 [10]
000000 0a 84 21 bf 89 50 58 3e 29 17 41 bd 0c b3 a3 be
       -0.630921 0.21124472 -0.047141228 -0.3197254
000010 cf 85 27 3f e3 bb 79 3d 06 59 5e 3f 80 45 aa 3e
       0.6543855 0.0609702 0.8685459 0.3325615
000020 47 ab 38 3e 73 45 00 3d
       0.18034087 0.031316232
