weights/fastkan_vit_10epochs.pth (torch, 47260 bytes, 85 tensors)

v_class f4 [1, 8]
000000 98 70 ea 3e f4 2c bb 3e 08 26 3d 3f db 93 a4 3f
       0.45789027 0.36557734 0.73886156 1.2857622
000010 62 9a b7 3d 9f 4f 7a 3f cc cc 22 be ed 68 6b 3f
       0.08964993 0.9777774 -0.15898436 0.9195698

linear_mapper.layernorm.weight f4 [16]
000000 2d df fa 3e fe fa 30 3f 85 da 97 3f 11 3d 38 3f
       0.48998395 0.69132984 1.1863562 0.7196818
000010 70 84 4f 3f f1 34 7e 3f 2d 14 7d 3f 1e 2b 45 3f
       0.8106146 0.9929953 0.9885891 0.77018917
000020 35 37 4d 3f 4d 42 90 3f 31 e1 82 3f df 74 84 3f
       0.80162364 1.1270233 1.0224973 1.0348166
000030 35 c1 07 3f cc 92 47 3f 61 b4 4c 3f ed c6 55 3f
       0.53029186 0.7795837 0.79962736 0.8350666

linear_mapper.layernorm.bias f4 [16]
000000 58 1a bd 3d d0 41 6c bd 7d ac c3 3c c2 d6 60 3e
       0.0923354 -0.05767995 0.02388596 0.21956924
000010 f0 f6 6a 3d 4f 8d a7 bd a6 a0 da bb 45 52 32 3d
       0.057364404 -0.08181249 -0.006671983 0.04353549
000020 0d 9a 18 3e ab 37 a4 3d e2 e9 12 be 19 33 1a be
       0.14902516 0.0801843 -0.14347032 -0.15058555
000030 b5 bd 70 3d 27 93 8e 3d 4b f8 a4 3d 90 39 3a be
       0.05877467 0.06961661 0.080551706 -0.18186021

linear_mapper.rbf.grid f4 [8]
000000 00 00 00 c0 6e db b6 bf b6 6d 5b bf 22 49 92 be
       -2.0 -1.4285715 -0.8571428 -0.2857142
000010 22 49 92 3e b6 6d 5b 3f 6e db b6 3f 00 00 00 40
       0.2857142 0.8571428 1.4285715 2.0

linear_mapper.spline_linear.weight f4 [8, 128]
000000 b8 59 cc 3e 76 e1 e0 bd 16 e9 80 be 0e 5e a4 3d
       0.399122 -0.10980503 -0.2517783 0.08025752
000010 35 6c d4 bc a0 77 e4 3d 67 bc d9 3b c6 1e 40 3e
       -0.025930503 0.11155629 0.0066447738 0.18761739
000020 e7 48 99 3e 68 70 fb bd 57 6f 76 3e bb 20 85 3d
       0.29938433 -0.12277299 0.2406591 0.065003835
000030 e0 fb 17 3e a1 c4 2c 3c d8 12 b4 3d d7 7d 52 bc
       0.14842176 0.010544927 0.08792657 -0.012847385
000040 1f 93 cd 3d bd 9e 3a 3d 33 fe 4e 3e 65 57 a6 3d
       0.10037827 0.04556154 0.20214157 0.08122138
000050 82 35 1c 3e 89 5b 6b 3d 12 88 9a 3d 19 34 ad 3d
       0.15254787 0.05746034 0.075454846 0.084572025
000060 c6 b6 01 be 29 c8 b8 bc 2a 2e ba 3c 3e 68 0e 3e
       -0.12667379 -0.022556381 0.02272709 0.13906953
000070 e8 60 85 3e 7a 9e 36 3e 0c e7 6f 3e 69 e4 cd bc
       0.26050496 0.17833892 0.23427981 -0.025133329
000080 98 b2 e8 3e 60 7f 61 3d b2 a4 b1 bc 8b 06 24 3e
       0.45448756 0.055053115 -0.021684978 0.16018121
000090 28 df f5 3d ab ab 88 3e 63 aa b6 3b 61 8a 73 be
       0.12005454 0.26693472 0.005574511 -0.23783256
0000a0 a2 69 b6 3e b1 80 fb 3d 44 63 45 3e 46 53 08 3e
       0.35627466 0.12280405 0.19276148 0.13313016
0000b0 ac c8 aa 3d 2d d5 d2 3d 87 bf 9a 3d 6d e9 02 3e
       0.083390564 0.10294566 0.07556062 0.12784357
0000c0 b9 4c c1 be e1 a4 10 be 8e 06 f7 3b 16 34 68 3d
       -0.37753847 -0.14125396 0.007538623 0.056690298
0000d0 47 7c 6f 3d db fd 06 bd 7c 8c 61 be ea 0a a0 3d
       0.05846813 -0.03295694 -0.22026247 0.07814582
0000e0 6a 47 a7 be f1 7d b3 be 0e 7d 6b bd 43 76 97 39
       -0.32671672 -0.35057023 -0.05749231 0.00028889076
0000f0 2d ae b4 3d e6 7d 4f bb 07 1d 70 bd 25 fa 02 3d
       0.08822284 -0.0031660735 -0.058621433 0.031976838
000100 7a 47 ae bd 9d a2 02 be 19 41 dc 3d 22 4a 3a bd
       -0.08509727 -0.12757345 0.10754604 -0.045480855
000110 e6 7c d5 3d 4a 87 9a 3d 7f 7f 9e bd c4 be 64 3e
       0.10424213 0.075453356 -0.07739162 0.22338396
000120 82 88 5d be 68 8c 55 bd 5c f7 0c bd 7e 28 2e bd
       -0.21634105 -0.052135855 -0.034415588 -0.042519085
000130 c8 c4 68 bd 38 f3 20 bd 46 91 49 bd c8 7e 1d be
       -0.05682829 -0.03929445 -0.04921081 -0.15380394
000140 ec 4d 13 be 9b db ae 3c c1 07 58 3d d5 42 b1 3c
       -0.14385194 0.02134495 0.05274177 0.021638313
000150 25 81 d0 3d f4 71 b8 bc ce 5a 55 3c ad 1c 44 3d
       0.10180882 -0.022515275 0.013022138 0.04787891
000160 40 b1 13 be 61 76 fa 3d e8 43 18 3e 2b 09 2f 3d
       -0.14423084 0.1222961 0.14869654 0.042733353
000170 01 a6 ab 3d ba 4d 29 3e 54 8c ca 3d 47 df bb be
       0.08381272 0.16533557 0.09890047 -0.36693785
000180 56 bc 0b bf 32 63 65 be 23 d8 cb 3d 3a ae b0 bd
       -0.5458425 -0.22401121 0.09953334 -0.08626981
000190 9c e2 61 3d 65 02 e4 bd b7 90 b0 bd 74 df 09 3f
       0.055147752 -0.11133269 -0.08621352 0.5385659
0001a0 d3 55 15 bd 07 0a c7 bd c2 a9 79 be c0 b0 12 3e
       -0.0364588 -0.097187094 -0.24381164 0.14325237
0001b0 82 69 30 3d f7 90 83 bd ca c4 ed bc 50 7e a4 3e
       0.04306937 -0.06424134 -0.0290245 0.3212762
0001c0 b6 6a 6b 3c 40 44 f1 bd ee a8 05 bd ca a4 dd 3a
       0.014368704 -0.11780596 -0.032631807 0.0016910073
0001d0 f5 72 2b 3d e8 17 e6 3b dc 94 19 be 72 0f a5 bd
       0.04185768 0.007021893 -0.14998192 -0.080595866
0001e0 3c 0e ee 3d ce b8 22 3e 5d 9e 17 3e f1 41 09 be
       0.11623809 0.1589081 0.14806505 -0.13404061
0001f0 e0 36 31 bd 06 4f 4c be cf 8a 28 be 09 f1 a5 be
       -0.043265224 -0.1995202 -0.16459201 -0.32410458
000200 f2 3d c1 bc fb 67 52 be 37 eb 67 be 62 76 bd bd
       -0.023589108 -0.20547478 -0.22648321 -0.09251095
000210 db f3 c5 bd 98 12 8d bd 9b 37 74 3d 40 a5 ae 3d
       -0.09665652 -0.06888312 0.059623342 0.08527613
000220 d6 79 40 be e1 4c 1e 3e 2d e6 31 bd 6f d0 e3 bd
       -0.18796477 0.15459014 -0.043432403 -0.1112374
000230 89 01 21 bd 65 7a a1 bd 03 b8 c0 3c d8 a8 c5 3d
       -0.039308105 -0.07884673 0.023525244 0.09651345
000240 b7 16 61 bd 2f 43 e9 3d 7c 47 e3 bd 8b de 54 be
       -0.054953303 0.113897674 -0.11097619 -0.20788018
000250 39 2f 50 bd 80 7a 10 be 10 65 26 bd e9 8c 91 bd
       -0.050826285 -0.1410923 -0.040623724 -0.071069546
000260 d7 88 d0 be 24 68 a5 be a9 db d0 bc 22 5d af be
       -0.407294 -0.32306015 -0.025495367 -0.34250742
000270 2a 78 39 bd 5a 8c 7c be 1a da 90 bd 6a 60 28 be
       -0.045280613 -0.24662915 -0.070728496 -0.16443029
000280 63 bf 31 3e 1e ec c1 3c 7a 25 05 3d 5b 0b 92 3e
       0.17358164 0.02367216 0.032506444 0.2852429
000290 36 fa fa 3c 13 37 fd 3d 5a 68 66 be 9e 75 00 bf
       0.030636888 0.1236402 -0.22500744 -0.5017947
0002a0 a4 39 be 3d 36 87 88 bd a1 ca a7 3d a4 a1 b1 3b
       0.09288338 -0.066664144 0.08192945 0.0054208804
0002b0 19 c7 43 3d 11 a1 42 bc f4 d4 99 bd f5 d2 fd bd
       0.047797296 -0.011879222 -0.07511321 -0.123937525
0002c0 ae 09 88 be 92 ea f8 3d ad 9b e6 3d bd e5 af 3d
       -0.26569885 0.12154116 0.112601615 0.08588741
0002d0 a0 87 a7 3d 9c fa 0a bd 6b 33 7b bb 2f 66 f6 bd
       0.08180165 -0.033930406 -0.0038330208 -0.12031209
0002e0 b9 f2 4f be 37 3e c4 bd 2a 80 35 3c 08 72 57 3e
       -0.20307435 -0.09582179 0.01107792 0.21039593
0002f0 84 6d f5 3d 6b 9c cd 3d 9c 34 11 be f5 12 85 be
       0.11983779 0.100396 -0.14180225 -0.25991026
000300 06 76 79 3e e5 0d 3e bd 67 b2 4c 3d 66 56 3a 3e
       0.24361429 -0.04639997 0.049974825 0.18197021
000310 93 82 fe bc 20 60 a2 bc 2d c0 81 be 1c af 19 be
       -0.031068122 -0.019821227 -0.2534193 -0.15008205
000320 6a ba 80 3d 3d 10 89 3e 90 3b 79 3d c8 0d ba 3d
       0.06285556 0.267702 0.06084782 0.0908466
000330 eb 6a 2e 3d 96 66 4b 3d a0 e6 f1 bd 46 a3 66 3e
       0.042582434 0.04965838 -0.11811566 0.22523221
000340 33 5e 09 3e 79 67 e9 3d 90 38 92 3d d2 04 c0 3d
       0.1341484 0.11396689 0.07139695 0.093759194
000350 ef da 36 3d f2 d6 23 bd fe cf 8e bd 4f 3d f0 3d
       0.044642385 -0.03999991 -0.06973265 0.11730444
000360 76 e4 f7 bd 8d 9a 91 3c d4 73 39 3e 4b 4b f4 3d
       -0.12104122 0.01777389 0.18110591 0.119284235
000370 94 5a 0d 3e 03 6c 0a 3e 7c 07 ce bc 32 e4 7e be
       0.13804084 0.13517766 -0.025150053 -0.24891737
000380 91 88 66 3e ae df 91 3d 78 9d 83 3e f8 d3 df 3d
       0.22513033 0.07122742 0.25706077 0.10929102
000390 cf c7 c1 bd a0 4b 79 be ed c8 e7 be 6e 0a 40 bf
       -0.094619386 -0.24345255 -0.45270482 -0.75015914
0003a0 d9 51 dc 3e 64 37 aa 3d 6d 0f 0e 3e 28 21 81 3d
       0.43031195 0.08311346 0.13873072 0.06305152
0003b0 20 43 41 bc a4 6a 4d be b8 cf bf be 0c 0c be be
       -0.011795789 -0.20060211 -0.37463164 -0.37118566
0003c0 34 14 71 3e 00 f3 ef 3c 1c cb 4d 3d 3c 83 6f bc
       0.23542863 0.029290676 0.05024253 -0.014618691
0003d0 b3 63 2a be b1 88 8f be d3 10 28 bf fd 36 bb be
       -0.16639595 -0.28033975 -0.6565067 -0.3656539
0003e0 55 bc fd 3d 9e 0c 5f 3e 7c 12 45 3e 47 04 ba 3d
       0.12389437 0.21782157 0.19245332 0.09082847
0003f0 77 54 d3 bc 60 c4 00 3d 09 e7 89 3a 58 41 da be
       -0.025797112 0.031437278 0.0010521124 -0.42627978

linear_mapper.base_linear.weight f4 [8, 16]
000000 92 27 79 bb e1 a0 ec bd 2b 7d 02 bd 72 3e 87 be
       -0.003801797 -0.11554123 -0.03185765 -0.2641483
000010 36 03 10 be e3 a7 f9 bd 37 fa a5 3d 4f 8e 18 3c
       -0.14063725 -0.12190225 0.08104365 0.009311273
000020 da b6 7d be 47 df c1 be 82 55 63 bc 42 9b 3a 3e
       -0.24776784 -0.3786566 -0.013875367 0.18223289
000030 ba 4c fb be 69 43 c2 be 0b 56 23 be d2 65 16 bf
       -0.49081975 -0.37942055 -0.15950792 -0.58749115
000040 ae 6f 07 be 91 b2 3d be a1 c6 9f bd 8c bc 2a 3c
       -0.13226196 -0.18525149 -0.07801557 0.01042093
000050 ee 91 27 3e 05 27 fc bc c8 09 5f 3d 07 85 1d 3e
       0.16364262 -0.030780325 0.054452688 0.15382777
000060 89 66 1f 3e 85 43 70 3c c6 37 70 3e db 69 23 3d
       0.15566458 0.014664535 0.23458776 0.039895874
000070 04 58 b4 bd 18 b1 0a 3d 7e 37 f7 3d f2 0c b9 be
       -0.0880585 0.033860296 0.12071131 -0.3614269
000080 4e 3f 38 be cb af 8f bd 4d cc 8b bd 9c 8d b1 3c
       -0.17992899 -0.07015952 -0.06826077 0.02167397
000090 61 34 62 be 52 0e 4e 3d 56 eb a8 3d 45 81 00 3d
       -0.22090293 0.050306626 0.08248012 0.03137328
0000a0 f6 2a 43 be bd 3b 2e 3b 29 ff 13 be 0c eb 78 bd
       -0.19059357 0.00265859 -0.14452805 -0.060771033
0000b0 cc ac 96 3e b3 bf d4 3c 5c 2b 89 3d 31 60 0a 3f
       0.2942871 0.025970316 0.06697723 0.54053026
0000c0 9c ba c7 bd 61 d3 57 3e 84 25 36 bd 24 cd a7 bd
       -0.0975239 0.21076728 -0.04446937 -0.08193424
0000d0 79 37 34 bf 2a f0 a3 be 2a d6 ed be 0b ae 33 be
       -0.70397145 -0.32019168 -0.46452457 -0.17546861
0000e0 15 8f 16 bf db 6f d0 be 29 e7 07 bf 5f 5e ad be
       -0.58812076 -0.4071034 -0.530871 -0.33861062
0000f0 f2 ac 2c bf cc 43 08 bf 6d e8 9b be 21 cc 96 be
       -0.67451394 -0.5322845 -0.30450764 -0.29452613
000100 e3 63 8a bd 11 cc 23 3e 98 e2 ed 3e 63 bd d4 3e
       -0.06757333 0.15995814 0.4646194 0.4155074
000110 82 c1 76 be fc 55 ae 3e 4b 31 c6 3e 95 f2 31 bd
       -0.24097255 0.34049976 0.38709483 -0.043444235
000120 f8 4f 80 be 9a f4 ae 3e 28 18 93 3d 06 70 f0 bd
       -0.2506101 0.3417099 0.07182342 -0.11740117
000130 ed 8a 36 bd 19 ea ee 3e 64 a8 e3 bc b3 a1 02 3f
       -0.044566084 0.46662977 -0.027790256 0.51027983
000140 d2 a3 44 3f a2 65 87 3e 70 6a 89 bd ba 15 33 3f
       0.7681247 0.26444727 -0.067097545 0.6995503
000150 74 22 f4 bd 40 36 15 3c 88 c1 9f bd c8 81 05 bc
       -0.11920634 0.0091071725 -0.07800585 -0.008148618
000160 c5 51 9e be 2e fa 8c bc 96 ff e1 bd 95 ae b3 be
       -0.3092176 -0.017209139 -0.11035077 -0.35094133
000170 b9 0c 89 3e 30 9f 22 3e 89 a2 9b 3e 5c ce cc 3d
       0.2676752 0.15881038 0.30397442 0.100002974
000180 f0 59 a6 bf 90 23 12 be 63 4b e6 3d c6 85 48 3e
       -1.2996197 -0.14271379 0.112448476 0.1958228
000190 2e c4 b6 be 7e de c1 be e0 74 8b 3e 97 7b e1 3e
       -0.35696548 -0.3786506 0.27237606 0.44039604
0001a0 ea 81 90 be 63 90 22 be 25 ae bf bd ad 46 97 3e
       -0.28224117 -0.15875392 -0.09359387 0.2954611
0001b0 14 2a 41 bf 40 44 8d bd 0a 53 1c 3f b3 d6 93 3d
       -0.7545483 -0.06897783 0.6106421 0.07218685
0001c0 79 87 8a bd 38 94 86 3e c8 49 51 3c 28 86 b6 be
       -0.067641206 0.26284957 0.0127739385 -0.35649228
0001d0 f9 74 b8 bd a3 71 61 bc ad d8 2e 3d 53 f4 4b be
       -0.09006686 -0.013760003 0.042687107 -0.19917421
0001e0 42 48 3e be 83 88 90 be ca 8e 86 be 17 c4 d0 be
       -0.18582252 -0.2822915 -0.26280814 -0.40774605
0001f0 34 56 95 3d 08 46 31 3c 54 29 b2 be c6 d2 06 bf
       0.072918326 0.010819919 -0.34797156 -0.52665365

linear_mapper.base_linear.bias f4 [8]
000000 14 c9 20 3e d2 ef 6c 3d 9f 77 fd bd 12 70 63 bb
       0.15701705 0.057845898 -0.123763315 -0.003470425
000010 0e 02 43 3e 58 b2 01 3e 74 f0 90 be 44 c6 2e 3e
       0.19043753 0.12665689 -0.2830845 0.1706782

blocks.0.q_mappings.0.layernorm.weight f4 [4]
000000 52 9e a9 3f c2 e9 a4 3f a7 06 90 3f b9 a1 3d 3f
       1.325144 1.2883837 1.125203 0.74074894

blocks.0.q_mappings.0.layernorm.bias f4 [4]
000000 a0 24 0a 3e 21 37 5a be eb b8 84 be d1 fb b9 be
       0.13490534 -0.21310093 -0.2592233 -0.36324933

blocks.0.q_mappings.0.rbf.grid f4 [8]
000000 00 00 00 c0 6e db b6 bf b6 6d 5b bf 22 49 92 be
       -2.0 -1.4285715 -0.8571428 -0.2857142
000010 22 49 92 3e b6 6d 5b 3f 6e db b6 3f 00 00 00 40
       0.2857142 0.8571428 1.4285715 2.0

blocks.0.q_mappings.0.spline_linear.weight f4 [4, 32]
000000 7c ad b5 3e 5a 4f 9a 3e 54 7c 9f 3e 4d 61 c9 3e
       0.3548392 0.30138665 0.31149542 0.39332047
000010 c6 0d c9 bd c1 bb 43 bf 94 68 11 3d 0b 2e 51 bd
       -0.0981708 -0.76458365 0.035500124 -0.0510693
000020 e0 86 2a 3f 2b 94 cc be 74 04 ca be dd 77 c1 3d
       0.6661205 -0.39956793 -0.39456522 0.0944669
000030 a8 31 38 3e e6 5e 23 3e a6 d0 3d be b6 43 99 bf
       0.17987692 0.1595417 -0.18536624 -1.1973789
000040 ae 05 2c 3e 60 67 4a be e7 e5 52 be 31 61 c1 be
       0.16799042 -0.19765997 -0.20595513 -0.37769464
000050 39 60 01 3f 4a 0d 00 3f fa 76 ff 3d 21 a7 a2 3d
       0.5053745 0.5002028 0.12473865 0.079420336
000060 71 ca 93 be 69 37 0b bd ef 20 92 3d 9e 25 89 be
       -0.28865388 -0.03398839 0.07135188 -0.26786512
000070 62 6c 1d be d2 a8 18 3e 2b bc 36 bc 1d 05 22 be
       -0.15373376 0.1490815 -0.011153261 -0.15822263
000080 f0 ec ba 3e ca 85 a4 3d b2 02 b8 3d 67 65 0e bd
       0.36508894 0.08033331 0.08984889 -0.034764674
000090 b3 d3 b2 bd 66 c9 21 3e df 6b 5a bc 97 e4 1a 3e
       -0.08731785 0.15799484 -0.013331383 0.15126263
0000a0 30 c0 b9 be a3 58 75 3d b0 ae 37 3f e2 fa 31 3e
       -0.3627944 0.059898984 0.71750927 0.1738086
0000b0 85 10 af bd fe 4d 82 bd db f4 d7 3e a9 56 c1 3f
       -0.08548073 -0.06362532 0.42178997 1.5104572
0000c0 15 1d ed be 30 77 63 3e 5b df d8 3e 5e 35 c2 bd
       -0.4631125 0.22213435 0.42357907 -0.09482835
0000d0 0c 68 52 bf 1a 1d 32 be 59 21 4d 3e ad 9a 21 3f
       -0.8219001 -0.17393914 0.20032252 0.6312664
0000e0 02 6c 75 3e 2b bd c4 3c 3e ef c0 3e 90 12 a7 3e
       0.23966983 0.024015984 0.37682527 0.3263135
0000f0 f1 93 be bc bb 4b 92 be 16 95 cd bb 77 fb 15 be
       -0.023263903 -0.28573403 -0.006273876 -0.14646707
000100 7e 40 a8 be 4b 8a 41 be fb 66 0e 3d ac 12 00 3d
       -0.32861704 -0.18900411 0.03476618 0.031267807
000110 6b f3 6e 3e cd eb 01 3f 3d 25 81 3e bf 44 0a 3f
       0.23335044 0.5075043 0.25223723 0.5401115
000120 12 62 03 3f f3 e7 41 3f 0a 9f 63 3f f1 c9 a9 3e
       0.5132152 0.7574455 0.8891455 0.33161882
000130 e5 e8 f8 3c 1c ac 87 be 68 1f 8a be 53 db 13 3f
       0.03038449 -0.26498497 -0.26977086 0.5775654
000140 54 26 d1 3d 71 1f ca 3e 7e dc a1 3e f3 f4 f5 3d
       0.10212389 0.39477113 0.31613535 0.12009611
000150 6f 7b 79 3e f0 38 3b bd 21 3f c8 bd 37 06 b6 3e
       0.24363492 -0.045708597 -0.09777666 0.35551617
000160 b5 68 ff 3d a0 89 ad 3d 37 35 9b 3e 36 a2 aa 3e
       0.12471143 0.084735155 0.30314037 0.33326882
000170 54 f4 18 3e b9 15 e7 3e 40 1c 03 3f 70 39 ef 3e
       0.14936954 0.4513376 0.5121498 0.4672351
000180 20 51 b1 bd a9 bd c5 be 6d b7 40 be 9d 4a 9c 3e
       -0.086580515 -0.38621262 -0.18819971 0.30525675
000190 63 7b b3 3e 57 7c ce 3d 2c 1b 55 bc 13 94 22 3e
       0.35055074 0.1008231 -0.013006967 0.15876798
0001a0 7d b4 14 bf fa ab 07 be 36 fd 78 bd ae 0e 8a 3b
       -0.58087903 -0.13249198 -0.060788356 0.0042131757
0001b0 0e 79 82 3e b5 8e 9f 3e 60 73 54 3f 96 c7 d9 3f
       0.25482982 0.31163564 0.8298855 1.7014034
0001c0 5e dd 44 3d 96 1b 03 3d 10 85 88 bd 34 33 cd 3e
       0.048062675 0.03200873 -0.06666005 0.40078127
0001d0 78 88 3c be e1 a5 c5 3b d8 e9 c4 3d 3a 82 c3 bd
       -0.18411434 0.006031737 0.09614915 -0.09546323
0001e0 c0 0d 0b 3f c6 7d c1 3e 63 01 de 3e 63 52 8d 3e
       0.54317856 0.3779127 0.43360433 0.2760192
0001f0 94 ff 30 3d 4d 45 fe be da 50 25 be 39 8d 5a bd
       0.04321249 -0.49662247 -0.16144124 -0.053357337

blocks.0.q_mappings.0.base_linear.weight f4 [4, 4]
000000 09 b2 40 bf d1 db 5c bf 7f 00 0b be 3e 21 de 3e
       -0.7527166 -0.86272913 -0.13574408 0.43384737
000010 7d 86 2c be 11 d4 26 3c f4 fa a6 be b2 90 cd bd
       -0.16848178 0.0101823965 -0.32613337 -0.10037364
000020 83 20 a3 3d 1c c0 c5 3e 9d c8 82 3e 56 21 77 be
       0.079651855 0.3862313 0.2554368 -0.2413381
000030 91 1c 6f 3e 9c dc 69 3e 65 25 51 be 06 cb d3 bd
       0.23350741 0.22838062 -0.20424421 -0.10341458

blocks.0.q_mappings.0.base_linear.bias f4 [4]
000000 cc 68 05 3e f7 fa 3d bd 12 e6 38 3f 30 c1 b4 bd
       0.13028258 -0.046381917 0.7222606 -0.0882591

blocks.0.q_mappings.1.layernorm.weight f4 [4]
000000 bc b6 9b 3f 18 37 88 3f 04 7c 90 3f 4b 23 d6 3f
       1.2165141 1.0641813 1.1287847 1.672952

blocks.0.q_mappings.1.layernorm.bias f4 [4]
000000 55 7b 0c 3e 71 36 81 3e ef 93 46 3c 9f 03 5f bd
       0.13718922 0.25236848 0.012120231 -0.054446813

blocks.0.q_mappings.1.rbf.grid f4 [8]
000000 00 00 00 c0 6e db b6 bf b6 6d 5b bf 22 49 92 be
       -2.0 -1.4285715 -0.8571428 -0.2857142
000010 22 49 92 3e b6 6d 5b 3f 6e db b6 3f 00 00 00 40
       0.2857142 0.8571428 1.4285715 2.0

blocks.0.q_mappings.1.spline_linear.weight f4 [4, 32]
000000 ca fb 5b bd 63 74 4c 3d 64 db 9e bd b1 7e 68 bd
       -0.05370692 0.049915683 -0.07756689 -0.056761447
000010 7e 58 34 be 94 cd 8a be cc 3a c4 be f3 97 c3 3e
       -0.17611882 -0.2710997 -0.38326108 0.38201866
000020 3b c1 b2 3e 94 ce d0 3e ee e8 0f bc 8b f2 99 3c
       0.34913048 0.40782607 -0.008783562 0.018792411
000030 f7 01 2a be d0 c6 c5 3c db 3a 05 be 09 0e 28 be
       -0.16602312 0.024142653 -0.13010733 -0.16411604
000040 8e 95 4f bd 01 ef b5 3d 7f 6e c0 bd 0d ee 7c 3d
       -0.050679736 0.08883477 -0.093960755 0.06175046
000050 2c 9f 2e be 89 76 a1 be 4a 4f 96 be 69 7d ea be
       -0.17052907 -0.31535748 -0.29357368 -0.45798805
000060 25 fc 99 be fe 2e 88 be 2c 4c b0 be 27 c7 9d be
       -0.30075184 -0.26598352 -0.34433115 -0.30816004
000070 76 59 80 3e 2f 89 0e bd f8 20 23 be 11 83 30 bc
       0.25068253 -0.034798797 -0.15930545 -0.010773436
000080 6f 24 8f be 34 fb 7c bd db d2 bd bc a3 d6 8e bd
       -0.27957484 -0.061763003 -0.023171833 -0.069745325
000090 5b 15 a7 bd 42 11 8b be 21 d9 c2 3e f6 96 cf 3f
       -0.0815837 -0.27161604 0.3805628 1.6217945
0000a0 8c b8 88 3e c8 b2 43 3f 0a cc 04 bc 1d 5e 26 be
       0.26703298 0.76444674 -0.008105287 -0.16246839
0000b0 ec d3 29 bd 5e ea d8 3d 3c e0 9a be bd c5 86 be
       -0.04146187 0.10591577 -0.30249202 -0.26322737
0000c0 3d aa de bc 33 0d 0c be 3a 25 f1 bd ce 0b d5 bd
       -0.027180785 -0.1367691 -0.117746785 -0.10402642
0000d0 ee 1c d3 3d d5 fb d9 3c b0 18 54 be ff c8 f5 3d
       0.10308252 0.02660934 -0.20712543 0.120012276
0000e0 83 73 c5 bd 7c 06 ba be 8c 7c aa be 03 61 9e be
       -0.09641173 -0.36333072 -0.33298147 -0.3093339
0000f0 6b 58 e5 3e eb d1 9c 3d 1c 24 3a 3d 49 93 d8 3d
       0.4479402 0.07657226 0.045444593 0.105749674
000100 cd 38 3b 3d 82 f4 aa be 8e e4 f0 3d 18 87 ae bd
       0.045708466 -0.3338967 0.11762343 -0.08521861
000110 e6 b2 73 bc 81 a9 00 be a1 f3 ce 3d 9a 08 1f 3f
       -0.014874196 -0.1256466 0.10105062 0.621225
000120 d6 7c f4 bc bb 70 05 3e 06 e7 90 3e ba 61 60 3e
       -0.029844683 0.13031285 0.28301257 0.2191228
000130 d9 18 a9 3e 77 c0 2a 3d dd 74 f9 bd e6 c0 97 be
       0.3302677 0.041687455 -0.12180493 -0.29639357
000140 0f fa 8f bd 9e 8a d7 bc d1 45 16 be de 20 0c be
       -0.07030117 -0.026311215 -0.1467507 -0.13684413
000150 84 d6 53 3d f7 15 60 be 10 8b 08 3e 15 cf b7 3e
       0.05171825 -0.21883379 0.13334298 0.3590018
000160 cf b1 93 3d b2 5a 99 bd e8 95 ca be b9 ba 1c bf
       0.07211649 -0.07488002 -0.39567494 -0.61222416
000170 58 d8 b0 be e4 ed 7e 3d 02 de ec 3e 42 5f a3 3e
       -0.34540057 0.06223859 0.4626313 0.31908613
000180 4b d6 fb bd ac 14 74 be 9b b9 31 be 99 f3 9b 3e
       -0.122967325 -0.2383601 -0.17355959 0.30459288
000190 cb b3 3c be 49 3c 59 bd 4d ea 9b 3f e1 43 20 40
       -0.1842796 -0.053036008 1.2180878 2.504143
0001a0 9b 43 40 bf 48 1a b5 be 55 a1 89 3e 36 a6 2b 3e
       -0.7510316 -0.35371614 0.268809 0.16762623
0001b0 21 91 e7 3e 72 71 f2 3c 96 1a 03 be 48 77 b7 bd
       0.45227912 0.02959511 -0.1280311 -0.08958298
0001c0 b3 1a 93 3e 29 23 e8 3d af 6e 35 3e f2 bd b4 3e
       0.28731307 0.11334831 0.17718004 0.35301167
0001d0 52 65 4e 3e b1 26 37 bf e4 72 c7 bf 7a 6c ef be
       0.20155838 -0.71543413 -1.5581937 -0.4676245
0001e0 68 75 9d 3e b2 60 19 3e 43 1f 31 bd 5a 0c 90 3e
       0.30753636 0.14978293 -0.043242704 0.28134423
0001f0 96 f8 d0 3e 5c cb 24 3e cf 74 83 be 54 ad b2 3c
       0.40814656 0.160932 -0.25675055 0.021811165

blocks.0.q_mappings.1.base_linear.weight f4 [4, 4]
000000 0f c6 37 bf 22 c6 5d be bc 93 6f 3e cb cc 91 3e
       -0.7178659 -0.21657613 0.233962 0.28476557
000010 ab cf 19 bf 3c ab 95 be 50 06 d3 3e 56 83 de be
       -0.600825 -0.29232204 0.41215754 -0.43459576
000020 23 b0 ee 3c ff a3 14 3e 30 45 70 bd c1 88 35 be
       0.029136723 0.14515685 -0.058659732 -0.17727949
000030 81 96 83 be 2d c8 2b bd e9 8e b0 3e 6b 79 bd be
       -0.25700763 -0.04193895 0.34484032 -0.37006697

blocks.0.q_mappings.1.base_linear.bias f4 [4]
000000 59 a0 fc be e2 d7 4f 3e b9 58 32 3c da 8f 0f bd
       -0.49341086 0.20297197 0.010885411 -0.035049297

blocks.0.k_mappings.0.layernorm.weight f4 [4]
000000 d2 90 a8 3f 7b 04 c9 3f 1e ff 8b 3f 21 b0 79 3f
       1.3169196 1.5704492 1.093723 0.97534376

blocks.0.k_mappings.0.layernorm.bias f4 [4]
000000 0d 46 8d be 68 db 8b bd 8a a5 95 be 12 67 94 3e
       -0.27592507 -0.06828958 -0.2922786 0.28984886

blocks.0.k_mappings.0.rbf.grid f4 [8]
000000 00 00 00 c0 6e db b6 bf b6 6d 5b bf 22 49 92 be
       -2.0 -1.4285715 -0.8571428 -0.2857142
000010 22 49 92 3e b6 6d 5b 3f 6e db b6 3f 00 00 00 40
       0.2857142 0.8571428 1.4285715 2.0

blocks.0.k_mappings.0.spline_linear.weight f4 [4, 32]
000000 7e 98 b1 be 4d a1 ba 3c 0a b1 ee 3e 92 4c ac 3d
       -0.34686655 0.022781992 0.46619445 0.08413042
000010 04 81 7d be 7f 45 80 bd e7 6d 14 3e 02 ec 8d be
       -0.24756247 -0.06263255 0.1449505 -0.27719122
000020 36 50 ea 3e c8 89 82 3f bb 33 18 3d c9 7e 4e bd
       0.4576432 1.0198298 0.03715871 -0.05041388
000030 2b 3e 4f be 81 0c 89 bf 07 e3 0d be 63 31 80 3e
       -0.20238559 -1.0706941 -0.13856135 0.2503768
000040 bb ff fa be 71 0b 5e be 89 9e d3 3b 65 f9 af 3c
       -0.49023232 -0.21684052 0.006458108 0.021481225
000050 9e 04 eb bc 67 44 7d 3e e1 a8 b5 3e f3 1e 01 3f
       -0.028688725 0.24733125 0.35480407 0.5043785
000060 68 10 41 bf 72 cb d0 3e 58 9c 52 3e 10 27 2d 3e
       -0.7541566 0.40780216 0.20567453 0.16909432
000070 5f 79 fd 3c af 00 59 bf 42 82 d3 be d9 a3 ed be
       0.030941663 -0.8476667 -0.41310316 -0.46414068
000080 ca a3 2b be 67 1c 9f bd 5e 2f b4 bc 52 d4 cb 3b
       -0.167617 -0.07769089 -0.021995243 0.006220379
000090 4a 2c 1a 3f 18 5b 79 3e ae c8 26 be bd e6 e9 be
       0.6022383 0.24351156 -0.1628749 -0.45683852
0000a0 03 90 fa bd e6 3e 6a 3e f2 a9 df 3e 41 ac a3 3a
       -0.12234499 0.22875556 0.43684345 0.0012487249
0000b0 77 c2 96 bd 2c 10 8d 3e 0d cb ff bd 99 f6 ba 3d
       -0.0736131 0.275514 -0.12489901 0.09129066
0000c0 57 1b 4e be d1 e1 66 3e 39 72 99 3e af 36 97 bb
       -0.20127617 0.2254708 0.29969957 -0.004614673
0000d0 ef e0 91 be 7e 0b 11 be c6 d3 bd 3e ba 58 12 3e
       -0.28491923 -0.1416454 0.37075633 0.14291659
0000e0 cb ec 42 3e ac 98 bf bd f6 ad 35 3e dc ef 10 3f
       0.19035642 -0.09355292 0.17742142 0.56615996
0000f0 ff 40 98 3e 0b b5 af bd a5 79 89 be de 04 37 bd
       0.29737088 -0.08579453 -0.2685062 -0.044682376
000100 c8 76 21 3e 1c fb 8c bd 3e 3b 04 be 99 aa fa 3e
       0.15767968 -0.06883833 -0.12913224 0.4895828
000110 77 21 99 3e a8 a8 ed bb ae 31 c4 bd 7b 67 73 bf
       0.29908344 -0.0072527714 -0.09579788 -0.95079774
000120 e6 66 34 be 2c 54 f2 bd 30 4a 64 bf 95 78 bc be
       -0.17617378 -0.11832461 -0.891757 -0.36810747
000130 18 88 a7 be 4b 51 b8 3e ce d7 d8 3e a8 06 98 3e
       -0.3272102 0.35999522 0.42352146 0.29692578
000140 ca f8 35 be 9b 8f 09 3e ea f6 a8 3d 87 25 d4 3e
       -0.17770687 0.13433687 0.0825022 0.4143488
000150 06 20 84 be 31 1c 41 be 3b da 16 3c 61 93 e0 bd
       -0.25805682 -0.1885841 0.009207304 -0.1096561
000160 38 2c 92 3e 3f a2 b9 3e 5f db 48 3e 35 2c 22 3e
       0.2854936 0.36256596 0.19614933 0.15837176
000170 09 ef 0f 3c 6f 74 0c bf e0 7d 2d bf 14 18 43 bd
       0.008785018 -0.54865164 -0.67770195 -0.047630385
000180 59 e7 2a 3d b4 5e 0d bd 5e 84 3b be 0c de 8f 3e
       0.041724537 -0.034514144 -0.18312213 0.28099096
000190 e5 8b 0c 3f 84 9a 05 3d 64 65 05 be 1f 70 4e bf
       0.5490096 0.03261806 -0.13026959 -0.80639833
0001a0 07 c3 58 be 05 b0 bd bc 21 fb 8b be 7e ad 07 3d
       -0.21168147 -0.023155222 -0.27340034 0.03312444
0001b0 ee 18 18 bd 0f ce 0c 3d 5a 4f 12 bd bc 85 b4 be
       -0.03713315 0.0343762 -0.035720207 -0.3525828
0001c0 bf e6 22 bd 40 60 8d 3d c4 31 da bd 52 46 e8 3e
       -0.039770838 0.06903124 -0.10654023 0.4536615
0001d0 a3 a7 7b be 42 7b 1d be e1 d0 26 3d 31 ec 73 bb
       -0.24575667 -0.1537905 0.040726546 -0.0037219638
0001e0 4b 5f aa 3e 78 97 85 3e af a4 0a be 39 be a8 bc
       0.33275828 0.26092124 -0.13539384 -0.020598518
0001f0 f4 52 97 3e 8e 7d 1b 3c e8 10 ba be 90 56 af 3e
       0.29555476 0.009490384 -0.36341023 0.3424573

blocks.0.k_mappings.0.base_linear.weight f4 [4, 4]
000000 29 9a 05 bf a2 33 a6 be eb 76 c9 bd 2b 11 d3 be
       -0.52188355 -0.32461268 -0.09837135 -0.41224036
000010 03 16 93 3e 40 9f 31 3e 68 31 aa 3c ef c6 39 3e
       0.2872773 0.17345905 0.020775512 0.18142293
000020 0a 88 ec be ab 2a 15 3f 0c 02 8e bd 43 ac 8f bf
       -0.4619754 0.5826823 -0.06933984 -1.1224445
000030 84 58 97 3b 24 88 de 3e f0 f3 c4 3e 5e b1 16 bf
       0.004618706 0.43463242 0.3846736 -0.5886439

blocks.0.k_mappings.0.base_linear.bias f4 [4]
000000 82 5b bd bc 42 37 99 3e 69 16 39 bd 45 76 9e 3e
       -0.023114923 0.2992497 -0.045187388 0.30949607

blocks.0.k_mappings.1.layernorm.weight f4 [4]
000000 7a 18 77 3f 67 33 7c 3f ad 57 a6 3e 8a 49 7d 3f
       0.96521723 0.98515934 0.32488766 0.98940337

blocks.0.k_mappings.1.layernorm.bias f4 [4]
000000 37 9b 37 bd cc 39 bd 3e cf 02 a5 be 79 37 a3 3d
       -0.04482576 0.36958158 -0.32228705 0.07969565

blocks.0.k_mappings.1.rbf.grid f4 [8]
000000 00 00 00 c0 6e db b6 bf b6 6d 5b bf 22 49 92 be
       -2.0 -1.4285715 -0.8571428 -0.2857142
000010 22 49 92 3e b6 6d 5b 3f 6e db b6 3f 00 00 00 40
       0.2857142 0.8571428 1.4285715 2.0

blocks.0.k_mappings.1.spline_linear.weight f4 [4, 32]
000000 26 f6 bc 3d 90 02 9f 3c 53 52 63 3e 86 1b 97 be
       0.092266366 0.019410402 0.22199373 -0.29513186
000010 7b 56 2c 3e dc d8 ca bd 01 fb 69 be df e9 3e bf
       0.16829865 -0.09904644 -0.22849657 -0.7457561
000020 39 23 cf 3d cd 23 0d 3f a8 64 05 3f 2e 41 65 3e
       0.1011414 0.5513275 0.52106714 0.22388145
000030 31 34 d8 3d 0f 1b 07 be 61 4f 1b 3e 0b 90 49 be
       0.1055683 -0.13193916 0.15167 -0.19683854
000040 a0 3c ef 3d d6 5a ac 3d 9e 1e 90 3d 2b c6 18 bc
       0.11681485 0.08415763 0.0703709 -0.009324591
000050 df 4f 99 bd 22 6a ad bd 85 89 20 be 8f 52 d1 bd
       -0.07485937 -0.08467509 -0.1567746 -0.10220825
000060 6d e7 53 be 22 8c 4c be 23 cd 8f 3d 53 31 c1 bd
       -0.2069375 -0.19975331 0.070215486 -0.09433236
000070 6b a5 43 bd ed 68 52 3d 0f ad 49 bc 44 d5 4b 3e
       -0.047765177 0.051369596 -0.012309327 0.19905573
000080 d9 32 f1 3d af c1 09 3d 8e 0f 3a 3e 7f 45 a8 be
       0.117772765 0.033631977 0.18169996 -0.3286552
000090 31 2f a6 3d c4 05 48 be d9 b6 b7 bd 72 9b b4 be
       0.0811447 -0.1953345 -0.08970422 -0.35274845
0000a0 33 a3 b8 3e 54 c7 2a 3f c8 37 05 3f b2 ab a3 3d
       0.3606201 0.667104 0.5203824 0.07991733
0000b0 6e b2 37 3e ce d7 d9 bd 97 8b e5 3d 56 19 62 be
       0.1793916 -0.106368646 0.11208265 -0.22079977
0000c0 e8 1d 8d 3d 07 66 67 3c 20 e9 78 3d 47 b2 bf 3d
       0.0689047 0.014123446 0.0607692 0.093601756
0000d0 35 ee f5 bd ca 70 32 bd 8b 16 28 be 4c 41 e7 3d
       -0.12008325 -0.043564595 -0.1641485 0.11291751
0000e0 12 bb d6 3d 7e 24 25 be a6 75 4d be ee ec 25 be
       0.104848996 -0.16127202 -0.2006441 -0.16203663
0000f0 7e 3d 3a bd f8 4b a9 3d 7a 14 30 3e 21 ff 8c 3e
       -0.0454688 0.08266443 0.17195311 0.27538398
000100 ad 3e d1 bc c9 5a 7a be b5 b3 ad bc 55 dd 6f be
       -0.025542581 -0.24448694 -0.021203855 -0.23424275
000110 ba ec 84 3d 32 48 3f bb 45 2d ee 3e 37 dc 58 3f
       0.064904645 -0.002918732 0.46518913 0.8471102
000120 02 b8 85 be 2b de 94 be 3c 9e e2 be 05 f7 b0 bd
       -0.2611695 -0.2907575 -0.44261348 -0.08640865
000130 0d 63 56 be 8a c7 df bc 1f 60 de bd 3b dd 3b 3d
       -0.20936222 -0.027316827 -0.108581774 0.04586528
000140 c0 21 20 be 6c 63 68 3d de 82 56 3e a5 d9 6e 3e
       -0.15637875 0.05673544 0.2094836 0.23325212
000150 10 db 0b be a0 42 96 bd ce 62 ff bd 03 1b 84 be
       -0.13657784 -0.073369265 -0.124700174 -0.25801858
000160 e8 aa 87 bd a5 cf e4 3d bd 3a 97 3e e0 f1 6c 3d
       -0.06624395 0.111724176 0.29537 0.057847857
000170 3d ec 8f bd 02 34 1f be 9b f7 a7 3d 4c 1e 68 bd
       -0.07027481 -0.15547183 0.08201524 -0.05666952
000180 25 63 c4 3d 22 86 66 3e 5d dc 0d 3e 22 fc d7 3e
       0.09589223 0.22512105 0.13853593 0.4218455
000190 cf 6d da be f8 70 29 be 0a d9 4f 3f d2 bc 78 3f
       -0.42661902 -0.16547 0.8119055 0.97163117
0001a0 2d f9 85 bd 73 59 c0 be d7 ed 4e 3d a1 d4 2a 3e
       -0.06541667 -0.37568244 0.05051979 0.16682674
0001b0 f2 88 94 3e ad 4a 40 3e e4 39 88 be 9e 54 be be
       0.2901073 0.18778487 -0.26606667 -0.37173933
0001c0 c6 ef 2b be 84 e8 5b 3e 2e 67 b8 3e 24 89 a2 bd
       -0.16790685 0.21475416 0.3601622 -0.07936314
0001d0 d3 d2 19 be ea 19 86 bd 9a 63 eb bd 79 26 a0 bd
       -0.1502183 -0.065479115 -0.11493607 -0.07819838
0001e0 91 34 d2 bd ba ac 34 bd f3 00 6b be 8d 36 76 bd
       -0.102639325 -0.044110037 -0.22949581 -0.060110617
0001f0 7a 89 61 3e 3f 3e 6b be 2d fd ef 3d 44 90 94 3e
       0.220251 -0.22972964 0.11718211 0.29016316

blocks.0.k_mappings.1.base_linear.weight f4 [4, 4]
000000 49 23 f7 bc 06 0a 5c 3d a8 d1 44 be f7 17 da 3e
       -0.030168192 0.053720497 -0.19220603 0.4259641
000010 53 f0 af 3e 47 88 3d 3e 79 30 7a 3e 21 2d 1d 3f
       0.3436304 0.18509017 0.24432553 0.61396986
000020 a0 b3 4e bc 86 e2 54 bd 81 dd 92 3e c8 a5 6a 3e
       -0.012616068 -0.051973842 0.2868462 0.22914803
000030 1a 5d 51 be ca f7 1c 3f 59 ba a6 3d 60 1b 5d be
       -0.20445672 0.61315596 0.08141012 -0.21592474

blocks.0.k_mappings.1.base_linear.bias f4 [4]
000000 0c 46 d7 3e 9c 9f a2 be 2e 2a a9 3e fe bd eb 3e
       0.4204563 -0.31762397 0.33039993 0.4604339

blocks.0.v_mappings.0.layernorm.weight f4 [4]
000000 8e 4d 98 3f 4d 9a c2 3f 69 fb 9f 3f 21 ce 7d 3f
       1.1898668 1.5203339 1.2498599 0.9914265

blocks.0.v_mappings.0.layernorm.bias f4 [4]
000000 a0 90 92 3d aa 05 47 3d 50 3d 11 be 0e 8a 9e 3e
       0.07156491 0.048589386 -0.14183545 0.30964702

blocks.0.v_mappings.0.rbf.grid f4 [8]
000000 00 00 00 c0 6e db b6 bf b6 6d 5b bf 22 49 92 be
       -2.0 -1.4285715 -0.8571428 -0.2857142
000010 22 49 92 3e b6 6d 5b 3f 6e db b6 3f 00 00 00 40
       0.2857142 0.8571428 1.4285715 2.0

blocks.0.v_mappings.0.spline_linear.weight f4 [4, 32]
000000 84 97 2d bf 62 be 3b be 23 2b a2 3d c5 6f a4 3e
       -0.6780932 -0.18334344 0.07918384 0.32116523
000010 04 d4 86 be ee 18 b8 be 29 34 da be 75 8d 34 bd
       -0.2633363 -0.3595652 -0.4261792 -0.044080216
000020 f5 eb 39 be ec 13 c3 3e c5 3b fa 3d 2f 78 dc be
       -0.18156417 0.38101137 0.122184314 -0.43060443
000030 eb df a2 be c4 0c 98 be 3a 12 83 3e b8 e0 20 3e
       -0.3181146 -0.2969724 0.25599843 0.15710723
000040 1a 34 7a be f2 42 1c bf ef b8 a2 be 84 c3 82 3d
       -0.24433938 -0.6103965 -0.31781718 0.06384948
000050 3d 12 84 3c 9f ce 0b bd 7c a9 4b be 9c d9 03 be
       0.016121978 -0.034132596 -0.19888872 -0.1287598
000060 db 03 d2 be aa 7f 13 be 9e 1f 2d bb c1 a8 c8 bd
       -0.41018566 -0.14404169 -0.002641655 -0.09797812
000070 b6 5f ae be 59 78 48 be b1 b1 5c be d5 3e 1e bf
       -0.34057397 -0.19577159 -0.21552159 -0.61814624
000080 5a 06 47 bf 52 39 ab 3c 6e 32 4f bd 17 ec 5b be
       -0.77744067 0.020901356 -0.050585203 -0.2147678
000090 a5 f3 81 3e fc 86 87 3d 7f b3 67 3e 73 b8 7c be
       0.253812 0.06617543 0.22627066 -0.24679737
0000a0 84 c6 cd 3e 05 76 9e 3e 89 b6 a8 3e 7e 2e e2 be
       0.40190518 0.30949417 0.32951763 -0.44176096
0000b0 e1 7d 8f bf fc fa 4b be dd 76 2b 3e 32 82 e2 3e
       -1.121029 -0.19919962 0.16744561 0.44239956
0000c0 16 1b 3c be bf 0f 04 3f 84 ea 20 3f fc 5c 96 bb
       -0.18369707 0.51586527 0.6285784 -0.0045887213
0000d0 e1 55 98 be 6e cd 42 3e eb 45 0f bf 41 39 05 bf
       -0.2975302 0.19023678 -0.5596606 -0.5204049
0000e0 16 c9 6b bd f6 dc 96 bd 8e ca 4a 3e f8 35 0e 3f
       -0.057564817 -0.07366364 0.19803831 0.555511
0000f0 74 7d 7e be 56 f9 1e be e3 ac 22 3e 05 20 1c 3f
       -0.24852544 -0.15524802 0.15886264 0.6098636
000100 0e 65 dd 3d 26 ff 4a bf 23 80 33 bf ae e4 26 3d
       0.1081029 -0.79295576 -0.70117396 0.04074543
000110 22 04 82 3e 52 10 71 3e 42 cb f9 bd 4c f0 2e bf
       0.25393778 0.23541382 -0.121969715 -0.68335414
000120 77 19 88 bd e0 6a 1e bf a1 da 26 bd d2 f4 2c 3f
       -0.06645482 -0.6188183 -0.040735845 0.67561066
000130 41 23 9f 3e fc 24 3a be 35 5b 5a 3a b1 32 03 bd
       0.31081584 -0.18178171 0.0008329631 -0.032030765
000140 f7 dc 95 be fc 40 d7 3e 2b 3a b4 3c 0c 36 8e be
       -0.29270145 0.42041767 0.022000393 -0.2777561
000150 54 c6 3b bf 85 5a 23 bf c2 d7 7b 3f 6a 3d 8c 3f
       -0.733495 -0.63809997 0.98376095 1.0956242
000160 de 24 53 3d 56 bb 08 be cc 75 83 3e aa 08 36 bd
       0.05154883 -0.13352713 0.2567581 -0.044441856
000170 66 ce 0d be 7b de 3a be e4 49 3f be a9 cf e6 be
       -0.13848266 -0.18248932 -0.18680531 -0.45080307
000180 76 d6 72 3d c9 a2 5a be ef f2 41 bd 79 56 92 3e
       0.059286557 -0.2135116 -0.04735082 0.28581598
000190 17 5c 46 be 95 06 d4 be 8d 5e 08 be 7d ff e3 3e
       -0.19371067 -0.41411272 -0.13317318 0.4453086
0001a0 47 43 3d bf ed 09 98 be aa 93 80 be 29 15 62 bd
       -0.7393078 -0.29695073 -0.2511266 -0.05519596
0001b0 de 4f d8 3e 9b 86 dc 3c e4 2a 17 be 9d d3 d0 3d
       0.42248434 0.026919654 -0.14762455 0.10196612
0001c0 f3 3f 0f 3e ee 57 0b bd 5d 41 9b be b1 ca bf be
       0.13989238 -0.034019403 -0.30323306 -0.3745933
0001d0 1a cc 10 3e ca f6 a5 3e a1 b8 73 be 53 76 4f 3d
       0.14140359 0.32414848 -0.23800899 0.050649952
0001e0 fa 29 cb bd 36 30 46 be 22 2f 87 bd 13 00 80 be
       -0.09920116 -0.19354329 -0.06600787 -0.25000057
0001f0 55 ad a4 3d e4 96 00 3d b2 a7 cb bd e7 b1 15 be
       0.08040873 0.0313939 -0.09944095 -0.14618646

blocks.0.v_mappings.0.base_linear.weight f4 [4, 4]
000000 9f b9 71 3e 44 72 17 3f 08 d5 b6 3f e3 b8 53 bc
       0.23605965 0.5915873 1.4283762 -0.012922498
000010 e2 68 b0 bd bb 45 1b 3f 00 c3 1b bf e3 77 9e be
       -0.08613755 0.60653275 -0.6084442 -0.3095084
000020 4e 51 3c 3f bb a3 9d 3b cb 7d 19 be 3d f5 ac be
       0.7356156 0.004810778 -0.14989392 -0.33780852
000030 48 0c c3 be 1a 04 21 bf df a3 23 3d 7f 26 a5 3e
       -0.38095307 -0.62896883 0.0399512 0.32255933

blocks.0.v_mappings.0.base_linear.bias f4 [4]
000000 f6 34 a7 3e 67 14 b6 3e c1 d4 d0 be 1f 4f 9b bd
       0.32657593 0.3556244 -0.40787318 -0.075834505

blocks.0.v_mappings.1.layernorm.weight f4 [4]
000000 20 cc 89 3f f9 9e 9a 3f f3 26 91 3f 8b bb 7d 3f
       1.0765419 1.2079765 1.1340011 0.9911429

blocks.0.v_mappings.1.layernorm.bias f4 [4]
000000 01 bb 51 3e c6 a5 26 3e 9f fd 4c be 56 3c 22 3d
       0.20481493 0.16274175 -0.20018624 0.039608322

blocks.0.v_mappings.1.rbf.grid f4 [8]
000000 00 00 00 c0 6e db b6 bf b6 6d 5b bf 22 49 92 be
       -2.0 -1.4285715 -0.8571428 -0.2857142
000010 22 49 92 3e b6 6d 5b 3f 6e db b6 3f 00 00 00 40
       0.2857142 0.8571428 1.4285715 2.0

blocks.0.v_mappings.1.spline_linear.weight f4 [4, 32]
000000 23 52 55 be 73 7d ee 3c d3 bb cb bd da 59 5c be
       -0.20832114 0.029112553 -0.09947934 -0.2151865
000010 3f 7d 40 be 72 8f a6 be d0 be 28 3b a5 3e 88 3f
       -0.18797778 -0.32531315 0.0025748499 1.0644118
000020 2e f8 b5 3e fb 31 ac 3e 58 c3 fc 3c 5f f5 9f bd
       0.3554091 0.33631882 0.030854866 -0.07810473
000030 06 96 11 3e 3f c9 b1 3b 84 17 c6 be 0a 28 46 bf
       0.14217386 0.0054256017 -0.38689816 -0.77404845
000040 b2 92 38 3e 88 7a 3a be 87 c1 cf bd 68 4a ab be
       0.1802471 -0.18210804 -0.10144334 -0.33455205
000050 8c 23 7f 3e e1 b5 2d 3f 93 c1 a2 bd e3 ce 0d bf
       0.24915904 0.6785565 -0.079470776 -0.5539381
000060 4a da 1e be c0 6a 10 be 9c 04 0f bf f7 c5 0b bf
       -0.15512958 -0.14103222 -0.5586641 -0.54598945
000070 44 12 10 3f 6b 4c f7 3c e4 58 13 3e a8 a7 2b bc
       0.5627787 0.030187806 0.14389378 -0.010476984
000080 42 8a ab 3e 72 ae 82 be ab 3e 77 3d a7 b6 d6 3d
       0.3350392 -0.25523716 0.0603625 0.10484057
000090 40 eb 62 3e cd 37 b5 3e 90 47 62 be 89 ec 77 bf
       0.22160053 0.35394135 -0.22097611 -0.968453
0000a0 5a a5 d6 3d 49 2f a7 be 70 f1 39 be 0b 01 3b bd
       0.10480757 -0.32653263 -0.18158507 -0.04565529
0000b0 c7 c1 15 be b9 11 fe bd ab b7 c3 3d ab 6d e7 3e
       -0.14624701 -0.12405724 0.09556516 0.45200858
0000c0 55 49 e5 be 1d 7b 35 3e 81 80 85 3e 3d 33 59 3e
       -0.4478251 0.17722745 0.26074603 0.21210952
0000d0 d3 81 58 3c 4f df d4 be 58 be c7 be e3 25 28 3e
       0.013214546 -0.4157662 -0.39012408 0.16420703
0000e0 16 1d c1 3d 25 83 81 3e c0 7f af 3e 9d 8a 10 3f
       0.09429376 0.25295368 0.34277153 0.5646151
0000f0 e7 d0 cb be 04 38 3e bf 79 46 e9 3d 0e 46 11 3e
       -0.39807817 -0.74304223 0.11390395 0.1418688
000100 21 d0 45 be 2c 1f 20 3e 29 07 1d 3e ad 36 85 bd
       -0.19317676 0.15636891 0.15334763 -0.06504569
000110 a4 1e 5d be 34 09 22 bd 0b ad a3 be ff 91 6c 3d
       -0.2159372 -0.039559558 -0.3196796 0.05775642
000120 53 3c a8 3e d2 61 21 3f 89 5f 8c 3e b6 79 2e 3e
       0.32858524 0.63039887 0.27416638 0.17038617
000130 8c ef 59 3e 2e 98 a2 bd bb 07 a2 be ea 24 ce be
       0.21282786 -0.07939182 -0.31646523 -0.40262538
000140 c8 ca 3f 3c ba 6b 87 bb 40 05 3f bd 28 65 86 be
       0.011706062 -0.004132715 -0.046635866 -0.2624905
000150 3c 76 c5 bd f9 c1 cf 3d 39 54 47 be e7 ea 0e bf
       -0.09641692 0.10144419 -0.19465722 -0.5582718
000160 61 0d 9e be 4a bd ab be 3e 43 cd be af 6e e4 be
       -0.30869582 -0.33542854 -0.40090364 -0.44615695
000170 82 c1 4e be a8 a8 a4 3e d9 8c d1 3e a9 f1 09 3e
       -0.20191005 0.32159925 0.4092777 0.13471092
000180 5f dd 32 bd 36 71 24 be cd 94 22 be f4 49 cb 3d
       -0.043668147 -0.16058812 -0.15877075 0.09926215
000190 bd 29 d0 3b b9 c6 06 be 6c 60 9b 3e f1 f9 c4 3e
       0.006352632 -0.13161744 0.30347002 0.3847194
0001a0 a5 d5 fd be 7e 4a 69 be ed c2 84 3d b4 9a 86 be
       -0.4957706 -0.22782323 0.06482492 -0.26289904
0001b0 a3 5c 78 bd e7 5a 40 3c 5b 21 b3 3d 17 ac 24 3e
       -0.06063522 0.011740423 0.087465964 0.16081272
0001c0 89 d6 96 3e 02 ff a6 bd f4 bf 82 3d 10 84 2d 3e
       0.29460552 -0.08154108 0.063842684 0.16944909
0001d0 04 e3 81 3c a4 97 fd bd a5 c6 6e 3c 2a 11 a4 3e
       0.01585532 -0.12382439 0.014573728 0.32044345
0001e0 38 e5 f4 ba 07 0e b9 3d 3e 3e f0 3d 93 ce c5 3e
       -0.0018684035 0.09035879 0.11730622 0.38634166
0001f0 aa 78 f2 3e e6 da 73 3e 7d 75 99 be 85 be bb be
       0.47357684 0.23813972 -0.2997245 -0.36668792

blocks.0.v_mappings.1.base_linear.weight f4 [4, 4]
000000 fc 59 0f bf d5 83 3a bf bd c1 12 3f 5b f9 30 3e
       -0.5599668 -0.7285741 0.5732687 0.17282622
000010 ea e5 a4 be b8 87 96 be 2e d3 ad bf e9 94 9c bd
       -0.3220666 -0.2940042 -1.3580072 -0.0764559
000020 38 66 e3 3e 86 eb 05 3d 09 de d3 be aa 8c 63 3f
       0.44413924 0.032695316 -0.41380337 0.8888651
000030 24 37 26 3f 79 8d 5f 3e 30 ff 81 3f 8f 82 0c bd
       0.6492789 0.21831311 1.0156002 -0.034304198

blocks.0.v_mappings.1.base_linear.bias f4 [4]
000000 99 d2 d7 3d cd fe c0 be e7 c4 ba be f0 ef 5d 3d
       0.10538215 -0.37694398 -0.3647835 0.0541839

blocks.1.q_mappings.0.layernorm.weight f4 [4]
000000 87 5e 51 3f ce f1 93 3f 2b ce 84 3f 64 b8 88 3f
       0.8178486 1.1558168 1.0375417 1.0681272

blocks.1.q_mappings.0.layernorm.bias f4 [4]
000000 fd 55 f4 3e 82 47 53 3d b5 29 01 bf fa 01 c2 bc
       0.47721854 0.051581867 -0.50454265 -0.023682583

blocks.1.q_mappings.0.rbf.grid f4 [8]
000000 00 00 00 c0 6e db b6 bf b6 6d 5b bf 22 49 92 be
       -2.0 -1.4285715 -0.8571428 -0.2857142
000010 22 49 92 3e b6 6d 5b 3f 6e db b6 3f 00 00 00 40
       0.2857142 0.8571428 1.4285715 2.0

blocks.1.q_mappings.0.spline_linear.weight f4 [4, 32]
000000 5a b0 77 bd ab 95 c1 bd 74 aa 7b be a7 5e 4c be
       -0.060470916 -0.09452375 -0.24576741 -0.19957982
000010 ed e5 9c 3e f5 bb ae 3e 1d ab ef 3e c8 13 5a 3f
       0.3064417 0.34127775 0.46810237 0.85186434
000020 5d 70 c6 3b 0d ec 25 3e bf 0b a6 3e cb d5 89 3e
       0.006055875 0.16203327 0.32430837 0.26920924
000030 7e 52 e8 3e b7 89 54 bc 99 86 83 3d 52 ca 26 3f
       0.45375437 -0.012972287 0.06422157 0.65152466
000040 46 81 04 3f b3 74 58 3f 25 f3 b3 3e bd b8 c6 be
       0.51759756 0.8455307 0.35146442 -0.3881282
000050 9e 4a 9a 3e c8 ef 46 3f dc 69 5a 3f ea ee 04 3f
       0.30135053 0.7770963 0.8531778 0.51927054
000060 23 99 5f bf 2c cb 59 be e9 8c 45 3f 75 e3 2b 3f
       -0.87343043 -0.2126891 0.77168137 0.67143947
000070 94 fd aa 3e 8a 34 52 3e d7 0f 17 be e2 21 82 be
       0.3339659 0.20527855 -0.14752136 -0.25416476
000080 d0 38 eb 3d 7d 3b 49 3a fb 5f 5e 3e 08 a4 69 3e
       0.114854455 0.0007676406 0.21716301 0.22816479
000090 e2 9e a4 3e a5 ae 94 3e a3 2e ad bd c2 b2 01 3f
       0.32152468 0.29039493 -0.08456161 0.5066339
0000a0 c6 f1 9a bd 28 b6 43 3d f3 c2 3a be b4 d0 df be
       -0.07565646 0.04778114 -0.1823843 -0.43713915
0000b0 ee 26 01 3f 40 94 57 3e 02 9b b6 3d 65 38 f0 3c
       0.50450027 0.21052647 0.08916284 0.029323766
0000c0 ec ce 30 3f 66 3a 33 3f a5 9d b5 bd 6c 24 a9 3c
       0.6906574 0.70010984 -0.08867959 0.02064725
0000d0 fa af dd 3e ca 7b 23 3f 2e 65 59 3f 6b d2 c5 3e
       0.43298322 0.6386076 0.8492001 0.386371
0000e0 dd 23 9d bf 62 92 61 bf b8 58 25 3f 9c b2 53 3f
       -1.227657 -0.8811399 0.645885 0.8269441
0000f0 0a ae bb 3e 3c 72 2a 3e cc 73 6b bd 6b c9 8d bd
       0.3665622 0.1664514 -0.05748348 -0.06923183
000100 6a 9d 1c 3e f2 e6 64 3e 98 b5 c2 3e d7 a8 34 3d
       0.15294424 0.22353724 0.3802917 0.04410633
000110 bd e7 15 be 77 de 54 bd 48 ba 92 be 17 af 94 bf
       -0.14639182 -0.05196997 -0.28657746 -1.1615933
000120 8c b3 29 3e 8a 2e 1f be fe d8 74 3c be 01 bf bd
       0.16572398 -0.15545097 0.014944313 -0.09326504
000130 be 79 17 bf 3f 26 10 3e 47 75 45 3d 3e 04 8c be
       -0.5917014 0.1407709 0.048207548 -0.27346987
000140 1a 8e 47 bf 04 96 81 bf 66 0a 1b be 74 48 e1 3e
       -0.77951205 -1.0123906 -0.15140685 0.4400059
000150 18 2a 87 be 89 83 7e bf b2 b6 3e bf 52 45 b9 be
       -0.26399302 -0.99419457 -0.7449752 -0.361857
000160 c9 7a 23 3f 05 25 ec 3e 13 ce 3d bf 02 a1 6d bf
       0.6385923 0.46121994 -0.7414257 -0.92823803
000170 1f 87 04 be a2 f2 b7 3d 08 b6 86 3e 5a c4 d0 3d
       -0.1294217 0.089818254 0.26310754 0.10193701
000180 2f e4 ab 3e 43 3e fc 3e 38 39 3e 3f e5 3d 38 3e
       0.33572528 0.49266252 0.7430606 0.17992361
000190 8c b1 ee 3e 19 1c 3f 3f 48 8d 01 3f 9c 60 87 3f
       0.46619833 0.7465225 0.50606203 1.0576358
0001a0 11 2b 09 be 87 f4 db 3e 51 c7 65 3f 7a db 2c 3f
       -0.13395335 0.42959997 0.8975726 0.67522395
0001b0 a6 58 08 3f 67 84 4a 3e fd 7a 66 3e d8 60 21 3f
       0.53260267 0.1977707 0.22507854 0.63038397
0001c0 38 ac 43 3f 0a f9 1b 3f 7c 1a 05 3f e2 36 1b 3f
       0.7643466 0.6092688 0.51993537 0.6063062
0001d0 36 df 8d 3f c4 f0 8d 3f 38 9a 24 3f 25 7f f7 3d
       1.1083744 1.1089101 0.6429782 0.12084798
0001e0 88 bb 11 bf 2a e4 83 3d 04 86 6d 3f 66 d3 7a 3f
       -0.56926775 0.06440003 0.92782617 0.9797882
0001f0 1d 02 53 3e 44 35 b4 3d bb 60 8b 3e b3 91 f0 3e
       0.20606275 0.08799222 0.27222237 0.4698616

blocks.1.q_mappings.0.base_linear.weight f4 [4, 4]
000000 92 b4 e3 3e 4c d9 97 3d 09 5a d8 bf 8c 61 23 3e
       0.44473702 0.07414493 -1.6902477 0.1595518
000010 cc 39 dc be e3 1f 60 3d cc a8 fe be e1 f1 e3 be
       -0.43012846 0.05471791 -0.49738157 -0.44520476
000020 64 5b b9 be d2 df 62 3e a2 c9 c6 3f d9 2c 34 be
       -0.36202538 0.22155693 1.5530283 -0.17595233
000030 98 c3 2c 3f 80 20 1e 3f 35 f1 1e bf 6b b8 d6 3e
       0.6748595 0.6176834 -0.620868 0.41937575

blocks.1.q_mappings.0.base_linear.bias f4 [4]
000000 87 75 21 3f 87 64 65 bd 63 8b 1f bf b1 9f d7 3e
       0.6306996 -0.056004073 -0.6232206 0.42114022

blocks.1.q_mappings.1.layernorm.weight f4 [4]
000000 fe 26 97 3f a8 ac 7b 3f d8 6a 8b 3f 95 1b 98 3f
       1.1808774 0.9831033 1.0891981 1.1883417

blocks.1.q_mappings.1.layernorm.bias f4 [4]
000000 53 b2 be bd 2b a1 26 bd 51 2b a4 bd 90 23 69 3e
       -0.093113564 -0.040681046 -0.080160744 0.22767472

blocks.1.q_mappings.1.rbf.grid f4 [8]
000000 00 00 00 c0 6e db b6 bf b6 6d 5b bf 22 49 92 be
       -2.0 -1.4285715 -0.8571428 -0.2857142
000010 22 49 92 3e b6 6d 5b 3f 6e db b6 3f 00 00 00 40
       0.2857142 0.8571428 1.4285715 2.0

blocks.1.q_mappings.1.spline_linear.weight f4 [4, 32]
000000 ac 44 90 be a8 27 7a bd fd 90 83 3d 7f b0 3d 3e
       -0.28177392 -0.061072975 0.06424139 0.18524359
000010 8a ba 72 3e 86 8e a9 3e 80 10 ed 3e 90 0d 3a 3d
       0.23703972 0.3311655 0.4630165 0.04542309
000020 bf 71 0b 3e 47 3d f1 3d c8 b1 13 be 39 03 31 bd
       0.1361761 0.11779266 -0.14423287 -0.043215964
000030 a6 87 b4 be 59 81 2e bf da cf f7 be 49 b1 3c bf
       -0.35259742 -0.6816612 -0.48400766 -0.73708016
000040 07 bd 23 3d 92 dc 9f 3e 37 d2 c8 3e 56 12 e4 bd
       0.039975192 0.3122297 0.3922288 -0.1113631
000050 3f 71 6c be 34 3a a8 bd 72 24 23 bc 7e 9e 0a 3e
       -0.23090075 -0.08214226 -0.00995742 0.13537022
000060 75 5c 3d 3d 54 f1 15 3e 8b 70 5c 3f 94 15 8c 3d
       0.046230752 0.1464284 0.86109227 0.06840053
000070 b2 9a 84 3d 7c 20 09 be 55 11 33 bc 90 4a 13 bd
       0.06474818 -0.13391298 -0.010929425 -0.03595978
000080 cc 9b bd 3e 8c 23 50 3e 34 dc 25 3e 77 f8 67 be
       0.37032926 0.2032606 0.16197282 -0.22653376
000090 4a 0c 73 be 35 22 a7 be 1a f2 f3 be ca 19 01 be
       -0.23735157 -0.32643285 -0.47645646 -0.12607494
0000a0 27 ad ab be 73 14 0d be 64 15 e2 3d 36 05 c3 be
       -0.33530542 -0.13777332 0.11039236 -0.38089913
0000b0 c1 df 8a be 51 c1 a9 be 46 8a 0b be 63 29 71 be
       -0.27123836 -0.331553 -0.13626966 -0.23550944
0000c0 1f a6 0d bd 16 bb 0d bf 17 9b 0f bf f4 d7 e8 bd
       -0.034582254 -0.55363595 -0.56096023 -0.11369315
0000d0 e9 1b ee bb 0f 5d a0 3d d9 03 16 3d cf 5e 2a bc
       -0.0072665107 0.078302495 0.036624763 -0.010398581
0000e0 97 dc 0a bd f1 b7 42 be e3 23 c5 3e 01 bf 33 3f
       -0.033901777 -0.1901548 0.38503942 0.70213324
0000f0 95 44 ff 3e 0a 36 2d 3e bb 2c 1e bd 31 81 b6 be
       0.4985701 0.16915146 -0.038616877 -0.3564544
000100 3c 72 96 3d a5 6f 5a 3e 64 0a 1e bc 4a 86 85 bd
       0.07346007 0.21331652 -0.009646032 -0.06519754
000110 b7 4c ae 3d 60 ae ca 3d 24 00 49 bc 72 ed 86 be
       0.08510726 0.09896541 -0.0122681 -0.2635303
000120 a3 43 c6 be d7 83 81 be a5 49 d9 3b be 4e eb be
       -0.38723478 -0.25295898 0.0066310936 -0.45958513
000130 d9 38 05 bf 20 66 dc be 74 df 75 3d b9 91 b4 bd
       -0.5203987 -0.43046665 0.060027555 -0.08816857
000140 83 32 bc 3e d5 5b cc 3d 19 bb 1c 3e d5 98 30 bd
       0.36757287 0.09978453 0.15305747 -0.043114502
000150 a8 1e 86 bd 30 1f 5d bd 3d c7 83 be a5 33 25 bf
       -0.06548816 -0.05398482 -0.25737944 -0.6453193
000160 a7 e8 93 be 4d 31 cd be f5 db 22 be 67 a2 b5 be
       -0.28888437 -0.40076676 -0.1590422 -0.35475466
000170 98 93 4e be 64 b0 3f be 96 35 41 be bd 6c 06 be
       -0.2017349 -0.18719631 -0.18868098 -0.13127418
000180 7f ee aa 39 54 8d 94 3e 4c a3 11 3e 6f df 7f be
       0.0003260262 0.29014075 0.14222449 -0.24987577
000190 ff b9 a4 be ff ea 37 bf 6e 22 58 bf 11 13 1a be
       -0.32173154 -0.7184295 -0.84427536 -0.15046336
0001a0 2f f6 64 bf d4 3b ce bd 14 ce a4 3e 76 28 49 3e
       -0.89438146 -0.10070005 0.32188475 0.19644341
0001b0 cb a7 98 be 3d a3 5c bf 95 5c 47 bf 0f e9 94 bf
       -0.29815516 -0.8618658 -0.77875644 -1.1633624
0001c0 7b ce a0 be 0c 38 19 be d8 93 b9 bd 79 92 8f be
       -0.31407532 -0.14962786 -0.09061402 -0.28041437
0001d0 30 26 6e 3d ba 2d 16 bd 45 d4 31 3e 47 b8 83 bd
       0.058141887 -0.036664702 0.1736613 -0.064316325
0001e0 a2 bc 61 3e 25 56 c0 be 68 c2 78 bf 9f 67 4a bc
       0.22044614 -0.37565723 -0.9717164 -0.012353807
0001f0 45 db 80 bc 3d 0b 21 be 1e c0 64 3d 88 b6 8e 3e
       -0.015729556 -0.15726943 0.05584728 0.27873635

blocks.1.q_mappings.1.base_linear.weight f4 [4, 4]
000000 35 78 f9 be 7f 17 2a 3e 0f 4a 0b 3f e4 b1 3a bb
       -0.48724523 0.16610526 0.5440988 -0.0028487379
000010 cb 31 8e 3b 51 1c dd be ae 69 8d 3e 86 b2 47 be
       0.004339432 -0.43185666 0.2761969 -0.19501695
000020 53 d6 cc 3e f9 4e 67 3e e0 f0 d9 be 11 58 91 3d
       0.40007266 0.2258872 -0.42566586 0.070968755
000030 6d c8 e0 bd 9b c3 1a bf 43 77 93 be f7 00 32 bd
       -0.10975728 -0.6045472 -0.28801927 -0.04345795

blocks.1.q_mappings.1.base_linear.bias f4 [4]
000000 b0 57 38 be 76 ba 09 be 80 1b ac be 31 3b 68 3e
       -0.180022 -0.13450035 -0.3361473 0.2267883

blocks.1.k_mappings.0.layernorm.weight f4 [4]
000000 7b 72 cd 3e d9 d7 15 3f e2 a3 93 3f 2f 3a e9 3f
       0.40126404 0.5853248 1.1534388 1.8220881

blocks.1.k_mappings.0.layernorm.bias f4 [4]
000000 7b 25 a9 be cb 7d 2b bf 1d 1d 37 be 4d 3e 92 be
       -0.33036408 -0.6698882 -0.178822 -0.28563157

blocks.1.k_mappings.0.rbf.grid f4 [8]
000000 00 00 00 c0 6e db b6 bf b6 6d 5b bf 22 49 92 be
       -2.0 -1.4285715 -0.8571428 -0.2857142
000010 22 49 92 3e b6 6d 5b 3f 6e db b6 3f 00 00 00 40
       0.2857142 0.8571428 1.4285715 2.0
