weights/flashkan_vit_10epochs.pth (torch, 362937 bytes, 33 tensors)

v_class f4 [1, 8]
000000 4a 5a 39 3f 21 b1 da 3e c8 56 26 3f ee d3 06 3e
       0.72403395 0.42713264 0.6497617 0.13166782
000010 64 8c 0f 3f 8a 55 26 bd 85 e1 4d 3f c5 90 eb 3e
       0.56073594 -0.04060892 0.8042224 0.46008888

linear_mapper.base_weight f4 [8, 16]
000000 15 1b 44 3e 9b 21 08 3d 85 5a 14 3b d5 df 0c 3e
       0.19150956 0.033235174 0.0022636962 0.1375726
000010 a9 40 86 bd e0 38 42 3d 92 4c b1 bd 22 14 4b 3e
       -0.06555302 0.04741752 -0.08657183 0.19831899
000020 f8 c4 32 be b1 04 75 bd 98 87 09 3d e6 59 5a 3e
       -0.1745795 -0.059818927 0.033576578 0.21323356
000030 d9 3e 33 3e e6 4e 9b 3e f8 0e 5b 3e 89 83 6f 3e
       0.17504443 0.30333632 0.21392429 0.2339002
000040 2c 3a bc 3b 5e 82 48 bd cd ec b7 bc 73 a7 49 3d
       0.0057442393 -0.048952453 -0.022451783 0.049231958
000050 c3 b3 c7 bd 15 86 48 bd f8 2a c9 bd 7b e0 0c 3e
       -0.09751084 -0.048955996 -0.09822649 0.13757508
000060 63 c3 a1 bd 5f 9a 8c bc 00 83 c6 bd 9e b2 31 3d
       -0.07898595 -0.017163454 -0.09692955 0.043383233
000070 75 34 2a be a2 3d 0a be e8 4d a5 bc 3e c4 f9 bc
       -0.16621573 -0.13500074 -0.02017875 -0.030489083
000080 68 be 19 3e eb f1 07 3e 91 d7 62 3d 7c 93 9e 3d
       0.1501404 0.13275878 0.05538136 0.07742974
000090 47 d6 c4 bd 24 f3 42 bd 83 8a 2e bd a7 a7 ea bc
       -0.09611183 -0.04759516 -0.042612564 -0.028644396
0000a0 ba 38 05 bc 31 83 51 bd fe 2f 0b bd 05 00 97 3d
       -0.0081312 -0.051150504 -0.033981316 0.073730506
0000b0 14 53 28 3d ee 25 92 3c 02 12 35 3d e5 df 25 3d
       0.041094854 0.017840352 0.044206627 0.040496726
0000c0 cb c6 67 3e 03 39 12 bb 78 d9 11 be 07 b9 7b 3c
       0.22634427 -0.0022311814 -0.14243114 0.015363938
0000d0 68 56 f7 bd 5d bf 3b 3e ee 88 d7 bc cf 9c fd 3d
       -0.120770276 0.18334718 -0.02631041 0.123834245
0000e0 b0 de a5 bc 0e d2 d1 3d f2 c9 9b 3c c7 b2 67 be
       -0.020247787 0.10245143 0.019017193 -0.22626792
0000f0 d5 ab 32 bf 1e 49 f9 be 12 8a 80 be fe c5 d6 be
       -0.69793445 -0.48688596 -0.2510534 -0.4194793
000100 70 87 cb 3e 25 8b c4 3e 3e 48 8b 3e 11 20 3f 3e
       0.39751768 0.3838741 0.27203554 0.18664576
000110 d8 84 e0 be 1a be f0 bd 60 1b 52 3d e2 ce 48 be
       -0.43851352 -0.11755009 0.051295638 -0.1961017
000120 20 7b 91 be 60 28 e8 be 09 34 fd be b8 e8 06 bf
       -0.2841425 -0.45343304 -0.49453762 -0.5269885
000130 1d 56 aa 3d db 04 a6 3e 96 f1 ae 3e c3 cc a6 3d
       0.08317206 0.3242558 0.3416869 0.08144524
000140 0d d7 3a bf 85 b6 a9 be 98 48 4c be c5 e8 a4 be
       -0.7298439 -0.33147064 -0.19949567 -0.3220884
000150 af f5 a1 be 44 27 8c be 09 94 21 3e 59 95 cb be
       -0.31632754 -0.27373707 0.15779127 -0.3976238
000160 2c d2 e6 be 84 3d a7 3d 71 8d 18 3e b6 6a 99 be
       -0.45082223 0.0816603 0.14897706 -0.29964226
000170 7a 7e 1d be e0 48 56 3d a6 91 aa bd b5 01 bd be
       -0.15380278 0.052315593 -0.083285615 -0.36915365
000180 7c ce 6b 3d 0f 37 00 bf b7 ee 54 bf 8c f8 46 bf
       0.057569966 -0.5008401 -0.8317675 -0.77723
000190 91 3f 3f bd c7 63 07 bf 32 77 eb be 85 af 70 3e
       -0.04669148 -0.52886623 -0.45989376 0.23504455
0001a0 53 2a 13 be 33 8b 25 bf 93 d0 b6 be 36 23 8d 3d
       -0.14371614 -0.64665526 -0.35706005 0.068914816
0001b0 7e 2e 3e bf ae 90 50 bf 45 49 33 3e 50 20 1b 3f
       -0.7428969 -0.81470764 0.17508419 0.6059618
0001c0 85 5c 82 3e 53 3a 5c be 15 cd ce be e7 d3 51 bf
       0.25461212 -0.21506624 -0.4039084 -0.8196396
0001d0 1c 48 d8 3e c9 e2 8e bd ff 95 ae bd 99 08 4a bf
       0.42242515 -0.069768496 -0.08524703 -0.7891937
0001e0 8f b6 80 3e c7 38 45 be 2c 63 07 bf 93 51 ba be
       0.2513928 -0.1925994 -0.528857 -0.3639036
0001f0 7d b9 99 3e 75 9b 43 bf a8 92 60 bf 46 b0 c5 be
       0.3002433 -0.76409084 -0.8772378 -0.38611048

linear_mapper.spline_weight f4 [8, 16, 8]
000000 36 e5 14 3b 61 8f 2a 3c 4c a5 1e 3e 2b b9 d3 3d
       0.0022719628 0.010410161 0.15492743 0.10338052
000010 72 a1 a4 bd b5 8b c6 be 91 96 81 3e 7b da cc 3e
       -0.08038606 -0.38778463 0.25310186 0.40010437
000020 97 7c 75 bb 96 b2 56 bc 56 96 cd bc a8 56 05 be
       -0.0037458295 -0.013104102 -0.0250961 -0.13021338
000030 e4 a4 72 be 9a 06 81 be fb a6 83 3e 4d 5b 05 3f
       -0.23695713 -0.2520035 0.25713333 0.5209244
000040 e9 79 24 bb b5 6d a9 bb c6 91 ca bd a3 20 8d bd
       -0.0025097078 -0.005170549 -0.09891085 -0.068909906
000050 5a 79 8f 3d de b4 7d 3a 17 a9 84 bc 30 9b 79 3d
       0.07005568 0.00096781354 -0.01619391 0.060939014
000060 5d 51 af b8 99 f6 87 ba e3 0f f6 3d 04 5d 94 3c
       -8.359805e-05 -0.0010373174 0.12014749 0.01811076
000070 06 51 18 be c5 be cd be 39 c1 4c 3e f4 bc fa 3e
       -0.14874658 -0.40184608 0.19995584 0.48972285
000080 cc 18 b8 3a 53 ff 22 3c ae c6 7d bd 16 c4 3b bd
       0.0014045476 0.009948569 -0.061957054 -0.0458413
000090 32 4a 1c 3c d7 0a e9 bd 66 cb 8d bd ec 25 f7 bd
       0.009539174 -0.11379021 -0.06923561 -0.1206778
0000a0 93 57 5a 3b 27 78 d5 3b af 9b 3c be ed a8 6e bd
       0.0033316358 0.0065145674 -0.18418764 -0.05826657
0000b0 e2 32 01 3e 73 77 96 3e 8d c6 0a be a2 d7 3a be
       0.12617067 0.29388008 -0.13552304 -0.1824632
0000c0 70 97 06 bb 98 b9 0e bc 0b 0d 3c bd 4d 7f 55 bc
       -0.002053704 -0.008711241 -0.045910876 -0.013030839
0000d0 17 86 7c 3d 3d 34 e0 3e 76 57 f7 bd 16 41 d5 be
       0.061651316 0.43789855 -0.12077229 -0.4165122
0000e0 d1 28 8f 3b 8d 92 33 3c 06 0b bf be c4 2b cf bd
       0.0043688794 0.010960233 -0.37313098 -0.101157695
0000f0 05 6f b3 3e a9 ca 06 3f 6e 09 94 be 73 f5 09 bf
       0.3504564 0.52652985 -0.28913444 -0.5389015
000100 7a 87 ab 3b 11 58 53 3c 3d 5e a5 3d 80 30 a4 3d
       0.005234656 0.012899415 0.08074615 0.08017063
000110 80 e2 2d bc 7b cf b9 be 0e 28 02 3e e1 86 d8 3e
       -0.010613084 -0.36291108 0.12710592 0.42290404
000120 dd 69 1c bb 25 a3 33 bc 5c 52 37 be 90 7b ef bd
       -0.002386681 -0.01096419 -0.17902511 -0.116934896
000130 30 ea 39 3d 20 96 0b 3e c3 5c 09 be 45 ad a5 bc
       0.045389354 0.13631487 -0.13414292 -0.020224223
000140 49 4d 13 ba 4b 7d 80 bb cb bd 4b 3d 3b 42 39 3d
       -0.00056191214 -0.003921186 0.049741548 0.045229178
000150 c6 68 46 bd 60 f4 82 be a0 77 27 3e c1 c2 a0 3e
       -0.048439763 -0.25577068 0.16354227 0.31398585
000160 da 82 54 3b d1 d9 c0 3b 2f ef e0 be b2 f1 23 be
       0.0032426626 0.0058853407 -0.43932483 -0.16010168
000170 fe 8d 7b 3e 88 2c 24 3f 1e 49 99 be 6e e8 0a bf
       0.24565884 0.6413045 -0.29938596 -0.5426091
000180 36 b9 c0 bb 60 6a 8e bc 0b d4 69 bd 20 cc 06 bd
       -0.005881454 -0.017384708 -0.057086986 -0.032909513
000190 39 60 9f 3c 7b 50 16 bd 3c 58 1f 3d 02 d8 b4 bd
       0.019455062 -0.036697846 0.038902506 -0.08830263
0001a0 09 a5 6f 3b 5b 75 18 3c 90 33 1d bc d8 db f7 3c
       0.0036566874 0.0093053235 -0.009594813 0.030256197
0001b0 d8 57 b8 bc de 18 5b be 6e 67 a1 3d 26 1b 5a 3e
       -0.022502825 -0.21396205 0.07881056 0.21299419
0001c0 33 0f 8a 3b 47 b4 21 3c 6d d8 2f bd 48 88 00 bd
       0.0042132377 0.009869642 -0.04293101 -0.031379968
0001d0 7a 4f 02 be 61 92 33 be e2 f0 fb 3d 29 26 6d 3e
       -0.1272563 -0.17536308 0.12301804 0.23159088
0001e0 ff f6 93 ba e1 55 93 bb 3a 4a c0 be 4e 05 16 be
       -0.001128882 -0.0044963215 -0.3755663 -0.14650461
0001f0 e1 17 8b 3e 8d 5b dc 3e fe d3 0e be 76 ba 63 bd
       0.27166656 0.43038598 -0.13948056 -0.055597745
000200 37 0a e1 3a 26 30 0d 3a a9 38 88 3c f6 2f b5 3b
       0.0017169182 0.0005385898 0.01662858 0.005529399
000210 30 74 9a bd 8d 3e 4d be 02 48 ae 3d 1f 1d 15 3e
       -0.07541692 -0.20043392 0.08509828 0.1456189
000220 11 ee cc bb 29 9b 93 bc 5f 7d 01 3e 04 e1 92 3d
       -0.0062539657 -0.018018322 0.12645482 0.071718246
000230 66 7d 50 bd 5c a5 03 3c 08 ed c8 bc ba 26 9c bd
       -0.05090084 0.00803503 -0.024527088 -0.07624574
000240 b6 96 93 b9 16 69 70 3a 37 1a 96 3d 02 a7 a2 3d
       -0.00028150313 0.00091709325 0.07329219 0.079420105
000250 fd b5 5a 3c 36 17 1f be 2c 8a c7 3d 24 da 1b 3d
       0.013349053 -0.15536198 0.09743151 0.038049832
000260 f6 5c c9 ba 21 1d 0e bc c1 8b a6 3d 64 25 af 3d
       -0.0015362788 -0.008673937 0.08132125 0.085520536
000270 9e 57 64 bd ff d7 37 be c1 bb 3f 3e 47 87 f6 3d
       -0.05574762 -0.1795349 0.18723966 0.12037521
000280 aa cf d9 3a 06 5f 89 3b 3c 82 7c bd 16 f4 e2 bc
       0.0016617675 0.004192236 -0.06164764 -0.02770428
000290 19 cd e1 3c 5c fb d8 3e 77 02 11 be 38 7f 9c be
       0.027563618 0.42379272 -0.14161097 -0.3056581
0002a0 c8 7c 0e bb a4 9b 01 bc fd 5f 99 3d 52 81 21 3b
       -0.0021741856 -0.007910643 0.074890114 0.0024643731
0002b0 5c bd a5 bd b3 76 93 3e a5 09 be bd 6a e3 02 be
       -0.08092758 0.28801498 -0.09279183 -0.12782064
0002c0 09 c9 88 b9 83 8a 23 3b d5 5d ee 3d 84 6c 3d 3d
       -0.00026089724 0.0024954386 0.11638991 0.046246067
0002d0 30 8b 9e bd 97 1f 80 3d c1 49 06 bd 5b d6 a7 bd
       -0.07741392 0.06256025 -0.03278518 -0.08195182
0002e0 9d 5e 1e 3b a8 a4 ee 3b dd ba 03 bc 73 0d ee 3b
       0.002416528 0.007282812 -0.008040157 0.007264787
0002f0 87 68 0a bd 8a 99 26 bd 9e bd 00 bd 4c ce 95 bc
       -0.03379109 -0.04067377 -0.031430833 -0.018286847
000300 00 1d 53 3b 76 b8 50 3c 19 96 1b 3e 83 78 d9 3c
       0.003221333 0.012739291 0.15193976 0.026546722
000310 00 0a ef bd 24 b8 aa be 26 63 7b 3e 09 65 f3 3e
       -0.11671829 -0.33343613 0.24549541 0.4753802
000320 34 ff ad b9 3c 00 7d bb 0c 2f 4a 3e b0 0c c4 3d
       -0.00033187272 -0.0038604876 0.1974451 0.095727324
000330 6d 08 0a be 1c 47 bb be 48 14 53 3e 48 fd b3 3e
       -0.13479777 -0.3657769 0.20613205 0.35154176
000340 9c 1a d7 b8 12 ce 38 3b 09 ee 50 be 58 7e 0b be
       -0.00010256955 0.0028199 -0.20403303 -0.13622415
000350 f7 6d 1b 3e 07 bc de 3e 1a 0e d9 bd 9a 4e d7 be
       0.15178667 0.43502828 -0.10598393 -0.42052156
000360 47 2a 80 b9 83 5b 0d bb f2 a1 68 3d c8 72 52 3d
       -0.00024445562 -0.0021569438 0.056795068 0.051378995
000370 0d 23 24 bd 08 cb 87 be 47 ab 07 3e 16 fb bd 3e
       -0.04007249 -0.26522088 0.13248931 0.37105626
000380 34 31 55 3a d4 e2 ef 3b f8 a1 b7 3d 44 81 ed 3c
       0.0008132637 0.007320741 0.0896644 0.028992303
000390 75 f2 1f bd 84 cc 34 3e 9f 25 c3 bd 4a f0 9b be
       -0.039049584 0.17656142 -0.0952866 -0.30456764
0003a0 41 6d c6 3b 97 8a 80 3c 75 c2 6c be 4d 38 7e bd
       0.0060555045 0.015691085 -0.23121054 -0.06206541
0003b0 26 37 d5 3d 2a 31 87 3e 45 02 3e be d5 ad 97 be
       0.10410909 0.26404697 -0.18555553 -0.2962481
0003c0 28 65 90 ba 67 4e d2 bb 6e 59 a1 3e 13 98 1f 3e
       -0.0011016475 -0.0064180377 0.31513542 0.15585355
0003d0 bb b3 24 be 6b f0 e6 be e3 e8 74 3d 25 df 95 3e
       -0.16084187 -0.451053 0.05979241 0.29271808
0003e0 f4 05 c9 3a 3d 73 f3 3b df 60 ef 3c 40 16 0c bc
       0.0015336857 0.007429509 0.029220996 -0.008550227
0003f0 e2 9b b0 bc cf 7e 73 be cf d7 a9 3d d8 9c a6 3e
       -0.021558706 -0.23778842 0.08293115 0.32541537

linear_mapper.spline_scaler f4 [8, 16]
000000 77 74 6d 3d 18 c2 35 be 1e cf e9 bb 7b 2b da bd
       0.057972398 -0.17749822 -0.007135286 -0.106528245
000010 49 9f 04 bc 05 af bc 3d b7 41 e0 3d f5 3f 86 3e
       -0.008094617 0.0921307 0.10950034 0.2622067
000020 66 50 bf bb 58 9d 0f bd 54 25 76 3d 87 7e 76 3e
       -0.0058384417 -0.035062164 0.060094193 0.24071704
000030 c3 28 ae bb 03 f2 4d 3b 25 32 ea bd ff c1 40 3e
       -0.005314918 0.0031424768 -0.114353456 0.18824004
000040 ce 0f 07 bd 3f 2a a3 bc 21 92 81 bd a4 1d db bd
       -0.032974057 -0.019917605 -0.063267 -0.10699013
000050 e0 f0 04 3d 77 25 f3 3c 11 f9 c1 3b d2 67 82 3b
       0.03245628 0.02968095 0.0059195836 0.0039796615
000060 21 dc 2e 3e bf 22 fc 3d 6c 37 16 bd e6 01 b3 ba
       0.1707616 0.12311315 -0.03667395 -0.0013657182
000070 f0 b6 45 bc 60 d8 0a bd 22 4f 9c 3d e6 00 38 3c
       -0.0120675415 -0.033897758 0.07632281 0.011230683
000080 60 b9 35 bd 7f 60 15 be 64 54 31 3e ee 1a 14 be
       -0.04436624 -0.14587592 0.17317349 -0.14463398
000090 72 66 e6 3c 79 7b 5e bc df 3d e8 3b a9 0c 02 bd
       0.028125022 -0.013579243 0.0070874537 -0.031750355
0000a0 fa 53 56 bb c3 98 d1 bc 4d 93 a3 bc 92 a0 f9 bb
       -0.0032703863 -0.025585538 -0.0199677 -0.0076180184
0000b0 23 d1 93 bd 93 29 80 3b 5f 82 ae bd fd 62 08 bd
       -0.07217624 0.003911206 -0.0852096 -0.033297528
0000c0 bd 6d d5 be 9b 0c 8b 3e 2a be 4f be c3 7c 22 3e
       -0.41685286 0.27158055 -0.20287386 0.15867905
0000d0 e5 8f 75 be 1c 4c 03 3d 8f 29 80 bc 8f a6 39 3e
       -0.23980673 0.032055005 -0.015644817 0.18129943
0000e0 3d 13 37 3c e1 76 b8 bc 64 bf aa bd 9a 8e 40 3e
       0.01117402 -0.022517623 -0.08337286 0.18804398
0000f0 41 61 79 be 2b 70 bd be 05 85 04 3e d9 88 8c 3c
       -0.24353506 -0.3699964 0.12941368 0.017155098
000100 58 db 46 bd 9a bb 91 bc 55 ad 93 bd 91 32 96 be
       -0.048549026 -0.01778965 -0.07210795 -0.29335454
000110 5a 17 6e bd 8c f3 71 3c 27 34 ab bc 17 3a e5 3c
       -0.05812774 0.014767539 -0.020898892 0.027981801
000120 ce 20 66 3e 7a ef c1 3c f1 7f 0f 3d a8 ad 18 3e
       0.22473451 0.023673762 0.035034124 0.14909995
000130 e3 1c 85 bc 1e a4 15 be 82 c8 89 3e 79 ca 70 bc
       -0.016249126 -0.14613387 0.26910788 -0.014696711
000140 16 4a be bd 4a b8 61 be 55 ce a3 3d 08 6d 98 3e
       -0.092914745 -0.22042957 0.07998339 0.29770684
000150 d9 74 64 3d cc 79 53 bd a3 39 f1 b7 61 59 db 3d
       0.055775497 -0.051629826 -2.8756278e-05 0.10710407
000160 e3 32 30 be ef 65 a3 3d 2c c3 17 3d 4d a9 e5 bd
       -0.17206912 0.07978427 0.037051365 -0.11213932
000170 44 99 f3 3c c8 3d 5c 3e 36 4f 4c 3e a4 70 be bd
       0.029736169 0.21507943 0.19952092 -0.09298828
000180 db d6 61 be f0 c0 9a be 25 5e 78 3e 1e ed 8b bd
       -0.22054617 -0.30225325 0.24254663 -0.06832336
000190 1c a0 c9 3c 0c 01 a1 3c e5 6a 80 bd 36 cc 6b be
       0.024612479 0.01965382 -0.062703885 -0.23027119
0001a0 cb ac 19 3c be 8d 5b bd e5 e0 e8 be c7 aa e2 3c
       0.009379576 -0.053601973 -0.4548408 0.027669324
0001b0 0a bb 04 be 87 b4 50 be e8 15 6a bc 12 ce 70 be
       -0.12961975 -0.20381366 -0.014287449 -0.2351611
0001c0 4f 8d bc be 82 ca ad be 17 4b f9 3e 15 83 18 bf
       -0.3682656 -0.33943564 0.48690102 -0.59575015
0001d0 5a b9 b7 be 56 47 68 be 9f 40 14 bd 14 61 fc 3c
       -0.358836 -0.22683463 -0.03619444 0.03080801
0001e0 10 30 1b be 85 39 88 be 55 2e 02 3d d8 70 3f 3e
       -0.15155053 -0.26606384 0.031782467 0.1869539
0001f0 d3 1b a5 3b 95 52 c5 bd 00 6c 46 be d3 62 03 bf
       0.0050387173 -0.09634892 -0.19377136 -0.5132267

linear_mapper.grid f4 [16, 12]
000000 cd cc 0c c0 66 66 e6 bf 33 33 b3 bf 00 00 80 bf
       -2.2 -1.8 -1.4 -1.0
000010 9a 99 19 bf cc cc 4c be d0 cc 4c 3e 9a 99 19 3f
       -0.6 -0.19999999 0.20000005 0.6
000020 00 00 80 3f 34 33 b3 3f 66 66 e6 3f cd cc 0c 40
       1.0 1.4000001 1.8 2.2
000030 cd cc 0c c0 66 66 e6 bf 33 33 b3 bf 00 00 80 bf
       -2.2 -1.8 -1.4 -1.0
000040 9a 99 19 bf cc cc 4c be d0 cc 4c 3e 9a 99 19 3f
       -0.6 -0.19999999 0.20000005 0.6
000050 00 00 80 3f 34 33 b3 3f 66 66 e6 3f cd cc 0c 40
       1.0 1.4000001 1.8 2.2
000060 cd cc 0c c0 66 66 e6 bf 33 33 b3 bf 00 00 80 bf
       -2.2 -1.8 -1.4 -1.0
000070 9a 99 19 bf cc cc 4c be d0 cc 4c 3e 9a 99 19 3f
       -0.6 -0.19999999 0.20000005 0.6
000080 00 00 80 3f 34 33 b3 3f 66 66 e6 3f cd cc 0c 40
       1.0 1.4000001 1.8 2.2
000090 cd cc 0c c0 66 66 e6 bf 33 33 b3 bf 00 00 80 bf
       -2.2 -1.8 -1.4 -1.0
0000a0 9a 99 19 bf cc cc 4c be d0 cc 4c 3e 9a 99 19 3f
       -0.6 -0.19999999 0.20000005 0.6
0000b0 00 00 80 3f 34 33 b3 3f 66 66 e6 3f cd cc 0c 40
       1.0 1.4000001 1.8 2.2
0000c0 cd cc 0c c0 66 66 e6 bf 33 33 b3 bf 00 00 80 bf
       -2.2 -1.8 -1.4 -1.0
0000d0 9a 99 19 bf cc cc 4c be d0 cc 4c 3e 9a 99 19 3f
       -0.6 -0.19999999 0.20000005 0.6
0000e0 00 00 80 3f 34 33 b3 3f 66 66 e6 3f cd cc 0c 40
       1.0 1.4000001 1.8 2.2
0000f0 cd cc 0c c0 66 66 e6 bf 33 33 b3 bf 00 00 80 bf
       -2.2 -1.8 -1.4 -1.0
000100 9a 99 19 bf cc cc 4c be d0 cc 4c 3e 9a 99 19 3f
       -0.6 -0.19999999 0.20000005 0.6
000110 00 00 80 3f 34 33 b3 3f 66 66 e6 3f cd cc 0c 40
       1.0 1.4000001 1.8 2.2
000120 cd cc 0c c0 66 66 e6 bf 33 33 b3 bf 00 00 80 bf
       -2.2 -1.8 -1.4 -1.0
000130 9a 99 19 bf cc cc 4c be d0 cc 4c 3e 9a 99 19 3f
       -0.6 -0.19999999 0.20000005 0.6
000140 00 00 80 3f 34 33 b3 3f 66 66 e6 3f cd cc 0c 40
       1.0 1.4000001 1.8 2.2
000150 cd cc 0c c0 66 66 e6 bf 33 33 b3 bf 00 00 80 bf
       -2.2 -1.8 -1.4 -1.0
000160 9a 99 19 bf cc cc 4c be d0 cc 4c 3e 9a 99 19 3f
       -0.6 -0.19999999 0.20000005 0.6
000170 00 00 80 3f 34 33 b3 3f 66 66 e6 3f cd cc 0c 40
       1.0 1.4000001 1.8 2.2
000180 cd cc 0c c0 66 66 e6 bf 33 33 b3 bf 00 00 80 bf
       -2.2 -1.8 -1.4 -1.0
000190 9a 99 19 bf cc cc 4c be d0 cc 4c 3e 9a 99 19 3f
       -0.6 -0.19999999 0.20000005 0.6
0001a0 00 00 80 3f 34 33 b3 3f 66 66 e6 3f cd cc 0c 40
       1.0 1.4000001 1.8 2.2
0001b0 cd cc 0c c0 66 66 e6 bf 33 33 b3 bf 00 00 80 bf
       -2.2 -1.8 -1.4 -1.0
0001c0 9a 99 19 bf cc cc 4c be d0 cc 4c 3e 9a 99 19 3f
       -0.6 -0.19999999 0.20000005 0.6
0001d0 00 00 80 3f 34 33 b3 3f 66 66 e6 3f cd cc 0c 40
       1.0 1.4000001 1.8 2.2
0001e0 cd cc 0c c0 66 66 e6 bf 33 33 b3 bf 00 00 80 bf
       -2.2 -1.8 -1.4 -1.0
0001f0 9a 99 19 bf cc cc 4c be d0 cc 4c 3e 9a 99 19 3f
       -0.6 -0.19999999 0.20000005 0.6
000200 00 00 80 3f 34 33 b3 3f 66 66 e6 3f cd cc 0c 40
       1.0 1.4000001 1.8 2.2
000210 cd cc 0c c0 66 66 e6 bf 33 33 b3 bf 00 00 80 bf
       -2.2 -1.8 -1.4 -1.0
000220 9a 99 19 bf cc cc 4c be d0 cc 4c 3e 9a 99 19 3f
       -0.6 -0.19999999 0.20000005 0.6
000230 00 00 80 3f 34 33 b3 3f 66 66 e6 3f cd cc 0c 40
       1.0 1.4000001 1.8 2.2
000240 cd cc 0c c0 66 66 e6 bf 33 33 b3 bf 00 00 80 bf
       -2.2 -1.8 -1.4 -1.0
000250 9a 99 19 bf cc cc 4c be d0 cc 4c 3e 9a 99 19 3f
       -0.6 -0.19999999 0.20000005 0.6
000260 00 00 80 3f 34 33 b3 3f 66 66 e6 3f cd cc 0c 40
       1.0 1.4000001 1.8 2.2
000270 cd cc 0c c0 66 66 e6 bf 33 33 b3 bf 00 00 80 bf
       -2.2 -1.8 -1.4 -1.0
000280 9a 99 19 bf cc cc 4c be d0 cc 4c 3e 9a 99 19 3f
       -0.6 -0.19999999 0.20000005 0.6
000290 00 00 80 3f 34 33 b3 3f 66 66 e6 3f cd cc 0c 40
       1.0 1.4000001 1.8 2.2
0002a0 cd cc 0c c0 66 66 e6 bf 33 33 b3 bf 00 00 80 bf
       -2.2 -1.8 -1.4 -1.0
0002b0 9a 99 19 bf cc cc 4c be d0 cc 4c 3e 9a 99 19 3f
       -0.6 -0.19999999 0.20000005 0.6
0002c0 00 00 80 3f 34 33 b3 3f 66 66 e6 3f cd cc 0c 40
       1.0 1.4000001 1.8 2.2
0002d0 cd cc 0c c0 66 66 e6 bf 33 33 b3 bf 00 00 80 bf
       -2.2 -1.8 -1.4 -1.0
0002e0 9a 99 19 bf cc cc 4c be d0 cc 4c 3e 9a 99 19 3f
       -0.6 -0.19999999 0.20000005 0.6
0002f0 00 00 80 3f 34 33 b3 3f 66 66 e6 3f cd cc 0c 40
       1.0 1.4000001 1.8 2.2

blocks.0.to_q.base_weight f4 [128, 8]
000000 49 4b e3 3d 01 2c 40 be ef 7c 3c 3e e3 70 c5 3e
       0.11098344 -0.18766786 0.18407033 0.38562688
000010 96 de bf 3e f5 c2 e3 bd 37 be 40 3d e6 43 23 3d
       0.37474507 -0.111211695 0.047056403 0.039859675
000020 88 72 0b bf 8c 86 84 3c dc 52 b8 be 7a f0 91 3d
       -0.54471636 0.016177438 -0.36000717 0.071259454
000030 c3 dd d2 be b2 d7 77 be e5 d8 28 3c 15 3e 0f 3d
       -0.41184816 -0.24203375 0.010305618 0.034971315
000040 d1 78 03 3e 8b f2 11 3e 8e cf 17 3f c3 ae 05 3d
       0.12839057 0.14252679 0.5930108 0.03263737
000050 d5 36 ca 3d 74 a4 a5 be aa 7a 46 3f 9f 8c af be
       0.0987374 -0.3235203 0.7753092 -0.34286973
000060 ac b5 77 3e 4e 23 00 be b0 da 42 3e c6 a0 79 be
       0.24190396 -0.12513468 0.19028735 -0.24377736
000070 4c 01 b5 be ba ee 16 3e d4 e4 c5 3e 9f 4e a4 3e
       -0.35352552 0.14739504 0.38651145 0.32091233
000080 b4 5b 8e be 39 be ae bc 44 66 13 be 76 d3 b0 3e
       -0.2780434 -0.02133094 -0.1439448 0.34536332
000090 9e 55 94 3e c7 3e 75 3e f4 0f 80 3e 49 b1 6a 3b
       0.2897157 0.23949729 0.2501217 0.0035811237
0000a0 a7 3c ec be 76 e3 ee bc 66 39 3d bf 53 85 67 3e
       -0.46140024 -0.029161196 -0.7391571 0.22609453
0000b0 bf 47 55 be 1c 78 39 bd 17 05 a9 be 35 07 45 bd
       -0.2082815 -0.04528056 -0.33011696 -0.048102576
0000c0 9e a0 07 be 1d 46 8f 3c 2b fb 9e be 30 c1 d7 bd
       -0.13244864 0.017489487 -0.31051 -0.105348945
0000d0 6e fa b5 bd 80 08 9d 3e 40 2d c6 3e 5b 6b ca 3e
       -0.08885656 0.30670547 0.38706398 0.3953503
0000e0 6b eb 13 bf 5a 45 18 bf 54 62 9e be bc 2d 65 bd
       -0.57781094 -0.5948082 -0.30934393 -0.05595182
0000f0 b2 b5 2d bf a3 0f 8c bb 7c 5e 8d 3d b1 01 d6 3c
       -0.6785537 -0.004274325 0.06902787 0.026123853
000100 61 bd 6f 3e 63 6f f4 3e e7 f0 42 3f 5d 83 05 3f
       0.23412086 0.4774123 0.7614884 0.5215357
000110 21 45 19 be fe 90 e2 ba 69 22 23 bd 27 37 07 bd
       -0.14967777 -0.0017285643 -0.039827738 -0.03301158
000120 c8 12 d1 be 9b dd d9 bd 6b 5d c0 be 40 3f 66 b9
       -0.4083464 -0.10637971 -0.37571272 -0.00021958072
000130 d6 f1 ca be cf 4f 36 3e 30 05 b0 be 04 0f f6 bd
       -0.3963763 0.17803882 -0.34378958 -0.12014583
000140 4a 6f b4 3d b9 f9 80 3e ed 97 af 3e 5d 78 09 3e
       0.08810289 0.25190523 0.34295598 0.13424821
000150 c5 77 6b 3d ca 44 b2 3e 4d 25 75 3e a1 3d 1e 3e
       0.057487268 0.34818107 0.2394001 0.15453197
000160 b5 ab 9c be 66 b8 37 be 62 9f 58 be aa e9 81 bd
       -0.30599752 -0.17941436 -0.2115455 -0.06343396
000170 d4 35 57 3e 26 93 a9 be 7e 50 c5 3e b8 9c f4 3e
       0.21016628 -0.33120078 0.38537973 0.47775817
000180 ac e1 aa bd bf 4b 6a 3e 4a 2c 70 be 53 87 a2 3e
       -0.08343825 0.22880457 -0.23454395 0.3174387
000190 12 54 44 3e ce 1e a0 be eb 85 ba 3e 61 ee e1 be
       0.19172695 -0.31273502 0.36430296 -0.4412718
0001a0 01 24 32 3c e2 cb f9 3e 30 24 90 be 0e 2c 20 3e
       0.010872842 0.48788363 -0.2815261 0.15641806
0001b0 9e bb 6d 3e 43 a3 1e bc e7 50 d3 3e 58 a5 50 be
       0.23216102 -0.009682479 0.4127266 -0.20375574
0001c0 cd 55 bf be 09 00 f7 be 7c 4b 12 bf 11 1c 31 bf
       -0.37370148 -0.48242214 -0.5714643 -0.6918345
0001d0 5e 68 a6 be c5 e2 c2 bc c0 31 21 bf 5e 13 b3 3e
       -0.325015 -0.023789773 -0.6296654 0.34975713
0001e0 b7 94 c8 3e 30 a3 84 3d 9b c7 06 3c 43 9c 4b 3e
       0.3917596 0.06476438 0.008226301 0.19883828
0001f0 af 4f cf 3e 4c d3 16 3e bb 47 a3 be 0d e0 0a 3e
       0.4049048 0.14729041 -0.31890664 0.13562031
000200 49 c7 fd bd e5 e4 21 3e fd 65 98 3c c3 be 95 3e
       -0.12391526 0.15809973 0.01860332 0.29247102
000210 f1 7e f1 be 78 6c 93 3e 9c 6a f7 bd ed 1f 6f 3d
       -0.4716716 0.28793693 -0.12080881 0.058380056
000220 33 a7 96 be 32 e9 b9 3d f0 da 11 be 14 df 43 3e
       -0.29424438 0.090776816 -0.14243674 0.19128066
000230 a0 f3 13 be eb 44 b2 3d cd f8 13 3f 4d c1 97 3e
       -0.14448404 0.08704551 0.57801515 0.29639664
000240 c3 e3 67 3e b0 4a 61 3e 2e d1 c4 3e 66 0d a1 bd
       0.22645478 0.22001147 0.3844084 -0.07863884
000250 c5 92 82 3e 9b bc ed bc 05 20 86 be d7 4f e0 be
       0.255026 -0.029020598 -0.26196304 -0.43810913
000260 0c ee 4c 3e ee 65 5b bd a3 07 96 3e ef 54 97 3a
       0.20012683 -0.053564005 0.293027 0.0011545698
000270 7e 1f 6e 3e 16 7b 69 3e 97 1a f3 bd 29 b2 6c 3e
       0.23254201 0.2280086 -0.11870306 0.23114838
000280 4e 2d 1a 3e 41 37 3b be 9e d7 c7 be 2d a7 83 be
       0.15056345 -0.18282796 -0.3903169 -0.25713482
000290 91 c6 98 be 35 f7 10 bd 93 c6 5e bc 27 fc 4f 3e
       -0.29838994 -0.035392005 -0.0135971485 0.20311032
0002a0 a6 8e 6e be f4 f2 9c bd d5 2d a6 bd df 3e d5 3e
       -0.23296604 -0.07663527 -0.081142105 0.4164953
0002b0 d3 3d a9 3d 6e 2d ca be 72 ea 28 3e 90 4c 90 be
       0.08263745 -0.39487785 0.16495684 -0.28183413
0002c0 c9 a2 d8 3e 27 13 86 3d 96 f7 25 3f 71 7c e0 be
       0.42311695 0.06546622 0.6483091 -0.4384494
0002d0 e6 2f 14 3e 82 49 2d 3e a6 61 b3 be d2 cd 3f 3d
       0.14471397 0.16922572 -0.35035437 0.046827145
0002e0 96 e4 dc bc 2a d3 19 3d f8 a9 18 3e 26 af d8 be
       -0.026964467 0.037554897 0.14908588 -0.42321128
0002f0 8f 53 ef be 21 19 ec 3d ea b5 66 3d 5e 30 24 be
       -0.46743438 0.115282305 0.05632583 -0.16034076
000300 19 3a 76 3e 83 c0 18 bf 98 c7 dc 3e 71 cf d7 3d
       0.240456 -0.5966875 0.43121028 0.10537613
000310 b2 74 11 3e f4 05 2f be 0e e6 29 3b c0 45 a4 bc
       0.14204672 -0.17092115 0.0025924477 -0.02005279
000320 b9 eb 3e 3e 2a 28 8a 3d fd 81 16 3f a6 50 1e be
       0.18644609 0.06745942 0.58792096 -0.15460452
000330 0c 60 c3 3d f0 bc 0b 3e 61 27 95 bc c7 b6 72 3e
       0.09539804 0.13646293 -0.018207254 0.23702537
000340 e9 6c 2f 3c 24 84 b2 3d bd a2 15 3e 06 a2 75 be
       0.010707119 0.0871661 0.14612861 -0.23987588
000350 bb bb 90 3e 2a 01 64 3d f3 41 02 bf 3d f2 9a bc
       0.28268227 0.055665173 -0.5088188 -0.018914336
000360 9e ff 95 be 6c 94 83 3c a1 51 01 bf 89 22 8e be
       -0.29296583 0.016061984 -0.5051518 -0.27760723
000370 1f e2 22 be ac c5 9e 3d 4e 2f bf 3c 00 5c 27 3f
       -0.15906571 0.07752547 0.023337986 0.65374756
000380 39 77 62 be b5 11 f0 3d b3 5f d6 3e e4 79 68 be
       -0.22115792 0.11722127 0.41869888 -0.22702748
000390 5b d4 ca 3e b4 a1 4f 3f 37 f2 53 be b8 8e 60 3e
       0.3961514 0.81106114 -0.20697866 0.21929443
0003a0 79 5d 6e 3f 5d 63 5a 3f 43 76 06 3f b4 ca 3e 3f
       0.9311138 0.85307866 0.52524203 0.7452805
0003b0 2f 1c ee 3e 91 1a 57 be 34 3c 01 3f e8 4c e8 3d
       0.46505877 -0.21006228 0.5048249 0.11342794
0003c0 0e 28 c2 bd ad bf 40 3e ec aa d3 be 97 ba da 3e
       -0.09480296 0.18823119 -0.4134134 0.42720482
0003d0 cd 0b 5c 3e bf bf 26 3e dc d1 08 3e 2c 14 d8 3d
       0.21488877 0.16284083 0.13361305 0.105507225
0003e0 57 a0 eb be f7 55 62 bd e5 ba 55 be 1e 4d a1 be
       -0.46020767 -0.055257764 -0.20872076 -0.31504148
0003f0 4e bf c9 be fb 3f ce 3e b1 b3 15 3e 76 1a 29 3d
       -0.39403766 0.40283188 0.14619328 0.041285

blocks.0.to_q.spline_weight f4 [128, 8, 8]
000000 d1 04 ea bd f1 a2 84 bc 57 ff aa 3c e9 4a 6c bc
       -0.114267 -0.016190978 0.020873709 -0.014422157
000010 2f cd b6 3d 04 75 f8 3c 00 56 0f bd b3 59 8c bd
       0.089258544 0.030329235 -0.034994125 -0.06853046
000020 ad 6a cd be 92 5f 47 be eb ed 36 be f2 aa 3a 3d
       -0.4012045 -0.19470051 -0.17864196 0.045573182
000030 45 a7 a5 bd 99 ad 84 bd 73 0d 65 3d 8a cb 89 bd
       -0.08088545 -0.064784236 0.05592103 -0.06728275
000040 8f d0 92 be fb 83 b8 bd 0b ab 1d 3e 81 1b 10 bc
       -0.28674743 -0.09009548 0.15397279 -0.00879562
000050 42 db c2 bd 69 ad 03 be a4 1f 5b be 83 ee 26 be
       -0.09514476 -0.1285912 -0.21398789 -0.16301923
000060 d5 cf d1 3e fc 52 2d 3e c0 3f 23 bf 07 59 24 be
       0.40978876 0.16926187 -0.6376915 -0.16049586
000070 fe 46 0d 3e 47 fb 7d 3e 5b 8f 19 bd 7d 4c ef bd
       0.13796613 0.24802886 -0.03749023 -0.11684511
000080 6a 91 d7 3e c0 79 3f 3f 9a 11 21 3f 88 7d 22 be
       0.4210313 0.7479515 0.6291748 -0.15868199
000090 9e ea e9 bc c1 61 89 bd eb 01 6e 3d 63 1f 86 3d
       -0.028554257 -0.06708098 0.058107298 0.06548955
0000a0 c0 30 3c 3e 3f 69 20 3e 01 7c c7 3d 2d 0b 7f bd
       0.18377972 0.15665148 0.09740449 -0.062266517
0000b0 9d e2 00 bf e2 86 e6 be cf 49 88 3d 9d 88 03 bd
       -0.50345784 -0.45024782 0.06654703 -0.032112706
0000c0 74 c8 19 be 55 d5 d5 3e 18 28 19 3f 98 b9 ff 3d
       -0.15017873 0.41764322 0.59826803 0.12486571
0000d0 d9 40 db 3c 89 fa ef 3d a0 89 80 bc 1f af cd 3d
       0.02676432 0.11717708 -0.015690625 0.10043167
0000e0 88 22 8d bd fb d4 35 3e 9f 04 53 3d 96 b8 ae bd
       -0.06891352 0.17757027 0.05151808 -0.08531301
0000f0 91 c0 3f bf c1 3f b1 be b4 e1 6a 3d 60 86 b6 bd
       -0.7490321 -0.34618953 0.057344154 -0.08912349
000100 d4 a2 fc 3d ef eb b1 3d 2b 94 b6 bd 1b a8 2a bf
       0.123357445 0.08687579 -0.089149795 -0.6666276
000110 03 df e5 3b a3 87 8a 3d a4 9e 80 be c0 78 bc be
       0.0070151105 0.06764152 -0.25121033 -0.36810875
000120 1d 1c 12 3f 1c 43 a4 3d 10 1b c6 bd 1f 6f af be
       0.5707415 0.080206126 -0.096731305 -0.34264466
000130 2c ec 6e 3c 4b f5 cf 3d a4 c9 49 3d d8 11 a3 3d
       0.014582675 0.10154208 0.049264565 0.07962388
000140 dc 87 8d be b3 ac a1 bd fe 79 f1 3d a8 e0 91 bd
       -0.27642715 -0.07894268 0.11790846 -0.07122928
000150 2b 9c 82 bd dd 60 69 bd e6 02 b6 bd fb 52 ff be
       -0.06377443 -0.05697714 -0.088872716 -0.49867997
000160 78 28 52 3f d6 e4 ca 3e b0 69 b3 bf 0e a4 6c bf
       0.82093 0.39627713 -1.4016628 -0.9243783
000170 14 4d 6c be 6c 73 01 3f 8a 5b 4c 3e 95 80 71 be
       -0.23076278 0.50566745 0.19956794 -0.23584206
000180 52 d4 57 3e 82 52 06 be 55 84 82 bd 73 16 90 3d
       0.21077088 -0.13117412 -0.063728966 0.07035532
000190 da 64 52 bd 72 f7 2e bd 99 30 4a bd 17 2a 6d 3e
       -0.05136571 -0.04271645 -0.049362753 0.23160587
0001a0 81 56 13 bf 1e 68 66 bf de dd 34 bf e7 90 20 bf
       -0.5755387 -0.9000262 -0.7065104 -0.62721103
0001b0 0c 77 9c bf cb fe 14 bf b4 c2 c2 3c e6 6f 03 be
       -1.222383 -0.58201283 0.023774482 -0.12835655
0001c0 c4 d3 88 bf 23 d7 21 bf d7 34 27 bf 85 b8 04 bc
       -1.0689626 -0.632189 -0.65315 -0.0081006335
0001d0 6f 85 9c 3d 6f a9 5e be 2a f9 4b be 69 91 2b be
       0.07642638 -0.21744321 -0.19919267 -0.16754688
0001e0 68 8c e0 3e 5d db b9 3e f8 19 e5 3e 79 e7 1c 3e
       0.4385712 0.36300173 0.44746375 0.15322675
0001f0 53 13 93 3f e5 59 03 3f ee a9 06 be 0f c4 d6 3d
       1.1490272 0.51309043 -0.1315076 0.10486614
000200 34 aa 1f bf cd 98 f9 be 62 92 39 3e cc 64 ce 3e
       -0.62369084 -0.4874939 0.18122247 0.40311277
000210 ad 17 0a bf 28 42 44 be 1c 1d 93 be 02 1a 6d be
       -0.53942376 -0.19165862 -0.28733146 -0.23154452
000220 d6 39 1f 3f a6 8b 6d be 24 39 b1 bf 1a 29 9e bf
       0.62197626 -0.23197803 -1.3845563 -1.2356293
000230 f7 64 97 3e 26 9f 4c be 3c 32 8a bf 3a c8 0f 3f
       0.29569218 -0.19982585 -1.079658 0.56164896
000240 88 08 11 be 73 f1 13 bf 86 f4 54 bf 12 17 2e be
       -0.1416341 -0.577903 -0.83185613 -0.17000988
000250 56 0a 83 3e 15 d8 9a 3e 90 78 c7 3d e2 3f 4d 3f
       0.25593823 0.30242983 0.09739792 0.801756
000260 d1 86 21 3f cc 8b 49 3e e8 4a c8 bd 20 c3 8c 3e
       0.6309634 0.19682235 -0.09779912 0.2749262
000270 63 b6 e3 3e d8 56 5e 3f 04 49 47 be 79 ec 13 bf
       0.44475088 0.86851263 -0.19461447 -0.57782704
000280 12 4b 64 bf 1e 5f 9e 3e 4a 28 b4 3f 42 78 11 3f
       -0.8917705 0.30931944 1.4074795 0.56824124
000290 ff 21 1f 3e af a4 a9 be 78 7e a2 be 4c 69 03 3e
       0.15540312 -0.33133456 -0.31737113 0.12833136
0002a0 89 20 51 3f 7e 70 6d bd 11 11 07 bf 2c 78 15 bf
       0.8169027 -0.05796861 -0.52760416 -0.5838649
0002b0 f6 01 24 bf e4 89 0f 3e f3 3f 66 3e 57 42 2b bd
       -0.6406549 0.14017445 0.22485332 -0.041811313
0002c0 16 12 11 bf 25 5a 2b bd 2b d0 9e 3d c7 75 06 3f
       -0.5666822 -0.041834015 0.07754549 0.52523464
0002d0 72 df 2f 3f 76 f8 24 be a1 b0 34 bf cf d4 27 bf
       0.68700325 -0.16110405 -0.70582014 -0.65559095
0002e0 e1 3e 13 3f 1b a9 53 3f d1 3c 81 3f bb 8f 5a 3f
       0.5751782 0.8267991 1.0096685 0.85375565
0002f0 6b a8 19 3e dd a8 2d bf 5c c2 1c bf 08 56 d7 bc
       0.15005653 -0.6783579 -0.6123407 -0.02628614
000300 e5 23 03 bd 29 71 2d bc 8c 7f 80 bc bb 18 5c bd
       -0.032016654 -0.0105860615 -0.01568582 -0.053734522
000310 f2 7f 34 3c 6c 3e 4d 3d 13 cc db bc 5c 33 c3 bd
       0.011016833 0.05010836 -0.026830709 -0.095312804
000320 8b 1c 70 3e 75 e5 ee 3b d5 c4 68 3e d6 0e 2a 3e
       0.23448388 0.007290537 0.22731335 0.16607222
000330 81 f6 96 3d 3f 96 55 bd 93 fa 29 be b6 28 34 3d
       0.07371236 -0.05214524 -0.16599493 0.043984137
000340 86 4f 24 be 6e 6b 78 3d 42 a6 b1 3e dc 9c f1 3d
       -0.16045961 0.060649328 0.34697157 0.11797497
000350 cd 4c ee ba 9c ba 77 be 60 12 9e be 8e 6b 9c be
       -0.0018180847 -0.2419228 -0.30873394 -0.30550808
000360 d8 7a 0c bf ec 31 e4 be 22 b6 7c 3e fe 2d 75 3d
       -0.54874945 -0.44569337 0.24678853 0.059858315
000370 03 b0 9c bd 52 a5 4e bd 68 c9 f4 bc 92 08 17 3d
       -0.07650759 -0.05045063 -0.029881194 0.036873408
000380 f9 90 5b bf ff 32 9f bf f3 53 27 bf f6 93 68 3e
       -0.85768086 -1.2437438 -0.6536247 0.22712693
000390 fe 90 80 bd 8e 40 23 3d 39 54 41 be 50 6e 19 be
       -0.06277655 0.039856486 -0.18879785 -0.14983487
0003a0 31 56 a3 be 96 3f 26 be 5c 6f f7 3d d6 5d bb 3e
       -0.31901696 -0.16235194 0.12081787 0.3659503
0003b0 5b a6 a8 3e 9c b0 40 3e df e9 04 be f1 f8 28 bc
       0.3293942 0.18817371 -0.1297984 -0.0103132585
0003c0 17 c8 13 bd 06 ab 66 be 05 3e 23 be 18 9f f6 bc
       -0.036079492 -0.22526178 -0.15941627 -0.030105159
0003d0 b6 34 e2 3c db a2 07 bd 41 da 6f 3d e8 1b 39 3d
       0.027613025 -0.033114295 0.058557753 0.04519263
0003e0 a0 aa f9 3d a1 3f ba 3b c1 9c 99 bd 95 6d 97 3d
       0.12190747 0.0056838547 -0.075006016 0.07393948
0003f0 52 20 e0 3e 69 a4 a0 3e a9 fb c8 bd 81 ef 99 bc
       0.43774658 0.31375435 -0.09813625 -0.018790962

blocks.0.to_q.spline_scaler f4 [128, 8]
000000 d7 e6 d9 3b 06 f6 04 be 37 35 1f be da 18 c6 bd
       0.0066498327 -0.12984475 -0.15547644 -0.09672709
000010 fb 4e d4 bd af 4e 1c be 9a 4a c6 bd 6f 34 4f be
       -0.10366627 -0.1526439 -0.09682198 -0.20234846
000020 85 01 7b 3e db a0 79 3d 83 e9 99 3d 82 23 73 3f
       0.24512298 0.06094442 0.07515242 0.94976056
000030 16 45 e2 3c 12 71 7b 3f f6 84 b5 3e a4 af 9c be
       0.027620833 0.98219407 0.35453004 -0.30602753
000040 46 be 04 3f cc 36 68 3f ab 44 09 3f f1 97 e2 be
       0.51852834 0.90708613 0.53620404 -0.44256547
000050 c5 21 ff be 44 da 8e be 8f 78 64 bf d2 86 5b 3f
       -0.49830452 -0.27900898 -0.8924646 0.85752594
000060 ad 50 d7 ba aa 4a 30 3d 4f af bb be 4d 54 35 bd
       -0.0016427241 0.043039955 -0.36657187 -0.04426985
000070 3a 34 cd 3d 94 41 df 3c 5f b7 5c 3c 24 c2 07 be
       0.10019727 0.02725295 0.013471453 -0.13257653
000080 4d 44 53 3d c9 56 4c 3f 8a 49 06 bf 5c f5 cf bc
       0.05157881 0.79819924 -0.5245596 -0.025385551
000090 66 c0 ab 3c 0c cc cb bd 06 2b 9e 3d 97 b4 b0 3c
       0.020965766 -0.09951028 0.0772305 0.021570487
0000a0 de ad 4f 3c ac 82 57 bd 8f 0b 9d 3c 6c de df 3e
       0.0126757305 -0.052614853 0.01917055 0.43724382
0000b0 4b 52 bf 3e 0b 2a 0c 3f 8a 61 02 be 43 42 a9 be
       0.37367472 0.5475165 -0.1273252 -0.33058366
0000c0 c7 e4 ea 3e 62 c4 c5 3e 8d e6 66 be 02 7f 91 3c
       0.45877668 0.3862639 -0.22548886 0.017760757
0000d0 a3 16 a8 3f 27 6b 97 be 8e 08 d5 3c 12 28 b2 bb
       1.3131908 -0.29573938 0.026005056 -0.0054369057
0000e0 28 c4 d2 bd 70 5d 13 3f fb e0 34 bf fa 4b 33 3e
       -0.1029132 0.5756445 -0.7065579 0.17509452
0000f0 d2 ad 79 3e 2a 87 14 3f 33 a3 cc 3e f5 aa b5 3e
       0.24382713 0.58018744 0.3996826 0.35481992
000100 f2 87 d9 be be 03 8d bf 59 dd 63 bf bd aa 53 3f
       -0.4248653 -1.1016767 -0.89009625 0.826824
000110 e2 4e 53 3f e8 c0 5b be ae b8 94 bf 4b 70 ab 3f
       0.8254224 -0.21460307 -1.161886 1.3393644
000120 dd 8f 37 3d d0 d4 f2 be 6f b5 45 3e dd f2 68 bf
       0.044814933 -0.47427988 0.19307493 -0.9099558
000130 72 bd 80 3d e8 d8 3c bf 4e d3 b0 be 6c c8 3b 3f
       0.06286134 -0.7376847 -0.34536213 0.73352695
000140 7e 69 12 3e ec 2d a3 be 85 a4 1d 3d cb 90 cb be
       0.14298055 -0.31870973 0.038486976 -0.39758906
000150 b6 34 a7 be 31 1a 16 3f 1c e2 09 3e fa bf 0c 3e
       -0.32657403 0.58633715 0.1346516 0.13745108
000160 90 bd 7f be 10 ab 2c 3e 0e c3 71 be b8 6c 48 3c
       -0.24974656 0.1686213 -0.23609564 0.012232952
000170 72 9d 47 3d 9c 20 19 3f 46 b9 86 3d c5 b1 59 bd
       0.048734136 0.5981538 0.06578307 -0.05314805
000180 22 2c d1 3e a5 82 82 3f 0b d0 fc bc 8b 4e 1a 3d
       0.40853983 1.019612 -0.030860921 0.03767256
000190 66 16 f6 3c c8 28 76 be 97 83 de bd 89 d7 25 bf
       0.030039977 -0.24038994 -0.108649425 -0.64782006
0001a0 8e 13 23 3c c1 c1 c2 bc 9a a7 89 3d 25 ee d5 3e
       0.009953393 -0.02377403 0.067214206 0.41783252
0001b0 d7 90 4a 3b 79 0e 31 3f e6 fe 03 be 0a 31 45 3d
       0.0030909085 0.6916271 -0.12890205 0.04814247
0001c0 19 d2 90 3c f8 e1 f2 3e 0f 33 88 3b 3a 31 81 3e
       0.017678307 0.47438025 0.0041564773 0.2523287
0001d0 06 b2 be bf 2c f3 8b 3d 6b f7 16 3f 0b 05 7b bf
       -1.4898078 0.06833491 0.5897128 -0.9805457
0001e0 41 4a 1a bb e2 7e 86 3e ad 49 54 3e ea b5 04 bc
       -0.0023542794 0.2626868 0.2073123 -0.008100012
0001f0 1a 2e 19 bd 89 bc 3b be da 71 5b 3c c3 85 c7 bc
       -0.03739748 -0.18333639 0.013393844 -0.024355775
000200 76 b0 64 be 8d ce d0 be 4a c2 2b 3c 06 28 78 3d
       -0.2233294 -0.40782586 0.010483334 0.060585044
000210 a3 ec 94 be 49 b1 b0 3e 1c 51 db bc 48 e4 b7 bc
       -0.2908679 0.34510258 -0.026772074 -0.02244772
000220 e4 7b e6 3a 92 64 32 be 4e 8d a2 3e bc 5d 8f bb
       0.001758453 -0.17421177 0.31748432 -0.0043751877
000230 67 8e 36 be a5 91 75 bd 33 c2 95 3d 0f a9 76 be
       -0.1782776 -0.05995335 0.07312431 -0.24087928
000240 ee 95 72 3e 4a 67 03 3f 17 9b 96 be 15 6c 0c bf
       0.23690006 0.5132948 -0.294152 -0.5485242
000250 41 4a 95 3b 4d 9e 10 3f b8 00 06 3e 68 60 85 bd
       0.004555971 0.5649155 0.13086212 -0.06512529
000260 96 87 a0 bd a9 64 61 3d 59 11 e4 3e ef 43 58 3e
       -0.07838361 0.055027638 0.44544485 0.21119665
000270 22 38 5c 3d f7 b4 ce 3e 83 6e 18 bd 95 b2 80 3c
       0.05376447 0.4037244 -0.037214767 0.015710155
000280 77 bd c3 bd e2 ea b7 be 7b 07 0a be f5 7d 65 bc
       -0.09557622 -0.3592139 -0.13479416 -0.014007081
000290 34 0d 8b bb 9d f6 c4 3e 3d ca f6 3c 66 75 66 3e
       -0.0042435173 0.384694 0.030125732 0.22505721
0002a0 b6 1c b2 be 80 16 22 bf 24 4b 15 3f 29 9b 09 bf
       -0.3478753 -0.6331558 0.5831778 -0.5375238
0002b0 dd e9 45 3f 71 3f bd 3d e4 19 03 bf 50 cc e4 3d
       0.7730997 0.09240616 -0.5121138 0.11171782
0002c0 0a 5b 1b 3d 95 f1 e0 3c 6f 8f d2 be af b1 e0 bc
       0.03792862 0.027458945 -0.41125056 -0.027428476
0002d0 08 c0 e1 3e 98 46 59 3f 24 92 04 bd d4 db 5a be
       0.4409182 0.8487334 -0.032365933 -0.2137292
0002e0 3c 44 10 3f e3 1d 68 3e 8f a5 04 3e 6f fc 12 3f
       0.5635412 0.22667651 0.1295378 0.57416433
0002f0 b1 e5 15 bc bd e5 15 3e f3 7f 04 3e ff ef ec 3b
       -0.009149001 0.1463842 0.12939434 0.007230758
000300 8b d3 2e bd 74 89 0d 3e 23 35 c8 3c 63 b6 98 3d
       -0.04268221 0.13821965 0.0244394 0.074566625
000310 6b 52 65 3c 6f 2e 07 3f ea d6 16 bd 27 cf 10 bd
       0.013996701 0.5280523 -0.03682605 -0.035353806
000320 e7 10 63 3c 75 56 59 3e e0 96 aa be 37 38 b5 3e
       0.01385901 0.21224387 -0.33318233 0.3539445
000330 90 c9 da be 8c b7 20 bf 94 00 d7 3b cd 8b 8e 3b
       -0.42731905 -0.6278007 0.006561348 0.0043501616
000340 11 2a 90 3c d6 63 d3 3a f2 65 20 3b 49 2d 85 bc
       0.017598184 0.0016127776 0.0024474827 -0.016256945
000350 8e 50 9f 3c e1 d2 cf be 37 d8 aa 3d 62 60 fb 3c
       0.019447591 -0.40590575 0.08342021 0.030685607
000360 48 1d 43 bf 16 66 6a 3f 6c 84 03 3f 2a 05 02 bf
       -0.76216555 0.9156202 0.51373935 -0.5078913
000370 d8 9e 90 be 59 6f 8f 3f db a4 02 3f e0 6e 22 bf
       -0.28246188 1.1205856 0.510328 -0.6345043
000380 60 a7 58 bf d4 a1 92 bf 26 82 49 3f 46 99 6a bf
       -0.84630394 -1.1455636 0.78714216 -0.91640127
000390 02 dd 52 bf ac f0 38 3f 35 e9 74 3f f3 c6 20 3f
       -0.8236848 0.72242236 0.95668346 0.6280357
0003a0 64 98 4c 3e df d6 a5 3f 46 aa 96 3e 43 4a 14 3f
       0.19980007 1.2956198 0.29426783 0.57925814
0003b0 b2 91 9c 3f 1f 54 43 bd 0b 2f 73 3f 40 98 b8 bf
       1.2231963 -0.047687646 0.94993657 -1.4421463
0003c0 c3 58 a3 3e e1 90 3a be b1 26 83 be 0a 2d a9 3e
       0.31903657 -0.1821933 -0.25615457 0.33042175
0003d0 74 2c 25 3f 3d 5f 84 be 24 ee ec 3c 12 8d f1 bc
       0.64520955 -0.2585391 0.028922148 -0.029486213
0003e0 5d e3 9b be 24 04 49 3f 31 ff 00 3f a8 e4 de 3e
       -0.30446902 0.78521943 0.5038939 0.43533826
0003f0 23 ad 5a be 12 f1 e4 be 66 a6 47 bf 83 ee f8 be
       -0.21355109 -0.44715172 -0.7798828 -0.4861947

blocks.0.to_q.grid f4 [8, 12]
000000 cd cc 0c c0 66 66 e6 bf 33 33 b3 bf 00 00 80 bf
       -2.2 -1.8 -1.4 -1.0
000010 9a 99 19 bf cc cc 4c be d0 cc 4c 3e 9a 99 19 3f
       -0.6 -0.19999999 0.20000005 0.6
000020 00 00 80 3f 34 33 b3 3f 66 66 e6 3f cd cc 0c 40
       1.0 1.4000001 1.8 2.2
000030 cd cc 0c c0 66 66 e6 bf 33 33 b3 bf 00 00 80 bf
       -2.2 -1.8 -1.4 -1.0
000040 9a 99 19 bf cc cc 4c be d0 cc 4c 3e 9a 99 19 3f
       -0.6 -0.19999999 0.20000005 0.6
000050 00 00 80 3f 34 33 b3 3f 66 66 e6 3f cd cc 0c 40
       1.0 1.4000001 1.8 2.2
000060 cd cc 0c c0 66 66 e6 bf 33 33 b3 bf 00 00 80 bf
       -2.2 -1.8 -1.4 -1.0
000070 9a 99 19 bf cc cc 4c be d0 cc 4c 3e 9a 99 19 3f
       -0.6 -0.19999999 0.20000005 0.6
000080 00 00 80 3f 34 33 b3 3f 66 66 e6 3f cd cc 0c 40
       1.0 1.4000001 1.8 2.2
000090 cd cc 0c c0 66 66 e6 bf 33 33 b3 bf 00 00 80 bf
       -2.2 -1.8 -1.4 -1.0
0000a0 9a 99 19 bf cc cc 4c be d0 cc 4c 3e 9a 99 19 3f
       -0.6 -0.19999999 0.20000005 0.6
0000b0 00 00 80 3f 34 33 b3 3f 66 66 e6 3f cd cc 0c 40
       1.0 1.4000001 1.8 2.2
0000c0 cd cc 0c c0 66 66 e6 bf 33 33 b3 bf 00 00 80 bf
       -2.2 -1.8 -1.4 -1.0
0000d0 9a 99 19 bf cc cc 4c be d0 cc 4c 3e 9a 99 19 3f
       -0.6 -0.19999999 0.20000005 0.6
0000e0 00 00 80 3f 34 33 b3 3f 66 66 e6 3f cd cc 0c 40
       1.0 1.4000001 1.8 2.2
0000f0 cd cc 0c c0 66 66 e6 bf 33 33 b3 bf 00 00 80 bf
       -2.2 -1.8 -1.4 -1.0
000100 9a 99 19 bf cc cc 4c be d0 cc 4c 3e 9a 99 19 3f
       -0.6 -0.19999999 0.20000005 0.6
000110 00 00 80 3f 34 33 b3 3f 66 66 e6 3f cd cc 0c 40
       1.0 1.4000001 1.8 2.2
000120 cd cc 0c c0 66 66 e6 bf 33 33 b3 bf 00 00 80 bf
       -2.2 -1.8 -1.4 -1.0
000130 9a 99 19 bf cc cc 4c be d0 cc 4c 3e 9a 99 19 3f
       -0.6 -0.19999999 0.20000005 0.6
000140 00 00 80 3f 34 33 b3 3f 66 66 e6 3f cd cc 0c 40
       1.0 1.4000001 1.8 2.2
000150 cd cc 0c c0 66 66 e6 bf 33 33 b3 bf 00 00 80 bf
       -2.2 -1.8 -1.4 -1.0
000160 9a 99 19 bf cc cc 4c be d0 cc 4c 3e 9a 99 19 3f
       -0.6 -0.19999999 0.20000005 0.6
000170 00 00 80 3f 34 33 b3 3f 66 66 e6 3f cd cc 0c 40
       1.0 1.4000001 1.8 2.2

blocks.0.to_kv.base_weight f4 [256, 8]
000000 81 05 57 bd 6d 87 ae bd 4a 80 eb 3e 40 23 dc 3e
       -0.052495483 -0.08521924 0.45996314 0.42995644
000010 99 ba fb bc 04 6f 61 be 37 a2 b4 be fd 99 bb bd
       -0.030728625 -0.22015005 -0.3528001 -0.0916023
000020 75 20 cd be dd bb 06 bf 8c d6 4d bf c6 9f c8 bd
       -0.40063825 -0.52630407 -0.804055 -0.09796099
000030 30 66 e1 bd 53 c8 58 be 58 16 0e 3f c7 d7 40 3e
       -0.11005819 -0.21170168 0.55502844 0.18832313
000040 ab 28 96 bd f6 dd 61 bd 20 6d 3e 3f 58 18 39 be
       -0.073319755 -0.05514332 0.7438526 -0.18075693
000050 2f cb 7a bd 1b 46 65 bc c5 4f 05 3e 0c 5c 8f 3e
       -0.061228927 -0.013993765 0.13018711 0.27999914
000060 56 af 5a 3e 8b 20 0c 3d 36 33 3a bd 17 d3 19 be
       0.21355948 0.034210723 -0.045458995 -0.1502193
000070 31 a2 c0 3e 45 e9 9e 3e be f9 c1 be 67 9e 83 bd
       0.37623742 0.31037346 -0.3788585 -0.06426697
000080 9e e0 cf be 1f 40 9f be 95 e6 66 3e 9b 14 61 be
       -0.40601057 -0.31103608 0.22548898 -0.21980517
000090 47 25 18 3b 1b dd 0a 3d 95 41 6b 3e 8d 22 1c bd
       0.0023215578 0.03390227 0.22974236 -0.038118888
0000a0 40 52 b0 bd 5d 93 d5 be d7 8c 5a be a9 3c f9 bd
       -0.08609438 -0.41713992 -0.21342789 -0.12169773
0000b0 2b 9c 11 be 1b 97 91 be 56 42 d6 3e 8a fa a7 3e
       -0.1421973 -0.28435597 0.41847485 0.32808334
0000c0 45 38 e4 be 82 0a 22 bb 9c f8 19 bf 19 47 e2 be
       -0.4457418 -0.0024725501 -0.6014497 -0.44194868
0000d0 81 58 b2 3d 59 06 cf 3d 95 1b 5c 3e 62 6e 8c be
       0.08708287 0.101086326 0.21494897 -0.27427965
0000e0 83 0c 0d be 3b 86 33 bf e7 fa 28 bf bc f7 5d 3b
       -0.13774304 -0.70126694 -0.66007847 0.0033869585
0000f0 e6 3f a0 3e 68 4e 83 bd 03 76 6f 3e 93 80 7a 3e
       0.3129875 -0.06411439 0.23384862 0.2446311
000100 78 69 f7 bd ae 13 0e bf 34 e2 4e 3f ce d5 dc 3e
       -0.120806634 -0.5549878 0.8081391 0.4313187
000110 50 97 27 be 72 6d d9 3d 0b 59 78 3d 4c 1e a3 3e
       -0.16366315 0.10616578 0.060631793 0.31859052
000120 f1 33 d9 3d 0b 10 d3 be e4 c2 1c bf 6a 93 ce ba
       0.1060561 -0.41223177 -0.6123488 -0.0015760486
000130 7c aa 46 3e 97 7c b4 be 04 0c 89 3e 3a f8 b4 3e
       0.19400972 -0.35251305 0.2676698 0.35345632
000140 e3 be 60 3d 72 ac 02 3f 68 8a 33 bd 81 0b de 3d
       0.054869544 0.5104438 -0.043833166 0.10842038
000150 c3 3d 2f be cc ef 84 3e 6f 18 ee be 27 db e1 be
       -0.17113404 0.259642 -0.46503016 -0.44112512
000160 03 d4 65 be b7 b3 12 bf 30 66 90 be 97 34 e5 3c
       -0.22444157 -0.57305473 -0.28202963 0.027979178
000170 cf 32 6d bd 41 7b 40 3e 89 63 ba bc 2e e4 e0 3e
       -0.057909783 0.18797018 -0.02275254 0.43924087
000180 37 72 06 be 60 67 00 3f 1f 08 0b 3f be 6e 7d be
       -0.13129507 0.5015774 0.54309267 -0.24749276
000190 4d e3 6a 3e 09 b3 cc bd e5 19 11 bd 0b 00 b6 bd
       0.22938271 -0.09995086 -0.035425086 -0.08886727
0001a0 8b e6 2d be c9 0c 79 be 15 ff 5f 3d 06 8a 0a bf
       -0.16982476 -0.24321283 0.054686625 -0.5411686
0001b0 03 cf 33 3d e7 14 b7 3e 27 95 05 3e fa 52 51 be
       0.043898594 0.35758135 0.13045178 -0.2044181
0001c0 78 cd d6 3e 79 a5 97 3d fe 57 f6 be 6f 18 04 be
       0.41953635 0.07404608 -0.48114008 -0.12899946
0001d0 08 a2 d9 3e be 98 26 be 0e d8 ef bd 59 c3 fe 3e
       0.42506433 -0.16269204 -0.11711131 0.49758413
0001e0 cc 44 91 3c d0 ce 98 3e 82 da 8c 3e 31 96 10 3e
       0.017733 0.29845285 0.27510458 0.14119793
0001f0 a1 df 07 be 73 0e 5f 3d 0c 89 73 3e dd 34 c4 bd
       -0.13268901 0.05445714 0.23782748 -0.09580395
000200 d1 49 57 be d5 7e 46 be cc 12 b7 be a7 85 71 be
       -0.21024252 -0.1938432 -0.35756528 -0.2358614
000210 47 60 1a 3e bb c2 15 3e 50 89 9c bd 1f 1b 01 3d
       0.1507579 0.14625065 -0.07643378 0.031520005
000220 4f 9a d3 be ca a9 83 3e 1f a4 48 be 00 e2 05 bf
       -0.41328666 0.25715476 -0.19593857 -0.52297974
000230 fa 57 3e be 84 ec 48 be 76 79 76 be 4b 58 b3 3e
       -0.18588248 -0.19621474 -0.24069771 0.350283
000240 c1 7a ed 3d e0 e0 73 bd 91 7b 33 3f b5 78 98 3c
       0.11595679 -0.05954063 0.7011042 0.018612245
000250 73 1c f3 3d 3c ff 89 3e 4b 73 ae 3d 10 cf ad be
       0.11870661 0.2695254 0.08518084 -0.3394704
000260 f2 31 01 be 7b 1e cc 3e 20 13 63 3e 97 b8 09 3d
       -0.12616709 0.39867005 0.22175264 0.033623304
000270 01 43 84 3d 0a 95 42 3d ae 41 36 be bc 64 d1 be
       0.064580925 0.047505416 -0.17798492 -0.40897167
000280 29 ae da bd f4 d4 ab bc af 81 00 bf 89 02 33 3e
       -0.1067775 -0.020975567 -0.5019788 0.17481436
000290 7a 2a 50 3e e8 0e ca bd 82 72 a0 3c 40 e5 30 3e
       0.20328704 -0.098661244 0.019585852 0.17274952
0002a0 b0 0a 22 be bd c1 23 bf c9 46 1f 3f b2 ce 4a 3c
       -0.1582439 -0.63967496 0.62217385 0.012378382
0002b0 c8 28 1b be d8 a1 fe bd f2 59 6b 3e ed 79 5a 3e
       -0.15152276 -0.12433213 0.2298353 0.21335573
0002c0 f2 5f d2 3e 50 1c 7b 3e 8d cb fc 3e 4a cf 4e 3e
       0.41088825 0.24522519 0.49374047 0.20196262
0002d0 91 1b 26 3e fe 99 11 bd cb d1 54 be fa c2 9b bd
       0.16221453 -0.03554725 -0.20783155 -0.07605548
0002e0 15 6f 31 3d d4 d8 77 3e ca 21 68 be 79 b7 d2 bd
       0.043318827 0.24203807 -0.2266914 -0.10288901
0002f0 69 a3 ee 3e 16 2c 23 be 20 cf 9d be 2a 8e 9d be
       0.46609047 -0.15934786 -0.30822086 -0.30772525
000300 8b 18 fa 3e 0a 56 35 3e 7a 74 f3 3d 3e b7 ac 3e
       0.4884685 0.17708603 0.118874505 0.33733553
000310 c3 b9 2c be 10 e1 4a be 86 d4 20 bd 53 12 0c 3e
       -0.16867737 -0.19812417 -0.03926518 0.13678865
000320 02 8b 02 3e 66 60 12 3f eb 13 25 3e a4 16 3e 3d
       0.1274834 0.5717834 0.1612088 0.04640831
000330 b2 e4 7c bd 0e 63 1e be 18 16 e3 be d7 e2 df be
       -0.06174154 -0.15467474 -0.44352794 -0.43727753
000340 49 87 67 3d 76 00 ed 3e bb cb 95 3e e2 81 01 3e
       0.056525502 0.46289414 0.29256997 0.12647203
000350 c8 dc 97 3e 41 70 7c bd ca d6 5f 3d cd 19 53 be
       0.2966063 -0.06163049 0.0546482 -0.20615311
000360 0d 79 ea bd 71 c2 fa be 29 8c 66 bf 84 28 e9 be
       -0.1144887 -0.48976472 -0.9005762 -0.45538723
000370 24 ef 95 bd 45 f8 15 bc 3d 16 34 be b8 c6 b2 3e
       -0.07321003 -0.00915343 -0.17586608 0.34917235
000380 2e d6 f1 bd 9d a7 46 3f 72 dd eb be 8a 07 0a 3e
       -0.1180843 0.7759951 -0.46067387 0.13479438
000390 5b e2 cf bd 47 55 4f be 7c 5d 0f bf 20 42 09 bf
       -0.10150596 -0.20247374 -0.5600202 -0.53616524
0003a0 30 68 0d bf 9a 73 9e bd 9c 5f 3a 3f 4e 00 bb 3d
       -0.552371 -0.07736893 0.7280214 0.091309175
0003b0 a7 da 91 3b 5c c2 23 3e a3 ff 65 be 55 7d 83 be
       0.004451114 0.15992111 -0.22460799 -0.25681558
0003c0 2b 36 bc be 35 85 c4 be 02 b8 fb bd 66 a1 a7 be
       -0.36760077 -0.3838288 -0.12290956 -0.32740325
0003d0 90 7c a7 be db 10 bd 3d ed f5 be 3c 82 1c 78 3e
       -0.3271222 0.092317306 0.023310626 0.24229625
0003e0 3d 06 19 be 2f d0 f1 3e b7 08 2f bf 48 0d 89 bd
       -0.14943786 0.47229144 -0.6837267 -0.06691986
0003f0 a5 7c ec 3e 29 e8 ca bd 81 ad ad be 42 90 9f be
       0.46188846 -0.09907562 -0.33921435 -0.31164747
