weights/flash_vanilla_vit_8epochs.pth (torch, 38339 bytes, 11 tensors)

v_class f4 [1, 8]
0	0x3cf4533e	0.02982485
1	0xbf0f9fe3	-0.5610334
2	0x3f276a97	0.6539702
3	0xbceebb33	-0.029141998
4	0x3f1460d8	0.5796027
5	0xbf2605bc	-0.648525
6	0x3f6a0732	0.9141723
7	0x3dd960a1	0.106141336

linear_mapper.weight f4 [8, 16]
0	0x3f001bc4	0.50042367
1	0xbe8aece8	-0.2713387
2	0xbea9f6d1	-0.33196118
3	0xbdd07d14	-0.10180107
4	0xbe545fc1	-0.20739652
5	0x3e73547d	0.23762698
6	0xbc3fbc48	-0.011702605
7	0x3e42e46c	0.19032449
8	0x3b014b22	0.001972862
9	0xbe2afdfe	-0.16698453
10	0x3e710ea1	0.23540737
11	0x3dda2c50	0.10652983
12	0x3e97788d	0.2958416
13	0x3bea23f1	0.007145398
14	0x3d9d6025	0.07684354
15	0x3e8dd46d	0.2770113
16	0xbf24e70c	-0.6441505
17	0xbeece425	-0.4626781
18	0xbeda5482	-0.426426
19	0xbe7c269a	-0.246241
20	0xbe3b5907	-0.1829568
21	0xbe31112f	-0.17291711
22	0xbe1391ae	-0.14411041
23	0x3e16b541	0.1471758
24	0xbdcc5f23	-0.099790834
25	0xbde76e4f	-0.113003366
26	0xbe2b5aac	-0.16733807
27	0xbe111de7	-0.14171563
28	0x3ce6cfe5	0.028175304
29	0xbe45f496	-0.19331583
30	0x3d707296	0.058703028
31	0x3d6c55df	0.05769908
32	0xbc607615	-0.013700028
33	0x3eb6d166	0.35706633
34	0x3e1e4bcc	0.15458602
35	0x3e5ab304	0.21357352
36	0x3d32ab5e	0.04362046
37	0x3e124cba	0.14287081
38	0xba85cbdd	-0.0010207851
39	0xbdadf06d	-0.08493123
40	0x3d137077	0.035995927
41	0x3d78ade5	0.060712714
42	0xb8a580cf	-7.8918056e-05
43	0x3e57bae2	0.21067384
44	0x3e6ff108	0.2343179
45	0x3ed7e2ac	0.42165124
46	0x3ebdee33	0.37095794
47	0x3d550b69	0.052012835
48	0x3e6d0de5	0.23149832
49	0x3e6f9031	0.23394848
50	0xbb13b786	-0.0022539808
51	0x3e687cfe	0.2270393
52	0xbe942e9c	-0.2894181
53	0x3e5d6a21	0.21622516
54	0x3d0169da	0.03159509
55	0x3e053d80	0.13011742
56	0x3d8d2907	0.06892591
57	0x3d811092	0.06301989
58	0x3e249b4c	0.16074866
59	0xbde9d8a5	-0.11418275
60	0xbd3a7035	-0.045517165
61	0x3d04fec6	0.032469533
62	0x3e3eb318	0.18623006
63	0x3dac91fc	0.08426282
64	0x3dd1a51a	0.10236569
65	0x3d81f6c8	0.06345898
66	0x3eaff47e	0.3436622
67	0x3e4aedc8	0.19817269
68	0xbe7f5e2d	-0.24938269
69	0xbe8b1f12	-0.27172142
70	0x3e8b92df	0.2726049
71	0x3e7038b0	0.23459125
72	0x3d6d3df0	0.057920396
73	0xbedc6773	-0.43047675
74	0xbeaa6f86	-0.3328821
75	0xbeb0cd1d	-0.3453149
76	0xbd8dd1fc	-0.06924817
77	0x3d1e4876	0.038643323
78	0x3df212fd	0.11820028
79	0xbc36f21e	-0.011166124
80	0xbf9aa1ea	-1.2080662
81	0xbe94fa8d	-0.29097405
82	0x3ddf3217	0.10898226
83	0xbca49017	-0.020088239
84	0xbeb7ef4a	-0.3592475
85	0xbcdb013d	-0.026733989
86	0x3e146f9b	0.14495699
87	0xbebafe1b	-0.36521992
88	0xbe078bab	-0.13236873
89	0x3e740bd1	0.23832633
90	0x3e3e3ccb	0.18577878
91	0xbd287786	-0.04112961
92	0x3b2372ce	0.0024940255
93	0x3eb697ae	0.35662597
94	0x3d47a4b5	0.04874106
95	0x3de126a9	0.10993702
96	0x3ec2c333	0.3803955
97	0xbcd37f07	-0.025817407
98	0xbe30d51d	-0.17268796
99	0xbe46fc9a	-0.19432297
100	0x3d8eb3c7	0.069678836
101	0xbdda33f1	-0.10654438
102	0xbe4e4e45	-0.20147045
103	0xbe479dc2	-0.19493774
104	0x3dbe4e2d	0.092922546
105	0xbeaa7581	-0.33292773
106	0xbed21538	-0.41031814
107	0xbe83f91b	-0.2577599
108	0xbd39f9bb	-0.045404177
109	0xbe51bb37	-0.20481573
110	0x3e430ce1	0.19047882
111	0xbe30573a	-0.17220774
112	0xbdb730f9	-0.08944888
113	0x3d86ca2d	0.06581531
114	0xbe0139d5	-0.12619717
115	0xbdd2b30b	-0.10288056
116	0x3f069d59	0.52583843
117	0xbe3ef712	-0.18648937
118	0xbe6c8d4d	-0.23100777
119	0xbe6be4e0	-0.23036528
120	0x3f168812	0.58801377
121	0x3e2a7827	0.16647397
122	0xbd700d0e	-0.0586062
123	0xbea9d623	-0.33171186
124	0x3ec634b5	0.38712087
125	0x3e448e26	0.1919485
126	0xbe34b1d9	-0.17645968
127	0xbf85d6d2	-1.0456183

linear_mapper.bias f4 [8]
0	0x3e872db2	0.2640205
1	0xbdeba5b9	-0.115062185
2	0x3d676261	0.056490306
3	0xbe9be2ee	-0.3044657
4	0xbe1e116a	-0.1543633
5	0xbe205342	-0.1565676
6	0x3cfe11e7	0.031014396
7	0xbe7cbeb4	-0.24682122

blocks.0.to_q.weight f4 [128, 8]
0	0xbea3a3e4	-0.31960976
1	0xbdca118f	-0.0986663
2	0x3ed3584e	0.4127831
3	0x3e58cdf8	0.21172321
4	0x3e805612	0.25065666
5	0xbe933431	-0.28750756
6	0x3ce35d9b	0.027754596
7	0xbdf41d66	-0.1191967
8	0x3de8345d	0.113381125
9	0xbdacafd3	-0.08431973
10	0x3e63bbf0	0.22239661
11	0xbe56e4c3	-0.20985703
12	0x3e50a64f	0.20375942
13	0x3e37a308	0.17933285
14	0x3dde312a	0.10849221
15	0xbe3e0f0a	-0.18560424
16	0x3ed81978	0.4220693
17	0xbdd0bdd2	-0.10192455
18	0xbe9d9f72	-0.3078571
19	0xbef67bf4	-0.48141444
20	0x3e769f70	0.24084258
21	0xbdaec24c	-0.08533153
22	0xbe83d008	-0.25744653
23	0x3e27fa0b	0.16403978
24	0x3ef2795e	0.4735822
25	0xbe778812	-0.24173
26	0xbf0f240b	-0.5591437
27	0xbd895839	-0.0670628
28	0x3e6c1365	0.23054273
29	0xbe0a7654	-0.13521701
30	0xbe9d1f1b	-0.30687794
31	0xbe7cd8c6	-0.24692068
32	0xbf053640	-0.52035904
33	0xbc4d3b85	-0.012526398
34	0x3efecff5	0.49768034
35	0xbeb816b0	-0.3595481
36	0x3cdd54ee	0.027018037
37	0x3e51353e	0.20430467
38	0x3da4c163	0.08044698
39	0xbcd4e3b0	-0.025987476
40	0x3ea7b47a	0.3275488
41	0x3eacea9f	0.33772752
42	0x3ba92712	0.0051621282
43	0x3b936122	0.004497663
44	0xbd93e977	-0.07222264
45	0x3c22d800	0.009939194
46	0x3d210689	0.039312873
47	0xbe129b8e	-0.14317152
48	0x3ec743be	0.3891887
49	0x3ed10238	0.40822005
50	0xbe4a27c0	-0.19741726
51	0xbb975458	-0.004618209
52	0xbc8172db	-0.015801838
53	0xbc0debe2	-0.008662196
54	0x3dd29582	0.102824226
55	0x3d74e57c	0.059789166
56	0xbd466cb9	-0.04844353
57	0xbed23c9f	-0.41061875
58	0x3e3e7b88	0.18601811
59	0x3dbedb49	0.09319169
60	0xbbf94c06	-0.0076079397
61	0xbdaa183b	-0.08305403
62	0xbedeae60	-0.43492413
63	0xbe8cc6e4	-0.27495492
64	0xbee7a234	-0.4524094
65	0x3e8628cf	0.2620301
66	0x3f032339	0.5122562
67	0x3e47cba9	0.19511284
68	0xbf0e074e	-0.55479896
69	0xbe6ee65b	-0.23330061
70	0xbdd1a973	-0.10237398
71	0x3ebb7f5a	0.366206
72	0xbe8543ec	-0.26028383
73	0x3efa6906	0.48908252
74	0x3f370329	0.71489197
75	0x3e2dae9b	0.16961138
76	0xbdb9436d	-0.090460636
77	0x3ebc88d4	0.36823142
78	0x3e4c0ee6	0.19927558
79	0x3e62f933	0.22165374
80	0xbf1b63b1	-0.6069899
81	0x3e47cd94	0.19512016
82	0x3efcc7a6	0.4937107
83	0x3db6b1a9	0.08920605
84	0xbe987245	-0.2977468
85	0xbec69cfb	-0.38791642
86	0xbe7f1213	-0.24909239
87	0x3e99a382	0.3000756
88	0x3e429663	0.1900268
89	0x3f3758da	0.7161995
90	0x3e55df9d	0.20886083
91	0x3e999731	0.29998162
92	0x3da387f7	0.079849176
93	0xbe59da37	-0.21274649
94	0xbcfb31a4	-0.030663319
95	0xbe832cb3	-0.2562004
96	0x3ef98694	0.48735487
97	0xbe0cf30e	-0.13764593
98	0xbf05dc95	-0.52289706
99	0xbe93545b	-0.28775296
100	0xbe3ce40a	-0.18446365
101	0xbed783eb	-0.42092833
102	0xbe8355ee	-0.25651497
103	0xbd8a1f8b	-0.067442976
104	0xbe96e250	-0.29469538
105	0x3e9d63f1	0.30740312
106	0x3cc9ce64	0.024634548
107	0xbe80b2b4	-0.2513634
108	0xbd8eefbf	-0.06979322
109	0xbe5cd38b	-0.21565072
110	0xbc680674	-0.014161695
111	0xbea8a9a6	-0.3294193
112	0xbe1c4c33	-0.15263443
113	0xbe37c61f	-0.17946671
114	0x3f2a5869	0.66541153
115	0x3e51c074	0.20483571
116	0x3e049dba	0.12950793
117	0xbd2b6d75	-0.041852433
118	0x3d69e430	0.057102382
119	0x3c90d249	0.017678397
120	0xbf07a066	-0.52979124
121	0x3e7a9536	0.24470982
122	0x3e284571	0.1643274
123	0x3e2e851f	0.17042969
124	0xbe46f85d	-0.1943068
125	0xbe1b6614	-0.15175658
126	0x3e55fe03	0.20897679
127	0xbe42e424	-0.19032341
128	0xbf32631f	-0.69682497
129	0x3e930f3e	0.28722566
130	0x3f91a0a7	1.1377152
131	0x3e7b30f4	0.24530393
132	0xbd223e4e	-0.0396102
133	0x3f2e0543	0.6797678
134	0x3e995a9f	0.2995195
135	0x3e8d046b	0.27542433
136	0xbef72196	-0.48267812
137	0xbe4988a9	-0.19681038
138	0x3ee8964f	0.45427176
139	0xbd808ccf	-0.06276857
140	0xbdc252c1	-0.0948844
141	0x3cdcf4e4	0.026972242
142	0xbe633a48	-0.22190201
143	0x3f04a6c3	0.5181696
144	0x3ee5ea47	0.44905302
145	0x3d3bc1d0	0.04583913
146	0xbdf58f9e	-0.119902834
147	0xbd3474fd	-0.04405688
148	0xbe77c97b	-0.24197952
149	0xbe8e6752	-0.27813202
150	0x3e301e8a	0.1719915
151	0xbe25ef97	-0.16204678
152	0xbf0651aa	-0.5246836
153	0xbe2a6150	-0.16638684
154	0x3e2aebe6	0.1669155
155	0xbd0df5a4	-0.03465809
156	0x3dbc3a23	0.09190776
157	0xbd14525e	-0.036211364
158	0x3d82bea2	0.063840166
159	0x3c4379c4	0.011930887
160	0xbf04c31e	-0.51860225
161	0x3e9363ac	0.2878698
162	0x3d69a3b7	0.057040896
163	0x3d875e2f	0.06609761
164	0xbe0cef1b	-0.13763086
165	0xbc005024	-0.007831607
166	0x3ec23035	0.37927404
167	0x3e42b49f	0.19014214
168	0xbe1c48e9	-0.15262188
169	0xbd31030f	-0.043215808
170	0x3e7a54e7	0.2444645
171	0x3dba32ff	0.09091758
172	0x3e2ebc75	0.17064078
173	0x3eaa1011	0.33215383
174	0xbddf7e16	-0.10912721
175	0x3d757717	0.059928026
176	0x3be6e31e	0.0070461174
177	0x3dc5acb6	0.096520826
178	0x3d1eedbf	0.03880095
179	0x3e690a36	0.22757801
180	0xbe38d0e3	-0.18048434
181	0xbe4d3e4c	-0.20043296
182	0xbe9396c3	-0.2882596
183	0xbead93de	-0.33901876
184	0xbe331f6a	-0.17492452
185	0x3db4b861	0.0882423
186	0x3e87e04e	0.26538318
187	0x3e0a799f	0.13522957
188	0xbeb7de3c	-0.3591174
189	0xbe801644	-0.25016987
190	0x3e25dd08	0.16197598
191	0xbe8500a0	-0.2597704
192	0xbe87d94e	-0.26532978
193	0x3f219ed6	0.6313299
194	0xbe2f4b04	-0.1711846
195	0x3e9f3d5b	0.31101498
196	0x3de8ea2f	0.11372792
197	0xbe10b85a	-0.14132825
198	0x3efa662e	0.48906082
199	0xbe6de92a	-0.23233476
200	0xbec8d85c	-0.3922757
201	0xbe30bd95	-0.1725982
202	0x3e967667	0.2938721
203	0xbe7b77f1	-0.24557473
204	0xbef913b3	-0.48647842
205	0xbce98f06	-0.028510582
206	0xb9930361	-0.00028040542
207	0x3de62e12	0.11239256
208	0x3f0496c5	0.51792556
209	0x3e27b3c5	0.1637717
210	0xbf1a25f6	-0.60214174
211	0x3d607b65	0.05480518
212	0x3e5e183f	0.21688937
213	0xbc9c489b	-0.01907759
214	0xbe8426ca	-0.25810844
215	0x3e9081c7	0.28224012
216	0x3f0659e4	0.5248091
217	0xbeed7dd3	-0.4638506
218	0xbf9cde74	-1.2255387
219	0xbe5e0899	-0.21682967
220	0x3dd5315e	0.10409807
221	0xbe82f3ed	-0.25576726
222	0xbd79ed9c	-0.061017618
223	0xbf292096	-0.6606535
224	0xbe851bab	-0.2599767
225	0x3e8808d1	0.26569226
226	0x3eb1c289	0.3471873
227	0x3eacdb70	0.33761168
228	0xbe59bb7e	-0.21262929
229	0xbcf49d02	-0.029860023
230	0xbdbb28fa	-0.09138675
231	0xbdebbf34	-0.115110785
232	0xbdbdd5d7	-0.09269302
233	0xbe690e3f	-0.2275934
234	0x3ea843b0	0.3286414
235	0xbee1d814	-0.44110167
236	0x3d853ff1	0.065063365
237	0xbe51ab5b	-0.20475523
238	0xbdf3712c	-0.1188682
239	0x3eafaada	0.34310037
240	0xbec9642b	-0.39334235
241	0x3e42adea	0.19011655
242	0xbe264ddc	-0.16240638
243	0x3e2c1c45	0.16807659
244	0x3eb35d98	0.35032344
245	0xbc865f6c	-0.016402923
246	0x3ea865f3	0.3289028
247	0x3d872e20	0.066005945
248	0xbd0ee569	-0.03488675
249	0x3f334d99	0.7004028
250	0x3ed046ec	0.4067911
251	0x3e0b2b11	0.13590647
252	0xbe72637f	-0.23670767
253	0x3e60f569	0.21968617
254	0x3ecf5186	0.40491885
255	0x3dbe936e	0.09305464

blocks.0.to_kv.weight f4 [256, 8]
0	0xbe685205	-0.22687538
1	0x3e71d407	0.23616038
2	0x3e8a358c	0.26993978
3	0x3d355cd8	0.044277996
4	0xbe54c98f	-0.20780014
5	0xbd283c9d	-0.04107343
6	0x3d866703	0.06562617
7	0x3c871e8a	0.016494054
8	0x3d4b0a08	0.049570113
9	0xbe4261db	-0.18982641
10	0x3de3ff7f	0.111327164
11	0xbdc25cb5	-0.09490339
12	0x3e224cfa	0.15849677
13	0x3e64ee18	0.2235645
14	0xbc660c7a	-0.014041061
15	0x3cf41f65	0.029800126
16	0x3e62a3c6	0.22132787
17	0xbeccc2d2	-0.39992386
18	0xbe6cbf27	-0.23119794
19	0xbf0b48ed	-0.5440815
20	0x3db88c22	0.09011103
21	0xbcf5e692	-0.030017171
22	0xbd70b222	-0.05876363
23	0x3ec74317	0.38918373
24	0x3eeeb322	0.46621042
25	0xbee76430	-0.45193624
26	0xbec53fb0	-0.38525152
27	0xbf29c636	-0.6631807
28	0xbe2c5fbc	-0.16833395
29	0xbe641678	-0.22274196
30	0x3d917252	0.07101883
31	0x3c413766	0.011792993
32	0xbecb1db4	-0.396711
33	0x3e50a48f	0.20375274
34	0x3dcffaca	0.10155256
35	0x3f665cbb	0.89985245
36	0xbe43e6d0	-0.19131017
37	0xbdb531e9	-0.0884741
38	0x3dc8c717	0.098035984
39	0xbd4136d5	-0.047171433
40	0x3ec0d018	0.37658763
41	0x3e2933ec	0.16523713
42	0x3e1c8088	0.15283406
43	0xbf6c3c3e	-0.9227942
44	0x3e849657	0.2589595
45	0x3eef6719	0.46758345
46	0xbe21919f	-0.15778206
47	0x3e92b65a	0.28654748
48	0x3eac96a5	0.33708683
49	0x3d377f63	0.04479922
50	0xbe007f16	-0.1254848
51	0xbf8b0ff0	-1.0864239
52	0xbe5b6397	-0.2142471
53	0x3e64dac5	0.22349079
54	0x3ce54949	0.027989047
55	0xbec2390e	-0.37934154
56	0x3dab43af	0.08362519
57	0xbe6cd230	-0.23127055
58	0x3e3d7680	0.18502235
59	0x3e992914	0.29914153
60	0x3e4599c0	0.19296932
61	0xbe1f6707	-0.15566646
62	0x3ed90360	0.42385387
63	0x3ea22ef3	0.31676444
64	0xbe5ad5d4	-0.21370631
65	0x3ef8f09c	0.4862107
66	0x3eee3e90	0.46532106
67	0x3e9bac34	0.30404818
68	0xbd8a52a8	-0.06754047
69	0x3ef65aac	0.48116052
70	0x3c97eef8	0.018546566
71	0x3e53cefa	0.20684424
72	0xbea4e437	-0.32205364
73	0x3e685c22	0.22691396
74	0x3e8a5392	0.27016884
75	0x3e89487f	0.26813123
76	0x3e3216bf	0.1739149
77	0x3e780861	0.24221946
78	0xbed65a7f	-0.41865918
79	0xbe46df0a	-0.1942102
80	0xbed50cfc	-0.4161147
81	0x3ee32fb5	0.44372335
82	0x3dc94e4f	0.09829389
83	0x3e41ecda	0.18938008
84	0xbd5d3c4c	-0.05401258
85	0x3e25dc19	0.16197242
86	0xbde970e9	-0.11398489
87	0x3e9eb8b6	0.31000298
88	0x3d760b67	0.060069468
89	0x3ed4e35e	0.41579717
90	0xbd158683	-0.036505233
91	0xbf8b39dd	-1.0877033
92	0x3dd8ae95	0.10580174
93	0x3f15cadb	0.5851266
94	0xbe9f0feb	-0.31066832
95	0xbebdbfed	-0.3706049
96	0x3ee9e594	0.45682967
97	0x3e010c83	0.12602429
98	0xbeacc71a	-0.33745652
99	0xbe1a96d3	-0.15096597
100	0x3c306ed6	0.010768613
101	0xbeaf7faf	-0.34277102
102	0x3e0dea82	0.13858989
103	0x3e664b61	0.22489692
104	0x3d1410e6	0.036148928
105	0x3e54719e	0.20746467
106	0xbeca4494	-0.39505446
107	0xbea92a5a	-0.33040124
108	0x3e90cc8e	0.28281063
109	0x3ea41350	0.32045984
110	0xbc2912cf	-0.010319426
111	0x3db37417	0.08762377
112	0xbe9bace6	-0.3040535
113	0x3d961131	0.07327498
114	0x3e5b8eff	0.21441267
115	0x3d523121	0.051316384
116	0xbeb01677	-0.3439214
117	0x3e319962	0.17343667
118	0x3e10168f	0.14071105
119	0xbecabc65	-0.3959686
120	0x3e0611e3	0.1309276
121	0x3eb4478b	0.35210833
122	0x3ea64679	0.3247564
123	0xbe7172e6	-0.23578987
124	0x3e94c5bb	0.29057106
125	0x3ccb5286	0.024819624
126	0x3e043207	0.12909709
127	0x3e27f86f	0.16403364
128	0xbedee6de	-0.43535513
129	0x3b8b217e	0.004245936
130	0x3eb1455f	0.34623238
131	0x3ee8d65c	0.45476043
132	0xbe9a6672	-0.30156285
133	0x3c9ea163	0.019364065
134	0xbe207704	-0.15670401
135	0xbdce1de2	-0.100642934
136	0xbe8af137	-0.27137157
137	0x3e5f666f	0.21816419
138	0x3f26c455	0.6514333
139	0x3ee0dc50	0.43918085
140	0xbda48dd9	-0.08034868
141	0x3d8194a4	0.06327179
142	0x3dcf0bbd	0.10109661
143	0x3e7fd205	0.2498246
144	0x3e58550a	0.2112619
145	0xbdffecd9	-0.12496347
146	0x3e3a1d27	0.18175183
147	0xbf0eba97	-0.55753464
148	0xbcf0e006	-0.029403698
149	0x3d1b8e5d	0.037977565
150	0xbe37509f	-0.17901848
151	0x3e03b74b	0.1286289
152	0xbe6964a8	-0.22792304
153	0x3e713f54	0.23559314
154	0x3eb1aa2f	0.34700152
155	0x3eaef0ba	0.34168035
156	0xbf04370d	-0.516465
157	0xbeb11e3d	-0.34593382
158	0xbdaf7781	-0.085677154
159	0x3e06eebe	0.1317701
160	0xbed50193	-0.41602764
161	0x3ed108fd	0.4082717
162	0xbe202ce6	-0.15642127
163	0x3e9f7c09	0.3114932
164	0x3e9d619e	0.30738539
165	0x3e936016	0.28784245
166	0xbec866bb	-0.39140877
167	0x3dc30e60	0.09524226
168	0xbd5636df	-0.052298423
169	0x3d812640	0.06306124
170	0x3ec90917	0.39264748
171	0x3e9412dc	0.2892064
172	0xbd8c0d96	-0.06838529
173	0xbd95a2f7	-0.07306474
174	0x3dc63f5d	0.09680054
175	0x3dc4706d	0.09591756
176	0x3d056975	0.032571275
177	0xbd81611d	-0.06317351
178	0xbe9aff55	-0.30272928
179	0xbe2890ed	-0.16461535
180	0xbe6b2fde	-0.22967479
181	0x3d7d3883	0.061821472
182	0x3e2ba12b	0.167607
183	0x3c36fce6	0.011168694
184	0x3d3ecb0c	0.04658036
185	0x3e80f7a0	0.25188923
186	0x3da0f55d	0.07859299
187	0xbeb126f4	-0.3460003
188	0xbdd8ab61	-0.10579563
189	0x3ef4e42e	0.47830337
190	0x3e29d167	0.16583787
191	0x3d3ba973	0.045815896
192	0xbab7c35f	-0.0014020017
193	0x3e8d8c31	0.2764602
194	0xbec33555	-0.38126627
195	0xbf4ee8d6	-0.8082403
196	0x3dda7867	0.10667496
197	0xbbfacb6a	-0.0076536434
198	0xbf0fb15d	-0.5613001
199	0xbf1f86fe	-0.62315357
200	0x3c8a839f	0.016908465
201	0x3eca789d	0.39545146
202	0xbd2cdbbc	-0.042201743
203	0x3f788a5a	0.9708611
204	0xbd1c39c5	-0.03814103
205	0xbd87f309	-0.06638152
206	0x3ec18973	0.37800178
207	0x3ecea415	0.4035956
208	0x3f0cda82	0.55020916
209	0xbed07009	-0.40710476
210	0x3d35fe56	0.044432007
211	0xbecd04a4	-0.40042603
212	0x3e8c6ae8	0.27425313
213	0xbf037663	-0.5135252
214	0x3e824ab3	0.25447616
215	0xbec0095a	-0.37507135
216	0x3ee1c060	0.44092083
217	0xbe370a05	-0.17874916
218	0xbf02624f	-0.50931257
219	0xbe87ac4c	-0.2649864
220	0x3cc7aa86	0.024373304
221	0xbeb1eb23	-0.34749708
222	0x3b1591a6	0.002282241
223	0x3e3aa6ca	0.18227687
224	0xbd789465	-0.060688395
225	0x3edafa20	0.42768955
226	0x3e369714	0.17831069
227	0x3ed366f1	0.41289476
228	0x3e556413	0.20838957
229	0x3f2448db	0.6417367
230	0x3ba4f8f7	0.0050345617
231	0xbe0e9d45	-0.13927181
232	0xbe534605	-0.20632179
233	0x3cee62da	0.02909987
234	0x3d495c2a	0.04916016
235	0x3f0a6092	0.54053605
236	0xbe90dd91	-0.28294042
237	0xbe835987	-0.2565424
238	0xbdfde665	-0.1239746
239	0x3d1011fa	0.035173394
240	0xbd8afa0c	-0.06785974
241	0x3daba8be	0.083817944
242	0x3d070859	0.032966945
243	0xbe805a2e	-0.25068802
244	0xbdc81b44	-0.097708255
245	0xbe569fe1	-0.20959426
246	0xbed2a79f	-0.4114351
247	0xbe99f1b0	-0.30067205
248	0xbe8b3aa4	-0.27193177
249	0x3ebc4291	0.36769536
250	0x3e0780ce	0.13232729
251	0xbe018ad6	-0.12650618
252	0xbc8eed72	-0.017447207
253	0x3ed88ec9	0.42296436
254	0xbe6dc44f	-0.23219417
255	0xbf10ea96	-0.5660795

blocks.0.to_out.weight f4 [8, 128]
0	0xbe4f2763	-0.20229869
1	0xbf083f5d	-0.53221685
2	0xbe59838d	-0.21241589
3	0xbe59eb80	-0.21281242
4	0x3e7cc06c	0.24682778
5	0x3e4bd7b5	0.19906504
6	0x3e269559	0.16267909
7	0xbe41fa08	-0.18943036
8	0xbe7ef178	-0.248968
9	0xbef583a7	-0.47952005
10	0x3e0bfd52	0.13670853
11	0x3dea3f8f	0.11437904
12	0x3f166d01	0.58760077
13	0x3d81e8ff	0.063432686
14	0xbf1b8ff5	-0.60766536
15	0x3e36f664	0.17867428
16	0xbd7f6853	-0.06235535
17	0x3e93a960	0.2884016
18	0xbc6d215f	-0.014473288
19	0x3d07a292	0.033114024
20	0x3e65d981	0.22446252
21	0xbe4b49c2	-0.19852355
22	0x3eaf1b3d	0.3420047
23	0x3e1e1bfa	0.1544036
24	0x3ee12484	0.43973172
25	0xbebc1a38	-0.36738753
26	0x3d4eedab	0.050519627
27	0x3da186f2	0.07887067
28	0x3e313034	0.17303544
29	0x3ec14db0	0.37754583
30	0x3de1f492	0.11032976
31	0xbeb27b30	-0.3485961
32	0x3ee347f3	0.4439083
33	0x3d59072f	0.052985366
34	0x3ea00078	0.31250358
35	0x3e67d7b9	0.22640885
36	0xbe0cb878	-0.13742244
37	0xbbe13188	-0.0068723597
38	0x3ea38aba	0.31941777
39	0xbf1399ff	-0.57656854
40	0x3f1a7631	0.60336596
41	0xbe98e93f	-0.29865453
42	0x3e65253f	0.2237749
43	0x3d922be2	0.07137276
44	0xbe15bfdf	-0.14623974
45	0xbdaa255b	-0.08307906
46	0x3d5b8f48	0.05360344
47	0xbdac90c9	-0.08426053
48	0xbeabc85c	-0.335513
49	0xbeb484f4	-0.35257685
50	0xbc910009	-0.017700212
51	0xbd778267	-0.060427096
52	0x3de1e38c	0.11029729
53	0x3e744a83	0.23856549
54	0x3d7399e5	0.059472937
55	0xbdbbaa31	-0.09163321
56	0x3e06c77b	0.13162033
57	0x3db6cbad	0.08925567
58	0xbe015b9d	-0.12632604
59	0xbf58e1be	-0.84719455
60	0xbac3aaaa	-0.0014928181
61	0xbdec5052	-0.115387574
62	0x3ea3836d	0.31936207
63	0xbe8ddc0c	-0.27706945
64	0xbe36704e	-0.17816278
65	0x3da5d1f4	0.08096686
66	0xbdc51a66	-0.09624176
67	0x3d98e41a	0.07465382
68	0xbe717a50	-0.23581815
69	0x3dc25d7f	0.09490489
70	0xbe37caee	-0.17948505
71	0xbe7bb9d3	-0.24582605
72	0x3e07381a	0.13204995
73	0x3e03c213	0.12867002
74	0xbebb4dfe	-0.3658294
75	0x3e304684	0.172144
76	0xbe2203ff	-0.15821837
77	0xbe888fb0	-0.26672125
78	0x3eaf20d4	0.34204733
79	0x3e6b4046	0.22973737
80	0x3e3456df	0.17611264
81	0x3e83fe8c	0.2578014
82	0x3e2c4743	0.16824059
83	0x3ed0029c	0.4062699
84	0x3e9bb11c	0.3040856
85	0xbeab6659	-0.33476523
86	0x3e43f0e9	0.19134869
87	0xbe54649d	-0.20741506
88	0xbe87dbe7	-0.2653496
89	0x3e2498a4	0.16073853
90	0x3e261f9d	0.16222997
91	0xbe80e094	-0.2517134
92	0xbeb039fd	-0.34419242
93	0xbe3ef8da	-0.18649617
94	0xbeaf1e7a	-0.3420294
95	0xbd3e376f	-0.046439584
96	0x3d05e280	0.03268671
97	0xbdd47bb5	-0.10375158
98	0x3d522731	0.051306907
99	0xbe882f8d	-0.26598778
100	0xbe7399b8	-0.23789108
101	0x3e1f365a	0.15548077
102	0x3e3e2615	0.18569215
103	0xbe6b2a75	-0.22965415
104	0xbe704fd4	-0.23467952
105	0xbe8504bf	-0.25980183
106	0x3e26e56e	0.16298458
107	0x3e357d67	0.17723618
108	0x3da378c1	0.07982016
109	0xbe7921ee	-0.2432935
110	0xbe9d46d0	-0.30718088
111	0x3e776aab	0.24161784
112	0xbba35a57	-0.0049851346
113	0xbed81f5f	-0.42211434
114	0xbe52f46b	-0.2060105
115	0xbee37984	-0.44428647
116	0xbe55b5f4	-0.20870191
117	0xbe6fa1f2	-0.23401621
118	0xbe5b0f1e	-0.21392485
119	0xbc9f243a	-0.019426454
120	0x3e5a501a	0.21319619
121	0xbea8b51a	-0.3295067
122	0xbdb0be10	-0.086300015
123	0xbd03ac84	-0.032146946
124	0xbe88a8fc	-0.26691425
125	0x3e99dc5e	0.3005094
126	0x3df70084	0.12060645
127	0x3e502e2a	0.2033011
128	0x3e406e92	0.18792179
129	0x3e8f22fa	0.27956372
130	0x3c5bb4d6	0.013409814
131	0x3ef1ed26	0.47251242
132	0xbe0d5d1d	-0.13805051
133	0xbe407be1	-0.18797256
134	0xbc4fad88	-0.01267565
135	0x3c96fd64	0.018431373
136	0x3e8d5be3	0.27609167
137	0x3e149586	0.14510164
138	0xbe3f20ca	-0.18664852
139	0x3dc1126d	0.094273426
140	0xbe8e7318	-0.27822185
141	0xbde7e0f6	-0.11322205
142	0x3ef2f259	0.47450522
143	0xbe073a6c	-0.1320588
144	0x3dd17104	0.10226634
145	0xbe37749a	-0.17915574
146	0xbded6ea8	-0.11593372
147	0xbe9cd907	-0.3063433
148	0xbe7184b8	-0.23585784
149	0x3e1fa35e	0.15589663
150	0xbea2529b	-0.31703648
151	0xbe59357f	-0.21211813
152	0xbe8bb4c7	-0.2728636
153	0x3e8e23f4	0.27761805
154	0x3de82da9	0.11336834
155	0xbd652363	-0.05594195
156	0xbd46d1e3	-0.048540007
157	0xbe85741a	-0.2606514
158	0x3e3396a6	0.17537937
159	0x3e47008a	0.194338
160	0xbeb17dab	-0.3466619
161	0x3e37d0ce	0.17950746
162	0xbc82a2d5	-0.015946785
163	0xbe8c6a42	-0.27424818
164	0x3dd8be7a	0.105832055
165	0xbe9d6c75	-0.3074681
166	0xbe93abc7	-0.28841993
167	0x3f15149c	0.5823457
168	0xbe739e81	-0.23790933
169	0x3d479c62	0.048733123
170	0xbe2e094b	-0.16995732
171	0xbdd0d67b	-0.10197159
172	0x3b10fc2e	0.0022122967
173	0xbe85ac59	-0.26108053
174	0x3c991820	0.018688262
175	0x3d894e0e	0.06704341
176	0x3e98912f	0.29798266
177	0x3e918fe9	0.28430107
178	0x3e05fcea	0.1308476
179	0x3dba710c	0.09103593
180	0xbd32999a	-0.043603517
181	0xbe61d321	-0.22053196
182	0x3ca9f3ee	0.020746198
183	0x3d06f161	0.03294504
184	0xbe292020	-0.16516161
185	0xbe2f8975	-0.1714228
186	0xbd833b9f	-0.06407856
187	0x3ef12552	0.47098786
188	0x3d61fa3e	0.05517029
189	0x3d0f2cde	0.034954898
190	0x3ebd388c	0.36957204
191	0xbe9d0428	-0.30667233
192	0x3da186d8	0.078870475
193	0xbe04be56	-0.12963232
194	0xbd8e69c1	-0.06953765
195	0xbd3a74d5	-0.045521576
196	0xbe06528b	-0.13117425
197	0xbd9679aa	-0.07347424
198	0x3d82da40	0.06389284
199	0xbe11d7f1	-0.14242531
200	0x3e4f65cb	0.20253675
201	0xbdb465b5	-0.088084616
202	0xbd886833	-0.066604994
203	0x3b4f3fa8	0.0031623635
204	0x3d94c3bd	0.072638966
205	0x3bb339df	0.0054695453
206	0xbddad5f3	-0.10685339
207	0xbcba79d3	-0.022763168
208	0xbdbcccd8	-0.09218758
209	0xbc7a795f	-0.015287726
210	0xbdd2ebac	-0.10298857
211	0xbc2b978c	-0.010473143
212	0x3d4531bd	0.048143137
213	0xbe3eff50	-0.18652081
214	0xbda61cb1	-0.08110941
215	0xbe03331f	-0.1281247
216	0x3dc7db9d	0.09758685
217	0xbd5adc22	-0.05343259
218	0x3d00252a	0.031285442
219	0x3cbddd66	0.02317686
220	0x3d2f9898	0.042870134
221	0x3d44c423	0.048038613
222	0xbd986edc	-0.0744302
223	0x3e1208ce	0.14261171
224	0x3c8fd632	0.017558191
225	0xbc993b09	-0.018704908
226	0xbe652d6d	-0.2238061
227	0x3c8c64d0	0.017137915
228	0x3d747f1f	0.059691545
229	0x3c8743d2	0.016511831
230	0x3d85793a	0.06517263
231	0x3dc10b49	0.094259806
232	0xbdf7b4f7	-0.12095063
233	0xbc91d31d	-0.017800862
234	0x3d54dcc3	0.051968347
235	0xbd616e12	-0.05503661
236	0x3d887e8d	0.06664763
237	0xbd93bfe6	-0.07214336
238	0x3d02aece	0.031904988
239	0xbe412bac	-0.18864316
240	0xbe09e363	-0.13465647
241	0x3b335429	0.0027363396
242	0xbdd24f61	-0.102690466
243	0xbc20e2c1	-0.009819687
244	0x3e10a81f	0.14126633
245	0x3e01ea00	0.1268692
246	0x3d235eaa	0.0398852
247	0xbde0332f	-0.109472625
248	0x3e22b262	0.1588836
249	0xbdaf78f1	-0.085679896
250	0x3b0fc3f6	0.002193687
251	0x3db7d0f0	0.089753985
252	0x3d03004d	0.03198271
253	0x3bbc4e9a	0.0057466747
254	0x3dc3d5e0	0.09562278
255	0xbd17e18d	-0.037080336

blocks.1.to_q.weight f4 [128, 8]
0	0x3e967c73	0.29391822
1	0xbe14f4d7	-0.14546524
2	0xbe150859	-0.14553966
3	0x3df98ce5	0.121850766
4	0xbe1c585e	-0.15268084
5	0xbdf63c36	-0.12023203
6	0x3c0cc404	0.008591656
7	0xbe8cd2f7	-0.27504703
8	0x3eb37d38	0.35056472
9	0xbdd56681	-0.10419942
10	0x3ecd0cf8	0.40048957
11	0x3dd97fbe	0.10620068
12	0xbd8d6732	-0.069044486
13	0x3eb70acf	0.35750434
14	0xbede82ff	-0.43459317
15	0xbe6dd6d3	-0.2322648
16	0x3d2b6037	0.041839805
17	0x3e8f16c2	0.2794705
18	0xbde9e67a	-0.11420913
19	0x3eb4bed5	0.35301843
20	0x3dfeea03	0.12446978
21	0xbf1fd243	-0.6243021
22	0xbc0e36c4	-0.008680049
23	0x3eaf637e	0.34255594
24	0xbd78d1d8	-0.060746998
25	0x3db765ab	0.089549385
26	0xbe73d865	-0.23813017
27	0xbdaf19f8	-0.08549875
28	0xbe48d39c	-0.19611973
29	0x3cb62db1	0.022238584
30	0x3eeed929	0.46650055
31	0x3d36141d	0.044452775
32	0xbe52eb4b	-0.2059757
33	0xbe59411d	-0.21216245
34	0xbea7a270	-0.32741117
35	0xbe4ca452	-0.19984558
36	0x3e2a01f1	0.16602303
37	0xbe561e74	-0.20910054
38	0x3ecccc9f	0.39999864
39	0x3ef23267	0.4730408
40	0x3d1be5fa	0.03806112
41	0xbe28a828	-0.16470397
42	0xbe3f82b3	-0.18702202
43	0xbd863955	-0.06553904
44	0x3df354aa	0.11881383
45	0xbd9ee99e	-0.07759403
46	0x3e2e2ed3	0.1701005
47	0x3f03f659	0.5154777
48	0x3e234030	0.15942454
49	0x3e17df9e	0.14831397
50	0xbdcd42d5	-0.10022513
51	0x3e3756f3	0.17904262
52	0x3d0a770c	0.03380494
53	0x3c8d8535	0.017275432
54	0xbde9a213	-0.11407866
55	0xbeabc5e9	-0.3354943
56	0xbd567666	-0.052359007
57	0x3e4d210a	0.20032135
58	0xbeac4ae0	-0.33650875
59	0xbdc27a0d	-0.094959356
60	0x3e8314ed	0.25601903
61	0x3d3406ae	0.043951683
62	0x3f0f9f5e	0.5610255
63	0x3d66463b	0.05621932
64	0xbe0c7197	-0.13715206
65	0x3eab3cf7	0.3344495
66	0xbe071f70	-0.13195586
67	0xbe500c04	-0.20317084
68	0x3dbdcc57	0.0926749
69	0xbe9afe20	-0.30272007
70	0x3b0006c3	0.001953528
71	0x3d53ba3a	0.05169127
72	0x3dab26fd	0.08357046
73	0xbd1f534a	-0.03889779
74	0xbe0ce0d1	-0.13757636
75	0xbe809799	-0.2511566
76	0xbdac0942	-0.08400203
77	0x3eafb876	0.3432042
78	0x3d80566d	0.062664844
79	0xbee7cdce	-0.45274204
80	0x3e32e3b0	0.17469668
81	0xbd384622	-0.04498876
82	0x3ed6ef8d	0.41979638
83	0x3e8c66be	0.27422136
84	0xbd94ab1c	-0.07259199
85	0x3f0542c6	0.52055013
86	0xbe18e49c	-0.14930958
87	0xbe37015f	-0.17871617
88	0x3ede6232	0.43434292
89	0x3e0288af	0.12747453
90	0x3e671b2e	0.22568962
91	0xbf138369	-0.5762239
92	0xbebdb546	-0.37052363
93	0x3f34a92c	0.70570636
94	0xbea251b4	-0.3170296
95	0xbed43daa	-0.41453296
96	0xbdfa39de	-0.122180685
97	0xbe8a2dd4	-0.2698809
98	0xbe0a3236	-0.13495716
99	0xbcf68239	-0.030091392
100	0x3e32665e	0.17421862
101	0x3ee4b88c	0.44672048
102	0x3ec2d84c	0.38055646
103	0xbdaa27b9	-0.08308358
104	0x3e5f8247	0.2182704
105	0x3e0c284d	0.13687249
106	0xbe17ecce	-0.14836428
107	0x3e3b339d	0.18281408
108	0xbdd7be2c	-0.10534319
109	0x3e97c963	0.29645833
110	0xbee78a1c	-0.45222557
111	0xbd5e3ae5	-0.054255385
112	0xbd9bc7e0	-0.076064825
113	0x3e4acb74	0.19804174
114	0xbbbc92a1	-0.005754784
115	0xbe63881d	-0.22219892
116	0x3e2504dd	0.16115136
117	0x3e012890	0.1261313
118	0xbb8a511f	-0.004221096
119	0xbe4d87f1	-0.20071389
120	0xbe88b91a	-0.2670372
121	0xbdaba93d	-0.08381889
122	0xbe2ce322	-0.1688352
123	0xbc8ecf8e	-0.017432954
124	0xbe1878f2	-0.14889887
125	0xbe0fe748	-0.1405307
126	0x3e4832a9	0.19550575
127	0x3e12e4dd	0.14345117
128	0xbe5476b1	-0.20748402
129	0xbe1d3209	-0.15351118
130	0xbd37a49d	-0.04483472
131	0xbdd58942	-0.104265705
132	0xbe359f48	-0.17736542
133	0x3d083aba	0.03325913
134	0xbf06fe6c	-0.52731967
135	0x3beef9d8	0.0072929673
136	0x3e9cc5f8	0.30619788
137	0xbeadea67	-0.33967897
138	0xbe2124af	-0.1573665
139	0xbe7d498b	-0.24735086
140	0xbc3d8a47	-0.011568612
141	0x3eb708f7	0.35749027
142	0xbee1466f	-0.4399905
143	0x3e189cf4	0.14903623
144	0x3de7b0b1	0.11312998
145	0xbe8eb26b	-0.27870497
146	0x3cce8981	0.025212051
147	0xbd9197f7	-0.07109063
148	0xbdd58110	-0.10425007
149	0x3ebe56e6	0.37175673
150	0xbf1cd916	-0.61268747
151	0xbe8e87ad	-0.27837887
152	0x3eb69fe1	0.35668853
153	0xbeb07579	-0.34464625
154	0xbd54fab5	-0.051996905
155	0x3dc73c13	0.09728255
156	0x3e682af2	0.22672632
157	0x3f2868c0	0.65784836
158	0xbf001a1c	-0.5003984
159	0x3d061981	0.032739166
160	0xbef4ee7f	-0.47838208
161	0xbbd1fa2a	-0.0064079957
162	0xbe12c4bd	-0.14332862
163	0x3d87eb92	0.06636728
164	0xbd108145	-0.03527953
165	0xbf07928d	-0.52957994
166	0x3e8f2655	0.27958933
167	0x3ec08efb	0.37609085
168	0x3b8bca12	0.004266032
169	0x3e87e48a	0.2654155
170	0xbe8ad7af	-0.2711768
171	0xbe04e32f	-0.12977289
172	0x3e6738e7	0.225803
173	0x3dc8f6f7	0.0981273
174	0x3eeba412	0.46023613
175	0xbe99dea4	-0.30052674
176	0x3efb1735	0.49041143
177	0xbef21f2c	-0.47289407
178	0xbe294fa7	-0.16534291
179	0xbe34a7cb	-0.17642133
180	0xbf13a6e2	-0.5767652
181	0x3d2c928f	0.042131957
182	0xbf04595f	-0.5169887
183	0x3dd44413	0.103645466
184	0xbd97ff50	-0.07421744
185	0xbdd84a0e	-0.10561
186	0x3c0d89c6	0.008638805
187	0xbdc3fd5d	-0.095698096
188	0xbdf5ea95	-0.120076336
189	0xbe96fe15	-0.29490724
190	0xbd52f7f4	-0.051505998
191	0x3e86ed59	0.26352957
192	0x3d90f7d3	0.07078519
193	0xbe87b839	-0.26507738
194	0xbe49dd2f	-0.19713281
195	0xbddfc58b	-0.1092635
196	0x3ca64b20	0.020299494
197	0xbe8c603b	-0.27417168
198	0x3eb34bed	0.35018864
199	0x3e1d2b99	0.15348662
200	0xbe00317d	-0.12518878
201	0x3dcd32f1	0.10019482
202	0xbd74f59d	-0.059804548
203	0xbe34b103	-0.1764565
204	0x3e4b8d8c	0.19878215
205	0xbe60c5e5	-0.21950491
206	0x3f4a9542	0.79134
207	0x3e4bdd7e	0.19908711
208	0xbec40e2a	-0.38292056
209	0xbd85f686	-0.06541161
210	0xbeec0bfd	-0.46102896
211	0x3e5d85ec	0.21633118
212	0xbe46c633	-0.19411545
213	0xbedbab31	-0.42904046
214	0x3e49e8e0	0.19717741
215	0xbe0cd0c8	-0.13751519
216	0xbe905759	-0.2819164
217	0x3e92865a	0.28618127
218	0x3e11f3f4	0.14253217
219	0x3e839d70	0.25706053
220	0xbe01ef32	-0.12688902
221	0xbeaf0ce1	-0.34189513
222	0x3ed57aca	0.41695243
223	0x3d4fccab	0.050732296
224	0xbefdb5db	-0.49552807
225	0x3e25d1a2	0.1619325
226	0xbea7e6c3	-0.32793245
227	0x3e103797	0.14083706
228	0x3ef41c49	0.4767783
229	0xbebc17be	-0.36736864
230	0x3efca28e	0.4934277
231	0xbdba3214	-0.09091583
232	0xbe8d32c3	-0.2757779
233	0xbd372f2b	-0.044722717
234	0xbe3bc6a3	-0.18337493
235	0x3d047820	0.032341123
236	0xbe0d6a6a	-0.13810125
237	0xbeec85f1	-0.4619594
238	0x3ea987ca	0.3311141
239	0x3e8faba3	0.28060636
240	0x3e04f623	0.12984519
241	0xbecb650e	-0.39725536
242	0x3e9d14f6	0.30680054
243	0x3e39880b	0.18118303
244	0xbee944e3	-0.4556037
245	0x3eed221b	0.46315083
246	0xbd5c3de0	-0.053769946
247	0xbee9557c	-0.45573032
248	0xbefff47f	-0.49991223
249	0x3e870d62	0.26377398
250	0xbda855dc	-0.082195014
251	0x3e2ab72f	0.16671441
252	0xbc5f9801	-0.01364708
253	0xbecfbc0c	-0.40573156
254	0x3ef4309b	0.47693333
255	0x3d0a119d	0.033708204

blocks.1.to_kv.weight f4 [256, 8]
0	0xbeb87028	-0.36023068
1	0x3dd304c5	0.10303644
2	0x3e1fb2b8	0.1559552
3	0xbe6abcda	-0.22923604
4	0x3c623473	0.01380645
5	0xbe490fa1	-0.19634868
6	0xbd82dd7e	-0.063899025
7	0x3e6ec788	0.23318303
8	0xbf13956e	-0.57649887
9	0xbe11556b	-0.1419274
10	0x3ea32729	0.31865814
11	0xbddc1ea8	-0.10748035
12	0x3da8fe94	0.08251682
13	0xbeeff092	-0.46863228
14	0xbd20da0b	-0.039270442
15	0x3dc8bd70	0.09801757
16	0x3e81c1f7	0.25343296
17	0x3e66cbb6	0.22538647
18	0x3e90506e	0.28186363
19	0x3c2c47a5	0.010515128
20	0xbeba07f2	-0.36334187
21	0x3cd7711d	0.026299054
22	0x3f0da203	0.55325335
23	0x3e8081a3	0.25098905
24	0x3e93dee9	0.28881004
25	0x3e3c3a2f	0.1838157
26	0xbe7c1e84	-0.24621016
27	0x3b73798a	0.00371513
28	0x3e82d676	0.25554246
29	0x3e2ee88e	0.170809
30	0xbddbd287	-0.10733514
31	0x3d9c5eb4	0.07635251
32	0x3f02adda	0.51046526
33	0x3e30e0aa	0.17273203
34	0xbe6f3180	-0.23358727
35	0xbe6471d7	-0.22309051
36	0xbdda56f2	-0.10661115
37	0x3d934d4a	0.07192476
38	0x3df87996	0.12132566
39	0xbe38624a	-0.18006244
40	0x3eb7a980	0.35871506
41	0x3dc51467	0.09623032
42	0xbcd303f0	-0.025758713
43	0x3d427aa1	0.04748023
44	0xbd6b411a	-0.057435133
45	0x3c818dee	0.015814748
46	0x3c93adb6	0.018027168
47	0xbe3535bc	-0.1769628
48	0xbdf9fc77	-0.12206357
49	0x3c0ae743	0.008477989
50	0x3de4011c	0.11133024
51	0x3d4be34d	0.049777318
52	0xbdfa172b	-0.1221145
53	0xbe1f0859	-0.15530528
54	0xbcbd8f58	-0.02313964
55	0x3e1a2ac1	0.15055372
56	0x3f0db951	0.55360895
57	0xbebdb183	-0.37049493
58	0xbddc0c6d	-0.107445575
59	0x3e38c66c	0.18044442
60	0xbe824f3c	-0.25451076
61	0x3ecfdae0	0.40596676
62	0xbde7d1c7	-0.11319309
63	0xbeb25c98	-0.34836268
64	0x3dde1def	0.10845553
65	0x3b848c42	0.0040450403
66	0xbe79a279	-0.24378385
67	0xbe75bb53	-0.2399724
68	0xbd0f52b4	-0.03499098
69	0x3e116e55	0.14202245
70	0x3e99f297	0.30067894
71	0x3c6dc9e0	0.014513463
72	0xbeb05b70	-0.3444476
73	0x3d8bce0d	0.068264104
74	0x3ea68b6e	0.3252825
75	0x3d056d28	0.032574803
76	0xbe02111e	-0.12701842
77	0xbe6d5dad	-0.23180266
78	0xbe9c055f	-0.30472848
79	0x3c97f3ca	0.018548865
80	0xbe88dfcb	-0.2673324
81	0x3eaf3739	0.3422182
82	0x3ec19667	0.3781006
83	0x3dc0480a	0.0938874
84	0x3ecb4b32	0.39705807
85	0x3e336ea1	0.1752267
86	0xbe592f1d	-0.21209379
87	0xbe8e961f	-0.27848908
88	0xbf2243f0	-0.63384914
89	0x3e1c36e9	0.15255322
90	0x3eb042d2	0.3442598
91	0x3ea46d7c	0.3211478
92	0x3e55a9cd	0.20865555
93	0xbed89b53	-0.42306003
94	0xbf0c0b79	-0.54705006
95	0xbe678efd	-0.2261314
96	0x3dc11d72	0.094294444
97	0x3dc43982	0.09581281
98	0x3e9c25cd	0.3049759
99	0xbdd7d019	-0.10537738
100	0x3e5b8eb5	0.21441157
101	0x3ee8d6e3	0.45476446
102	0xbe971941	-0.29511455
103	0xbe1c050f	-0.15236305
104	0xbee1eacb	-0.44124445
105	0x3df3ef62	0.11910893
106	0x3eb245da	0.34818918
107	0x3e70f9c4	0.23532778
108	0x3eb841d1	0.35987714
109	0x3e0540d2	0.13013008
110	0x3d34db73	0.044154596
111	0xbe967fd3	-0.29394397
112	0xbe53b523	-0.20674567
113	0x3cb1389c	0.021633439
114	0xbd7ade00	-0.061246872
115	0xbce3af37	-0.02779351
116	0x3e825a03	0.25459298
117	0x3e6f90d6	0.23395094
118	0xbd86bfc1	-0.06579543
119	0xbde77a2c	-0.11302599
120	0x3e97dedb	0.29662213
121	0x3ce8c354	0.028413452
122	0x3e60bf9a	0.2194809
123	0xbd996df5	-0.07491676
124	0xbcbd217e	-0.02308726
125	0x3e37eca5	0.17961366
126	0x3e93b02a	0.2884534
127	0x3e4f2a62	0.20231012
128	0xbee52a3a	-0.4475878
129	0xbe062a51	-0.1310208
130	0x3df4996a	0.11943324
131	0x3e224761	0.15847541
132	0xbe80221d	-0.25026026
133	0xbe5b12d1	-0.21393897
134	0x3e26646c	0.16249245
135	0xbd5719e8	-0.05251494
136	0xbeb8c6f1	-0.3608928
137	0x3da2cd89	0.07949359
138	0x3eb25568	0.34830785
139	0x3d6193eb	0.055072706
140	0xbd3d3698	-0.046194643
141	0xbeb62c9d	-0.35580912
142	0xbe7ff471	-0.24995591
143	0xbc8e7a0f	-0.017392186
144	0xbf29764d	-0.6619614
145	0x3e9a08f8	0.30084968
146	0x3e415aae	0.18882248
147	0xbe38f1b6	-0.18060955
148	0x3eb3bda6	0.35105628
149	0xbe3fedf9	-0.18743123
150	0x3da65505	0.08121685
151	0xbd2a46c8	-0.04157141
152	0xbeed3634	-0.46330416
153	0xbe973aa5	-0.2953693
154	0xbe578948	-0.21048462
155	0x3e374618	0.17897832
156	0x3eed3b48	0.4633429
157	0xbec017df	-0.37518212
158	0xbe811d91	-0.2521787
159	0xbe6ac38c	-0.22926158
160	0x3df6d8af	0.12053048
161	0xbde5d0ae	-0.11221443
162	0xbea4d718	-0.32195354
163	0xbec51b83	-0.38497552
164	0xbe8d6bc6	-0.27621287
165	0x3e0a8daf	0.1353061
166	0x3ebcd351	0.36879972
167	0x3e4be998	0.19913328
168	0x3e478409	0.19483961
169	0xbd7de9e9	-0.061990652
170	0xbdea73ae	-0.114478454
171	0xbe4aa1f9	-0.1978835
172	0x3e46ceb7	0.19414793
173	0x3f0e25e8	0.5552659
174	0xbe74a9f8	-0.23892963
175	0xbe9fef95	-0.31237474
176	0xbf40597a	-0.7513653
177	0x3c629c37	0.01383119
178	0xbd012dea	-0.031537928
179	0xbce2f220	-0.027703345
180	0x3e8fc7db	0.28082165
181	0xbdd64d60	-0.10463977
182	0xbec0bda8	-0.37644696
183	0xbe920af6	-0.28523988
184	0x3e4571e3	0.19281726
185	0x3e63efd9	0.22259463
186	0x3d500afc	0.050791726
187	0xbe88c9ad	-0.26716366
188	0x3e9cc453	0.30618533
189	0xbca8e266	-0.020615768
190	0x3df23b0f	0.11827671
191	0x3e60990f	0.21933387
192	0x3c701e52	0.014655666
193	0xbd2679e4	-0.040643588
194	0x3e64c3c0	0.22340298
195	0xbea09643	-0.3136464
196	0xbe8a9b21	-0.2707148
197	0x3c8e17cd	0.017345333
198	0xbcaa10b5	-0.02075992
199	0x3ea8bbf1	0.32955888
200	0x3f307f38	0.6894412
201	0xbea90cf5	-0.33017698
202	0xbe97258f	-0.29520842
203	0xbdb66839	-0.08906598
204	0xbe90bf6f	-0.28271052
205	0x3d96f2a6	0.073705
206	0xbdfa343f	-0.122169964
207	0x3e8e4632	0.2778793
208	0x3f0073a2	0.5017644
209	0x3d10b700	0.035330772
210	0xbdbab790	-0.09117043
211	0xbef454c6	-0.47720927
212	0xbda21f29	-0.079160996
213	0x3e5a6f7a	0.21331587
214	0x3e2d1a03	0.16904454
215	0x3e6a9fd2	0.22912529
216	0x3ef39d7a	0.47581083
217	0xbcd8279f	-0.02638608
218	0x3d93479c	0.07191393
219	0x3dbb9578	0.09159368
220	0xbec20595	-0.37894884
221	0x3e81a6c5	0.25322548
222	0xbca16e8c	-0.019706033
223	0xbd7fe693	-0.062475752
224	0x3ed101ca	0.40821677
225	0x3e29cb60	0.16581488
226	0xbe9ed914	-0.31024992
227	0xbe009813	-0.12558012
228	0xbece1b3a	-0.40255147
229	0x3e8a7019	0.2703865
230	0x3ec39f87	0.38207647
231	0xbe62b26f	-0.2213838
232	0x3ebdf4fd	0.37100974
233	0x3e7d5341	0.2473879
234	0x3e55e924	0.20889717
235	0xbf002e64	-0.50070786
236	0xbe26203a	-0.16223231
237	0x3ec30234	0.38087618
238	0x3e77d62c	0.24202794
239	0xbcd40e7c	-0.025885813
240	0xbe9f90fd	-0.31165305
241	0xbdab5dbf	-0.0836749
242	0xbd2d9aff	-0.042384144
243	0x3e1f7f57	0.1557592
244	0x3eb9052a	0.36136752
245	0xbe2bef90	-0.16790605
246	0xbeb8d024	-0.360963
247	0x3dafda1f	0.08586525
248	0x3ea0c493	0.31399974
249	0x3e9d4599	0.3071716
250	0x3e4665ed	0.19374819
251	0xbdd58bf5	-0.10427085
252	0xbec6a012	-0.38794
253	0x3e8f19ab	0.2794927
254	0x3f048cda	0.5177742
255	0x3e0b674f	0.13613628

blocks.1.to_out.weight f4 [8, 128]
0	0xbd3f7ccc	-0.046749875
1	0x3d94a9d8	0.072589576
2	0x3eb4d62f	0.3531966
3	0xbe36a00e	-0.17834494
4	0xbe97d374	-0.29653513
5	0xbf3060dd	-0.688978
6	0xbdf94a26	-0.12172346
7	0x3d873ef6	0.06603806
8	0xbe0d2d86	-0.13786897
9	0xbe7f4ffd	-0.24932857
10	0xbdfab909	-0.12242324
11	0xbdfe0c29	-0.12404663
12	0x3d8855a3	0.06656959
13	0xbe7175cd	-0.23580094
14	0xbe4e054e	-0.20119211
15	0xbe89e08b	-0.26929125
16	0xbe602fa2	-0.2189317
17	0x3ea00887	0.31256506
18	0xbe2274b8	-0.15864837
19	0xbde036a9	-0.109479256
20	0xbd8ecf5f	-0.06973147
21	0xbe9413e7	-0.28921434
22	0xbe95b1f0	-0.29237318
23	0xbdacf2c7	-0.084447436
24	0x3e0e3dc5	0.1389075
25	0x3e800cb6	0.25009698
26	0x3e9b2230	0.3029952
27	0x3de557fa	0.11198421
28	0x3d2c9329	0.04213253
29	0x3dd8a95c	0.10579178
30	0x3d7956ae	0.06087368
31	0x3e4fa686	0.20278367
32	0x3c085b83	0.008322599
33	0xbe5034e5	-0.20332678
34	0xbe1729a0	-0.14761972
35	0x3e2dea56	0.16983923
36	0x3da24793	0.07923808
37	0x3d189c8a	0.037258662
38	0xbe25915e	-0.16168734
39	0x3dade8db	0.08491679
40	0x3e66f2c2	0.22553542
41	0x3e086e50	0.13323331
42	0x3c1ec7c8	0.009691186
43	0xbf514a9d	-0.81754476
44	0x3c051ad5	0.008124073
45	0xbe656e67	-0.22405396
46	0x3dcb3b28	0.099233925
47	0xbe83d3be	-0.25747484
48	0x3e9e00f7	0.3086011
49	0xbd2a9f11	-0.041655604
50	0xbed999ec	-0.42500246
51	0x3dacbfc1	0.08435012
52	0x3e8caadc	0.27474105
53	0xbe0172ed	-0.12641497
54	0xbe45b246	-0.19306287
55	0xbe864ec2	-0.26231962
56	0x3d63b2d5	0.05559047
57	0xbbdb7499	-0.006697249
58	0xbe51052d	-0.2041213
59	0x3e9a4743	0.30132493
60	0xbe495271	-0.19660355
61	0x3deec7a7	0.116591744
62	0x3e51e60d	0.20497914
63	0xbe81d53d	-0.25358
64	0x3ec59aee	0.38594764
65	0x3e80b64d	0.25139084
66	0x3f0a4faa	0.5402781
67	0xbe10c8c8	-0.14139092
68	0xbc94ad73	-0.018149113
69	0xbebe0c12	-0.37118584
70	0xbf113764	-0.56725144
71	0x3b81ac8a	0.003957336
72	0xbd8f1e8a	-0.06988247
73	0x3d98e4b4	0.07465497
74	0xbedcc7bc	-0.43121135
75	0x3e950b52	0.291102
76	0x3df967e1	0.121780165
77	0xbeb8aaab	-0.3606771
78	0x3d9b7981	0.075915344
79	0x3e7e3a57	0.24826942
80	0xbedb3d22	-0.42820078
81	0x3e98f416	0.29873723
82	0xbe376e7b	-0.17913239
83	0xbf0035a6	-0.5008186
84	0x3eab4ca6	0.33456916
85	0x3e85c10c	0.26123846
86	0x3e4aab01	0.19791795
87	0x3eb7dcb0	0.3591056
88	0xbe36ae1a	-0.17839852
89	0xbc2efbeb	-0.010680179
90	0xbe1daf71	-0.15398957
91	0x3e9c687b	0.30548462
92	0xbea9cbca	-0.3316329
93	0xbd649529	-0.055806313
94	0xbd86ba8a	-0.06578548
95	0x3e234eb8	0.15947998
96	0xbc998ce1	-0.018743934
97	0xbe5e9ad7	-0.21738754
98	0xbb07c509	-0.0020716807
99	0xbd9807f9	-0.07423396
100	0xbefd6259	-0.49489096
101	0xbdd08dc3	-0.10183289
102	0xbf08028f	-0.53128904
103	0xbe59e2b0	-0.2127788
104	0x3c9378c8	0.018001929
105	0xbcb6bcad	-0.022306764
106	0xbde235c6	-0.11045413
107	0x3f23a367	0.6392121
108	0xbe212a5e	-0.15738818
109	0xbdf2d6e3	-0.11857393
110	0xbdf7820f	-0.120853536
111	0x3e557be2	0.20848039
112	0xbe366f08	-0.17815793
113	0xbe4e4a47	-0.20145522
114	0x3d6cec7d	0.05784272
115	0xbe4fef00	-0.20306015
116	0x3c3ccb3b	0.011523063
117	0xbec4944e	-0.38394397
118	0x3ee20e47	0.44151518
119	0x3e90099d	0.28132334
120	0xbf02a0b7	-0.5102648
121	0xbf070640	-0.5274391
122	0xbf2fd44c	-0.68683314
123	0xbccda246	-0.025101792
124	0xbe51ba02	-0.20481113
125	0xbdd9c7ad	-0.10633788
126	0x3e7b9d3c	0.24571699
127	0x3eab1116	0.33411473
128	0xbd9ac198	-0.07556456
129	0xbcbde80f	-0.023181943
130	0x3e7516b5	0.23934443
131	0x3d3ab1b9	0.045579646
132	0xbe599946	-0.21249875
133	0x3d8e1f11	0.06939519
134	0x3eacf637	0.33781597
135	0xbe8e8076	-0.27832383
136	0xbd27cf7b	-0.040969353
137	0x3e487d98	0.1957916
138	0xbd9090f5	-0.07058898
139	0x3e9bd508	0.30435967
140	0x3e139eef	0.14416097
141	0xbe2864c4	-0.16444689
142	0xbd6dcf6a	-0.058059134
143	0xbe06258a	-0.13100258
144	0x3eaf2c8c	0.34213674
145	0x3d1544e1	0.03644264
146	0x3dfbdf49	0.12298448
147	0x3e9a6228	0.30153012
148	0x3e634c96	0.22197184
149	0xbe43e149	-0.19128908
150	0x3e0cd286	0.13752183
151	0x3e3a91a9	0.18219627
152	0xbe2e19e7	-0.17002068
153	0x3c9b7477	0.018976433
154	0x3dcd8f6f	0.100371234
155	0x3e4103bc	0.18849081
156	0x3e4f3c6e	0.20237896
157	0x3e2a1c18	0.1661228
158	0x3e4e0e6a	0.20122686
159	0x3f0cc8af	0.5499372
160	0xbec06c79	-0.37582758
161	0xbe601f20	-0.21886873
162	0x3e2131a5	0.15741594
163	0x3eb8133a	0.3595217
164	0x3c87e710	0.016589671
165	0xbe976f89	-0.29577282
166	0xbdcaff00	-0.09911919
167	0xbe063b2f	-0.13108514
168	0x3e7efe22	0.24901631
169	0xbd98b131	-0.074556716
170	0xbe28d0ee	-0.1648595
171	0x3e0d2e52	0.13787201
172	0x3cb207c8	0.021732226
173	0xbace234f	-0.0015727076
174	0xbebb858e	-0.36625332
175	0x3d935520	0.07193971
176	0x3ea90e47	0.33018705
177	0xbe7009a6	-0.2344118
178	0x3dda3ccc	0.10656127
179	0x3ddac758	0.10682553
180	0x3ebeec14	0.37289488
181	0x3e43bf43	0.1911593
182	0x3d6ad124	0.05732836
183	0xbd3002db	-0.042971473
184	0xbde7cd47	-0.113184504
185	0xbd3a8450	-0.04553634
186	0x3bb1c07e	0.005424558
187	0x3e1cd046	0.15313825
188	0xbe7d726a	-0.24750677
189	0x3ea68de0	0.32530117
190	0x3cb32abf	0.021870969
191	0xbdb9136a	-0.09036906
192	0x3c54992b	0.012975971
193	0xbc82b37e	-0.01595473
194	0x3d989b3f	0.07451486
195	0xbd5d053d	-0.053960074
196	0x3c2d1f9a	0.010566616
197	0x3c9c2459	0.0190603
198	0xbe8ea092	-0.2785688
199	0x3e57b576	0.21065316
200	0xbe96292b	-0.29328284
201	0xbe9a8781	-0.30181506
202	0xbeb25fc2	-0.34838682
203	0x3d0e491f	0.034737702
204	0xbe974a63	-0.2954894
205	0x3a9a771b	0.0011784764
206	0x3e62b5cb	0.22139661
207	0xbcf98d7c	-0.030462973
208	0xbb91ed6b	-0.0044533513
209	0x3d27c9dc	0.040963992
210	0x3d9c2e25	0.07625989
211	0xbe67e932	-0.2264755
212	0xbe6d98f6	-0.23202881
213	0x3d5c59ed	0.053796697
214	0x3e212085	0.15735061
215	0x3eb16b67	0.34652254
216	0xbe13833d	-0.14405532
217	0xbeb54ae4	-0.354087
218	0x3e8ba26f	0.27272364
219	0xbc06fe3a	-0.008239323
220	0x3dce6f88	0.10079867
221	0xbde6d5be	-0.11271237
222	0xbe9678cd	-0.2938904
223	0xbd3e0a04	-0.04639627
224	0xbe19fd31	-0.15037991
225	0xbecbae15	-0.39781252
226	0x3ed4cccd	0.415625
227	0x3dffb508	0.12485701
228	0x3e4d4783	0.20046811
229	0x3ea14889	0.31500652
230	0xbde38d19	-0.111108966
231	0x3bd90955	0.006623427
232	0xbe1daabb	-0.1539716
233	0x3e0e38f6	0.13888916
234	0xbe540209	-0.20703901
235	0x3e70dde5	0.23522146
236	0x3e67c09a	0.22632065
237	0x3e9acbe8	0.30233693
238	0x3e048499	0.12941207
239	0xbe8b88c9	-0.27252796
240	0x3e5efa24	0.21775109
241	0x3e09eb68	0.13468707
242	0x3d615693	0.055014204
243	0x3e4108bc	0.18850988
244	0xbeab1b6a	-0.33419353
245	0x3cce9fae	0.025222626
246	0xbde7a9b9	-0.11311669
247	0xbe1f80c3	-0.15576462
248	0xbe09003f	-0.13379
249	0xbdecc413	-0.11560836
250	0xbdf0d5ca	-0.11759527
251	0x3e50f62b	0.20406406
252	0xbcaaee75	-0.020865658
253	0x3e4ad4bf	0.19807719
254	0xbdf453d8	-0.119300544
255	0x3de239dd	0.11046193

mlp.0.weight f4 [10, 8]
0	0x3e174ef9	0.1477622
1	0xbeb0c305	-0.34523788
2	0x3edcf19e	0.4315309
3	0x3ea60553	0.32425937
4	0xbe43dd53	-0.19127397
5	0xbe875247	-0.2642996
6	0x3ddb700d	0.10714731
7	0xbf24b44c	-0.6433761
8	0x3e8155af	0.25260684
9	0x3ec757ac	0.38934076
10	0xbf26a580	-0.6509628
11	0x3d25f8df	0.040520545
12	0x3e9b3c47	0.30319425
13	0x3ea5dd32	0.3239532
14	0x3d6b7898	0.057488054
15	0xbe50d2d2	-0.20392922
16	0xbe22d059	-0.15899791
17	0x3e1b0ca9	0.15141548
18	0x3e9ebd59	0.31003836
19	0x3e8fe849	0.28106907
20	0x3df3888a	0.11891277
21	0x3eaa681c	0.33282554
22	0xbcb01b5b	-0.02149742
23	0xbe498906	-0.19681177
24	0xbf1b977a	-0.6077801
25	0xbed48453	-0.41507205
26	0xbeaf924b	-0.342913
27	0xbe151e49	-0.14562334
28	0xbea44d42	-0.32090193
29	0xbda183d3	-0.078864716
30	0x3e5f32b1	0.21796681
31	0xbeec1092	-0.46106392
32	0xbea8e8c5	-0.3299009
33	0xbdb1b4f8	-0.08677095
34	0x3f032646	0.51230276
35	0xbf0bd0cb	-0.5461547
36	0x3e978af9	0.29598215
37	0x3e7ae245	0.24500377
38	0xbe64bf03	-0.2233849
39	0x3efa8437	0.48928997
40	0xbd3556e9	-0.044272337
41	0xbd40e3c4	-0.047092214
42	0x3cfc472e	0.03079566
43	0x3e8a57d9	0.27020147
44	0x3d9f1f15	0.077696
45	0x3e3b6f49	0.1830417
46	0xbd465c6b	-0.04842798
47	0xbefad957	-0.48993942
48	0xbe1266a2	-0.14296964
49	0x3c68dc8e	0.014212741
50	0x3ef430f3	0.47693595
51	0x3e9e9a57	0.30977127
52	0x3d573e9c	0.052549943
53	0x3da90270	0.08252418
54	0xbf1f9785	-0.62340575
55	0xbe9b4e90	-0.30333376
56	0x3e9a4d0a	0.301369
57	0x3dd627ac	0.104567856
58	0x3cbd9475	0.023142079
59	0xbdc034d6	-0.09385078
60	0x3e055d50	0.13023877
61	0x3f02f180	0.5114975
62	0x3f86f219	1.0542632
63	0x3f01f735	0.50767833
64	0xbe557fca	-0.20849529
65	0xbe548498	-0.20753706
66	0x3ba4895c	0.0050212573
67	0x3e742a22	0.23844197
68	0xbee92d6c	-0.45542467
69	0xbee903f7	-0.45510837
70	0x3d00d2ee	0.03145116
71	0x3e78c579	0.2429408
72	0x3edd989e	0.432805
73	0xbe67a0e2	-0.22619966
74	0x3e71f65a	0.23629132
75	0x3e3ba47e	0.18324468
76	0x3de9ac0d	0.11409769
77	0xbe6fbf4f	-0.23412822
78	0x3e8ec4be	0.27884477
79	0x3ee17ffe	0.44042963

mlp.0.bias f4 [10]
0	0xbed225ec	-0.41044557
1	0x3ca35a4e	0.019940522
2	0xbc64ab76	-0.013956895
3	0xbeb80258	-0.35939288
4	0xbd7f1e98	-0.062285036
5	0x3e0afaa0	0.13572168
6	0x3e5cf18f	0.21576522
7	0x3e2f87b1	0.17141606
8	0x3f1124b5	0.56696635
9	0xbded1385	-0.11575989
