weights/flash_vanilla_vit_10epochs.pth (torch, 38354 bytes, 11 tensors)

v_class f4 [1, 8]
0.06343963 -0.56718695 0.6757592 -0.54743516 0.4704841 -0.79444844 0.48868072 -0.051717013
00000000: a3ec 813d 2a33 11bf 8efe 2c3f b624 0cbf
00000010: 4be3 f03e f960 4bbf 5c34 fa3e 38d5 53bd

linear_mapper.weight f4 [8, 16]
0.5478755 0.10675558 -0.0032083746 0.27101898 0.056345157 0.2348549 0.100466214 0.226634
0.18038484 -0.14834556 0.29111457 0.33383128 0.21069056 -0.077007405 0.2215472 0.16034603
-0.043323968 -0.24034119 -0.3703614 0.014728639 0.39350003 -0.021733034 -0.105380274 0.34962782
0.0019910415 -0.28499064 -0.09752411 0.06943164 -0.056332417 -0.3654705 -0.004172967 0.20767088
0.3050018 0.18778458 -0.006892639 0.17400017 0.17742921 -0.09166651 -0.103111215 -0.13463603
0.10004932 -0.08687179 -0.063635685 -0.20630261 0.11925279 0.14122123 0.18710564 -0.22719218
0.36665398 -0.1580247 -0.2961571 -0.2659851 -0.26292148 0.04869125 -0.08698146 0.013847066
0.031559814 0.02484226 0.27420658 0.08889333 -0.16885953 -0.046399757 0.08515854 0.4968753
0.25644445 0.30462858 0.3786943 -0.16584241 -0.5774308 -0.4967474 -0.29372165 -0.24383199
-0.089794405 -0.8084263 -0.68949014 -0.47720882 -0.141406 0.08232159 0.23505138 0.11444036
-0.41038015 0.33046803 0.44782773 -0.052905515 -0.55211407 -0.22390147 -0.21221867 -0.62230337
-0.27008367 0.014284915 -0.020835988 -0.2979838 -0.058599316 0.18167774 0.013581973 0.22990702
0.124229275 -0.17861944 -0.40583903 -0.25471663 0.0037573401 -0.23352982 -0.40841678 -0.1416675
0.12123328 -0.41002628 -0.4500527 -0.31511414 0.07895055 -0.1410345 0.24228446 -0.21817683
-0.43083405 -0.34489912 -0.7089187 -0.08083736 0.28575733 -0.7265302 -0.54936457 0.02019045
0.83576286 0.0957191 0.061437387 -0.10155977 0.72419244 0.16873027 -0.2434862 -1.0881913
00000000: 9241 0c3f aba2 da3d 9843 52bb 00c3 8a3e
00000010: 2eca 663d ce7d 703e 3bc1 cd3d be12 683e
00000020: ceb6 383e e6e7 17be f80c 953e efeb aa3e
00000030: 44bf 573e 0fb6 9dbd 45dd 623e c031 243e
00000040: 7974 31bd 001c 76be 02a0 bdbe 6450 713c
00000050: d678 c93e 7a09 b2bc 9dd1 d7bd 6b02 b33e
00000060: 227c 023b 4bea 91be b8ba c7bd 2d32 8e3d
00000070: d2bc 66bd f31e bbbe 62bd 88bb ada7 543e
00000080: 3229 9c3e 9a4a 403e a6db e1bb 1a2d 323e
00000090: 01b0 353e a7bb bbbd f92b d3bd 07de 09be
000000a0: a8e6 cc3d d6e9 b1bd 6d53 82bd fe40 53be
000000b0: cf3a f43d 4c9c 103e 9f98 3f3e 11a5 68be
000000c0: 12ba bb3e 3ad1 21be e7a1 97be 332f 88be
000000d0: a59d 86be 7a70 473d 5623 b2bd cede 623c
000000e0: dd44 013d ff81 cb3c ce64 8c3e b50d b63d
000000f0: 83e9 2cbe ac0d 3ebd 9a67 ae3d 7066 fe3e
00000100: b04c 833e 47f8 9b3e 38e4 c13e 98d2 29be
00000110: 81d2 13bf ad55 febe af62 96be 18af 79be
00000120: 21e6 b7bd 07f5 4ebf 6d82 30bf b754 f4be
00000130: bccc 10be 3998 a83d 4fb1 703e b55f ea3d
00000140: 591d d2be 1b33 a93e ad49 e53e 74b3 58bd
00000150: 5957 0dbf 6d46 65be da4f 59be 464f 1fbf
00000160: 6848 8abe 470b 6a3c 3cb0 aabc 5591 98be
00000170: d605 70bd bb09 3a3e ec86 5e3c bf6c 6b3e
00000180: eb6b fe3d 04e8 36be 22ca cfbe 386a 82be
00000190: b53d 763b 7122 6fbe 011c d1be 4911 11be
000001a0: 2749 f83d f7ee d1be 4f6d e6be a456 a1be
000001b0: d3b0 a13d 596b 10be 6b19 783e bf69 5fbe
000001c0: 4896 dcbe 9e96 b0be b27b 35bf 0f8e a5bd
000001d0: c94e 923e e2fd 39bf 28a3 0cbf 7166 a53c
000001e0: 8ef4 553f 6008 c43d c5a5 7b3d 92fe cfbd
000001f0: ad64 393f a1c7 2c3e 7254 79be da49 8bbf

linear_mapper.bias f4 [8]
0.20484257 0.01780116 0.0032038689 -0.4316817 -0.24962041 -0.45295504 -0.016287697 -0.42745697
00000000: 40c2 513e bdd3 913c 00f8 513b 6205 ddbe
00000010: 7e9c 7fbe b9e9 e7be c76d 85bc a4db dabe

blocks.0.to_q.weight f4 [128, 8]
-0.46533084 0.035970535 0.34647635 0.36305374 0.29320762 -0.34111416 0.28280526 -0.072055675
0.15099923 -0.39772165 0.328909 -0.16786939 -0.07502907 0.16870159 0.05731596 -0.19744684
0.39924654 0.20551403 -0.36953998 -0.39376798 0.35394928 0.023065979 -0.14358826 0.33424398
0.52034056 -0.19188868 -0.6077342 -0.20027094 0.20969358 -0.11771698 -0.38896155 -0.31056446
-0.47587416 0.04004869 0.59658647 -0.2658398 0.2811402 0.086754 0.3015317 0.066524334
0.16600697 0.008804194 -0.06688977 -0.04319835 -0.22560117 0.16459616 -0.18980192 -0.26719508
0.4383743 0.2527158 -0.26517224 -0.16824804 -0.03904557 0.054059677 -0.086821616 -0.016587216
-0.43031976 -0.30459377 0.23128489 0.27607748 -0.16112979 -0.22630695 -0.20262325 -0.6212809
-0.5136252 -0.05185144 0.5091421 0.30283025 -0.60240763 -0.24456167 -0.06700656 0.3532768
-0.05887002 0.38928595 0.7444474 -0.15622768 0.40951473 0.3259221 -0.025639256 0.07457939
-0.6948605 0.19054629 0.4796708 0.3433311 -0.2232874 -0.3743055 0.044955112 0.54606986
0.19071138 0.29720342 0.17962119 0.16679324 0.38327017 -0.12799437 -0.21720763 -0.25800058
0.4279555 -0.82138324 -0.51921284 -0.1913382 -0.8455363 -0.38120607 -0.07969349 0.0048984694
-0.4046408 0.08671663 0.143006 -0.13357788 0.1325974 -0.15529479 0.13746887 -0.15076634
0.016694546 0.495259 0.6868667 -0.14214069 1.0431088 -0.13553968 -0.22479258 0.034460463
-0.82590216 -0.10717849 0.12879148 0.24022894 -0.21315922 -0.27264524 0.19590007 -0.6089953
-0.49335328 1.2915102 1.1392676 0.0661345 0.63362086 0.6560656 -0.20381431 0.24529919
-0.6170289 -0.07255168 0.41714177 0.09237907 -0.09894127 -0.08031685 -0.09087807 0.37134656
0.36544877 -0.03803052 -0.19682133 -0.13310699 -0.39754513 -0.16884385 -0.039601862 -0.2819325
-0.6075581 -0.068144135 0.09463881 0.010088812 0.13732633 -0.13143381 0.19026381 -0.07245684
-0.54252905 0.3350877 0.10096391 0.19664899 -0.03192992 0.009231643 0.5555002 0.3779973
-0.2186279 -0.04175738 -0.0127087375 0.057367414 0.09794832 0.24342763 -0.091035224 -0.23938264
-0.05596034 -0.00028535174 0.23065935 0.3514626 -0.2079575 -0.12262176 -0.13929617 -0.043896116
-0.32286295 -0.20159625 0.27372128 0.1741262 -0.4677464 -0.20921312 0.19890861 -0.39349183
0.002448142 -0.036780395 -0.03351588 -0.021361316 0.004434373 -0.16453847 0.0832387 -0.039156113
-0.45043623 -0.548381 0.4297405 -0.087455206 -0.5749227 -0.08371407 0.13309264 0.17349689
0.5101043 0.18626632 -0.64119375 -0.16954874 0.15345503 -0.04609185 -0.49650952 -0.02079864
0.5667729 -0.77176017 -1.2961266 -0.21034433 -0.36157057 -0.19560184 -0.076526925 -0.54229677
-0.2573382 -0.21804246 0.46912333 0.33683735 -0.21453248 -0.0296785 -0.24146752 -0.22341405
0.14149448 0.077270545 0.27042767 -0.5418926 0.4022234 -0.30917528 0.17788039 0.6960647
-0.09673596 0.29005733 -0.29391998 -0.04341193 0.13059388 0.042603035 -0.012804948 0.25589907
0.22805189 0.37509927 0.5176714 -0.24979058 0.44915637 0.20062116 0.098906085 0.048083853
00000000: d83f eebe d755 133d 5965 b13e 2ee2 b93e
00000010: 4f1f 963e 84a6 aebe dacb 903e ed91 93bd
00000020: 8b9f 1a3e 2ca2 cbbe c366 a83e f4e5 2bbe
00000030: d7a8 99bd 1cc0 2c3e 24c4 6a3d 812f 4abe
00000040: 0b6a cc3e 4572 523e 5834 bdbe f59b c9be
00000050: d738 b53e ddf4 bc3c cd08 13be 0722 ab3e
00000060: 0a35 053f 777e 44be 7894 1bbf d313 4dbe
00000070: eab9 563e 9a15 f1bd f825 c7be 4e02 9fbe
00000080: c7a5 f3be 180a 243d e4b9 183f 271c 88be
00000090: 9cf1 8f3e 15ac b13d 5d62 9a3e e93d 883d
000000a0: bbfd 293e 773f 103c 81fd 88bd c1f0 30bd
000000b0: fe03 67be e58b 283e 6f5b 42be cbcd 88be
000000c0: 9972 e03e f763 813e a8c4 87be 3749 2cbe
000000d0: 3fee 1fbd ae6d 5d3d 88cf b1bd eae1 87bc
000000e0: df52 dcbe b7f3 9bbe f2d5 6c3e 075a 8d3e
000000f0: 35ff 24be 02bd 67be 787c 4fbe 440c 1fbf
00000100: f17c 03bf 2d62 54bd 2357 023f 910c 9b3e
00000110: 6337 1abf 606e 7abe bc3a 89bd b2e0 b43e
00000120: b121 71bd 7d50 c73e 1b94 3e3f 26fa 1fbe
00000130: eaab d13e 43df a63e 6b09 d2bc 14bd 983d
00000140: 61e2 31bf 911e 433e 6997 f53e 18c9 af3e
00000150: 74a5 64be f8a4 bfbe da22 383d 3ccb 0b3f
00000160: d849 433e 0c2b 983e 9eee 373e d9cb 2a3e
00000170: fd3b c43e f510 03be ad6b 5ebe a718 84be
00000180: fc1c db3e 2c46 52bf 22eb 04bf 29ee 43be
00000190: 1175 58bf 712d c3be 5736 a3bd 5783 a03b
000001a0: 142d cfbe 7d98 b13d 2a70 123e a4c8 08be
000001b0: 9dc7 073e 9905 1fbe a4c4 0c3e 7e62 1abe
000001c0: 00c3 883c 9692 fd3e 7fd6 2f3f 548d 11be
000001d0: 9784 853f eaca 0abe 0730 66be 6a26 0d3d
000001e0: 536e 53bf 6580 dbbd eae1 033e 93fe 753e
000001f0: 6946 5abe 2898 8bbe 079a 483e 1ee7 1bbf
00000200: cd98 fcbe 3550 a53f 85d3 913f 8671 873d
00000210: fa34 223f eaf3 273f b3b4 50be b62f 7b3e
00000220: 9bf5 1dbf fa95 94bd 9b93 d53e 3d31 bd3d
00000230: b8a1 cabd 297d a4bd 481e babd 2321 be3e
00000240: 1a1c bb3e e4c5 1bbd 888b 49be 334d 08be
00000250: 098b cbbe 67e5 2cbe 9035 22bd 7559 90be
00000260: ed88 1bbf 278f 8bbd fed1 c13d 8b4b 253c
00000270: 469f 0c3e 9696 06be 84d4 423e 4064 94bd
00000280: 2fe3 0abf 9d90 ab3e 2bc6 ce3d 5a5e 493e
00000290: f3c8 02bd 5140 173c 4335 0e3f dd88 c13e
000002a0: fedf 5fbe c909 2bbd 4f38 50bc 18fa 6a3d
000002b0: 2199 c83d 1845 793e ad70 babd b920 75be
000002c0: ab36 65bd 439b 95b9 f731 6c3e e8f2 b33e
000002d0: d0f2 54be 1e21 fbbd a8a3 0ebe 6acc 33bd
000002e0: 4b4e a5be 3f6f 4ebe 3225 8c3e 234e 323e
000002f0: 757c efbe f73b 56be b3ae 4b3e c377 c9be
00000300: 0271 203b 0aa7 16bd f347 09bd edfd aebc
00000310: 384e 913b c67c 28be 0d79 aa3d 2962 20bd
00000320: 949f e6be b262 0cbf f206 dc3e b71b b3bd
00000330: 222e 13bf 4872 abbd 7049 083e 2ba9 313e
00000340: 3296 023f 99bc 3e3e 4625 24bf 2f9e 2dbe
00000350: 5123 1d3e cfca 3cbd 7f36 febe e961 aabc
00000360: 0718 113f 1392 45bf 7ae7 a5bf 8164 57be
00000370: c71f b9be d94b 48be 26ba 9cbd f6d3 0abf
00000380: d5c1 83be 8646 5fbe ef30 f03e f275 ac3e
00000390: 67ae 5bbe 5320 f3bc 4343 77be a7c6 64be
000003a0: eee3 103e 0540 9e3d 7f75 8a3e 79b9 0abf
000003b0: 3af0 cd3e 394c 9ebe 4726 363e 4c31 323f
000003c0: 811d c6bd 6582 943e ae7c 96be b5d0 31bd
000003d0: 67ba 053e 8580 2e3d d8cb 51bc 3405 833e
000003e0: 6f86 693e 030d c03e 1d86 043f 1ac9 7fbe
000003f0: d3f7 e53e a26f 4d3e 468f ca3d 93f3 443d

blocks.0.to_kv.weight f4 [256, 8]
-0.51390004 -0.051885188 0.23630969 -0.29822183 0.05786182 -0.105202876 0.35789016 0.11879063
0.31875518 0.30827102 0.2773219 1.3969065 0.15583932 0.6417507 -0.09156439 -0.24761084
0.11855578 -0.22342603 -0.42826146 -0.74584705 -0.15345962 -0.014506393 -0.2999603 0.18343158
0.71246344 -0.27489907 -0.2927423 -0.35195297 -0.31577674 -0.22421214 -0.11499807 -0.18496063
-0.5030786 0.06799204 0.1864073 0.8729978 0.043293145 0.08329199 0.25002143 -0.07788864
0.48633766 0.0013411836 0.21642253 -0.21166877 0.23893179 0.41261938 -0.20663917 0.19459178
0.1620546 -0.14496821 -0.31776258 -0.92539805 -0.30755493 0.05846194 0.035145942 -0.24188867
0.47657207 -0.039615206 0.62725484 0.86197007 0.24369718 -0.16926537 0.27070758 -0.076578826
-0.36802107 0.32508147 0.41417295 0.40096328 0.07629482 0.39793393 0.21749161 0.43219212
-0.46567658 0.048129573 0.23744784 0.29016665 0.32353875 0.33921245 -0.2893849 -0.12666741
-0.68637055 0.27578405 0.012615228 -0.11722522 0.12695606 0.030521516 0.08956774 0.5110109
-0.101714715 -0.06264518 0.0045521334 -0.44548905 0.3042148 0.46759796 -0.09517472 -0.33755884
0.69478035 0.2536738 -0.25635958 0.37688944 -0.1652061 -0.337767 -0.008090767 0.12330291
0.1575058 0.02739045 -0.06817759 -0.24497913 0.32891724 0.1585811 -0.04684726 -0.12958707
-0.49465993 -0.12106094 0.06326754 -0.17583376 -0.17856272 0.27088737 0.26841858 -0.48309982
0.29112944 -0.13807446 0.72838676 -0.21756867 0.42220044 -0.17902061 0.16985965 0.08477377
-0.6708555 -0.13156775 0.257889 0.09992194 -0.12272767 0.06152704 -0.02150391 -0.01808754
-0.37276706 0.13437517 0.5400864 0.33190703 0.024235016 0.21981955 0.19597416 0.3527653
0.31009865 -0.0746172 0.18385205 -0.19883598 -0.06752129 -0.04101564 -0.22502619 0.040912908
-0.20759134 -0.05296278 0.5965514 -0.043586202 -0.2099444 -0.13324313 0.14461815 0.28299275
-0.70221215 0.1465234 -0.24962932 -0.6220004 0.4074853 0.09632851 -0.2142892 0.38334838
0.049961384 -0.043469008 0.46044776 0.15775383 -0.0743839 0.013152424 0.026012095 0.058046155
0.15855832 0.08411095 -0.13541304 0.39687806 -0.018487532 -0.04868623 0.24953309 -0.047672316
0.29516745 0.06732275 0.4051835 0.21531549 0.008431531 0.23373751 0.25643685 -0.016716909
-0.16839427 -0.04312257 -0.26855266 -0.20726712 0.25836515 -0.0710948 -0.18751113 -0.159868
0.1547537 0.5649149 0.19266705 1.721644 0.03237498 0.21775319 0.41817296 0.3996034
0.6561128 -0.39382103 -0.0002857496 -0.49780288 -0.02911745 -0.53028774 0.00010888423 -0.43752497
0.6921941 -0.024057984 -0.39482972 -0.056794748 -0.122370206 -0.4077464 -0.14548247 0.07033939
0.080948465 0.26706702 0.5688859 0.9505035 0.38788226 0.69469637 0.12049712 -0.12419013
-0.59249765 0.028591815 -0.38157132 0.320108 -0.24680541 -0.12394335 -0.00039167303 -0.07380575
-0.38504404 -0.0634224 -0.18733723 -0.7588265 -0.04297416 -0.31492153 -0.21889304 0.052373793
-0.5092133 0.005754537 0.088672556 0.021103263 0.1149439 0.45600697 -0.04313729 -0.4695743
00000000: f48e 03bf 9085 54bd 2bfb 713e 88b0 98be
00000010: 8400 6d3d 9b74 d7bd 613d b73e 8048 f33d
00000020: e133 a33e b3d5 9d3e 23fd 8d3e d5cd b23f
00000030: 5894 1f3e c649 243f 1c86 bbbd b28d 7dbe
00000040: 5fcd f23d cbc9 64be 1645 dbbe d5ef 3ebf
00000050: 8524 1dbe 39ac 6dbc 6594 99be 7dd5 3b3e
00000060: 0164 363f 92bf 8cbe 52e2 95be 2e33 b4be
00000070: 7dad a1be de97 65be 1c84 ebbd 5266 3dbe
00000080: c2c9 00bf 693f 8b3d 8ee1 3e3e c97c 5f3f
00000090: 2754 313d fe94 aa3d cf02 803e 1484 9fbd
000000a0: 4001 f93e a7ca af3a de9d 5d3e b3bf 58be
000000b0: 89aa 743e d942 d33e 3899 53be 1143 473e
000000c0: a4f1 253e 8c72 14be c7b1 a2be e3e6 6cbf
000000d0: d777 9dbe ca75 6f3d 31f5 0f3d aab1 77be
000000e0: 4101 f43e 8e43 22bd c693 203f 12aa 5c3f
000000f0: c18b 793e e753 2dbe 2f9a 8a3e 5cd5 9cbd
00000100: 426d bcbe 1471 a63e 7a0e d43e 0f4b cd3e
00000110: 7540 9c3d ffbd cb3e 1fb6 5e3e 4948 dd3e
00000120: 296d eebe 8423 453d 8725 733e b990 943e
00000130: dfa6 a53e 41ad ad3e 422a 94be 1ab5 01be
00000140: fbb5 2fbf 9133 8d3e 1ab0 4e3c c713 f0bd
00000150: c500 023e 4208 fa3c 4b6f b73d 9cd1 023f
00000160: ce4f d0bd 1e4c 80bd 102a 953b 2417 e4be
00000170: 0bc2 9b3e 0069 ef3e f7ea c2bd 83d4 acbe
00000180: 20dd 313f 88e1 813e 9041 83be a7f7 c03e
00000190: ca2b 29be ccef acbe 238f 04bc 3c86 fc3d
000001a0: 3349 213e f061 e03c b1a0 8bbd cfdb 7abe
000001b0: d767 a83e 1563 223e eae2 3fbd 79b2 04be
000001c0: 1144 fdbe ccee f7bd 6992 813d c40d 34be
000001d0: 25d9 36be c0b1 8a3e 296e 893e dc58 f7be
000001e0: eb0e 953e 6463 0dbe 8e77 3a3f 52ca 5ebe
000001f0: a82a d83e 2e51 37be b0ef 2d3e df9d ad3d
00000200: 30bd 2bbf b2b9 06be 070a 843e e0a3 cc3d
00000210: a558 fbbd c703 7c3d f828 b0bc 522c 94bc
00000220: 53db bebe a599 093e 1a43 0a3f b8ef a93e
00000230: 8388 c63c 6018 613e 73ad 483e a79d b43e
00000240: 40c5 9e3e e7d0 98bd b643 3c3e a99b 4bbe
00000250: 9a48 8abd 0400 28bd 446d 66be 4b94 273d
00000260: d392 54be 80ef 58bd 98b7 183f 7287 32bd
00000270: aafb 56be e370 08be c816 143e 6de4 903e
00000280: 2dc4 33bf 3b0a 163e d49e 7fbe 6b3b 1fbf
00000290: eaa1 d03e e247 c53d a16e 5bbe 3d46 c43e
000002a0: 4fa4 4c3d 8f0c 32bd cfbf eb3e 388a 213e
000002b0: 9656 98bd 447d 573c 5117 d53c cec1 6d3d
000002c0: 1d5d 223e 5d42 ac3d b7a9 0abe 9a33 cb3e
000002d0: 2a73 97bc 366b 47bd 9a85 7f3e 0c44 43bd
000002e0: 3020 973e 83e0 893d 3674 cf3e aa7b 5c3e
000002f0: 6724 0a3c e358 6f3e b14b 833e e6f1 88bc
00000300: 8c6f 2cbe 4ba1 30bd bc7f 89be d53d 54be
00000310: 7048 843e 279a 91bd eb02 40be 70b4 23be
00000320: c177 1e3e 439e 103f 834a 453e d55e dc3f
00000330: a19b 043d b1fa 5e3e c41a d63e d198 cc3e
00000340: 02f7 273f e9a2 c9be a9d0 95b9 05e0 febe
00000350: b887 eebc f0c0 07bf c758 e438 4603 e0be
00000360: a233 313f 4015 c5bc 1f27 cabe 9ca1 68bd
00000370: 3b9d fabd 23c4 d0be 5bf9 14be 190e 903d
00000380: 4fc8 a53d 02bd 883e 82a2 113f 3354 733f
00000390: 8198 c63e 9fd7 313f 32c7 f63d 6557 febd
000003a0: edad 17bf 6239 ea3c 515d c3be 32e5 a33e
000003b0: 8fba 7cbe 03d6 fdbd 7759 cdb9 7827 97bd
000003c0: 7e24 c5be 9ae3 81bd 55d5 3fbe 7442 42bf
000003d0: ac05 30bd 653d a1be 7f25 60be e785 563d
000003e0: ce5b 02bf 8e90 bc3b f599 b53d c0e0 ac3c
000003f0: b567 eb3d bf79 e93e bab0 30bd 0b6c f0be

blocks.0.to_out.weight f4 [8, 128]
0.38096327 -0.5722894 -0.43076494 0.20115606 0.18774083 -0.0038812903 0.32389697 -0.07219064
-0.09003889 0.018535404 -0.062411223 0.3809906 0.61465234 -0.100914866 -0.28206795 -0.056635216
-0.23587126 0.10263623 -0.25280157 -0.33138895 0.29503635 0.117543556 -0.11748155 -0.33486584
0.10497531 -0.15857296 0.3161837 0.14322574 0.34452486 0.1274396 0.32104725 -0.0046285954
0.37721863 0.6600754 0.111576535 -0.006336954 -0.29180977 -0.36075184 0.036330793 -0.10694254
0.52886313 -0.46987385 0.036607236 0.14159468 -0.060794957 -0.29379582 0.21735375 -0.2093803
-0.04076377 -0.21170253 0.3408629 0.011050026 0.012868899 0.00788096 0.23709856 0.39348993
-0.3380548 -0.12114071 -0.4363442 -0.41757843 0.15827157 -0.39189342 0.44943094 -0.38619986
-0.17428719 -0.015835265 -0.038543712 0.044883627 -0.23608597 0.13779569 -0.20675911 -0.18176873
0.11064784 0.17100237 -0.5008838 0.10101103 -0.10979287 -0.16857827 0.4464355 0.24580716
0.12400293 0.18017086 0.13446094 0.70335686 0.084901884 -0.0789632 0.1970865 -0.26630703
-0.2611842 0.12888746 0.13775659 -0.11205013 -0.29648226 -0.07239562 -0.13104165 0.20960067
0.20635585 -0.14343509 0.030310178 -0.29239935 -0.2900731 0.11260111 0.31940576 -0.12012527
-0.38080963 -0.21719387 0.15989973 0.0582268 0.36706552 -0.39069608 -0.2386252 0.2064845
0.1131264 -0.40181172 -0.012404808 -0.43689033 -0.20465797 -0.06330619 -0.11529546 -0.16773918
0.10879565 -0.25601888 0.06992389 0.050052073 -0.23240478 0.2929224 -0.017255688 0.1683492
0.0022461917 0.31249732 0.12548159 0.34626505 -0.23284343 0.2501926 -0.11371413 -0.21751621
0.3244005 0.18293062 -0.09336818 -0.029502755 -0.4339387 0.021124817 0.5731022 -0.0581591
0.23352133 -0.1324594 0.103335954 -0.21048413 -0.2832433 0.08060082 -0.07518998 0.1466866
-0.041917834 0.5348827 -0.025067741 -0.08427154 -0.19360732 -0.20410691 0.006076782 0.1303454
-0.35175127 -0.13275307 -0.018857528 0.24004066 0.18983108 -0.37190402 -0.131852 0.36482176
-0.18330224 0.10716806 -0.24392764 0.18175319 -0.20816255 -0.13229461 -0.07699062 0.17351195
0.098477595 0.39891466 -0.038815375 0.17215277 -0.14285837 -0.09011157 -0.1066308 -0.15108173
0.13457996 -0.055547465 0.06422345 0.06121017 -0.064350754 0.15202746 0.20580654 -0.11183888
0.05185984 -0.03840771 -0.043892827 -0.011734389 -0.03137271 -0.06409522 -0.05361939 0.006338026
0.07221066 -0.1493804 0.27319425 -0.06920602 0.09732564 -0.118037716 -0.3008096 -0.07512297
0.022359475 -0.292784 0.032249097 -0.46129584 0.15530077 -0.2067838 -0.0915223 0.22726011
0.20530932 -0.05546337 -0.0058623194 0.090898156 0.14559364 -0.21359529 -0.013269554 -0.24961257
-0.07673101 -0.0026696953 -0.07339936 0.10251987 0.10999013 -0.3270174 -0.027151654 0.08425747
0.23525205 -0.10567243 0.09527804 -0.16287996 -0.38675198 0.26464686 0.03941211 -0.1417473
0.028633526 0.32687125 0.19619791 0.25955808 0.08756935 0.1547284 -0.03867245 0.23197748
0.37322864 0.09719679 -0.1433298 -0.05753701 0.077561356 0.033400875 0.14287668 -0.083474115
00000000: 9e0d c33e 8f81 12bf 398d dcbe dbfb 4d3e
00000010: 223f 403e 3f5d 7ebb d3d5 a53e b0d8 93bd
00000020: 4f66 b8bd 8fd7 973c e9a2 7fbd 3311 c33e
00000030: db59 1d3f 74ac cebd 366b 90be 54fa 67bd
00000040: 3c88 71be f232 d23d 356f 81be d0ab a9be
00000050: 010f 973e adba f03d 2b9a f0bd 8973 abbe
00000060: 4cfd d63d f360 22be d4e2 a13e c5a9 123e
00000070: 9065 b03e 877f 023e 4e60 a43e 79ab 97bb
00000080: cd22 c13e b4fa 283f 3d82 e43d 39a6 cfbb
00000090: 1768 95be 77b4 b8be 99cf 143d b104 dbbd
000000a0: 9363 073f 4e93 f0be 78f1 153d 32fe 103e
000000b0: 2204 79bd 686c 96be fb91 5e3e ca67 56be
000000c0: e9f7 26bd 8cc8 58be 9585 ae3e 2b0b 353c
000000d0: 13d8 523c 241f 013c f7c9 723e 8377 c93e
000000e0: 8515 adbe 9f18 f8bd 8268 dfbe d7cc d5be
000000f0: f111 223e 41a6 c8be d01b e63e fdbb c5be
00000100: 5778 32be f5b8 81bc 03e0 1dbd e5d7 373d
00000110: 85c0 71be 501a 0d3e a9b8 53be 9521 3abe
00000120: 569b e23d 3f1b 2f3e ec39 00bf dfde ce3d
00000130: 16db e0bd c89f 2cbe 3293 e43e dfb4 7b3e
00000140: 40f5 fd3d b67e 383e 21b0 093e 320f 343f
00000150: 0ae1 ad3d 75b7 a1bd 0bd1 493e 6559 88be
00000160: efb9 85be 13fb 033e 1010 0d3e 8a7a e5bd
00000170: 86cc 97be 2844 94bd c82f 06be 8fa1 563e
00000180: f34e 533e a6e0 12be 0d4d f83c 5eb5 95be
00000190: 7684 94be 699b e63d 2789 a33e 3d04 f6bd
000001a0: 7bf9 c2be 1268 5ebe c1bc 233e 3a7f 6e3d
000001b0: 03f0 bb3e 5109 c8be 2a5a 74be ac70 533e
000001c0: d0ae e73d 44ba cdbe 893d 4bbc 17b0 dfbe
000001d0: dc91 51be ada6 81bd 0720 ecbd d2c3 2bbe
000001e0: 41d0 de3d e814 83be 4234 8f3d 6703 4d3d
000001f0: 85fb 6dbe edf9 953e cd5b 8dbc bc63 2c3e
00000200: d834 133b a6ff 9f3e 3f7e 003e a749 b13e
00000210: 826e 6ebe 3f19 803e f4e2 e8bd 92bc 5ebe
00000220: d317 a63e 2a52 3b3e d137 bfbd c3af f1bc
00000230: 372d debe f40d ad3c d3b6 123f 3d38 6ebd
00000240: 3720 6f3e 70a3 07be cda1 d33d 2789 57be
00000250: 4405 91be 0b12 a53d 34fd 99bd 0335 163e
00000260: 09b2 2bbd 13ee 083f dd5a cdbc 8f96 acbd
00000270: ff40 46be 6701 51be be1f c73b 4479 053e
00000280: be18 b4be 6cf0 07be 1a7b 9abc 38cd 753e
00000290: 1463 423e 346a bebe 3604 07be ebc9 ba3e
000002a0: 95b3 3bbe ee7a db3d 2bc8 79be 821d 3a3e
000002b0: 9028 55be 3d78 07be 42ad 9dbd 1ead 313e
000002c0: 9fae c93d 8b3e cc3e dffc 1ebd d148 303e
000002d0: 7749 12be 6a8c b8bd 4061 dabd 2bb5 1abe
000002e0: 54cf 093e bd85 63bd 9687 833d 84b7 7a3d
000002f0: 54ca 83bd 16ad 1b3e f3be 523e c80b e5bd
00000300: fc6a 543d 6751 1dbd f7c8 33bd 9841 40bc
00000310: ac80 00bd 5b44 83bd 01a0 5bbd 37af cf3b
00000320: 2fe3 933d 2df7 18be 1ee0 8b3e e3bb 8dbd
00000330: aa52 c73d c2bd f1bd b703 9abe 12da 99bd
00000340: 382b b73c c9e7 95be a117 043d f82e ecbe
00000350: 2a07 1f3e 22bf 53be 0b70 bbbd e0b6 683e
00000360: 9b3c 523e 8f2d 63bd b318 c0bb d028 ba3d
00000370: 8016 153e b9b8 5abe 8b68 59bc 709a 7fbe
00000380: 2625 9dbd 0ef6 2ebb 6752 96bd f0f5 d13d
00000390: 8142 e13d d36e a7be 256d debc 2e8f ac3d
000003a0: eae5 703e c96a d8bd 2221 c33d 01ca 26be
000003b0: 5b04 c6be cb7f 873e 986e 213d 3426 11be
000003c0: db90 ea3c ab5b a73e 1be8 483e cce4 843e
000003d0: 8f57 b33d 1f71 1e3e 0167 1ebd 818b 6d3e
000003e0: d317 bf3e 1c0f c73d 0cc5 12be eeab 6bbd
000003f0: 7dd8 9e3d 5bcf 083d 444e 123e 7af4 aabd

blocks.1.to_q.weight f4 [128, 8]
0.154 0.10283943 -0.22113127 0.20827372 -0.19097182 -0.15805806 0.112805784 -0.04280257
0.3708883 3.6508525e-05 0.2607075 0.10559956 -0.25315642 0.36346173 -0.05674416 -0.11478139
-0.024208657 0.41725883 -0.1401294 0.39811906 0.19682954 -0.5441568 -0.07459084 0.44784358
0.012682156 -0.037086733 -0.1293419 -0.16733457 -0.14319609 0.0912828 0.46887475 -0.066447824
0.09775831 -0.3152875 -0.3229803 -0.42028818 0.043964576 0.06896786 0.23607787 0.36804602
0.08939517 -0.10004417 -0.22719187 0.118672 0.06320231 0.07171662 0.167462 0.5603154
-0.007557031 0.093844794 0.038688365 0.13335833 0.103088304 -0.1255901 -0.29345092 -0.4220112
0.08795011 -0.014622564 -0.19658448 -0.24158406 0.30462316 0.055159897 -0.04570667 -0.16391307
0.083603755 0.20471187 -0.0397218 -0.312591 -0.061289053 0.036626086 0.18871109 -0.074918546
-0.11878548 0.18927461 -0.22808701 -0.07008043 -0.047393452 0.21728535 0.16048881 -0.23759392
-0.13336149 0.13628231 0.32678512 0.50416225 0.05396847 0.06132085 -0.18470563 0.0005321996
0.27787334 0.22621538 0.096243955 -0.2625981 -0.24732444 0.6332765 0.016956454 -0.30305266
-0.36369374 -0.20359758 -0.100352116 0.09625877 0.35971934 0.18706349 -0.17627954 -0.06283761
0.14142878 0.20080876 -0.11781902 0.2856675 -0.13444243 0.1604467 -0.21459022 -0.012274449
-0.090859026 0.19968404 -0.0802332 0.019180898 0.033905435 0.29525658 0.11129563 -0.1543917
-0.10407916 -0.13417488 -0.10519837 -0.21312168 -0.057258993 -0.084137484 0.055913895 0.09418915
-0.27687758 -0.1585066 0.00070809876 -0.10441391 -0.14070517 -0.07589126 -0.28494447 -0.017873554
0.1727221 -0.26056552 -0.20701918 -0.1509342 -0.034293905 0.28472236 -0.08043648 0.22312966
-0.11604261 0.017156959 -0.19638447 0.2046132 -0.17994906 0.1692908 -0.119743675 0.031058412
0.48564315 -0.36944026 -0.107349955 0.15604718 0.10930583 0.7250786 -0.13158824 0.02925943
-0.28169563 -0.071129575 -0.09105018 -0.13596787 -0.14962432 -0.18264274 0.20470488 0.29909536
0.014777829 0.1926292 -0.25831598 -0.057619024 0.2014468 0.13423434 0.081123754 -0.37181106
0.3332142 -0.40810516 -0.1960072 0.15529715 -0.43019313 -0.033057135 -0.06372257 0.17488742
0.12503567 -0.21198523 -0.062102556 -0.19011252 -0.3676747 -0.11742652 0.2082867 0.21815656
0.23010764 -0.2580831 -0.23126146 -0.37892747 -0.21197344 -0.14627258 0.25131434 0.1748231
0.08022694 -0.07345923 0.067856215 -0.47447032 0.14907753 0.020897498 0.3123492 -0.0010021668
-0.12353731 -0.23071702 -0.43717718 0.013647324 -0.2879341 -0.20449974 -0.108037345 -0.30846742
-0.26012382 0.19190995 0.23284952 0.17054912 -0.01709141 -0.2984369 -0.01550071 -0.06166992
-0.464533 0.1993674 -0.3113139 0.032635756 0.40644252 -0.24890865 0.08573593 -0.0734651
0.0049273237 -0.30913097 -0.025316782 -0.3231184 -0.19142586 -0.28676057 -0.12012305 0.001267273
-0.14454079 -0.10424817 0.067719914 0.52529895 -0.37124434 0.2140892 0.06362467 -0.14738142
-0.6010141 0.39564443 -0.07735282 0.15921447 0.07450021 -0.39790377 0.18588917 0.12621531
00000000: 2db2 1d3e 7b9d d23d 3c70 62be b545 553e
00000010: 1e8e 43be f9d9 21be b806 e73d bf51 2fbd
00000020: 12e5 bd3e bb20 1938 747b 853e 9544 d83d
00000030: b89d 81be a817 ba3e 906c 68bd 8112 ebbd
00000040: 3c51 c6bc f3a2 d53e 157e 0fbe 43d6 cb3e
00000050: af8d 493e dc4d 0bbf 15c3 98bd c14b e53e
00000060: d1c8 4f3c 42e8 17bd 3472 04be c159 2bbe
00000070: ffa1 12be 7af2 ba3d 5a10 f03e cc15 88bd
00000080: 8235 c83d 5d6d a1be ad5d a5be 0330 d7be
00000090: 3314 343d 053f 8d3d 66be 713e 8770 bc3e
000000a0: d114 b73d f5e3 ccbd fca4 68be 4e0a f33d
000000b0: 3670 813d 2ae0 923d 297b 2b3e d470 0f3f
000000c0: f8a0 f7bb b331 c03d b177 1e3d 168f 083e
000000d0: f61f d33d b19a 00be 333f 96be da11 d8be
000000e0: 301f b43d 7b93 6fbc 714d 49be d061 77be
000000f0: 91f7 9b3e 58ef 613d eb36 3bbd d4d8 27be
00000100: 7238 ab3d fd9f 513e 53b3 22bd ed0b a0be
00000110: 3b0a 7bbd 3c05 163d 7b3d 413e e56e 99bd
00000120: cd45 f3bd 34d1 413e a48f 69be 5486 8fbd
00000130: a31f 42bd 0d80 5e3e 2e57 243e d24b 73be
00000140: ea8f 08be 978d 0b3e 6150 a73e c710 013f
00000150: 0b0e 5d3d 922b 7b3d 7923 3dbe 5083 0b3a
00000160: 6a45 8e3e 01a5 673e 8d1b c53d 4273 86be
00000170: 9e42 7dbe 691e 223f 43e8 8a3c b829 9bbe
00000180: 1136 babe e27b 50be 6985 cdbd 5123 c53d
00000190: 222d b83e 928d 3f3e a082 34be 01b1 80bd
000001a0: b5d2 103e d0a0 4d3e 194b f1bd 0343 923e
000001b0: 47ab 09be 244c 243e 8abd 5bbe c51a 49bc
000001c0: 4c14 babd f979 4c3e 4e51 a4bd 4221 9d3c
000001d0: 6de0 0a3d df2b 973e f7ee e33d dc18 1ebe
000001e0: 7427 d5bd 2465 09be 3e72 d7bd 923c 5abe
000001f0: 6888 6abd 4650 acbd f805 653d 3ee6 c03d
00000200: e6c2 8dbe 8e4f 22be b49f 393a f6d6 d5bd
00000210: 0415 10be e06c 9bbd 3ee4 91be 8f6b 92bc
00000220: 10de 303e d868 85be d6fc 53be 7f8e 1abe
00000230: c477 0cbd 21c7 913e e2bb a4bd 1a7c 643e
00000240: bfa7 edbd c08c 8c3c 0319 49be 1f86 513e
00000250: 9144 38be 915a 2d3e 2c3c f5bd 366e fe3c
00000260: 38a6 f83e 4627 bdbe 4bda dbbd d5ca 1f3e
00000270: bcdb df3d c09e 393f 11bf 06be 79b1 ef3c
00000280: 693a 90be 62ac 91bd 8478 babd 293b 0bbe
00000290: 1e37 19be b306 3bbe 289e 513e 0723 993e
000002a0: b51e 723c 9740 453e fe41 84be ed01 6cbd
000002b0: 1248 4e3e ba74 093e 3624 a63d 055e bebe
000002c0: 0d9b aa3e 29f3 d0be 1db6 48be 3706 1f3e
000002d0: 4642 dcbe eb66 07bd fb80 82bd b015 333e
000002e0: 5a09 003e a812 59be 405f 7ebd dbac 42be
000002f0: dc3f bcbe 517d f0bd 1c49 553e 6f64 5f3e
00000300: 56a1 6b3e 7823 84be cecf 6cbe c802 c2be
00000310: 910f 59be 7bc8 15be 46ac 803e d404 333e
00000320: 064e a43d cb71 96bd 33f8 8a3d c6ed f2be
00000330: c8a7 183e 3b31 ab3c 3cec 9f3e 235b 83ba
00000340: 2101 fdbd 1541 6cbe b0d5 dfbe 0799 5f3c
00000350: 196c 93be 6168 51be af42 ddbd 71ef 9dbe
00000360: f32e 85be 0b84 443e 1b70 6e3e 6ea4 2e3e
00000370: 4903 8cbc b9cc 98be b1f6 7dbc 9999 7cbd
00000380: 45d7 edbe f826 4c3e 8964 9fbe 12ad 053d
00000390: 3c19 d03e e9e1 7ebe 5296 af3d df74 96bd
000003a0: 6375 a13b 6a46 9ebe 2465 cfbc c66f a5be
000003b0: 2405 44be 48d2 92be 1303 f6bd a01a a63a
000003c0: 8002 14be 1180 d5bd bdb0 8a3d fe79 063f
000003d0: bd13 bebe 333a 5b3e a74d 823d 28eb 16be
000003e0: 0fdc 19bf e891 ca3e 286b 9ebd 1e09 233e
000003f0: 9193 983d 0bba cbbe bb59 3e3e 963e 013e

blocks.1.to_kv.weight f4 [256, 8]
-0.24848682 0.011979111 0.12197851 -0.062132623 0.010792133 0.14002688 0.16017762 0.18750042
-0.27784497 -0.4789096 0.5339371 -0.2349006 0.24793467 -0.41127843 0.10224198 -0.21386027
-0.022428615 0.47140852 0.09675164 0.27133486 -0.44286075 0.17724408 0.47734588 0.485013
-0.014021842 0.22613621 -0.18891448 0.16710238 0.3837213 0.021001088 0.09544817 0.08903909
0.030582896 0.34531784 -0.1749623 -0.011541131 0.00914705 -0.14704636 0.068487845 -0.043890703
0.16550139 0.17395058 -0.047835242 0.030403558 0.023535792 -0.23894022 -0.046015225 -0.11338646
0.1424143 -0.05439641 -0.040858455 -0.051937897 -0.20772366 0.1013292 -0.07954065 0.14766544
0.13753234 -0.05263021 -0.23846151 0.049139168 -0.37702677 -0.16819331 -0.36901486 -0.06791934
-0.24715465 0.13508347 -0.13563138 0.007706297 0.1252536 0.021067062 0.2748112 0.0991312
-0.10190974 -0.118110545 0.37158427 -0.016277263 -0.1113536 -0.06586373 -0.14301088 -0.12316251
-3.0823583e-05 0.2316199 0.27730042 -0.15448217 0.26685968 0.25158504 -0.2244279 -0.34966764
-0.20289458 -0.22488476 0.6572606 0.044355422 0.31844825 -0.48389906 -0.4366587 -0.59570557
-0.048838127 0.13604869 0.10034735 -0.20090224 0.14776269 0.2589462 -0.35746697 -0.087733954
-0.041286606 0.010010197 0.37794492 -0.13024391 0.24567369 -0.019434452 -0.065426916 -0.38602993
-0.20330611 -0.06540337 0.12766835 -0.11740906 0.38184774 0.0901803 0.015211159 -0.24978377
-0.02762538 0.2551711 0.14045078 0.083627716 -0.025345242 -0.031073106 0.22728813 0.38502696
-0.035052452 -0.13242397 0.047919836 0.047996074 -0.3534455 0.0116506405 0.06142078 -0.0139038395
-0.024923827 -0.22346026 0.53939056 -0.110200204 0.033504046 -0.27932087 -0.15786712 -0.2886109
-0.2107054 0.043332595 0.2797511 -0.3287013 0.36550972 0.06826291 0.16732244 -0.26223177
-0.15154499 -0.5653066 -0.04098832 -0.10551688 0.5312476 -0.47470295 -0.23151562 -0.47677866
-0.35107633 0.004669179 -0.34226546 0.05202417 -0.1008222 0.20253193 0.4565396 0.29473162
-0.23496549 0.16017447 -0.20009492 -0.23540135 0.12036683 0.17612348 -0.29895318 -0.11372796
-0.30886108 -0.20764506 0.08884455 -0.28896376 0.18739691 0.0054607983 -0.2675938 -0.47599235
0.037301198 0.37416995 0.1635698 -0.014030383 0.39568225 -0.034665134 0.16444413 0.34422913
-0.25904056 0.002064332 0.30660713 -0.032786094 -0.13247384 -0.060861096 0.23186696 0.3538395
0.13716376 -0.21113892 -0.2560455 0.24318296 -0.086962655 -0.20148657 0.014115181 0.35823676
-0.14457297 0.19786122 -0.06401679 -0.05313418 0.17598604 0.14041701 0.14532067 0.3613906
0.067545615 0.23529251 -0.081862815 0.32260102 -0.41862786 0.21015735 -0.08256201 0.17713119
0.014401687 0.4560277 -0.52132994 0.13969661 -0.43996215 0.2980088 0.2753725 0.048579033
-0.125727 0.53861517 0.13226856 -0.14310604 -0.07985624 0.21867102 0.1998847 0.22998694
0.0040600454 -0.35641673 0.081538826 -0.014315234 0.4281347 -0.039481495 -0.2108292 -0.16850367
-0.06959707 0.5544838 0.02491841 0.18218559 -0.40405157 0.31579268 0.4647927 0.36241585
00000000: 5473 7ebe 0844 443c decf f93d c77e 7ebd
00000010: 7dd1 303c 3563 0f3e 9a05 243e 1c00 403e
00000020: b241 8ebe a433 f5be 1ab0 083f c889 70be
00000030: 96e2 7d3e 1693 d2be 3e64 d13d 30fe 5abe
00000040: 37bc b7bc 755c f13e b925 c63d 67ec 8a3e
00000050: a5be e2be 797f 353e ae66 f43e a053 f83e
00000060: debb 65bc 4090 673e cc72 41be e31c 2b3e
00000070: 1e77 c43e 790a ac3c 557a c33d 205a b63d
00000080: fb88 fa3c 80cd b03e 5129 33be 0317 3dbc
00000090: 82dd 153c 5293 16be 5b43 8c3d bdc6 33bd
000000a0: 3279 293e 1a20 323e e3ee 43bd e210 f93c
000000b0: 22ce c03c bfac 74be 767a 3cbd 2937 e8bd
000000c0: 0ed5 113e c5ce 5ebd 325b 27bd d5bc 54bd
000000d0: 83b5 54be af85 cf3d 35e6 a2bd 9c35 173e
000000e0: 47d5 0c3e c692 57bd 412f 74be 2746 493d
000000f0: a709 c1be de3a 2cbe 84ef bcbe 4c19 8bbd
00000100: 1c16 7dbe 5253 0a3e f4e2 0abe 1b85 fc3b
00000110: 7b42 003e d594 ac3c 0eb4 8c3e 4c05 cb3d
00000120: 0eb6 d0bd f1e3 f1bd 4b40 be3e e557 85bc
00000130: 5b0d e4bd 90e3 86bd 7271 12be a03c fcbd
00000140: 9248 01b8 c42d 6d3e 52fa 8d3e 9330 1ebe
00000150: d5a1 883e c1cf 803e 6dd0 65be a307 b3be
00000160: 99c3 4fbe 3148 66be 3b42 283f 08ae 353d
00000170: a60b a33e 9ec1 f7be bb91 dfbe 2980 18bf
00000180: 7d0a 48bd 5950 0b3e e982 cd3d 51b9 4dbe
00000190: 1a4f 173e 9994 843e e905 b7be dcad b3bd
000001a0: 251c 29bd cf01 243c ff81 c13e a95e 05be
000001b0: e291 7b3e 0035 9fbc 8cfe 85bd b7a5 c5be
000001c0: 7a2f 50be 34f2 85bd 7ebb 023e 2974 f0bd
000001d0: 8c81 c33e 73b0 b83d 3a38 793c 51c7 7fbe
000001e0: 9f4e e2bc c9a5 823e 54d2 0f3e 0245 ab3d
000001f0: d3a0 cfbc 078d febc 38be 683e 4122 c53e
00000200: 2993 0fbd 269a 07be 9747 443d 8897 443d
00000210: cff6 b4be 54e2 3e3c 5b94 7b3d eecc 63bc
00000220: 0e2d ccbc c4d2 64be 8015 0a3f a5b0 e1bd
00000230: 8a3b 093d 2503 8fbe eba7 21be cfc4 93be
00000240: 28c3 57be 857d 313d 893b 8f3e 894b a8be
00000250: 1724 bb3e 6dcd 8b3d 9356 2b3e 3e43 86be
00000260: 9c2e 1bbe efb7 10bf 5ee3 27bd 3c19 d8bd
00000270: d8ff 073f 440c f3be 6e12 6dbe 551c f4be
00000280: 47c0 b3be eaff 983b 6b3d afbe 4c17 553d
00000290: df7b cebd 8864 4f3e 8fbf e93e 10e7 963e
000002a0: cb9a 70be c704 243e afe5 4cbe 0d0d 71be
000002b0: e282 f63d b759 343e 6410 99be 34ea e8bd
000002c0: 0a23 9ebe e8a0 54be 22f4 b53d 0ff3 93be
000002d0: fae4 3f3e 7ff0 b23b 0e02 89be 45b5 f3be
000002e0: 24c9 183d 3493 bf3e d77e 273e b1df 65bc
000002f0: dd96 ca3e 07fd 0dbd 0b64 283e cd3e b03e
00000300: f7a0 84be be49 073b 9cfb 9c3e b64a 06bd
00000310: 39a7 07be 7c49 79bd 886e 6d3e 732a b53e
00000320: a874 0c3e cd34 58be 6518 83be f404 793e
00000330: 7a19 b2bd 7f52 4ebe 5c43 673c cf6a b73e
00000340: f00a 14be 229c 4a3e 3c1b 83bd 3aa3 59bd
00000350: af35 343e 7ac9 0f3e f1ce 143e 3008 b93e
00000360: 5b55 8a3d 85f0 703e b1a7 a7bd f62b a53e
00000370: 6456 d6be 7d33 573e 4516 a9bd e161 353e
00000380: 0ef5 6b3c 767c e93e e175 05bf a10c 0f3e
00000390: b842 e1be 9c94 983e a0fd 8c3e cffa 463d
000003a0: 94be 00be afe2 093f 6971 073e 648a 12be
000003b0: ab8b a3bd 4ceb 5f3e 93ae 4c3e b281 6b3e
000003c0: 210a 853b 417c b6be d4fd a63d 718a 6abc
000003d0: 7934 db3e 59b7 21bd 9ce3 57be 3a8c 2cbe
000003e0: e988 8ebd a6f2 0d3f b221 cc3c dc8e 3a3e
000003f0: d9df cebe 94af a13e 4ff9 ed3e 928e b93e

blocks.1.to_out.weight f4 [8, 128]
-0.066721186 0.041221276 -0.068461634 -0.28381288 0.09248986 -0.9315189 -0.14247705 0.16299357
0.101179674 -0.48392367 -0.024895167 -0.2325732 0.10466057 0.13625367 0.035464372 0.06288396
-0.39656785 0.27311593 -0.03069855 -0.27973646 -0.059603408 0.08701285 -0.2693215 -0.026594914
0.04921382 0.07772716 -0.022016926 -0.2023105 0.15255582 -0.39144418 0.12437707 -0.3778343
0.13139004 0.20063728 0.030725388 -0.32853755 0.038769968 0.52342856 0.10265926 0.02338974
-0.20164762 -0.04095929 0.058671393 -0.9811687 -0.11858202 -0.07444225 0.38205728 -0.13271873
-0.25529218 0.33737794 -0.484808 -0.2780292 -0.2662738 -0.14519307 -0.05891682 -0.10208854
0.17779875 0.08772928 -0.1717987 -0.12257306 0.21088466 -0.29943392 0.04629644 0.046753492
0.43226418 0.089212105 0.28375924 -0.40044162 0.1637973 -0.16066425 -0.52930796 0.152399
-0.39005417 -0.32639667 -0.7021432 0.23108628 -0.08156335 -0.33077082 0.37784672 0.15493181
-0.4951155 0.36650446 -0.0050798845 -0.54476064 0.10542048 0.25559697 0.4600446 0.21307848
0.03920372 -0.23440808 0.12011876 0.15500738 -0.15133479 -0.34007597 -0.35517308 0.03747951
-0.16283077 -0.3272154 0.14610447 0.022202952 -0.19341539 0.06207143 -0.8636916 0.01747039
-0.035322655 0.13843119 -0.39963648 0.6424999 -0.059817012 0.075585335 0.1604715 -0.028653216
0.045574475 -0.0836061 0.3173906 0.0943399 -0.21969602 -0.2654948 0.10334559 0.16008079
-0.64617586 -0.6410676 -0.42925608 0.37236527 -0.29393822 0.0870023 0.073391646 0.6416319
0.04795884 -0.05358607 0.31633282 0.062081404 -0.21562724 -0.08972419 0.15755579 -0.18196633
-0.08080772 0.11161056 -0.048062194 0.18193728 -0.030054336 -0.23612702 -0.21467671 -0.21269064
0.11356161 0.1843488 0.038401734 0.12108475 0.19543603 -0.2683595 0.007130045 0.089802094
-0.1447454 0.034578584 -0.044819973 0.27262846 -0.3082235 0.16744423 -0.25715098 0.30580875
-0.050795376 -0.243253 -0.19354956 0.3427789 -0.01034571 -0.14272554 -0.1501627 -0.087040894
0.27590966 0.04686568 -0.23583701 -0.02805063 0.22666024 -0.056195065 -0.25877637 -0.004641586
0.28172523 -0.09211884 -0.061479665 0.0006258754 0.32436848 0.092654325 -0.11106466 -0.037866328
-0.1376947 -0.10146092 -0.060623772 0.18492264 -0.23441389 0.108452834 0.18191874 0.015561048
-0.07955074 0.024120806 0.10847909 0.07530623 -0.028743053 0.0863971 0.091539726 0.13263035
-0.041589633 0.0067141717 0.046299487 -0.141488 0.012347074 0.16347793 0.067767136 -0.023612084
0.17071994 -0.08778095 -0.14588179 0.071317695 -0.1466383 -0.08056132 -0.09988618 0.10022853
-0.09872477 -0.058464203 0.15849714 -0.04661524 0.12709476 0.04081153 -0.07020828 0.035858892
-0.07955631 -0.031317383 0.046375427 0.17957763 -0.06414224 0.021555005 0.0013969024 0.052720986
-0.15105295 0.11055846 0.029949397 -0.11044507 0.12929016 0.138236 0.0011200808 -0.103060365
-0.15047865 0.10737196 -0.05751973 0.020655215 -0.08988497 0.107061766 0.2332738 -0.1714314
0.12227467 0.17382593 0.11059514 -0.004206359 0.059368126 -0.06161011 -0.047001243 -0.11256033
00000000: 1ea5 88bd a4d7 283d 9d35 8cbd ec4f 91be
00000010: 536b bd3d 0678 6ebf 81e5 11be c9e7 263e
00000020: 4a37 cf3d d8c4 f7be f3f0 cbbc ab27 6ebe
00000030: 4858 d63d 1586 0b3e 1743 113d 4ec9 803d
00000040: f10a cbbe dad5 8b3e 877b fbbc 9e39 8fbe
00000050: b422 74bd cb33 b23d 82e4 89be 94dd d9bc
00000060: 6e94 493d 6b2f 9f3d d75c b4bc 7c2a 4fbe
00000070: 9837 1c3e 5f6b c8be 68b9 fe3d 7f73 c1be
00000080: 1c8b 063e dc73 4d3e cfb3 fb3c 1336 a8be
00000090: 42cd 1e3d 6aff 053f 053f d23d d79b bf3c
000000a0: b77c 4ebe eec4 27bd 6a51 703d df2d 7bbf
000000b0: 21db f2bd 2e75 98bd 039d c33e 6be7 07be
000000c0: a8b5 82be cdbc ac3e c138 f8be d859 8ebe
000000d0: 0a55 88be 7ead 14be c352 71bd cc13 d1bd
000000e0: e010 363e 69ab b33d 00ec 2fbe 9607 fbbd
000000f0: 26f2 573e 674f 99be 56a1 3d3d 9780 3f3d
00000100: bb51 dd3e d6b4 b63d e448 913e af06 cdbe
00000110: 7bba 273e 2b85 24be ba80 07bf 7c0e 1c3e
00000120: 2eb5 c7be 771d a7be a8bf 33bf e2a1 6c3e
00000130: b00a a7bd cb5a a9be 2075 c13e 72a6 1e3e
00000140: c77f fdbe 79a6 bb3e 2975 a6bb 6f75 0bbf
00000150: b1e6 d73d 9bdd 823e f78a eb3e 3f31 5a3e
00000160: 1494 203d ac08 70be d300 f63d 41ba 1e3e
00000170: 82f7 1abe 701e aebe 3fd9 b5be 1d84 193d
00000180: 1cbd 26be c788 a7be 699c 153e f7e2 b53c
00000190: af0e 46be 9d3e 7e3d e51a 5dbf 101e 8f3c
000001a0: 7dae 10bd e8c0 0d3e 279d ccbe e07a 243f
000001b0: af02 75bd 7ccc 9a3d a452 243e 26ba eabc
000001c0: 4dac 3a3d ad39 abbd 0581 a23e 4735 c13d
000001d0: fef7 60be efee 87be daa6 d33d 38ec 233e
000001e0: c86b 25bf 021d 24bf 74c7 dbbe a9a6 be3e
000001f0: 127f 96be 432e b23d 5c4e 963d fd41 243f
00000200: 7d70 443d 117d 5bbd 60f6 a13e 1249 7e3d
00000210: 63cd 5cbe 51c1 b7bd 4e56 213e 6255 3abe
00000220: 857e a5bd 1494 e43d dddc 44bd c44d 3a3e
00000230: 8334 f6bc 48cb 71be 36d4 5bbe 93cb 59be
00000240: fd92 e83d efc5 3c3e 234b 1d3d 48fb f73d
00000250: 6220 483e 6b66 89be 27a3 e93b 29ea b73d
00000260: 2338 14be 46a2 0d3d 2695 37bd f595 8b3e
00000270: 78cf 9dbe 8076 2b3e 4ba9 83be f792 9c3e
00000280: d00e 50bd 5017 79be db31 46be b780 af3e
00000290: 0e81 29bc a526 12be 40c4 19be 7f42 b2bd
000002a0: 0844 8d3e 3af6 3f3d 427f 71be 6fca e5bc
000002b0: 9f19 683e cc2c 66bd 567e 84be 7218 98bb
000002c0: 4a3e 903e cda8 bcbd 1ad2 7bbd c911 243a
000002d0: a013 a63e 8dc1 bd3d de75 e3bd b919 1bbd
000002e0: d7ff 0cbe beca cfbd a250 78bd 5c5c 3d3e
000002f0: 320a 70be 851c de3d e848 3a3e c4f3 7e3c
00000300: 80eb a2bd ff98 c53c 492a de3d 273a 9a3d
00000310: 8d76 ebbc f6f0 b03d 2e79 bb3d 40d0 073e
00000320: e459 2abd 8e02 dc3b 88a4 3d3d 3be2 10be
00000330: 624b 4a3c c266 273e 7fc9 8a3d 216e c1bc
00000340: 35d1 2e3e 80c6 b3bd 0962 15be 030f 923d
00000350: 5a28 16be 55fd a4bd 2091 ccbd 9e44 cd3d
00000360: 3630 cabd 2978 6fbd 134d 223e 9fef 3ebd
00000370: 2125 023e fe29 273d 5cc9 8fbd c6e0 123d
00000380: 6bee a2bd a846 00bd 29f4 3d3d 33e3 373e
00000390: 025d 83bd 1f94 b03c 4418 b73a f6f1 573d
000003a0: a0ad 1abe 796c e23d 7058 f53c 0631 e2bd
000003b0: a464 043e bd8d 0d3e adcf 923a 5011 d3bd
000003c0: 1317 1abe d5e5 db3d cf99 6bbd 2035 a93c
000003d0: 9c15 b8bd 3343 db3d 54df 6e3e b78b 2fbe
000003e0: 246b fa3d 6dff 313e b47f e23d 7fd5 89bb
000003f0: fe2b 733d e25a 7cbd 6084 40bd 0886 e6bd

mlp.0.weight f4 [10, 8]
-0.06675077 -0.37004915 0.48797342 0.3078001 -0.31177896 -0.25933844 -0.06137933 -0.7703744
0.043228343 0.20506622 -0.6153221 -0.43206754 0.40656057 0.18599969 -0.02433078 -0.14310326
-0.15984385 0.17568024 0.307886 0.28642556 0.1322265 0.3356866 -0.08366582 -0.1209275
-0.4382586 -0.3096398 -0.4646045 0.2355864 -0.2762641 -0.0021858513 0.26818582 -0.75183266
-0.31787246 0.03150875 0.37184772 -0.4849576 0.3977646 0.2279831 -0.42038313 0.43380073
-0.05506472 -4.367221e-05 0.014987649 0.28069213 0.12468795 0.16598056 -0.08914432 -0.40695015
0.020657068 -0.06457737 0.42395285 0.2222307 -0.12455377 0.051809926 -0.0030507399 -0.13172698
0.43948042 0.09981764 0.09406295 0.03774603 0.23929447 0.8069335 0.84815884 0.42472643
-0.5033538 -0.10516116 -0.030272262 0.1687448 -0.5290349 -0.4168068 -0.22122772 0.2635803
0.6057326 -0.24598871 0.34278524 0.29617453 0.32783055 -0.38973147 0.20733391 0.6628846
00000000: a1b4 88bd 1577 bdbe a7d7 f93e fa97 9d3e
00000010: 7ea1 9fbe 02c8 84be e468 7bbd 4237 45bf
00000020: 3410 313d e1fc 513e c085 1dbf f537 ddbe
00000030: b528 d03e b476 3e3e 5851 c7bc a989 12be
00000040: 1bae 23be 85e5 333e 3ca3 9d3e 5fa6 923e
00000050: 6266 073e 1ddf ab3e fc58 abbd d6a8 f7bd
00000060: 6e63 e0be 1c89 9ebe a4e0 edbe 903d 713e
00000070: 7d72 8dbe 8040 0fbb a74f 893e 1b78 40bf
00000080: 2ec0 a2be 520f 013d d362 be3e 5d4c f8be
00000090: cda7 cb3e 6774 693e 753c d7be 211b de3e
000000a0: 8b8b 61bd ae2c 37b8 c28e 753c e1b6 8f3e
000000b0: 655c ff3d cff6 293e 4c91 b6bd c55b d0be
000000c0: 0339 a93c 2441 84bd 5910 d93e 7290 633e
000000d0: 0c16 ffbd a536 543d ecee 47bb 70e3 06be
000000e0: 9403 e13e 316d cc3d 13a4 c03d 959b 1a3d
000000f0: 9c09 753e 3293 4e3f f020 593f be75 d93e
00000100: cbdb 00bf bc5e d7bd 89fd f7bc 70cb 2c3e
00000110: d56e 07bf b367 d5be 8589 62be fff3 863e
00000120: 4b11 1b3f 77e4 7bbe 8c81 af3e 30a4 973e
00000130: 68d9 a73e e28a c7be 574f 543e ceb2 293f

mlp.0.bias f4 [10]
-0.6277678 0.09683687 0.012970874 -0.73356825 -0.21916102 0.12605259 0.4003901 0.09581605
0.9272931 -0.028058311
00000000: 64b5 20bf 6952 c63d ca83 543c 21cb 3bbf
00000010: bf6b 60be ee13 013e eeff cc3e 353b c43d
00000020: 1563 6d3f 8bda e5bc
