weights/flashkan_vit_8epochs.pth (torch, 362900 bytes, 33 tensors)

v_class f4 [1, 8]
0	0x3f1ca163	0.61183757
1	0x3e80e421	0.2517405
2	0x3ef6239f	0.48074052
3	0xbd087ec4	-0.033324018
4	0x3ec80d15	0.3907248
5	0xbd8f3d0d	-0.069940664
6	0x3f32dd8f	0.6986932
7	0x3d09feee	0.033690386

linear_mapper.base_weight f4 [8, 16]
0	0x3da6ea31	0.08150137
1	0x3dae388f	0.085068814
2	0x3c9d7c60	0.019224346
3	0x3de4c4dc	0.111703604
4	0xbd89e49d	-0.06733058
5	0x3d8ae8b2	0.06782664
6	0xbab609b4	-0.001388839
7	0x3e90a1b6	0.28248376
8	0xbe1010f0	-0.14068961
9	0x3d1c0c47	0.038097646
10	0x3e3b45a5	0.18288286
11	0x3e750865	0.23928984
12	0x3cbf564f	0.023356585
13	0x3e5274d8	0.20552385
14	0x3e616155	0.22009785
15	0x3e266448	0.16249192
16	0xbd5f5da7	-0.054532673
17	0x3b149640	0.0022672564
18	0xbdf679db	-0.12034961
19	0x3e1c6875	0.15274222
20	0xbd9a1ba8	-0.07524806
21	0xbd977539	-0.07395405
22	0xbe1aa29c	-0.15101093
23	0x3e2fc94d	0.17166634
24	0xbd81ef19	-0.063444324
25	0xbd0835ee	-0.033254556
26	0xbe3579e2	-0.17722276
27	0x3e3d8a70	0.18509841
28	0xbde0fafc	-0.109853715
29	0xbe522bce	-0.20524523
30	0xbd5a2367	-0.05325642
31	0x3d60c3f9	0.054874394
32	0x3e440119	0.19141044
33	0x3d928adc	0.071553916
34	0xbbc940c2	-0.006141753
35	0x3c1cb5f1	0.009564863
36	0xbdad8828	-0.08473235
37	0xbbce6236	-0.0062983287
38	0xbd66b889	-0.05632833
39	0xbc70e528	-0.014703073
40	0x3d8a2230	0.06744802
41	0xbd4c6fcd	-0.04991131
42	0xbc36cf2f	-0.011157795
43	0x3d4bce2d	0.04975717
44	0x3c6db1d5	0.0145077305
45	0xbcdf627e	-0.027268644
46	0x3baa3322	0.005194084
47	0x3e4ba4c6	0.19887075
48	0x3e76c206	0.24097452
49	0x3c0ed7c9	0.008718439
50	0xbdedfe52	-0.116207734
51	0xbe0d19e6	-0.1377941
52	0xbe17dc77	-0.14830194
53	0x3dc89d58	0.09795636
54	0xbcddd642	-0.027079705
55	0x3aa3335c	0.0012451219
56	0xbd8cf8d6	-0.06883399
57	0x3db98406	0.090583846
58	0x3dd22f4d	0.10262928
59	0xbda1fe64	-0.07909849
60	0xbf0291a5	-0.51003486
61	0xbe6c4a93	-0.23075323
62	0xbe4c4b32	-0.1995056
63	0xbe7fa3a4	-0.24964768
64	0x3e83fb5f	0.25777718
65	0x3e811827	0.2521374
66	0x3eb9f8ed	0.36322728
67	0x3e1acb86	0.151167
68	0xbee8b17f	-0.4544792
69	0xbe614340	-0.2199831
70	0x3e17f3df	0.14839123
71	0xbe7bdedd	-0.24596734
72	0xbe8fd611	-0.28093007
73	0xbeb74071	-0.35791352
74	0xbec192f8	-0.3780744
75	0xbee51d91	-0.4474912
76	0x3d84de77	0.06487744
77	0x3e83e8bf	0.2576351
78	0x3e58134f	0.21101116
79	0x3dc844ad	0.09778724
80	0xbf3de9a6	-0.74184644
81	0xbf09726f	-0.53690237
82	0xbe8f92e8	-0.28041768
83	0xbed2f3e9	-0.41201714
84	0xbe8e3c9e	-0.27780622
85	0xbca3084b	-0.019901415
86	0x3eed1196	0.4630248
87	0xbd93abd8	-0.07210511
88	0xbf379cb6	-0.71723497
89	0x3e9c7215	0.30555788
90	0x3e41f819	0.18942298
91	0xbe8aa12b	-0.27076086
92	0xbf04ddd5	-0.5190099
93	0x3e908f45	0.28234306
94	0x3e50d372	0.2039316
95	0xbe5d63e8	-0.21620142
96	0xbdac0bb4	-0.0840067
97	0xbea5b1a8	-0.32362103
98	0xbf2bed9f	-0.67159456
99	0xbf0ddb35	-0.5541261
100	0xbe54a4c1	-0.20765974
101	0xbed1188e	-0.40839046
102	0xbeae2fcb	-0.34020838
103	0x3e962d7e	0.29331583
104	0xbdf4fff6	-0.11962883
105	0xbf2a84fa	-0.66609156
106	0xbe4ad514	-0.19807845
107	0x3d58dfcd	0.052947808
108	0xbf5949c7	-0.848782
109	0xbf20bba5	-0.6278632
110	0x3e084af7	0.13309847
111	0x3ebff5ad	0.37492123
112	0x3e986600	0.2976532
113	0xbe4b64e7	-0.1986271
114	0xbeb623d5	-0.35574213
115	0xbf610afe	-0.879074
116	0x3eaf7c66	0.34274596
117	0xbc1af7a1	-0.009458453
118	0xbdf79f2f	-0.12090909
119	0xbf46b774	-0.7762368
120	0x3e1cad39	0.15300454
121	0xbe133f3e	-0.14379594
122	0xbec23b95	-0.37936082
123	0xbeae3f42	-0.34032637
124	0x3e598f51	0.21246077
125	0xbf457830	-0.77136517
126	0xbf57a378	-0.8423381
127	0xbed46a8b	-0.41487536

linear_mapper.spline_weight f4 [8, 16, 8]
0	0x3b14e539	0.0022719635
1	0x3c2a8f62	0.010410162
2	0x39adf92b	0.00033182776
3	0x3bf58f89	0.0074939174
4	0x3c0decb8	0.008662395
5	0xbde115ae	-0.10990463
6	0xbd13346f	-0.035938676
7	0x3d75b90f	0.05999094
8	0xbb757c97	-0.0037458295
9	0xbc56b296	-0.013104102
10	0x3d82ef3b	0.06393286
11	0x3d577565	0.05260219
12	0xbc6387db	-0.013887371
13	0xbe04e5ea	-0.1297833
14	0x3d4eb15a	0.050462104
15	0x3d5c1b24	0.05373682
16	0xbb2479e9	-0.0025097078
17	0xbba96db5	-0.005170549
18	0xb9f38810	-0.00046449946
19	0x3c8515e2	0.016245786
20	0x3d0963c7	0.03354242
21	0xbd0a3f40	-0.033751726
22	0x3c003db8	0.007827215
23	0xbda0c48c	-0.07849988
24	0xb8af515d	-8.359805e-05
25	0xba87f699	-0.0010373174
26	0xbd3986a1	-0.045294408
27	0x3afc745b	0.0019260751
28	0x3df4c77e	0.119521126
29	0x3ec9e672	0.39433628
30	0xbe770065	-0.24121244
31	0xbef06dbd	-0.46958724
32	0x3ab818cc	0.0014045476
33	0x3c22ff53	0.009948569
34	0xbc959384	-0.018258817
35	0xbd4f2e6a	-0.050581373
36	0xbccbb658	-0.024867222
37	0x3be5e337	0.0070156115
38	0x3c399977	0.011328093
39	0x3c9868e6	0.018604707
40	0x3b5a5793	0.0033316358
41	0x3bd57827	0.0065145674
42	0xbc8d7f28	-0.017272547
43	0x3abd1d87	0.0014428355
44	0x3cdfd1d0	0.027321726
45	0x3e8eeae0	0.2791357
46	0xbe130173	-0.14356022
47	0xbe7eb526	-0.2487379
48	0xbb069770	-0.002053704
49	0xbc0eb998	-0.008711241
50	0xbe4707fc	-0.1943664
51	0xbdad33c3	-0.084571384
52	0x3e4ca4b7	0.19984709
53	0x3ec09268	0.376117
54	0xbdde015f	-0.10840105
55	0xbee06087	-0.43823645
56	0x3b8f28d1	0.0043688794
57	0x3c33928d	0.010960233
58	0xbea42591	-0.3205991
59	0xbcba8a1c	-0.022770934
60	0x3ec6617c	0.3874625
61	0x3f0865aa	0.5328013
62	0xbe2630c0	-0.16229534
63	0xbf0f9cfd	-0.5609892
64	0x3bab877a	0.005234656
65	0x3c535811	0.012899415
66	0xbd3ad2fe	-0.045611374
67	0xbaf45bbd	-0.0018643063
68	0xbcbb35b6	-0.02285276
69	0x3d43365c	0.047659263
70	0xbb771108	-0.003769936
71	0xbc04a552	-0.008096056
72	0xbb1c69dd	-0.002386681
73	0xbc33a325	-0.01096419
74	0xbd2fee63	-0.042951953
75	0xbcec6c7f	-0.028860329
76	0x3ccb6d92	0.02483252
77	0xbaf7aa81	-0.0018895419
78	0xbb728487	-0.0037005262
79	0x3c78dd43	0.015189472
80	0xba134d49	-0.00056191214
81	0xbb807d4b	-0.003921186
82	0xba997f24	-0.0011710864
83	0xbd16fb82	-0.03686095
84	0xbdca12cb	-0.09866866
85	0x3e2e0c10	0.16996789
86	0x3c63243d	0.01386362
87	0xbd0ae297	-0.0339075
88	0x3b5482da	0.0032426626
89	0x3bc0d9d1	0.0058853407
90	0xbea3cd3c	-0.3199252
91	0xbd8b2d51	-0.06795753
92	0x3e8b8acf	0.2725434
93	0x3eee5f4a	0.46557075
94	0xbe50b49f	-0.20381401
95	0xbf02b946	-0.51063955
96	0xbbc0b936	-0.005881454
97	0xbc8e6a60	-0.017384708
98	0x3a81371f	0.0009858346
99	0x3b5ed635	0.003400219
100	0x3d5a8825	0.053352494
101	0x3b0c7a2a	0.002143512
102	0xbe12cc66	-0.14335784
103	0xbe95d20e	-0.29261822
104	0x3b6fa509	0.0036566874
105	0x3c18755b	0.0093053235
106	0xbde24d1b	-0.11049863
107	0xbd682665	-0.05667724
108	0x3c885ee8	0.016646817
109	0x3e923f66	0.28563994
110	0xbe262c09	-0.16227736
111	0xbe4a0a45	-0.1973048
112	0x3b8a0f33	0.0042132377
113	0x3c21b447	0.009869642
114	0x3b435238	0.0029803645
115	0x3c9d6f36	0.019218069
116	0xbd56496b	-0.05231611
117	0xbde45eb8	-0.11150879
118	0x3ddaef2e	0.10690151
119	0x3dde67e3	0.108596586
120	0xba93f6ff	-0.001128882
121	0xbb9355e1	-0.0044963215
122	0xbe5e5243	-0.21711068
123	0xbdbf3344	-0.0933595
124	0x3e6cd071	0.23126389
125	0x3ec99379	0.39370325
126	0xbe56cd96	-0.20976862
127	0xbe3f264f	-0.18666957
128	0x3ae10a29	0.0017169166
129	0x3a0d2fe3	0.0005385859
130	0xbdea5c43	-0.11443379
131	0xbe13016f	-0.14356016
132	0xbe97a116	-0.29615086
133	0xbe96ef15	-0.2947928
134	0xbd9d446f	-0.07679068
135	0x3c46935d	0.012120095
136	0xbbccee11	-0.0062539657
137	0xbc939b29	-0.018018322
138	0x3da5951b	0.0808508
139	0x3d4c7178	0.0499129
140	0xbd416311	-0.047213618
141	0xbd819b14	-0.06328407
142	0x3d4424aa	0.047886528
143	0x3c9d414f	0.01919618
144	0xb99396b6	-0.00028150313
145	0x3a706916	0.00091709325
146	0x3cf431c2	0.029808883
147	0x3c3d4bb9	0.011553698
148	0xbc0c2ae3	-0.008555147
149	0xbca374cb	-0.019953152
150	0x3bedceb2	0.007257306
151	0x3c446161	0.011986108
152	0xbac95cf6	-0.0015362788
153	0xbc0e1d21	-0.008673937
154	0x3eb9c5fd	0.36283866
155	0x3e8a7d40	0.27048683
156	0x3cc1ae2f	0.023642628
157	0xbe9bde3c	-0.3044299
158	0x3e1c1553	0.1524251
159	0x3e3395bb	0.17537586
160	0x3ad9cfaa	0.0016617675
161	0x3b895f06	0.004192236
162	0xbe55161b	-0.20809214
163	0xbd368eae	-0.044569664
164	0x3e85ee98	0.26158595
165	0x3ebe2d97	0.37144157
166	0xbe4ad481	-0.19807626
167	0xbe734a7e	-0.23758885
168	0xbb0e7cc8	-0.0021741856
169	0xbc019ba4	-0.007910643
170	0x3d99d1b6	0.07510702
171	0x3d453cfa	0.048153855
172	0xbde58fdf	-0.11209082
173	0xbeadc735	-0.33941045
174	0x3dc75d62	0.09734608
175	0x3e9ed589	0.3102229
176	0xb988c909	-0.00026089724
177	0x3b238a83	0.0024954386
178	0x3cf05424	0.029336996
179	0xbc4bf6ae	-0.01244895
180	0xbd6c8522	-0.057744153
181	0x3e6cfb95	0.23142846
182	0xbd094bf3	-0.033519696
183	0xbe3e56c6	-0.18587789
184	0x3b1e5e9d	0.002416528
185	0x3beea4a8	0.007282812
186	0x3d0a34ee	0.033741884
187	0x3d5ddfd4	0.054168537
188	0xbd6ba7f5	-0.057533223
189	0x3d9262eb	0.07147773
190	0xbb5d1a64	-0.0033737654
191	0xbe1be83a	-0.15225306
192	0x3b531d00	0.003221333
193	0x3c50b876	0.012739291
194	0xbc1a97bf	-0.009435593
195	0xbd0b1607	-0.033956554
196	0xbd12cf5f	-0.035842296
197	0xbea5fdad	-0.32420102
198	0x3e1309ee	0.14359257
199	0x3e95fb94	0.292935
200	0xb9adff34	-0.00033187272
201	0xbb7d003c	-0.0038604876
202	0x3d578c8e	0.052624278
203	0xbd8fb167	-0.07016259
204	0xbec865cf	-0.39140174
205	0xbeac18cf	-0.33612677
206	0x3e0d1eb2	0.1378124
207	0x3eb5cdb8	0.35508513
208	0xb8d71a9c	-0.00010256955
209	0x3b38ce12	0.0028199
210	0x3ca5ff9e	0.02026349
211	0x3d37e1fe	0.044893257
212	0x3e0ecbbd	0.13944907
213	0x3e7fa5e9	0.24965633
214	0xbdbc19b0	-0.09184587
215	0xbed2cea9	-0.41173294
216	0xb9802a47	-0.00024445562
217	0xbb0d5b83	-0.0021569438
218	0xbdc82e1e	-0.09774421
219	0xbde4329a	-0.11142464
220	0xbdeb7dd0	-0.11498606
221	0xbe355e77	-0.17711817
222	0x3e3c8e89	0.18413748
223	0x3eb07593	0.34464702
224	0x3a553134	0.0008132637
225	0x3befe2d4	0.007320741
226	0x3d9f59b5	0.07780782
227	0x3cb34965	0.021885583
228	0xbd0e504b	-0.034744542
229	0x3e823d16	0.2543723
230	0xbde3e66b	-0.11127933
231	0xbe88ce63	-0.2671996
232	0x3bc66d41	0.0060555045
233	0x3c808a97	0.015691085
234	0xbe6d5f86	-0.2318097
235	0x3d2d7d81	0.042356018
236	0x3eb51737	0.35369274
237	0x3e985db1	0.2975898
238	0xbe3cddd7	-0.18444
239	0xbe9e5fd8	-0.30932498
240	0xba906528	-0.0011016475
241	0xbbd24e67	-0.0064180377
242	0x3d959ae0	0.07304931
243	0x3d496be4	0.04917516
244	0xbddc3cdd	-0.10753796
245	0xbf1cf3b0	-0.6130934
246	0x3d16bdc1	0.036802057
247	0x3edd0beb	0.43173155
248	0x3ac905f4	0.0015336857
249	0x3bf3733d	0.007429509
250	0xbdc8fd9f	-0.098139994
251	0xbe0ac44d	-0.13551445
252	0xbe09c543	-0.13454156
253	0xbde3809b	-0.11108514
254	0x3e0efc6e	0.13963482
255	0x3ecc7122	0.39930063

linear_mapper.spline_scaler f4 [8, 16]
0	0xbd36d69d	-0.044638265
1	0x3cb45552	0.02201334
2	0xbc1bf6ca	-0.009519288
3	0x3db48f4f	0.088163964
4	0x3c21e5b2	0.009881424
5	0x3d2801db	0.041017395
6	0x3e108c12	0.14115933
7	0x3e869664	0.26286614
8	0xba3029e2	-0.0006720108
9	0x3b5ff90f	0.003417555
10	0xbcababd3	-0.020955956
11	0x3e2374d4	0.15962535
12	0xbbcfd75c	-0.0063428115
13	0xbcd53b57	-0.026029272
14	0xbb87a58e	-0.0041396087
15	0x3e36cba9	0.17851128
16	0x3e48f7c7	0.1962577
17	0x3cff4c96	0.031164449
18	0xbb52c2be	-0.0032159532
19	0xbdf07d42	-0.11742641
20	0xbd9de440	-0.07709551
21	0x3da9a63a	0.08283658
22	0xbd441560	-0.047871947
23	0x3b0fcd43	0.0021942414
24	0x3de2a992	0.11067499
25	0x3e6e4448	0.23268235
26	0xbd71367c	-0.05888985
27	0x3d4de2fe	0.050265305
28	0xbd0d528e	-0.03450256
29	0xbe3867b0	-0.18008304
30	0x3e237f4c	0.15966529
31	0x3dee9314	0.11649147
32	0xbd0dab59	-0.034587238
33	0xbddaf74b	-0.10691699
34	0xbbbdfe6c	-0.0057981517
35	0xbd879f51	-0.06622184
36	0x3beb5d02	0.0071827183
37	0xbcdc7be8	-0.026914552
38	0x3cb81e2e	0.022475328
39	0x3c1e1661	0.00964889
40	0xbc9fe7a8	-0.019519642
41	0x3c45f135	0.012081434
42	0xbda6e5ff	-0.08149337
43	0xbcaa326a	-0.020775992
44	0x3b400cc8	0.0029304493
45	0x3c15b239	0.00913673
46	0xbd00d486	-0.03145268
47	0xbdac5465	-0.084145345
48	0xbf02a77a	-0.510368
49	0x3e4db97d	0.2009029
50	0xbeacb281	-0.33729938
51	0xbd0b63ed	-0.034030844
52	0xbe89bdb5	-0.26902547
53	0x3a3a2d8d	0.00071021245
54	0x3d3390b2	0.043839164
55	0xbbd66ac7	-0.0065434906
56	0xbd0ddc87	-0.03463414
57	0xbb24aa6a	-0.0025125989
58	0x3d304887	0.043037917
59	0xbd7908d7	-0.060799446
60	0xbe85afbb	-0.26110634
61	0x3e3c4833	0.18386917
62	0x3e1fa8eb	0.15591781
63	0xbc5984b7	-0.013276271
64	0xbccda5d3	-0.025103485
65	0x3bbe31eb	0.0058042905
66	0xbded3c9b	-0.11583825
67	0xbe2cdf6a	-0.168821
68	0xbcd18e64	-0.025580592
69	0x3d0a0745	0.03369834
70	0x3c030297	0.007996223
71	0xbba423b5	-0.0050091394
72	0xbd4aea52	-0.04953987
73	0xbce2844d	-0.027650977
74	0xbbeb5c74	-0.007182652
75	0x3e3d744c	0.18501395
76	0xbe6bcb7d	-0.23026843
77	0xbe94332f	-0.289453
78	0x3e089085	0.1333638
79	0xbe7f44f0	-0.24928641
80	0xbdaaf19f	-0.08346867
81	0xbc2b7971	-0.010465966
82	0xbc344fca	-0.011005351
83	0x3de0eb13	0.10982337
84	0xbcbcd43d	-0.023050422
85	0xbc149fb3	-0.009071278
86	0xbc8da807	-0.017292036
87	0x3e7616b8	0.24032104
88	0xbdb39d40	-0.087702274
89	0xbc2a4bb7	-0.010394028
90	0xbd3e3569	-0.046437655
91	0xbdaf728b	-0.08566769
92	0x3dc38e4b	0.095486246
93	0xbba2d33f	-0.00496903
94	0xbb11c214	-0.0022240924
95	0xbd8c4ea4	-0.06850937
96	0xbea7f85e	-0.32806677
97	0xbe5dd0f3	-0.21661739
98	0x3e7acdc8	0.24492562
99	0xbe62dc7e	-0.22154424
100	0xbd80dbca	-0.062919214
101	0x3b4dd649	0.0031408241
102	0x3c96b92e	0.018398847
103	0xbead57cc	-0.33856046
104	0x3c4a74c6	0.0123569425
105	0xbe1211c6	-0.14264593
106	0x3d15c164	0.036561385
107	0x3e117bd9	0.142074
108	0xbe7eabae	-0.24870178
109	0xbdc8c7fa	-0.098037675
110	0x3bb8f84e	0.0056448346
111	0xbe132486	-0.14369401
112	0xbee29ffd	-0.44262686
113	0xbecf51de	-0.40492147
114	0x3ebcf181	0.36903003
115	0xbf0e4b4d	-0.5558365
116	0xbec0a715	-0.37627473
117	0xbe8121a3	-0.25220975
118	0x3c573b84	0.013136748
119	0x3e90b2ec	0.28261507
120	0x3c13381f	0.008985548
121	0x3e8017a1	0.25018027
122	0xbc2ea8e8	-0.010660388
123	0x3e31756f	0.17329954
124	0x3ceb4c6f	0.02872297
125	0xbe8de146	-0.27710932
126	0xbe842d40	-0.25815773
127	0xbeb94d1a	-0.36191636

linear_mapper.grid f4 [16, 12]
0	0xc00ccccd	-2.2
1	0xbfe66666	-1.8
2	0xbfb33333	-1.4
3	0xbf800000	-1.0
4	0xbf19999a	-0.6
5	0xbe4ccccc	-0.19999999
6	0x3e4cccd0	0.20000005
7	0x3f19999a	0.6
8	0x3f800000	1.0
9	0x3fb33334	1.4000001
10	0x3fe66666	1.8
11	0x400ccccd	2.2
12	0xc00ccccd	-2.2
13	0xbfe66666	-1.8
14	0xbfb33333	-1.4
15	0xbf800000	-1.0
16	0xbf19999a	-0.6
17	0xbe4ccccc	-0.19999999
18	0x3e4cccd0	0.20000005
19	0x3f19999a	0.6
20	0x3f800000	1.0
21	0x3fb33334	1.4000001
22	0x3fe66666	1.8
23	0x400ccccd	2.2
24	0xc00ccccd	-2.2
25	0xbfe66666	-1.8
26	0xbfb33333	-1.4
27	0xbf800000	-1.0
28	0xbf19999a	-0.6
29	0xbe4ccccc	-0.19999999
30	0x3e4cccd0	0.20000005
31	0x3f19999a	0.6
32	0x3f800000	1.0
33	0x3fb33334	1.4000001
34	0x3fe66666	1.8
35	0x400ccccd	2.2
36	0xc00ccccd	-2.2
37	0xbfe66666	-1.8
38	0xbfb33333	-1.4
39	0xbf800000	-1.0
40	0xbf19999a	-0.6
41	0xbe4ccccc	-0.19999999
42	0x3e4cccd0	0.20000005
43	0x3f19999a	0.6
44	0x3f800000	1.0
45	0x3fb33334	1.4000001
46	0x3fe66666	1.8
47	0x400ccccd	2.2
48	0xc00ccccd	-2.2
49	0xbfe66666	-1.8
50	0xbfb33333	-1.4
51	0xbf800000	-1.0
52	0xbf19999a	-0.6
53	0xbe4ccccc	-0.19999999
54	0x3e4cccd0	0.20000005
55	0x3f19999a	0.6
56	0x3f800000	1.0
57	0x3fb33334	1.4000001
58	0x3fe66666	1.8
59	0x400ccccd	2.2
60	0xc00ccccd	-2.2
61	0xbfe66666	-1.8
62	0xbfb33333	-1.4
63	0xbf800000	-1.0
64	0xbf19999a	-0.6
65	0xbe4ccccc	-0.19999999
66	0x3e4cccd0	0.20000005
67	0x3f19999a	0.6
68	0x3f800000	1.0
69	0x3fb33334	1.4000001
70	0x3fe66666	1.8
71	0x400ccccd	2.2
72	0xc00ccccd	-2.2
73	0xbfe66666	-1.8
74	0xbfb33333	-1.4
75	0xbf800000	-1.0
76	0xbf19999a	-0.6
77	0xbe4ccccc	-0.19999999
78	0x3e4cccd0	0.20000005
79	0x3f19999a	0.6
80	0x3f800000	1.0
81	0x3fb33334	1.4000001
82	0x3fe66666	1.8
83	0x400ccccd	2.2
84	0xc00ccccd	-2.2
85	0xbfe66666	-1.8
86	0xbfb33333	-1.4
87	0xbf800000	-1.0
88	0xbf19999a	-0.6
89	0xbe4ccccc	-0.19999999
90	0x3e4cccd0	0.20000005
91	0x3f19999a	0.6
92	0x3f800000	1.0
93	0x3fb33334	1.4000001
94	0x3fe66666	1.8
95	0x400ccccd	2.2
96	0xc00ccccd	-2.2
97	0xbfe66666	-1.8
98	0xbfb33333	-1.4
99	0xbf800000	-1.0
100	0xbf19999a	-0.6
101	0xbe4ccccc	-0.19999999
102	0x3e4cccd0	0.20000005
103	0x3f19999a	0.6
104	0x3f800000	1.0
105	0x3fb33334	1.4000001
106	0x3fe66666	1.8
107	0x400ccccd	2.2
108	0xc00ccccd	-2.2
109	0xbfe66666	-1.8
110	0xbfb33333	-1.4
111	0xbf800000	-1.0
112	0xbf19999a	-0.6
113	0xbe4ccccc	-0.19999999
114	0x3e4cccd0	0.20000005
115	0x3f19999a	0.6
116	0x3f800000	1.0
117	0x3fb33334	1.4000001
118	0x3fe66666	1.8
119	0x400ccccd	2.2
120	0xc00ccccd	-2.2
121	0xbfe66666	-1.8
122	0xbfb33333	-1.4
123	0xbf800000	-1.0
124	0xbf19999a	-0.6
125	0xbe4ccccc	-0.19999999
126	0x3e4cccd0	0.20000005
127	0x3f19999a	0.6
128	0x3f800000	1.0
129	0x3fb33334	1.4000001
130	0x3fe66666	1.8
131	0x400ccccd	2.2
132	0xc00ccccd	-2.2
133	0xbfe66666	-1.8
134	0xbfb33333	-1.4
135	0xbf800000	-1.0
136	0xbf19999a	-0.6
137	0xbe4ccccc	-0.19999999
138	0x3e4cccd0	0.20000005
139	0x3f19999a	0.6
140	0x3f800000	1.0
141	0x3fb33334	1.4000001
142	0x3fe66666	1.8
143	0x400ccccd	2.2
144	0xc00ccccd	-2.2
145	0xbfe66666	-1.8
146	0xbfb33333	-1.4
147	0xbf800000	-1.0
148	0xbf19999a	-0.6
149	0xbe4ccccc	-0.19999999
150	0x3e4cccd0	0.20000005
151	0x3f19999a	0.6
152	0x3f800000	1.0
153	0x3fb33334	1.4000001
154	0x3fe66666	1.8
155	0x400ccccd	2.2
156	0xc00ccccd	-2.2
157	0xbfe66666	-1.8
158	0xbfb33333	-1.4
159	0xbf800000	-1.0
160	0xbf19999a	-0.6
161	0xbe4ccccc	-0.19999999
162	0x3e4cccd0	0.20000005
163	0x3f19999a	0.6
164	0x3f800000	1.0
165	0x3fb33334	1.4000001
166	0x3fe66666	1.8
167	0x400ccccd	2.2
168	0xc00ccccd	-2.2
169	0xbfe66666	-1.8
170	0xbfb33333	-1.4
171	0xbf800000	-1.0
172	0xbf19999a	-0.6
173	0xbe4ccccc	-0.19999999
174	0x3e4cccd0	0.20000005
175	0x3f19999a	0.6
176	0x3f800000	1.0
177	0x3fb33334	1.4000001
178	0x3fe66666	1.8
179	0x400ccccd	2.2
180	0xc00ccccd	-2.2
181	0xbfe66666	-1.8
182	0xbfb33333	-1.4
183	0xbf800000	-1.0
184	0xbf19999a	-0.6
185	0xbe4ccccc	-0.19999999
186	0x3e4cccd0	0.20000005
187	0x3f19999a	0.6
188	0x3f800000	1.0
189	0x3fb33334	1.4000001
190	0x3fe66666	1.8
191	0x400ccccd	2.2

blocks.0.to_q.base_weight f4 [128, 8]
0	0x3c8fb6eb	0.017543277
1	0xbe5b6c49	-0.21428026
2	0x3e170465	0.1474777
3	0x3ece93ab	0.40347037
4	0x3e58f306	0.21186456
5	0xbe0a0d13	-0.1348155
6	0xbe0af0cf	-0.13568424
7	0xbd2271fc	-0.039659485
8	0xbf15af0e	-0.5847024
9	0x3e52aec3	0.20574479
10	0xbe875d6d	-0.26438466
11	0x3cb53607	0.022120489
12	0xbe729194	-0.23688346
13	0xbe31f6cb	-0.173793
14	0x3e616fe5	0.2201534
15	0x3e267a0d	0.16257496
16	0x3e8218e3	0.25409612
17	0x3e816604	0.25273144
18	0x3f0e751f	0.5564746
19	0x3d87fe46	0.06640296
20	0xbe2e388a	-0.17013755
21	0xbeb1dbe0	-0.34738064
22	0x3f1efe0e	0.62106407
23	0xbdc19e76	-0.09454052
24	0x3ea991d1	0.33119062
25	0xbe357c1e	-0.17723128
26	0x3e524282	0.20533183
27	0xbea058f2	-0.3131786
28	0xbe82a6b5	-0.25517812
29	0x3e362225	0.17786463
30	0x3e2f4bab	0.17118709
31	0x3e6ec067	0.23315583
32	0xbeec8f6b	-0.4620317
33	0x3e210f76	0.15728554
34	0xbe310b72	-0.17289522
35	0x3e751a38	0.23935783
36	0x3df0786a	0.11741717
37	0x3e8e8868	0.27838445
38	0x3e36dc3d	0.17857452
39	0x3e234023	0.15942435
40	0xbf55eda1	-0.8356572
41	0x3ded3ed9	0.11584253
42	0xbf79ebb6	-0.9762529
43	0x3dce6bed	0.10079179
44	0xbeaff145	-0.34363762
45	0xbd8f77ec	-0.07005295
46	0xbdea6a4a	-0.11446054
47	0xbd2a4a96	-0.041575037
48	0xbe70f05a	-0.23529187
49	0xbd55c657	-0.052191105
50	0xbe924985	-0.28571716
51	0xbe81d59b	-0.2535828
52	0xbdd5f92f	-0.104479186
53	0x3e5f9a28	0.2183615
54	0x3eb4a3ac	0.35281122
55	0x3e646de2	0.22307542
56	0xbf629943	-0.8851511
57	0xbf10bf00	-0.5654144
58	0xbf04cffb	-0.51879853
59	0x3da1cd3a	0.07900472
60	0xbf0db5c5	-0.55355483
61	0x3dee935f	0.116492026
62	0x3ec23b87	0.3793604
63	0x3d3db8df	0.046318885
64	0x3e67b553	0.22627763
65	0x3f6243b1	0.8838454
66	0x3f10d881	0.5658036
67	0x3f05b808	0.52233934
68	0xbec5abab	-0.38607535
69	0xbd80b371	-0.06284226
70	0xbe16309a	-0.14666978
71	0x3e1cb39f	0.15302895
72	0xbf132c64	-0.5748961
73	0xbd6eb8d7	-0.058281746
74	0xbef1e2bf	-0.47243306
75	0x3b6e2128	0.003633568
76	0xbda5df1e	-0.08099197
77	0x3e7ca693	0.24672918
78	0xbcac321e	-0.021019991
79	0xbe4a23e0	-0.19740248
80	0x3e9bb569	0.30411842
81	0x3e46b58f	0.19405197
82	0x3effdeaa	0.49974567
83	0x3e317684	0.17330366
84	0x3dce4a75	0.10072795
85	0x3eb2c861	0.34918502
86	0x3d3478b5	0.044060428
87	0x3db4632a	0.088079765
88	0xbecb4ec4	-0.3970853
89	0xbe75986c	-0.23983926
90	0xbe8dfb45	-0.27730766
91	0xbe32f2d9	-0.17475452
92	0x3de015e2	0.10941674
93	0xbec38ae2	-0.38191897
94	0x3e9fcb4c	0.3120979
95	0x3eccdd66	0.40012664
96	0x3ec4d6f4	0.38445246
97	0x3e35483d	0.17703338
98	0xbd953fde	-0.07287572
99	0x3e92938c	0.28628194
100	0x3e270121	0.16309024
101	0xbeb157c7	-0.3463728
102	0x3e789b5e	0.24278018
103	0xbe63d45b	-0.22248976
104	0x3c3aa1cb	0.0113911135
105	0x3e94f434	0.29092562
106	0xbe3abc0b	-0.18235795
107	0xbda7cd79	-0.08193488
108	0x3d937faa	0.07202084
109	0xbc801bb0	-0.015638202
110	0x3e7d55bb	0.24739735
111	0xbe84899a	-0.25886232
112	0xbedbc576	-0.42924088
113	0xbee9446d	-0.45560017
114	0xbf3bae1e	-0.73312557
115	0xbf0d1a0e	-0.5511788
116	0x3e175192	0.1477721
117	0x3e7c81b3	0.24658851
118	0xbeb1fb8b	-0.34762225
119	0x3f04dd55	0.51900226
120	0x3ee736c6	0.45158976
121	0x3c9385bf	0.018008111
122	0x3e5e3c7b	0.21702759
123	0xbccbca0c	-0.024876617
124	0x3ec2472e	0.3794493
125	0x3e0f268c	0.13979548
126	0xbeef19f3	-0.46699485
127	0x3e238203	0.15967564
128	0xbe4b3bda	-0.1984705
129	0x3d429b59	0.047511432
130	0x3dca0824	0.09864834
131	0x3e13b88c	0.14425868
132	0xbee11935	-0.43964544
133	0x3e59ba84	0.21262556
134	0xbe858caf	-0.26083896
135	0xbdbd6991	-0.09248651
136	0xbec20911	-0.37897542
137	0x3c864e28	0.01639469
138	0xbe25f3e3	-0.16206317
139	0xbd7a4866	-0.0611042
140	0xbe223509	-0.15840544
141	0x39bedf25	0.0003640588
142	0x3ec7696e	0.38947624
143	0x3e7d6d52	0.24748734
144	0x3eb0344c	0.344149
145	0x3e1bc8f6	0.1521338
146	0x3ed8d4a9	0.42349747
147	0xbbc1c862	-0.00591378
148	0x3dfcbb35	0.123403944
149	0x3d3c83b1	0.04602403
150	0xbeabc340	-0.335474
151	0xbebc3cb3	-0.3676506
152	0x3ea49e83	0.32152185
153	0xbe224a1d	-0.15848584
154	0x3ebe0a57	0.37117264
155	0xbd630043	-0.05542017
156	0x3dbd1858	0.09233159
157	0x3e2c9eaf	0.16857408
158	0xbe9da980	-0.3079338
159	0x3e14d656	0.14534888
160	0x3d6f99a6	0.05849614
161	0xbe81b0bf	-0.2533016
162	0xbf117937	-0.56825584
163	0xbe972da8	-0.2952702
164	0xbe80ada1	-0.25132468
165	0xbd293c21	-0.04131711
166	0x3d740d2b	0.05958287
167	0x3e0c2455	0.13685735
168	0xbea87d4e	-0.329081
169	0xbce59cc2	-0.02802885
170	0xbe69d62b	-0.22835605
171	0x3edc803c	0.43066585
172	0xbe95b70a	-0.2924121
173	0xbed7d0cc	-0.42151487
174	0x3dabe2b5	0.0839285
175	0xbe1883d5	-0.1489404
176	0x3f1c74fc	0.61116004
177	0x3e0e0bb6	0.13871655
178	0x3f3d364f	0.73910993
179	0xbe9e8df2	-0.3096767
180	0x3ea09d5b	0.31370053
181	0x3e7184b7	0.23585783
182	0xbeb0340a	-0.34414703
183	0x3e437af3	0.1908987
184	0x3d91d91a	0.07121487
185	0xbe1692d3	-0.14704446
186	0xbc0e9ad3	-0.008703905
187	0xbe3bef26	-0.18352947
188	0xbe6cb215	-0.23114808
189	0x3e430828	0.1904608
190	0x3d99ea9a	0.0751545
191	0xbe5e6724	-0.21719033
192	0x3e7fdba7	0.24986134
193	0xbecb7964	-0.3974105
194	0x3edb21ee	0.42799324
195	0x3e5c1369	0.2149178
196	0x3ea18ac4	0.31551182
197	0xbe23ec89	-0.160082
198	0x3df8c493	0.121468686
199	0x3dc76821	0.09736658
200	0x3ebc90a0	0.3682909
201	0x3d1aca40	0.037790537
202	0x3f2db4de	0.67854106
203	0xbde53908	-0.111925185
204	0x3da98a4b	0.082783304
205	0x3e0856db	0.13314383
206	0xbdb19d3e	-0.0867257
207	0x3e866392	0.2624784
208	0x3d2dcc78	0.042431325
209	0x3e13f2e3	0.14448123
210	0x3e25eabb	0.16202824
211	0xbcab4b4d	-0.02090993
212	0x3e9443de	0.2895803
213	0x3df55bff	0.119804375
214	0xbece2ec1	-0.40270045
215	0xbc5c4901	-0.01344514
216	0xbf051d8c	-0.5199821
217	0xbe032152	-0.1280568
218	0xbeeaf561	-0.45890334
219	0xbed20822	-0.4102183
220	0xbde84411	-0.11341108
221	0x3c581439	0.013188415
222	0x3d31fd8a	0.043454684
223	0x3ed7ebc3	0.4217206
224	0x3dbc7b59	0.09203214
225	0xbd598c33	-0.05311222
226	0x3f0ea033	0.55713195
227	0xbe3f4e34	-0.18682176
228	0x3ef15dc1	0.4714184
229	0x3f3d7dca	0.74020064
230	0xbe9f20e4	-0.3107978
231	0x3df7b63b	0.120953046
232	0x3f6f772a	0.93541205
233	0x3f5abdb5	0.8544572
234	0x3f10888f	0.5645837
235	0x3f2ab0ef	0.6667623
236	0xbcd5670c	-0.026050113
237	0xbee9cbda	-0.4566334
238	0x3e274b7b	0.16337387
239	0xbcbc8eec	-0.02301737
240	0xbe447fd4	-0.19189388
241	0x3e1cf257	0.1532682
242	0xbec4d9da	-0.38447458
243	0x3e6fc853	0.23416261
244	0x3da85ff1	0.08221424
245	0x3db2120f	0.08694851
246	0xbcddf443	-0.027094012
247	0x3c818620	0.015811026
248	0xbead8a73	-0.3389469
249	0xbed56229	-0.41676453
250	0xbd5d6315	-0.05404957
251	0xbe9fd3e3	-0.31216344
252	0xbe992068	-0.29907537
253	0x3ec81bbf	0.3908367
254	0x3d2a9b22	0.041651852
255	0xbe860490	-0.26175356

blocks.0.to_q.spline_weight f4 [128, 8, 8]
0	0x3df785af	0.12086045
1	0x3e7ac641	0.2448969
2	0x3e7fea5b	0.24991743
3	0xbe376659	-0.17910136
4	0xbea4cec1	-0.3218899
5	0xbe81b0c7	-0.25330183
6	0xbe2f2fb9	-0.17108048
7	0xbd857adb	-0.065175734
8	0xbf216044	-0.63037515
9	0xbe34e2e0	-0.17664671
10	0x3e18d299	0.14924087
11	0x3f3dc746	0.7413219
12	0x3ecbe7ff	0.39825436
13	0xbe8ca4ee	-0.2746958
14	0xbe49901c	-0.1968388
15	0xbce331ab	-0.027733644
16	0xbdc89685	-0.09794334
17	0xbe34bfb1	-0.1765125
18	0x3d51289e	0.051064126
19	0x3eef35f1	0.46720842
20	0x3cbae1f4	0.022812821
21	0xbc12d88a	-0.00896276
22	0xbed8e388	-0.42361093
23	0xbe61c907	-0.22049342
24	0x3edc76c4	0.4305936
25	0xbdb5df8d	-0.088805296
26	0x3d50cab3	0.05097456
27	0xbd413d5b	-0.047177654
28	0x3d28eaa7	0.041239407
29	0xbc921899	-0.017833995
30	0xbd28f8ff	-0.041253086
31	0x3d882446	0.066475436
32	0x3e2ce357	0.16883598
33	0x3dc6c4b3	0.09705486
34	0x3e3928c9	0.18081965
35	0x3d00279d	0.03128778
36	0xbc96916e	-0.018379893
37	0x3cd632eb	0.026147326
38	0x3d906dda	0.070522025
39	0xbe041af2	-0.12900904
40	0x3f515f15	0.8178571
41	0x3f438e19	0.763887
42	0x3ea09621	0.3136454
43	0xbe1c11bc	-0.1524114
44	0xbf47d08a	-0.7805258
45	0xbed501b0	-0.4160285
46	0x3db310aa	0.08743413
47	0x3db809aa	0.08986218
48	0x3f141397	0.5784239
49	0x3f14b1d1	0.58083826
50	0x3eea11a4	0.45716584
51	0x3de601f7	0.112308435
52	0xbd8633ae	-0.06552826
53	0x3c828175	0.01593087
54	0x3d81fda9	0.0634721
55	0x3e72de2c	0.23717564
56	0xbcec507a	-0.028846968
57	0xbf1c3d62	-0.6103116
58	0xbe2266fc	-0.15859598
59	0xbe12029c	-0.14258808
60	0xbf954133	-1.1660522
61	0xbea95e52	-0.33079773
62	0x3d4010f0	0.046891153
63	0xbc6eee9f	-0.014583259
64	0x3d828ea4	0.06374863
65	0x3cbdd5b2	0.023173187
66	0x3ca0ea54	0.019642986
67	0xbd4467d2	-0.047950573
68	0x3db698e4	0.0891588
69	0xbd182db7	-0.037152972
70	0x3d85d6f2	0.06535138
71	0xbdc98d9c	-0.09841463
72	0x3f6d6cdd	0.9274424
73	0x3e86f99a	0.26362306
74	0xbda238e4	-0.07921007
75	0xbf4646e3	-0.77451915
76	0xbe16e823	-0.1473699
77	0x3e994ab5	0.2993981
78	0x3df94a10	0.121723294
79	0x3d040b08	0.032237083
80	0xbe67a177	-0.22620188
81	0xbe8a3001	-0.2698975
82	0xbd198605	-0.037481327
83	0x3edae170	0.4275012
84	0x3ed884bd	0.4228877
85	0x3db02378	0.08600515
86	0xbf29c30f	-0.6631326
87	0xbf3ee851	-0.74573237
88	0xbe59a309	-0.21253599
89	0x3f09af04	0.5378268
90	0x3c95407f	0.01821923
91	0x3e13fdc3	0.14452271
92	0x3d3dee28	0.0463697
93	0xbe298aea	-0.16556898
94	0xbd880ddc	-0.066432685
95	0xbe13e7de	-0.14443919
96	0xbe5cab64	-0.21549755
97	0x3f0fcebf	0.56174845
98	0x3f825ab5	1.0183932
99	0x3deaf7b3	0.11473026
100	0xbdd56305	-0.10419277
101	0x3de9f292	0.1142322
102	0x3e1b85e6	0.15187797
103	0x3f59d3aa	0.850886
104	0x3ec2a072	0.38013035
105	0x3e255b23	0.16148047
106	0xbf233abd	-0.637615
107	0xbf845d0b	-1.0340894
108	0xbfb71804	-1.4304204
109	0xbeccc18a	-0.3999141
110	0x3d9afc23	0.075676225
111	0xbc639175	-0.01388966
112	0xbf8ea946	-1.1145408
113	0xbfa0fa9e	-1.2576482
114	0xbf954d7b	-1.166427
115	0x3e188f58	0.14898431
116	0x3e67f9e7	0.22653924
117	0xbe2d6e81	-0.16936685
118	0xbe1ec37d	-0.1550426
119	0xbe90dd9a	-0.2829407
120	0x3f39e526	0.7261528
121	0x3f9b144e	1.2115571
122	0x3f6e925b	0.9319207
123	0x3f7fd127	0.99928516
124	0x3fd28b20	1.6448708
125	0x3df3b7f6	0.11900322
126	0xbdf70d44	-0.12063077
127	0x3db5f6a8	0.088849366
128	0xbef1a856	-0.47198743
129	0xbeedd856	-0.46454114
130	0xbea77a84	-0.3271066
131	0xbda3a4f4	-0.07990447
132	0xbf258f1e	-0.64671504
133	0xbce5c349	-0.02804722
134	0xbe450bbb	-0.19242756
135	0xbf171aa0	-0.59025
136	0xbe14697e	-0.14493367
137	0xbf8d33aa	-1.1031392
138	0xbfbb3690	-1.4626026
139	0xbf350dfb	-0.7072446
140	0xbe31c509	-0.17360319
141	0xbee5bed6	-0.4487216
142	0xbf0179c8	-0.5057645
143	0x3f1b8b0c	0.60759044
144	0xbeae6372	-0.34060246
145	0xbf076929	-0.52894837
146	0xbf028edb	-0.5099923
147	0xbef09a06	-0.4699251
148	0xbf02001a	-0.50781405
149	0x3e34cbf6	0.1765593
150	0xbdf3ab6b	-0.1189793
151	0x3ed3b57a	0.41349393
152	0xbe35a98c	-0.17740458
153	0x3ea0d9c2	0.31416136
154	0x3f22d0f1	0.6360007
155	0x3f2946a1	0.66123396
156	0x3f292a0c	0.66079783
157	0x3f46185a	0.7738091
158	0xbe73d763	-0.23812632
159	0xbefd04a9	-0.49417618
160	0x3f0474f2	0.51740944
161	0x3e6db349	0.23212923
162	0x3eea6a37	0.4578416
163	0x3e1e0c0d	0.15434285
164	0x3eef71ba	0.46766454
165	0xbde62340	-0.11237192
166	0xbed8dc31	-0.42355493
167	0xbe7a1388	-0.24421513
168	0x3e2461b3	0.16052894
169	0x3d28cd58	0.041211456
170	0xbeeba24f	-0.4602227
171	0xbf331064	-0.69946885
172	0xbe60ff66	-0.21972427
173	0x3eda26ac	0.4260763
174	0x3e4b08f0	0.19827628
175	0xbd85a1c8	-0.06524998
176	0xbe0e01c8	-0.13867867
177	0xbdc12d25	-0.09432439
178	0xbe4a6ec2	-0.19768813
179	0x3f108e68	0.56467295
180	0x3f382bd6	0.7194189
181	0xbd4ade6d	-0.049528528
182	0xbf145a24	-0.57950044
183	0xbf0ac4f5	-0.5420678
184	0x3eba7097	0.36414024
185	0x3f09bb04	0.5380099
186	0x3f033231	0.5124846
187	0x3ea412e7	0.3204567
188	0xbb598bf3	-0.0033194989
189	0xbf21dd90	-0.632287
190	0xbede7615	-0.43449464
191	0x3dfba460	0.122872114
192	0xbc58c05c	-0.013229456
193	0x3c94f8a5	0.01818497
194	0xbcd1f4aa	-0.02562936
195	0xbd8a64f1	-0.06757534
196	0x3d14f974	0.03637071
197	0x3d6ad8f7	0.05733582
198	0xbd28ea2c	-0.04123895
199	0x3dadf224	0.0849345
200	0x3e98b029	0.298219
201	0x3d854d1d	0.06508849
202	0x3d99002a	0.074707344
203	0xbe724c49	-0.23661913
204	0x3e19829a	0.14991227
205	0x3d595021	0.053054933
206	0xbd93cb09	-0.0721646
207	0xbdaea83f	-0.08528184
208	0xbe0ad456	-0.13557562
209	0xbdb2b6b8	-0.08726257
210	0x3e4cdb02	0.2000542
211	0x3ee35f94	0.44408858
212	0x3d19a0b3	0.03750677
213	0xbc96bb22	-0.018399779
214	0xbe7a99a7	-0.24472676
215	0xbeb0f7b1	-0.34563974
216	0xbf858296	-1.0430477
217	0x3e135b3b	0.1439027
218	0x3e60c1e8	0.2194897
219	0x3dd6a519	0.10480709
220	0xbd16cad3	-0.036814522
221	0xbd04ed5f	-0.032452937
222	0xbd1b3f3f	-0.037902113
223	0xbcda8617	-0.026675267
224	0xbd99e2e7	-0.07513981
225	0xbde236fb	-0.11045643
226	0xbe1c6810	-0.15274072
227	0x3d639bb3	0.05556841
228	0x3d46d52b	0.048543137
229	0xbb9e7f75	-0.0048369714
230	0xbd53e9fe	-0.051736824
231	0x3f308806	0.68957555
232	0xbeae808e	-0.34082454
233	0xbdf5f91c	-0.120104045
234	0x3e62689a	0.22110215
235	0x3eaae328	0.3337643
236	0x3e39e67a	0.18154326
237	0x3daa23a0	0.08307576
238	0xbda07b4d	-0.07836018
239	0xbdb4ce81	-0.0882845
240	0xbe8fac56	-0.2806117
241	0xbea01e2c	-0.3127302
242	0xbdc496cb	-0.09599074
243	0x3d604b3a	0.05475924
244	0x3d7187ea	0.05896751
245	0xbcc01593	-0.023447787
246	0x3d667a85	0.056269187
247	0xbc27d8cb	-0.010244559
248	0x3ed08971	0.4072986
249	0x3e6a15e0	0.22859907
250	0x3e9055f1	0.28190568
251	0x3e383aab	0.1799113
252	0x3edebe41	0.43504527
253	0x3de43408	0.11142737
254	0xbdc6fc50	-0.097160935
255	0xbd821a70	-0.06352699

blocks.0.to_q.spline_scaler f4 [128, 8]
0	0xbe396d1d	-0.1810803
1	0xbf05327f	-0.52030176
2	0xbe4f69ab	-0.20255153
3	0x3c8f4363	0.017488187
4	0xbcb7062c	-0.02234181
5	0xbec3620a	-0.38160735
6	0x3dd481dc	0.10376331
7	0xbee3abf2	-0.4446712
8	0x3c041601	0.008061887
9	0xbec872e7	-0.39150164
10	0x3f06ed31	0.52705675
11	0x3d6d8b41	0.05799413
12	0xbe3baae1	-0.18326904
13	0x3f845018	1.0336943
14	0x3f675ad4	0.9037297
15	0xbf5b655b	-0.8570153
16	0x3f136dde	0.5758952
17	0x3f4889a1	0.78335005
18	0x3ec2b76f	0.38030574
19	0xbf112ce1	-0.56709105
20	0xbe84384f	-0.2582421
21	0xbe542c05	-0.20719917
22	0xbf663065	-0.89917594
23	0x3f01b731	0.5067015
24	0xbad6efa6	-0.0016398325
25	0x3cb83822	0.022487704
26	0xbe842484	-0.2580911
27	0xbd85146f	-0.06498038
28	0x3cd81f5e	0.026382145
29	0xbd70b5b0	-0.05876702
30	0x3db29131	0.08719099
31	0x3e06b38f	0.13154434
32	0x3f147d88	0.58004045
33	0x3ea6a65c	0.32548797
34	0xbf3d85d1	-0.7403231
35	0x3e0801f8	0.13282001
36	0x3d240979	0.040048096
37	0xbf0e9a2b	-0.5570399
38	0x3efce435	0.49392858
39	0x3e8cea36	0.2752244
40	0xbec037cb	-0.37542567
41	0xbecb03e2	-0.396514
42	0xbcb6a5e6	-0.022295903
43	0x3ee2dabd	0.4430751
44	0x3ea730d1	0.3265443
45	0x3f60daa0	0.87833595
46	0xbe6d883a	-0.23196498
47	0xbf2566c8	-0.64609957
48	0xbc9d313f	-0.019188521
49	0x3ec72e5d	0.3890256
50	0xbdbd3f0a	-0.09240539
51	0xbccdedd0	-0.025137812
52	0x3e3646d4	0.17800456
53	0xbe4ba3f4	-0.19886762
54	0xbde37579	-0.111063905
55	0x3e0d7c7b	0.13817017
56	0x3c3cb5d0	0.011517957
57	0x3f00db56	0.5033468
58	0xbe98bf49	-0.2983344
59	0x3e00fa2d	0.12595434
60	0x3e262fd2	0.1622918
61	0x3f89eeaf	1.0775965
62	0x3eac379e	0.33636183
63	0x3e491cbb	0.19639866
64	0xbf6ad288	-0.91727495
65	0xbf8d6e58	-1.1049299
66	0xbf5c123d	-0.8596533
67	0x3f845830	1.0339413
68	0x3efcf5c3	0.4940625
69	0xbe9644b6	-0.29349297
70	0xbf8f0079	-1.1172019
71	0x3f229332	0.6350585
72	0x3c4d10bd	0.012516198
73	0x3d64d8af	0.055870708
74	0x3e89b74b	0.26897654
75	0xbe20e974	-0.15714055
76	0xbe093b39	-0.13401498
77	0xbf1a759b	-0.603357
78	0xbe937bc3	-0.2880536
79	0x3d316136	0.0433056
80	0x3e907236	0.28212136
81	0xbf087663	-0.53305644
82	0xbd9ee23f	-0.07757997
83	0xbec14212	-0.3774572
84	0xbea4dba8	-0.32198834
85	0x3f184594	0.5948117
86	0x3ea36b0d	0.3191761
87	0x3f01c74a	0.50694716
88	0xbcd81ff6	-0.026382428
89	0x3f03d400	0.5149536
90	0xbd7eaf48	-0.06217888
91	0x3c53d734	0.012929726
92	0xbc8a3b5a	-0.016874004
93	0x3ecbf531	0.39835504
94	0x3d08186a	0.033226408
95	0xbe53f1a9	-0.20697655
96	0x3c14b3e3	0.009076091
97	0x3e267277	0.16254602
98	0xbc54cbb8	-0.012988023
99	0xbcca5cc7	-0.024702443
100	0x3d0c3170	0.034226835
101	0xbf1d277d	-0.6138838
102	0xbe8e86bd	-0.27837172
103	0x3cea23bc	0.028581493
104	0xbd8a5ac3	-0.06755593
105	0x3e8b32b8	0.27187133
106	0x3e820ad9	0.253989
107	0xbd78a94d	-0.060708333
108	0x3bddbbd6	0.0067667766
109	0x3e8ef669	0.2792237
110	0x3b1128b5	0.0022149507
111	0x3d2c25bc	0.042028174
112	0xbe2a8fba	-0.1665639
113	0x3e071438	0.13191307
114	0x3d61c6b3	0.055121135
115	0x3e9da790	0.30791903
116	0x3c8ce4d2	0.017198954
117	0x3db423ca	0.08795889
118	0x3ef65859	0.4811428
119	0xbcb99647	-0.022654666
120	0xbb833d50	-0.0040051118
121	0x3da06f45	0.07833723
122	0x3dd33728	0.103132546
123	0xbd73204f	-0.059356984
124	0xbdfdcef9	-0.123929925
125	0xbea20239	-0.3164232
126	0xbd3c10ba	-0.04591439
127	0x3d14b755	0.03630765
128	0xbdeb0bcf	-0.11476862
129	0x3dcbd59b	0.099528514
130	0x3e420c62	0.18950036
131	0x3c9eb9ba	0.01937567
132	0x3d9ca4ab	0.076485954
133	0x3e57c201	0.210701
134	0xbd6625c6	-0.056188367
135	0x3e53505f	0.20636128
136	0xbc93a28b	-0.018021842
137	0xbd54dc71	-0.05196804
138	0x3d4a0113	0.04931743
139	0xbb2e8fb1	-0.002663594
140	0xbce6d843	-0.028179293
141	0xbe84a8e8	-0.25910115
142	0x3daf0a89	0.08546931
143	0xbe9e8fc2	-0.30969054
144	0xbd4a2bd8	-0.04935822
145	0x3e8384ae	0.25687164
146	0xbdc9f7b2	-0.09861697
147	0xbc3905a5	-0.01129285
148	0x3c440b51	0.011965589
149	0x3f0292dd	0.51005346
150	0x3eac2c33	0.3362747
151	0xbe9e47fe	-0.309143
152	0xbc2840ca	-0.010269353
153	0x3e90a6a4	0.28252137
154	0x3eabd2de	0.33559316
155	0x3d56fe45	0.052488584
156	0x3aa20176	0.0012360055
157	0x3e8a5147	0.27015135
158	0xbd3339af	-0.043756183
159	0xbcc3da3c	-0.023907773
160	0x3d87807d	0.06616304
161	0xbf1ec03b	-0.6201207
162	0x3c8a8a94	0.016911782
163	0x3d19dd66	0.037564658
164	0xb7ba6b20	-2.2222812e-05
165	0x3d8e5afd	0.069509484
166	0x3d03db03	0.032191288
167	0x3dad40f0	0.084596515
168	0xbf2d1195	-0.67604953
169	0xbf30e66e	-0.6910161
170	0x3f258f61	0.64671904
171	0xbf5b601a	-0.85693514
172	0x3f02d06a	0.51099265
173	0x3eb79b43	0.35860643
174	0xbf283dcc	-0.65719295
175	0x3e8a310e	0.2699055
176	0xbd03bd8d	-0.03216319
177	0x3ec06b96	0.37582082
178	0xbd1a61f2	-0.037691064
179	0xbbb53f4d	-0.0055312277
180	0xbc93198f	-0.017956523
181	0x3eb381f7	0.35060093
182	0xbc0c6063	-0.008567902
183	0xbe5a22c4	-0.21302325
184	0x3e7d630b	0.24744813
185	0x3e0dc45c	0.13844436
186	0x3e0045df	0.12526654
187	0xbc6a7327	-0.014309681
188	0xbc70bd1a	-0.014693523
189	0x3f7b80b1	0.9824324
190	0x3f0e01f2	0.5547172
191	0xbc9cbc79	-0.01913284
192	0xbcd79a7d	-0.026318783
193	0xbe41c41e	-0.18922469
194	0x3eb34431	0.35012963
195	0x3aed2354	0.0018092194
196	0xbd1cee23	-0.038313042
197	0x3f15b0fc	0.5847318
198	0x3d460c39	0.0483515
199	0x3e5b5f4a	0.21423069
200	0xbb54c0d9	-0.003246358
201	0x3f1b0be0	0.60564995
202	0xbe190bae	-0.14945862
203	0x3e605ec4	0.2191115
204	0xbe4a310d	-0.19745274
205	0xbe98d091	-0.29846624
206	0x3a45fdfe	0.00075528014
207	0xbe5b9ef0	-0.21447349
208	0x3a859a14	0.0010193014
209	0x3c297df0	0.010344967
210	0xbc61dd24	-0.013785634
211	0x3d678777	0.056525674
212	0xbd0ecd79	-0.034863923
213	0xbdb392c9	-0.087682314
214	0xbcb85a71	-0.022504063
215	0xbc3a83a0	-0.011383921
216	0xbdcd0dc6	-0.10012393
217	0x3e950850	0.29107904
218	0x3d4ecab3	0.050486278
219	0xbd4ff11f	-0.05076706
220	0xbe0325c8	-0.12807381
221	0x3ea72f0e	0.32653087
222	0x3ed66b6c	0.4187883
223	0xbe1ddaa8	-0.15415442
224	0xbf47c410	-0.7803354
225	0xbfa11e1d	-1.2587315
226	0x3f598355	0.8496602
227	0xbf661f68	-0.8989167
228	0xbf516068	-0.8178773
229	0x3f2e2e6e	0.68039596
230	0x3f70ba6d	0.94034463
231	0x3f3beda9	0.73409516
232	0x3f7c734e	0.9861344
233	0x3f525fb8	0.82177305
234	0x3f3385d7	0.701261
235	0x3f1daa72	0.61588204
236	0xbca73d50	-0.020414978
237	0xbda214c0	-0.07914114
238	0x3f25bb0d	0.6473854
239	0xbe022006	-0.12707528
240	0xbc4b34dc	-0.012402739
241	0xbe9aa6cf	-0.3020539
242	0xbe956ad5	-0.2918307
243	0x3d05532b	0.03255002
244	0x3e17d508	0.14827359
245	0xbe58bdd9	-0.21166171
246	0x3b85abd8	0.0040793233
247	0xbba4a4a7	-0.005024511
248	0xbeda15a0	-0.42594624
249	0x3f505703	0.8138277
250	0x3efb3e53	0.49070987
251	0x3f0c0c9b	0.54706734
252	0xbea7cac1	-0.32771876
253	0xbeb6707a	-0.35632688
254	0xbf5a6356	-0.85307825
255	0xbe952c00	-0.29135132

blocks.0.to_q.grid f4 [8, 12]
0	0xc00ccccd	-2.2
1	0xbfe66666	-1.8
2	0xbfb33333	-1.4
3	0xbf800000	-1.0
4	0xbf19999a	-0.6
5	0xbe4ccccc	-0.19999999
6	0x3e4cccd0	0.20000005
7	0x3f19999a	0.6
8	0x3f800000	1.0
9	0x3fb33334	1.4000001
10	0x3fe66666	1.8
11	0x400ccccd	2.2
12	0xc00ccccd	-2.2
13	0xbfe66666	-1.8
14	0xbfb33333	-1.4
15	0xbf800000	-1.0
16	0xbf19999a	-0.6
17	0xbe4ccccc	-0.19999999
18	0x3e4cccd0	0.20000005
19	0x3f19999a	0.6
20	0x3f800000	1.0
21	0x3fb33334	1.4000001
22	0x3fe66666	1.8
23	0x400ccccd	2.2
24	0xc00ccccd	-2.2
25	0xbfe66666	-1.8
26	0xbfb33333	-1.4
27	0xbf800000	-1.0
28	0xbf19999a	-0.6
29	0xbe4ccccc	-0.19999999
30	0x3e4cccd0	0.20000005
31	0x3f19999a	0.6
32	0x3f800000	1.0
33	0x3fb33334	1.4000001
34	0x3fe66666	1.8
35	0x400ccccd	2.2
36	0xc00ccccd	-2.2
37	0xbfe66666	-1.8
38	0xbfb33333	-1.4
39	0xbf800000	-1.0
40	0xbf19999a	-0.6
41	0xbe4ccccc	-0.19999999
42	0x3e4cccd0	0.20000005
43	0x3f19999a	0.6
44	0x3f800000	1.0
45	0x3fb33334	1.4000001
46	0x3fe66666	1.8
47	0x400ccccd	2.2
48	0xc00ccccd	-2.2
49	0xbfe66666	-1.8
50	0xbfb33333	-1.4
51	0xbf800000	-1.0
52	0xbf19999a	-0.6
53	0xbe4ccccc	-0.19999999
54	0x3e4cccd0	0.20000005
55	0x3f19999a	0.6
56	0x3f800000	1.0
57	0x3fb33334	1.4000001
58	0x3fe66666	1.8
59	0x400ccccd	2.2
60	0xc00ccccd	-2.2
61	0xbfe66666	-1.8
62	0xbfb33333	-1.4
63	0xbf800000	-1.0
64	0xbf19999a	-0.6
65	0xbe4ccccc	-0.19999999
66	0x3e4cccd0	0.20000005
67	0x3f19999a	0.6
68	0x3f800000	1.0
69	0x3fb33334	1.4000001
70	0x3fe66666	1.8
71	0x400ccccd	2.2
72	0xc00ccccd	-2.2
73	0xbfe66666	-1.8
74	0xbfb33333	-1.4
75	0xbf800000	-1.0
76	0xbf19999a	-0.6
77	0xbe4ccccc	-0.19999999
78	0x3e4cccd0	0.20000005
79	0x3f19999a	0.6
80	0x3f800000	1.0
81	0x3fb33334	1.4000001
82	0x3fe66666	1.8
83	0x400ccccd	2.2
84	0xc00ccccd	-2.2
85	0xbfe66666	-1.8
86	0xbfb33333	-1.4
87	0xbf800000	-1.0
88	0xbf19999a	-0.6
89	0xbe4ccccc	-0.19999999
90	0x3e4cccd0	0.20000005
91	0x3f19999a	0.6
92	0x3f800000	1.0
93	0x3fb33334	1.4000001
94	0x3fe66666	1.8
95	0x400ccccd	2.2

blocks.0.to_kv.base_weight f4 [256, 8]
0	0xbe3fe692	-0.187403
1	0x3e0c8efd	0.1372642
2	0x3ead66b4	0.3386742
3	0x3f29b786	0.6629566
4	0x3ed3c70d	0.413628
5	0xbe21d398	-0.15803373
6	0xbe18e3df	-0.14930676
7	0xbd580fc9	-0.05274943
8	0xbe9044c3	-0.2817746
9	0xbf1ddf13	-0.6166851
10	0xbf0963b6	-0.5366777
11	0xbeba36e0	-0.3636999
12	0xbe963cfb	-0.293434
13	0xbec973cd	-0.3934616
14	0x3e884bc7	0.26620314
15	0xbccf9c29	-0.025343018
16	0x3ceb0858	0.028690502
17	0x3de798aa	0.11308415
18	0x3f27499e	0.65346706
19	0xbebabade	-0.36470693
20	0xbe0418f7	-0.12900148
21	0xbd4dc70f	-0.050238665
22	0x3e1bfb35	0.15232547
23	0x3e8e608b	0.2780803
24	0x3e26345b	0.1623091
25	0x3e6d8601	0.2319565
26	0xbd18a917	-0.03727063
27	0xbe0d789a	-0.13815537
28	0x3f105c43	0.5639078
29	0x3e97a84d	0.2962059
30	0xbe94da1f	-0.29072663
31	0xbe08cd82	-0.13359645
32	0xbe57322f	-0.21015237
33	0xbed07e07	-0.4072115
34	0x3e32f041	0.17474462
35	0xbe5a7524	-0.21333748
36	0x3e6fe85a	0.23428479
37	0xbde86e02	-0.11349107
38	0x3e65581f	0.22396897
39	0x3b17ebd5	0.0023181338
40	0xbe0bdc44	-0.13658243
41	0xbed6f99e	-0.41987318
42	0xbe2d5559	-0.16927089
43	0xbe77da2f	-0.24204324
44	0xbdf6afb2	-0.1204523
45	0xbe9eedc4	-0.31040776
46	0x3ee3b5a1	0.4447451
47	0x3e93d255	0.28871408
48	0xbe96500d	-0.2935795
49	0x3e243bde	0.16038463
50	0xbee50ae5	-0.44734874
51	0xbe950fda	-0.29113656
52	0x3d08051c	0.033207998
53	0x3d28f038	0.041244715
54	0x3e9c18f9	0.30487803
55	0xbe1b5490	-0.15168977
56	0xbeaf436c	-0.34231126
57	0xbf30b442	-0.6902505
58	0xbf183d18	-0.5946822
59	0xbe76444e	-0.24049494
60	0x3ece6a1f	0.4031534
61	0x3c3d796c	0.011564594
62	0x3ea8340d	0.32852212
63	0x3e2f89aa	0.17142358
64	0xbd429e42	-0.047514208
65	0xbee24c0c	-0.44198644
66	0x3f5c9794	0.8616879
67	0x3e956f21	0.29186347
68	0xbe44a015	-0.19201691
69	0x3d985c70	0.07439506
70	0x3cddd7e5	0.027080486
71	0x3e9e8590	0.30961275
72	0x3ca72774	0.020404555
73	0xbec4fb15	-0.3847281
74	0xbeeabfcf	-0.45849463
75	0xbe41b901	-0.1891823
76	0x3e82c968	0.25544286
77	0xbeae5b98	-0.34054255
78	0x3e65155c	0.22371429
79	0x3e68f197	0.22748409
80	0x3ddaa4a2	0.106759325
81	0x3ec8d5c2	0.39225584
82	0xbddac76f	-0.1068257
83	0x3e1fae84	0.15593916
84	0xbe3a5a31	-0.18198468
85	0x3e9ffbee	0.31246895
86	0xbed4d312	-0.41567284
87	0xbeb84a6e	-0.35994285
88	0xbe530c1e	-0.20610091
89	0xbed68d71	-0.41904786
90	0xbe661f3c	-0.22472852
91	0xba790dbb	-0.0009500642
92	0xbdef607d	-0.116883256
93	0x3dd2f781	0.10301114
94	0x3d1ff3cd	0.039050866
95	0x3ec7006f	0.38867518
96	0x3e07eee8	0.13274729
97	0x3ebbb6bb	0.3666285
98	0x3eefbc7a	0.46823484
99	0xbdc52e80	-0.0962801
100	0x3d414125	0.047181267
101	0xbe08c87d	-0.1335773
102	0xbe152624	-0.1456533
103	0xbde6d63f	-0.11271333
104	0x3d17d610	0.03706938
105	0xbdc42d9f	-0.09579014
106	0x3df63f64	0.120238096
107	0xbee3d009	-0.44494656
108	0xbdb41aa3	-0.08794143
109	0x3eaec1e5	0.34132305
110	0x3de55669	0.11198122
111	0xbe54eaf2	-0.2079275
112	0x3dd8b0c2	0.10580589
113	0xbd3ffbe8	-0.046871096
114	0xbee6d3f9	-0.45083597
115	0xbe2cca87	-0.16874133
116	0x3ed89b71	0.42306092
117	0xbe07b4fa	-0.13252631
118	0xbe0ff6a1	-0.14058925
119	0x3ec09903	0.3761674
120	0x3dd27d7b	0.1027784
121	0x3e8b7946	0.27240962
122	0x3e86c330	0.2632079
123	0x3e98997b	0.29804596
124	0x3bb53e7a	0.0055311294
125	0x3cb79b8f	0.022413043
126	0x3e2ba844	0.16763407
127	0xbd4e2e9c	-0.05033742
128	0xbbf488d4	-0.0074626002
129	0xbe407c97	-0.18797527
130	0xbd8952ec	-0.06705269
131	0xbdd5224d	-0.10406933
132	0x3db4c710	0.08827031
133	0xbc8ac2f5	-0.016938666
134	0xbdf7bfa1	-0.12097097
135	0x3ced8e4f	0.028998522
136	0xbe6411c0	-0.22272396
137	0x3eae0eb8	0.33995605
138	0xbe42b8ac	-0.19015759
139	0xbedfb64a	-0.43693763
140	0xbe8a38dc	-0.26996505
141	0xbeaefc22	-0.34176737
142	0xbe02ee5f	-0.12786244
143	0x3ed33bda	0.412566
144	0x3e035726	0.12826213
145	0xbd2b8ad3	-0.04188044
146	0x3f0980c6	0.5371212
147	0x3d8e4836	0.06947367
148	0x3dfcf74d	0.123518564
149	0x3e88e7b9	0.2673929
150	0x3dae0f9b	0.0849907
151	0xbeabac57	-0.33529922
152	0xbdf8107f	-0.121125214
153	0x3ec0dbec	0.37667787
154	0x3e1dc2a4	0.15406281
155	0x3da4cee9	0.080472775
156	0x3e339975	0.17539008
157	0x3d2200d0	0.039551556
158	0xbe050322	-0.12989476
159	0xbebf5e55	-0.37376657
160	0xbe6f1c8c	-0.23350734
161	0x3e312eb9	0.1730298
162	0xbeb4f7c8	-0.35345292
163	0x3e810b66	0.2520401
164	0x3e901a1a	0.28144914
165	0xbdfd6fd5	-0.12374846
166	0xbbdf8201	-0.0068209176
167	0x3d817600	0.06321335
168	0xbe37afd9	-0.17938174
169	0xbf2042a6	-0.626017
170	0x3f0958d8	0.5365119
171	0xbde0710c	-0.10959062
172	0xbda4f65f	-0.08054804
173	0xbe102fa5	-0.14080675
174	0x3e8dd219	0.27699354
175	0x3e6ca31d	0.23109098
176	0x3edd0d46	0.4317419
177	0x3e2afa43	0.1669703
178	0x3ec0cf6f	0.3765826
179	0x3e3748b7	0.17898832
180	0x3e48e170	0.19617248
181	0xba3bacd0	-0.0007159235
182	0xbea3d9a0	-0.32001972
183	0xbd17a564	-0.037022963
184	0xbd463938	-0.04839441
185	0x3e41d537	0.18928991
186	0xbea1053d	-0.3144931
187	0xbd66c75f	-0.05634248
188	0x3f172b2c	0.5905025
189	0xbd6152d7	-0.055010643
190	0xbe079d22	-0.13243535
191	0xbeba2893	-0.3635908
192	0x3ebcd49e	0.36880964
193	0x3e9fc95a	0.31208307
194	0x3db752c9	0.08951337
195	0x3e8a05cc	0.26957548
196	0xbde1dcff	-0.1102848
197	0xbe4fd797	-0.20297085
198	0xbeaa50b6	-0.33264703
199	0x3d4fd031	0.050735656
200	0x3e1169d9	0.14200534
201	0x3ee6d3ad	0.4508337
202	0x3da12d08	0.07869917
203	0xbd0a5a37	-0.03377744
204	0xbd2c3326	-0.042040966
205	0xbe260600	-0.16213226
206	0xbed87a09	-0.42280605
207	0xbec5344f	-0.3851647
208	0xbda65541	-0.0812173
209	0x3ea0d44b	0.31411967
210	0x3e42e6dc	0.19033378
211	0x3e967b89	0.29391125
212	0x3e997a5c	0.29976165
213	0x3d992de7	0.07479458
214	0x3e02d08a	0.12774864
215	0xbe2fbee8	-0.17162669
216	0xbdc3231d	-0.09528182
217	0xbecc1050	-0.39856195
218	0xbf32658a	-0.69686186
219	0xbeef6213	-0.46754512
220	0xbe072b3d	-0.13200088
221	0xbdf08304	-0.11743739
222	0xbe3d5c80	-0.18492317
223	0x3e60b964	0.21945721
224	0xbe09452d	-0.13405295
225	0x3f23cdf6	0.63986146
226	0xbf06b323	-0.5261709
227	0x3e8b53be	0.27212328
228	0xbc9c2e43	-0.019065028
229	0xbe0ba410	-0.13636804
230	0xbf048373	-0.51763076
231	0xbee7d169	-0.45276955
232	0xbe9ed661	-0.31022933
233	0x3d0dc44d	0.034611035
234	0x3f38b1ce	0.7214631
235	0x3dca7def	0.09887301
236	0x3e0a2d84	0.13493925
237	0x3dd70369	0.10498697
238	0xbe8834bc	-0.26602733
239	0xbe4d1d22	-0.20030645
240	0xbdb8a238	-0.09015316
241	0xbe9dca7f	-0.30818555
242	0x3d47de78	0.048796147
243	0xbe4b7f67	-0.19872819
244	0xbe8a7d62	-0.27048784
245	0x3cd39f74	0.02583287
246	0xbcbbf916	-0.022945922
247	0x3ea363d9	0.31912115
248	0xbe784a28	-0.24247038
249	0x3eba911a	0.3643883
250	0xbf27ea3d	-0.65591794
251	0x3d86ecbb	0.065881215
252	0x3f10398d	0.56337816
253	0xbd54e7fa	-0.051979043
254	0xbea7c05e	-0.32763952
255	0xbeb6c1eb	-0.35694823
