weights/flashkan_vit_5epochs.pth (torch, 362900 bytes, 33 tensors)

v_class f4 [1, 8]
0	0x3ec6ab9a	0.38802797
1	0x3f20a24a	0.62747633
2	0x3ee1f3be	0.44131273
3	0x3ddc160a	0.10746391
4	0x3e537f5d	0.20654054
5	0x3e1ae367	0.1512581
6	0x3f41a138	0.75636625
7	0x3edf0f13	0.43566188

linear_mapper.base_weight f4 [8, 16]
0	0x3e41fc50	0.18943906
1	0xbe1d8fc4	-0.15386873
2	0x3d4151ba	0.04719708
3	0xbd0f163c	-0.034933314
4	0x3e06b1c1	0.13153745
5	0xbd965809	-0.0734101
6	0xbd812535	-0.06305925
7	0x3e932c42	0.28744704
8	0xbd0dfc06	-0.034664176
9	0x3e1b7bf2	0.15184
10	0x3e37ede9	0.1796185
11	0x3ea985b5	0.33109823
12	0x3ed72c42	0.42025954
13	0x3e14ff7e	0.14550588
14	0x3e710288	0.23536122
15	0x3e8fce60	0.2808714
16	0x3e09b422	0.13447621
17	0xbcc3ad5c	-0.023886375
18	0xbca5290e	-0.020161178
19	0xbd8eef49	-0.06979234
20	0x3bacbb7f	0.0052713747
21	0xbbc1a8c9	-0.0059100133
22	0x3d90e120	0.07074189
23	0xbde14952	-0.11000313
24	0x3dabf7fa	0.08396907
25	0xbdf53e1d	-0.11974738
26	0x3d86ea33	0.06587639
27	0xbdf1131a	-0.117712215
28	0x3d9121fe	0.070865616
29	0x3d80b028	0.06283599
30	0x3d6dbb46	0.058039926
31	0xbe6c52c2	-0.23078445
32	0x3e1333cd	0.14375229
33	0xbd821323	-0.06351306
34	0x3da14284	0.07874015
35	0xbe4c4350	-0.19947553
36	0x3e9435aa	0.28947192
37	0xbb1ca5f7	-0.0023902634
38	0xbc74ea2c	-0.014948409
39	0xbc032aac	-0.008005779
40	0xbb3735cb	-0.0027955647
41	0x3dd1450b	0.10218247
42	0x3d4e5259	0.0503715
43	0x3e7a0b9f	0.24418496
44	0x3de428b8	0.11140579
45	0xbd3b2bec	-0.045696184
46	0x3e6877ac	0.22701901
47	0x3e53aa4f	0.20670436
48	0x3daec58a	0.08533771
49	0x3d24db62	0.040248282
50	0xbce343cc	-0.027742289
51	0x3e052144	0.13000971
52	0x3e9294e3	0.28629217
53	0x3e4ab5e2	0.19795945
54	0x3daff4cd	0.08591614
55	0x3ea57bef	0.32321116
56	0x3e8f85fb	0.28031906
57	0x3e1dc7ef	0.154083
58	0x3e6a525c	0.2288298
59	0x3eeea403	0.46609506
60	0x3e9a0a75	0.30086103
61	0xbd7831d2	-0.060594387
62	0xbd39e5cd	-0.04538517
63	0xbe05718b	-0.13031594
64	0x3f372f98	0.71557
65	0x3ec33bf0	0.38131666
66	0x3ee4cb3e	0.4468631
67	0x3f1e8ba4	0.61931825
68	0xbeaa93e2	-0.3331595
69	0xbc4a5e53	-0.01235159
70	0xbea23a03	-0.31684884
71	0x3e3571ad	0.17719145
72	0xbe5c0cda	-0.21489277
73	0xbe8f7c07	-0.28024313
74	0xbe4629ba	-0.19351855
75	0xbe131e7c	-0.14367098
76	0xbe7cf465	-0.24702604
77	0xbe394537	-0.1809281
78	0xbda5a174	-0.08087435
79	0xbe02bb92	-0.12766865
80	0x3e9785dc	0.29594314
81	0xbd9bf8f9	-0.07615847
82	0xbe279aac	-0.16367596
83	0xbba11afb	-0.0049165464
84	0x3e473bd8	0.19456422
85	0x3df2751b	0.11838742
86	0x3e383274	0.17987996
87	0x3e50098a	0.20316139
88	0xbe50a103	-0.20373921
89	0x3d494413	0.049137186
90	0x3e2f7e38	0.17137992
91	0x3e58a3ac	0.21156186
92	0xbf05ac16	-0.5221571
93	0xbf077f79	-0.5292888
94	0xbf1be0a6	-0.6088966
95	0xbeec28f6	-0.46125
96	0xbdc722a8	-0.09723407
97	0x3e0b9c34	0.13633806
98	0x3e66707f	0.22503851
99	0x3e8c72b9	0.27431276
100	0x3df27466	0.118386075
101	0x3df491a8	0.11941844
102	0xbdecb79e	-0.1155846
103	0x3e281563	0.16414408
104	0x3e30cb7e	0.17265126
105	0x3ee0c107	0.43897268
106	0x3e715431	0.23567273
107	0x3d8f1004	0.069854766
108	0xbe15cd15	-0.14629014
109	0xbd5480e1	-0.05188072
110	0xbde8e5aa	-0.1137193
111	0xbea97998	-0.3310058
112	0xbe57d00a	-0.21075454
113	0xbeb457c6	-0.35223216
114	0xbf261890	-0.6488123
115	0xbed520ca	-0.4162658
116	0xbcea3e09	-0.028594034
117	0xbd4f29bf	-0.05057692
118	0xbec2185a	-0.37909204
119	0xbd72eb0e	-0.059306197
120	0xbdd4c862	-0.103897825
121	0xbe8a0e4c	-0.26964033
122	0xbf07c9e5	-0.5304244
123	0x3cfb97be	0.030712005
124	0xbf18fda7	-0.5976204
125	0xbf684eee	-0.9074544
126	0xbeec7d92	-0.46189553
127	0xbe0b597d	-0.13608356

linear_mapper.spline_weight f4 [8, 16, 8]
0	0xb9347021	-0.00017207909
1	0xba8ed55c	-0.0010897326
2	0xbcb1d7ff	-0.02170944
3	0xbc173b51	-0.009230451
4	0x3bd0319c	0.00635357
5	0x3d41c42f	0.047306236
6	0xbc76c6f9	-0.015062087
7	0xbc0c3e97	-0.008559844
8	0x3ba79aa6	0.005114871
9	0x3c4d8b77	0.012545458
10	0xbd565349	-0.05232552
11	0xbc46cb12	-0.012133377
12	0x3d384c87	0.044994857
13	0x3ee928c2	0.45538908
14	0xbe8510f1	-0.25989488
15	0xbef72b2b	-0.48275122
16	0x3a747d24	0.0009326509
17	0x3b9d7d30	0.0048061833
18	0xbd9746eb	-0.073865734
19	0xbd3d226b	-0.0461754
20	0x3db4d068	0.08828813
21	0x3ea5b302	0.32363135
22	0xbe6ef245	-0.23334606
23	0xbeb4b01b	-0.35290608
24	0xbb828fcd	-0.0039844275
25	0xbc3cc8d7	-0.011522493
26	0x3d01d635	0.031698424
27	0x3ca50011	0.020141633
28	0x3da238bf	0.0792098
29	0x3e8279d2	0.25483567
30	0xbc96af7e	-0.018394228
31	0xbd6d3b87	-0.057918098
32	0xbb256074	-0.0025234492
33	0xbbee5816	-0.0072736843
34	0x3c85a9d1	0.016316326
35	0xb990702a	-0.0002754939
36	0xb871b192	-5.7624253e-05
37	0x3d0d5a3e	0.03450989
38	0x39741537	0.00023277556
39	0xbbec1366	-0.007204461
40	0xb9e76fd0	-0.0004414306
41	0xbb0c07dc	-0.002136699
42	0x3ca21f36	0.019790273
43	0x3bbd8ccc	0.0057846066
44	0xbd19214d	-0.037385274
45	0x3e1ac5d2	0.15114525
46	0xbd23eb8c	-0.040019557
47	0xbde23a02	-0.1104622
48	0x3b0b5c35	0.0021264676
49	0x3b4bab8e	0.0031077596
50	0x3c3f61f1	0.011681066
51	0x3d3d97de	0.04628741
52	0xbc8cac6e	-0.017172065
53	0xbc99f76d	-0.01879474
54	0x3c0c291f	0.008554726
55	0x3dcf99ec	0.1013678
56	0x3b53ad31	0.0032299275
57	0x3c1e092a	0.00964574
58	0x3c276ff9	0.010219567
59	0xbbee9cce	-0.007281876
60	0xbd79c24d	-0.060976315
61	0xbc8aa2ff	-0.016923426
62	0xbd2d39f9	-0.042291615
63	0xbe240bbe	-0.16020104
64	0xbaa40aa2	-0.0012515376
65	0xbb5973a7	-0.0033180506
66	0x3d2fab6a	0.042888083
67	0x3c87c24e	0.016572144
68	0xbc57b048	-0.013164587
69	0xbcd380fd	-0.025818342
70	0x3c825b84	0.015912779
71	0x3d65e711	0.056128565
72	0x3b7dd9c1	0.0038734528
73	0x3c23ec55	0.010005076
74	0x3d3a9bbe	0.045558684
75	0x3d5dd853	0.05416138
76	0xbd8b15eb	-0.0679129
77	0xbe75ede9	-0.24016537
78	0x3e0fc37f	0.1403942
79	0x3e561161	0.20905067
80	0x3bc760b4	0.006084526
81	0x3c81c740	0.01584208
82	0xbd92c735	-0.07166902
83	0xbc9e275f	-0.019305883
84	0x3ca0b7f9	0.019618975
85	0x3e26845e	0.16261432
86	0xbd38e12a	-0.04513661
87	0xbddea3af	-0.10871064
88	0xbaa5a3c9	-0.0012637313
89	0xbc069ae4	-0.00821564
90	0xbd52b4f8	-0.051442116
91	0xbd3c0d75	-0.04591127
92	0xbd33cf1b	-0.043898683
93	0x3dd15a3f	0.10222291
94	0xbe69a1f2	-0.22815683
95	0xbebf4993	-0.3736082
96	0x3abdb4ba	0.0014473416
97	0xb9d64e01	-0.00040875378
98	0xbe5e879d	-0.2173142
99	0xbdacb8bb	-0.08433672
100	0x3dbcde3b	0.092220746
101	0x3ec39f26	0.38207358
102	0xbde9e973	-0.1142148
103	0xbe3528bb	-0.17691319
104	0x3a7fb685	0.00097546756
105	0x3babaae0	0.0052388757
106	0x3e4bd43b	0.19905178
107	0x3e196240	0.14978886
108	0xbdb1117b	-0.08645912
109	0xbf31b6f2	-0.6941978
110	0x3e026b42	0.12736228
111	0x3eea5805	0.4577028
112	0x3b0ea1e2	0.002176397
113	0x3b8e05cb	0.0043341867
114	0xbc35974f	-0.011083438
115	0xbc5e2808	-0.013559349
116	0xbcc450d6	-0.023964327
117	0x3b26e9b7	0.0025468895
118	0xbd482116	-0.04885968
119	0xbc48612f	-0.012230202
120	0x3a8993fb	0.0010496372
121	0x3b6af7b1	0.0035853202
122	0x3bb45222	0.005502955
123	0xbc0acc81	-0.008471609
124	0xbc3725ca	-0.011178443
125	0x3e103eda	0.14086476
126	0xbd800b92	-0.06252207
127	0xbdeb8dec	-0.11501679
128	0x39820999	0.00024802683
129	0xbab50f54	-0.0013813772
130	0xbcf7cabf	-0.030248044
131	0xbc87f23b	-0.016594997
132	0xbd3164e3	-0.043309104
133	0xbe53b377	-0.20673929
134	0x3de7d220	0.11319375
135	0x3e5ec9cb	0.21756665
136	0xba1533d3	-0.00056916213
137	0xbbc2f155	-0.005949179
138	0xbe03df10	-0.1287806
139	0xbd37201f	-0.044708367
140	0x3db89c7a	0.090142205
141	0x3ea75edc	0.3268956
142	0xbde15289	-0.110020705
143	0xbe3082a4	-0.17237335
144	0xba6f87f1	-0.00091373833
145	0xbb315ebb	-0.002706452
146	0x3cc67bc1	0.024228932
147	0x3c3fbad8	0.011702262
148	0x3c11154e	0.008855177
149	0xbdd3d490	-0.103432775
150	0xbc9a52e9	-0.018838363
151	0x3db6b02e	0.08920322
152	0xbb817122	-0.003950254
153	0xbc612427	-0.01374153
154	0xbd58f6e8	-0.052969843
155	0x3c884b59	0.016637491
156	0x3dc52dfc	0.096279114
157	0x3d9722db	0.07379695
158	0xbdbf1fbb	-0.09332224
159	0xbd87041d	-0.065925814
160	0xbb17c317	-0.0023157054
161	0xbb8f760c	-0.004378086
162	0x3ce3014d	0.027710581
163	0x3ca8daac	0.020612083
164	0xbc490b9b	-0.012270833
165	0xbc5a4da6	-0.013324177
166	0x3b4a6df1	0.0030888284
167	0xbc250473	-0.010071862
168	0xbabc781a	-0.0014379055
169	0xbc0dc746	-0.0086534675
170	0x3d10542b	0.03523652
171	0x3ceffe36	0.029296022
172	0x3c880e50	0.016608387
173	0xbd921f1a	-0.071348384
174	0xbbf4e2f8	-0.007473346
175	0x3d226de6	0.03965559
176	0xbb4a8931	-0.0030904526
177	0xbbec13b4	-0.0072044972
178	0x3b7f576c	0.003896202
179	0xbc844423	-0.016145771
180	0xbb525dfe	-0.003209948
181	0x3c8e5a29	0.017376976
182	0xbc8f7694	-0.017512597
183	0x3d00a1bd	0.031404246
184	0xbab4e2a9	-0.001380046
185	0xbaf0e952	-0.0018380082
186	0xbd130945	-0.035897512
187	0xbd102187	-0.035188224
188	0x3cf7e519	0.03026061
189	0x3d8224ab	0.0635465
190	0xbd1138a9	-0.035454426
191	0xbcbec4c4	-0.023287185
192	0xbb396166	-0.0028286814
193	0xbc021801	-0.007940293
194	0x3d325b3d	0.043544043
195	0x3d592bb8	0.05302021
196	0x3b400136	0.0029297597
197	0xbb3c8aa5	-0.0028769162
198	0x3afd947e	0.0019346622
199	0xbd48e83f	-0.049049612
200	0xb99c8271	-0.00029851825
201	0xbb59eb95	-0.003325199
202	0xbc10adda	-0.008830512
203	0xbc94aefd	-0.018149847
204	0xbceba69c	-0.028765969
205	0x3d1ca56b	0.038243692
206	0xbca63f1d	-0.020293767
207	0x3d9d1bcf	0.0767132
208	0x3b96764f	0.00459174
209	0x3c2ce9f0	0.010553822
210	0x3d70a183	0.05874778
211	0x3d2a36cb	0.04155616
212	0xbe2ecade	-0.17069575
213	0xbec0518e	-0.3756222
214	0x3d989ff3	0.07452383
215	0x3e682f2e	0.22674248
216	0xbaf38831	-0.0018580017
217	0xbbf0f098	-0.0073528998
218	0xbd9c9ca7	-0.076470666
219	0xbc996387	-0.018724216
220	0x3c9b9d2a	0.01899584
221	0x3d5997e3	0.053123366
222	0x3d0cd2e4	0.03438081
223	0xbdefcd0d	-0.11709032
224	0x3aa9bad7	0.0012949359
225	0x3c0402b5	0.008057286
226	0xbdc48932	-0.095964804
227	0xbd647fc9	-0.055785928
228	0x3dadb544	0.08481839
229	0x3e5ffc98	0.218737
230	0xbe456df2	-0.19280222
231	0xbe60aa6a	-0.21940008
232	0xbb81113f	-0.0039388235
233	0xbc216f01	-0.009853126
234	0x3d69cbee	0.057079248
235	0x3d2821a0	0.041047692
236	0x3dc42161	0.09576679
237	0x3dafac0f	0.085777394
238	0xbe135bcc	-0.14390486
239	0xbe38d023	-0.18048148
240	0xbb938f19	-0.0045031426
241	0xbc629323	-0.013829025
242	0x3b9d926a	0.0048087137
243	0x3a60a352	0.00085692585
244	0x3c68b92e	0.0142043065
245	0x3b6a9c6a	0.0035798796
246	0x3c7bd47f	0.015370487
247	0xbd8d762a	-0.06907304
248	0x3acbce91	0.0015549232
249	0x3bb379f9	0.0054771868
250	0x3dc728e3	0.097245954
251	0x3c9ccea7	0.019141508
252	0xbe4ee730	-0.20205379
253	0xbe4ed840	-0.2019968
254	0x3e69c61c	0.22829479
255	0x3e2e6dd8	0.1703409

linear_mapper.spline_scaler f4 [8, 16]
0	0xbc286140	-0.010277092
1	0x3d87ce12	0.06631102
2	0x3de2b740	0.110701084
3	0x3dcb1b65	0.099173345
4	0xbba18da0	-0.004930213
5	0xbd12ca5a	-0.03583751
6	0xbc900710	-0.017581493
7	0xbce97a3e	-0.028500672
8	0x3b6b180d	0.003587249
9	0x3ca6f821	0.020381989
10	0x3bcd6b98	0.0062689297
11	0xbe1356d4	-0.14388591
12	0x3dba32ef	0.09091746
13	0xbeab9516	-0.3351218
14	0xba9fa431	-0.001217967
15	0x3b8ea07b	0.004352627
16	0x3d055d0e	0.032559447
17	0xbd6c9e57	-0.057768192
18	0x3cc46b1b	0.023976853
19	0xbd35a74e	-0.044349007
20	0xbb6b6f5b	-0.0035924527
21	0x3c3c889d	0.0115071805
22	0x3bcb9f06	0.0062140254
23	0xbb7b3617	-0.00383318
24	0xbb901cde	-0.0043979725
25	0x3c4755cc	0.012166452
26	0x3e029bb8	0.12754714
27	0xbbc5c27e	-0.006035148
28	0xbd1df754	-0.03856595
29	0xbdbf1425	-0.09330014
30	0xbbfea3a5	-0.007770973
31	0x3d92d79b	0.0717003
32	0x3cc0246f	0.023454873
33	0xbde6962b	-0.11259111
34	0xbc711cda	-0.014716351
35	0x3c580908	0.013185747
36	0x3b8e4bfd	0.0043425546
37	0xba80557b	-0.00097911
38	0xbca5adb8	-0.020224437
39	0xbd054141	-0.032532934
40	0xbbbfb4b7	-0.0058504003
41	0x3cd96f7b	0.026542416
42	0xbc68c10b	-0.014206181
43	0xbdd099d4	-0.101855904
44	0x3cdbf418	0.026849791
45	0x39860353	0.00025560948
46	0x3d5df3d0	0.054187596
47	0x3dc30a67	0.095234685
48	0xbc58eee9	-0.013240554
49	0xbd47d51a	-0.048787214
50	0xbd49ecf2	-0.049298234
51	0x3e9d1273	0.30678138
52	0xbda41ac9	-0.08012921
53	0x3dee0744	0.116224796
54	0x3d81418e	0.06311332
55	0xbeebfed5	-0.4609286
56	0x3eea406b	0.45752272
57	0x3e32bcea	0.17454877
58	0x3e485b09	0.19565977
59	0x3e3d7b52	0.18504074
60	0xbe9f1871	-0.31073335
61	0x3c75e1f5	0.015007486
62	0xbb8a69a2	-0.004224018
63	0xbe11bd7a	-0.14232436
64	0x3e01fc1f	0.12693833
65	0x3d1a8c82	0.037731655
66	0x3c164952	0.009172754
67	0xbe989120	-0.29798222
68	0xbb5978ae	-0.0033183503
69	0x3c8c12bb	0.017098775
70	0x3c71150d	0.014714492
71	0x3dd260c9	0.102723666
72	0x3c8b8de9	0.017035441
73	0xbaf3b5ed	-0.0018593647
74	0x391e7898	0.00015112979
75	0xbc1d9040	-0.009616911
76	0x3d16ffa2	0.036864884
77	0xba23348a	-0.00062257855
78	0x3c67c7a8	0.014146723
79	0xbde5329e	-0.11191295
80	0xbdf7e4e1	-0.12104202
81	0x3cc21a4b	0.023694178
82	0xbc76b5d5	-0.015058001
83	0x3e4470dc	0.19183677
84	0xbe1249b0	-0.14285922
85	0x3be323a9	0.0069317413
86	0x3e8cb7a9	0.27483872
87	0xbc851c79	-0.016248928
88	0xbaa61d95	-0.0012673611
89	0xbec3822d	-0.38185254
90	0xbb1dd4ef	-0.0024083217
91	0x3d6b97a6	0.05751767
92	0x3f13d56e	0.5774754
93	0x3e863b9c	0.26217353
94	0x3d244a36	0.040109836
95	0x3e4ef54f	0.20210765
96	0x3dce7bd6	0.100822136
97	0xbee415cd	-0.44547883
98	0xbec76669	-0.3894532
99	0x3ec250fc	0.3795241
100	0x3cae2b5f	0.021260915
101	0x3ddbf9c6	0.10741
102	0x3ca2c744	0.019870408
103	0x3e0b6494	0.13612586
104	0xbd7dcfcd	-0.061965752
105	0xbb77ab5d	-0.003779135
106	0x3e0bd736	0.13656315
107	0xbe327068	-0.17425692
108	0x3de84d9a	0.11342926
109	0xbc4cfdca	-0.01251168
110	0xbc8a7d77	-0.01690553
111	0x3e393535	0.18086703
112	0xbea26588	-0.31718087
113	0x3e2c81e9	0.16846432
114	0x3cd13cb8	0.025541648
115	0xbef87ece	-0.48534244
116	0x3ad84148	0.0016498948
117	0xbbcc2547	-0.0062300297
118	0xbc59f607	-0.013303286
119	0x3d87624d	0.06610546
120	0xbc9ec494	-0.019380845
121	0xbcb7236a	-0.022355754
122	0xbc6042a2	-0.0136877615
123	0xbcdc673c	-0.026904695
124	0x3d3087c8	0.04309824
125	0x3ab43241	0.0013747887
126	0xbccb1e64	-0.024794765
127	0x3e972e25	0.29527393

linear_mapper.grid f4 [16, 12]
0	0xc00ccccd	-2.2
1	0xbfe66666	-1.8
2	0xbfb33333	-1.4
3	0xbf800000	-1.0
4	0xbf19999a	-0.6
5	0xbe4ccccc	-0.19999999
6	0x3e4cccd0	0.20000005
7	0x3f19999a	0.6
8	0x3f800000	1.0
9	0x3fb33334	1.4000001
10	0x3fe66666	1.8
11	0x400ccccd	2.2
12	0xc00ccccd	-2.2
13	0xbfe66666	-1.8
14	0xbfb33333	-1.4
15	0xbf800000	-1.0
16	0xbf19999a	-0.6
17	0xbe4ccccc	-0.19999999
18	0x3e4cccd0	0.20000005
19	0x3f19999a	0.6
20	0x3f800000	1.0
21	0x3fb33334	1.4000001
22	0x3fe66666	1.8
23	0x400ccccd	2.2
24	0xc00ccccd	-2.2
25	0xbfe66666	-1.8
26	0xbfb33333	-1.4
27	0xbf800000	-1.0
28	0xbf19999a	-0.6
29	0xbe4ccccc	-0.19999999
30	0x3e4cccd0	0.20000005
31	0x3f19999a	0.6
32	0x3f800000	1.0
33	0x3fb33334	1.4000001
34	0x3fe66666	1.8
35	0x400ccccd	2.2
36	0xc00ccccd	-2.2
37	0xbfe66666	-1.8
38	0xbfb33333	-1.4
39	0xbf800000	-1.0
40	0xbf19999a	-0.6
41	0xbe4ccccc	-0.19999999
42	0x3e4cccd0	0.20000005
43	0x3f19999a	0.6
44	0x3f800000	1.0
45	0x3fb33334	1.4000001
46	0x3fe66666	1.8
47	0x400ccccd	2.2
48	0xc00ccccd	-2.2
49	0xbfe66666	-1.8
50	0xbfb33333	-1.4
51	0xbf800000	-1.0
52	0xbf19999a	-0.6
53	0xbe4ccccc	-0.19999999
54	0x3e4cccd0	0.20000005
55	0x3f19999a	0.6
56	0x3f800000	1.0
57	0x3fb33334	1.4000001
58	0x3fe66666	1.8
59	0x400ccccd	2.2
60	0xc00ccccd	-2.2
61	0xbfe66666	-1.8
62	0xbfb33333	-1.4
63	0xbf800000	-1.0
64	0xbf19999a	-0.6
65	0xbe4ccccc	-0.19999999
66	0x3e4cccd0	0.20000005
67	0x3f19999a	0.6
68	0x3f800000	1.0
69	0x3fb33334	1.4000001
70	0x3fe66666	1.8
71	0x400ccccd	2.2
72	0xc00ccccd	-2.2
73	0xbfe66666	-1.8
74	0xbfb33333	-1.4
75	0xbf800000	-1.0
76	0xbf19999a	-0.6
77	0xbe4ccccc	-0.19999999
78	0x3e4cccd0	0.20000005
79	0x3f19999a	0.6
80	0x3f800000	1.0
81	0x3fb33334	1.4000001
82	0x3fe66666	1.8
83	0x400ccccd	2.2
84	0xc00ccccd	-2.2
85	0xbfe66666	-1.8
86	0xbfb33333	-1.4
87	0xbf800000	-1.0
88	0xbf19999a	-0.6
89	0xbe4ccccc	-0.19999999
90	0x3e4cccd0	0.20000005
91	0x3f19999a	0.6
92	0x3f800000	1.0
93	0x3fb33334	1.4000001
94	0x3fe66666	1.8
95	0x400ccccd	2.2
96	0xc00ccccd	-2.2
97	0xbfe66666	-1.8
98	0xbfb33333	-1.4
99	0xbf800000	-1.0
100	0xbf19999a	-0.6
101	0xbe4ccccc	-0.19999999
102	0x3e4cccd0	0.20000005
103	0x3f19999a	0.6
104	0x3f800000	1.0
105	0x3fb33334	1.4000001
106	0x3fe66666	1.8
107	0x400ccccd	2.2
108	0xc00ccccd	-2.2
109	0xbfe66666	-1.8
110	0xbfb33333	-1.4
111	0xbf800000	-1.0
112	0xbf19999a	-0.6
113	0xbe4ccccc	-0.19999999
114	0x3e4cccd0	0.20000005
115	0x3f19999a	0.6
116	0x3f800000	1.0
117	0x3fb33334	1.4000001
118	0x3fe66666	1.8
119	0x400ccccd	2.2
120	0xc00ccccd	-2.2
121	0xbfe66666	-1.8
122	0xbfb33333	-1.4
123	0xbf800000	-1.0
124	0xbf19999a	-0.6
125	0xbe4ccccc	-0.19999999
126	0x3e4cccd0	0.20000005
127	0x3f19999a	0.6
128	0x3f800000	1.0
129	0x3fb33334	1.4000001
130	0x3fe66666	1.8
131	0x400ccccd	2.2
132	0xc00ccccd	-2.2
133	0xbfe66666	-1.8
134	0xbfb33333	-1.4
135	0xbf800000	-1.0
136	0xbf19999a	-0.6
137	0xbe4ccccc	-0.19999999
138	0x3e4cccd0	0.20000005
139	0x3f19999a	0.6
140	0x3f800000	1.0
141	0x3fb33334	1.4000001
142	0x3fe66666	1.8
143	0x400ccccd	2.2
144	0xc00ccccd	-2.2
145	0xbfe66666	-1.8
146	0xbfb33333	-1.4
147	0xbf800000	-1.0
148	0xbf19999a	-0.6
149	0xbe4ccccc	-0.19999999
150	0x3e4cccd0	0.20000005
151	0x3f19999a	0.6
152	0x3f800000	1.0
153	0x3fb33334	1.4000001
154	0x3fe66666	1.8
155	0x400ccccd	2.2
156	0xc00ccccd	-2.2
157	0xbfe66666	-1.8
158	0xbfb33333	-1.4
159	0xbf800000	-1.0
160	0xbf19999a	-0.6
161	0xbe4ccccc	-0.19999999
162	0x3e4cccd0	0.20000005
163	0x3f19999a	0.6
164	0x3f800000	1.0
165	0x3fb33334	1.4000001
166	0x3fe66666	1.8
167	0x400ccccd	2.2
168	0xc00ccccd	-2.2
169	0xbfe66666	-1.8
170	0xbfb33333	-1.4
171	0xbf800000	-1.0
172	0xbf19999a	-0.6
173	0xbe4ccccc	-0.19999999
174	0x3e4cccd0	0.20000005
175	0x3f19999a	0.6
176	0x3f800000	1.0
177	0x3fb33334	1.4000001
178	0x3fe66666	1.8
179	0x400ccccd	2.2
180	0xc00ccccd	-2.2
181	0xbfe66666	-1.8
182	0xbfb33333	-1.4
183	0xbf800000	-1.0
184	0xbf19999a	-0.6
185	0xbe4ccccc	-0.19999999
186	0x3e4cccd0	0.20000005
187	0x3f19999a	0.6
188	0x3f800000	1.0
189	0x3fb33334	1.4000001
190	0x3fe66666	1.8
191	0x400ccccd	2.2

blocks.0.to_q.base_weight f4 [128, 8]
0	0xbd3b3913	-0.045708727
1	0x3e1ac5d5	0.1511453
2	0xbe8f2754	-0.27959692
3	0x3e2665c6	0.16249761
4	0x3d12d8c4	0.035851255
5	0x3dee7ebf	0.11645269
6	0xbebcfba0	-0.36910725
7	0xbdc3fa5b	-0.09569236
8	0x3ed65fd4	0.41869986
9	0x3f4956c1	0.78648
10	0x3e24f4fb	0.16109078
11	0x3ef6e397	0.48220512
12	0xbd9ab23c	-0.07553527
13	0xbea24af9	-0.31697825
14	0x3f199af7	0.6000208
15	0xbe19c388	-0.15015996
16	0x3e99bd99	0.30027464
17	0x3dbabf4e	0.0911852
18	0xbe394670	-0.18093276
19	0xbcb5047c	-0.022096865
20	0xbe81f36a	-0.25381023
21	0x3ed7be68	0.42137456
22	0xbe44abc2	-0.19206145
23	0xbdfdb2b6	-0.12387602
24	0x3e8dd98e	0.27705044
25	0x3d8251ea	0.0636328
26	0x3e49fe66	0.19725952
27	0x3deee6fc	0.116651505
28	0x3ee45085	0.44592682
29	0xbe0a7385	-0.1352063
30	0x3e0d599a	0.13803712
31	0xbe2ab561	-0.16670753
32	0x3e92176e	0.285335
33	0x3eca85b2	0.39555126
34	0xbe59fba5	-0.21287401
35	0x3e972a3b	0.29524407
36	0x3f60ef4c	0.8786514
37	0x3d0d50bc	0.034500822
38	0xbd023619	-0.031789873
39	0x3dd52c31	0.104088195
40	0xbeb457c1	-0.352232
41	0xbe266913	-0.1625102
42	0xbd81e671	-0.06342781
43	0xbe3cce86	-0.18438157
44	0xbebcabe1	-0.36849883
45	0xbe150408	-0.14552319
46	0xbf2e5f5d	-0.6811426
47	0xbcdfbc51	-0.027311476
48	0xbebac69f	-0.3647966
49	0x3d9bb054	0.07601991
50	0x3e29a531	0.16566922
51	0xbedf4f8d	-0.4361538
52	0xbe108726	-0.14114055
53	0xbe882fc5	-0.26598945
54	0xbdf37c0d	-0.11888895
55	0x3e5b4710	0.21413827
56	0x3e5ceab5	0.21573909
57	0x3e94d701	0.29070285
58	0xbc6b57aa	-0.014364162
59	0x3ef1d248	0.47230744
60	0x3e76a432	0.24086073
61	0x3e64fa93	0.22361211
62	0x3ee516c3	0.44743928
63	0xbe05bdbb	-0.13060658
64	0x3d2eb2cc	0.042650983
65	0x3ec4b499	0.38419035
66	0xbe9f846b	-0.31155714
67	0x3e9cae40	0.30601692
68	0x3dcadbbd	0.09905193
69	0x3eb84bf5	0.3599545
70	0x3e0dfdb9	0.13866319
71	0xbe56630d	-0.20936222
72	0x3eb0623b	0.34449944
73	0xbb8eba3c	-0.004355697
74	0x3efe5d78	0.49680686
75	0x3e6a9870	0.22909713
76	0x3dfb9e7b	0.12286087
77	0xbec28358	-0.37990832
78	0x3c97cab4	0.018529274
79	0xbde3f7e5	-0.111312665
80	0x3e9fdfc6	0.31225413
81	0xbe807274	-0.2508732
82	0x3ef6720e	0.48133892
83	0x3dc59444	0.0964742
84	0xbe9de4ca	-0.30838615
85	0xbea561a7	-0.32301065
86	0x3e5f68bd	0.21817298
87	0xbdea8d67	-0.114527516
88	0xbe0d42ed	-0.13795061
89	0x3d87cf24	0.06631306
90	0x3dd143dd	0.10218022
91	0xbe59e778	-0.21279705
92	0xbe694b51	-0.22782637
93	0xbe4220bb	-0.18957798
94	0xbea47a11	-0.3212438
95	0x3e39269d	0.18081136
96	0xbc935992	-0.017987046
97	0x3e72a148	0.23694336
98	0x3e226769	0.1585976
99	0x3e82e37b	0.2556418
100	0x3e5fea22	0.21866658
101	0xbe87f24d	-0.26552048
102	0x3e96cb2c	0.29451883
103	0xbd7e5db4	-0.06210108
104	0xbdce3991	-0.10069574
105	0x3ef47ef5	0.4775311
106	0x3e6ccc6f	0.2312486
107	0x3f05af69	0.5222078
108	0xbd3b5235	-0.045732696
109	0x3eae25c2	0.34013182
110	0x3f4ffce6	0.8124527
111	0x3e8fcb29	0.28084686
112	0x3f07fb00	0.5311737
113	0xbdad6b7b	-0.08467766
114	0x3f03eb17	0.51530594
115	0x3ed7b619	0.42131117
116	0xbe7016f9	-0.23446263
117	0xbdce0433	-0.10059395
118	0x3eaa4602	0.33256537
119	0x3e7e452e	0.24831077
120	0x3edb6554	0.42850745
121	0xbd79ce55	-0.06098779
122	0xbee577d4	-0.44817984
123	0xbd2b7189	-0.041856322
124	0x3df44e83	0.119290374
125	0x3e91d41e	0.28482145
126	0xbe7a7a7e	-0.2446079
127	0xbe08be78	-0.13353908
128	0xbea58b1d	-0.32332698
129	0xbedfbfe4	-0.43701088
130	0xbf283fb7	-0.6572222
131	0x3e6c4c98	0.23076093
132	0x3d6a1718	0.05715093
133	0x3e748a4d	0.23880883
134	0xbe5f8140	-0.21826649
135	0x3d293c8b	0.041317504
136	0x3ee7828c	0.45216787
137	0xbe634b5b	-0.22196715
138	0x3e20bea8	0.1569773
139	0x3eca1245	0.39467064
140	0x3e5aaa53	0.21354036
141	0x3ea32cfc	0.31870258
142	0xbf713fb7	-0.94237846
143	0xbcfc6cd8	-0.03081362
144	0xbdc311a7	-0.09524851
145	0xbda8911d	-0.08230803
146	0x3d996478	0.07489866
147	0x3e4f146f	0.20222639
148	0x3ee27215	0.44227663
149	0x3e10e723	0.14150672
150	0xbd814284	-0.06311515
151	0xbe9dec34	-0.3084427
152	0x3e866dd5	0.2625567
153	0xbba8c454	-0.0051503573
154	0x3d9fe49b	0.07807275
155	0xbe680490	-0.2265799
156	0xbe711b0e	-0.23545477
157	0x3e0d432f	0.1379516
158	0xbecc2afa	-0.3987654
159	0x3ea429bf	0.320631
160	0x3e961e29	0.29319885
161	0xbe2613d6	-0.16218504
162	0x3dad0bad	0.084494926
163	0xbbb5bf56	-0.0055464907
164	0xbcfdcc00	-0.030981064
165	0xbe1da9a1	-0.1539674
166	0x3ef19be6	0.47189254
167	0xbec2f919	-0.3808067
168	0xbf0c157c	-0.5472028
169	0xbf26d09f	-0.6516208
170	0xbd8828d0	-0.06648409
171	0xbe3c00e0	-0.18359709
172	0xbef0dc2a	-0.47042972
173	0x3e7e84c1	0.24855329
174	0xbf607cc0	-0.87690353
175	0x3de172c4	0.11008218
176	0xbe7a90b2	-0.2446926
177	0xbf025030	-0.50903606
178	0xbe8c8baf	-0.2745032
179	0xbe846637	-0.25859234
180	0xbec117c4	-0.37713444
181	0x3e1245eb	0.14284484
182	0xbed8ea92	-0.42366463
183	0x3e385fd0	0.180053
184	0xbe9fbc01	-0.31198123
185	0xbf5218c5	-0.82069045
186	0xbe904e05	-0.28184524
187	0x3e0f6051	0.14001586
188	0x3da9e203	0.082950614
189	0x3ddd45fb	0.10804363
190	0xbf16d7a5	-0.589228
191	0x3e6354e6	0.22200355
192	0x3f2581ca	0.6465117
193	0x3e4ec039	0.20190515
194	0x3d339fcd	0.04385357
195	0x3d94f987	0.07274156
196	0x3ea46e5e	0.32115453
197	0x3e1b6fac	0.15179318
198	0x3e838318	0.25685954
199	0x3d84fb48	0.064932406
200	0xbf133851	-0.57507807
201	0xbe32642c	-0.17421025
202	0xbe540c81	-0.20707895
203	0xbec24a88	-0.37947488
204	0xbe1e56f7	-0.15462862
205	0xbec9ffd0	-0.39452982
206	0xbe047c69	-0.12938084
207	0xbe97bc15	-0.29635683
208	0xbdcc9104	-0.09988597
209	0xbc340739	-0.01098805
210	0xbe2687a3	-0.16262679
211	0x3d2c529b	0.042070966
212	0x3e1ba6f5	0.15200408
213	0x3d6c2c61	0.05765951
214	0x3ecba94e	0.39777607
215	0xbeac5ae8	-0.33663106
216	0xbe586213	-0.21131162
217	0x3ebb470d	0.36577645
218	0xbdfc8861	-0.123307
219	0xbea92e3f	-0.33043095
220	0xbe4465b9	-0.19179429
221	0x3d3ccdf9	0.04609487
222	0x3de7927f	0.11307239
223	0xbe69da20	-0.22837114
224	0xbf0e6643	-0.5562479
225	0xbdb9bb74	-0.09068957
226	0xbf352966	-0.70766294
227	0xbec482de	-0.38381094
228	0xbe254474	-0.16139394
229	0xbe2cc753	-0.16872911
230	0xbeffd10c	-0.49964178
231	0xbe890832	-0.26764065
232	0xbe462408	-0.19349682
233	0xbe9ebda7	-0.31004068
234	0x3e49c47d	0.1970386
235	0xbee46090	-0.4460492
236	0xbecf85ef	-0.4053187
237	0xbe365ae0	-0.17808104
238	0xbea0d716	-0.31414098
239	0x3e08d3f6	0.13362107
240	0x3ec003ab	0.37502798
241	0xbe8209dd	-0.2539815
242	0x3db87bba	0.09007974
243	0x3e8c4378	0.27395225
244	0xbe0422c2	-0.12903884
245	0x3d240286	0.04004147
246	0x3e3c11be	0.18366143
247	0xbe34f2d5	-0.17670758
248	0xbf268dbe	-0.6506003
249	0x3d282628	0.041052014
250	0xbe9a35a1	-0.3011904
251	0xbedec8fd	-0.43512717
252	0xbe2af400	-0.16694641
253	0xbedc63bd	-0.43044844
254	0x3f107e77	0.5644297
255	0xbe929812	-0.28631645

blocks.0.to_q.spline_weight f4 [128, 8, 8]
0	0x3ee6d8dd	0.4508733
1	0x3ea87fc2	0.3290997
2	0x3e923a21	0.28559974
3	0x3e609c3c	0.21934599
4	0x3d226c4d	0.039654065
5	0xbd86fc99	-0.06591148
6	0xbeaaed92	-0.33384377
7	0xbe4bb243	-0.1989222
8	0x3d5dbe05	0.054136295
9	0x3e260645	0.16213329
10	0x3e6d64c6	0.23182973
11	0x3da0f35d	0.07858918
12	0xbe6f1ec9	-0.23351587
13	0xbe2cba75	-0.16868003
14	0xbe65cd9f	-0.2244172
15	0x3dab11ff	0.08353042
16	0x3e3afcc1	0.1826048
17	0x3e0389f0	0.12845588
18	0xbdf4ee0f	-0.119594686
19	0x3dafbc9e	0.08580898
20	0x3e5d1d93	0.21593313
21	0xbd9d204b	-0.07672175
22	0xbe1d4020	-0.15356493
23	0x3ead9267	0.3390076
24	0xb937f8e7	-0.00017544963
25	0xbb747f15	-0.0037307192
26	0x3ec47eba	0.38377935
27	0x3e3e26e9	0.1856953
28	0xbe15c82b	-0.1462714
29	0xbc90c16e	-0.01767036
30	0x3c4186ab	0.0118118925
31	0x3d205870	0.03914684
32	0xbd2a39a6	-0.041558884
33	0xbf266790	-0.65001774
34	0xbeb3ef9a	-0.3514374
35	0x3c60089f	0.01367393
36	0xbd4f94e9	-0.05067912
37	0xbdd297cb	-0.102828585
38	0x3f0ccacb	0.5499694
39	0x3e84041c	0.25784385
40	0x3e46846c	0.19386452
41	0x3da401f5	0.08008186
42	0xbe265122	-0.16241887
43	0xbe59707f	-0.2123432
44	0xbcd5bfe4	-0.026092477
45	0x3dcff107	0.10153394
46	0x3bbb8829	0.0057230187
47	0xbcd59324	-0.026071139
48	0x3cab747e	0.020929571
49	0x3d235c72	0.039883085
50	0xbdb92b25	-0.09041432
51	0x3d3a45c3	0.045476686
52	0xbcd70244	-0.026246198
53	0xbdb1b0eb	-0.086763225
54	0x3d2e7642	0.04259325
55	0x3e2b92b0	0.16755176
56	0xbc678fcb	-0.014133404
57	0xbe28af0f	-0.1647303
58	0x3dfebd47	0.124384455
59	0x3db8ad2b	0.09017404
60	0x3e5476ba	0.20748416
61	0x3d5a2db6	0.05326625
62	0xbc681b2d	-0.014166635
63	0xbc42d00b	-0.011890422
64	0x3e32509c	0.17413563
65	0x3e18da64	0.1492706
66	0x3e340797	0.1758102
67	0xbe1ec7e1	-0.15505935
68	0xbe8fbb51	-0.280726
69	0xbdfb1028	-0.12258941
70	0x3e9ed9c8	0.3102553
71	0xbc18f4c2	-0.009335699
72	0xbd2f9bb8	-0.042873114
73	0xbebaf985	-0.36518493
74	0xbf0498b1	-0.5179549
75	0xbea2e90f	-0.31818435
76	0xbea4010a	-0.32032043
77	0xbeab61d7	-0.33473083
78	0xbe09297d	-0.13394733
79	0x3f37cb6b	0.71794766
80	0xbe1be8d8	-0.15225542
81	0xbe4b3280	-0.19843483
82	0xbd2a6de6	-0.041608714
83	0x3ecee6e7	0.4041054
84	0x3f1c5735	0.6107057
85	0xbd9397a1	-0.07206655
86	0xbdcaf9d2	-0.09910931
87	0xbeeaae72	-0.45836216
88	0xbaea4609	-0.0017873655
89	0x3dde68a3	0.108598016
90	0x3f0eac8a	0.55732024
91	0x3e80fef8	0.25194526
92	0xbdb65797	-0.08903425
93	0xbf684177	-0.9072489
94	0xbe009e5b	-0.12560408
95	0x3f292025	0.66064674
96	0x3edf07ca	0.4356063
97	0x3f35bc9b	0.70990914
98	0x3f0066ed	0.5015705
99	0xbe973305	-0.29531112
100	0xbdfcae04	-0.12337878
101	0x3e04956e	0.12947628
102	0x3e3684ba	0.17824069
103	0x3e7c4d56	0.24638876
104	0x3e72b9ae	0.23703644
105	0x3edae45e	0.42752355
106	0x3f8e8e8e	1.1137254
107	0x3f704d5e	0.9386805
108	0x3f305323	0.68876857
109	0xbeeeefb9	-0.4666727
110	0xbed9d1f2	-0.42542988
111	0x3e8f68f8	0.28009772
112	0x3cf2a8c4	0.02962149
113	0x3ef6bf39	0.48192766
114	0xbe5a01c8	-0.21289742
115	0xbed0f0fc	-0.40808856
116	0xbeaeb07d	-0.34119025
117	0x3f3860f2	0.72022927
118	0x3f2bd566	0.67122495
119	0x3f1c3dbf	0.6103172
120	0x3f72811e	0.9472827
121	0x3f053bce	0.5204438
122	0x3e23a081	0.15979196
123	0x3e45f39b	0.1933121
124	0x3e78b198	0.24286497
125	0xbeb76078	-0.35815787
126	0xbeee77b8	-0.46575713
127	0xbcec8cf5	-0.028875807
128	0x3c883ba0	0.016629994
129	0x3d1517a0	0.036399484
130	0xbc909d73	-0.017653203
131	0x3d31aaab	0.043375652
132	0x3daa823d	0.08325622
133	0xbd500997	-0.050790396
134	0xbe2580d4	-0.16162425
135	0xbe0d7fac	-0.13818234
136	0x3e2180dc	0.15771812
137	0x3cfc49d3	0.03079692
138	0x3c7362e3	0.014855119
139	0xbe4c3203	-0.19940953
140	0xbe1479d3	-0.14499597
141	0x3e335b32	0.17515257
142	0x3c01975b	0.007909621
143	0xbbb6a620	-0.005574003
144	0x3e50e7cd	0.20400925
145	0x3e857d6f	0.2607226
146	0x3ab851da	0.001406248
147	0xbed12640	-0.40849495
148	0xbdad69db	-0.08467456
149	0xbe0310f9	-0.12799443
150	0xbddb7406	-0.10715489
151	0x3ee36433	0.44412383
152	0xba421f0f	-0.0007405141
153	0x3e014145	0.12622555
154	0x3e8656e9	0.26238182
155	0x3ea9e8bd	0.33185378
156	0xbac80e2c	-0.0015263013
157	0xbecee264	-0.40407097
158	0xbdc0050a	-0.09375961
159	0x3e6458e8	0.2229954
160	0xbf8f5ff1	-1.1201154
161	0xbfb38cd3	-1.4027351
162	0xbf35dbbe	-0.71038425
163	0x3d68a79b	0.056800466
164	0x3de55af4	0.111989886
165	0xbd8440cd	-0.06457672
166	0xbe113176	-0.14179024
167	0xbe52ef40	-0.20599079
168	0x3d82c7ed	0.06385789
169	0x3f56e5a8	0.8394418
170	0x3f76a6da	0.96348345
171	0x3f28310a	0.6569983
172	0x3f12c2fa	0.5732876
173	0xbe2520ea	-0.16125837
174	0xbe5e2e1b	-0.21697275
175	0x3cb32798	0.021869466
176	0x3e25908a	0.16168419
177	0x3e98e7f4	0.29864466
178	0x3e5cf094	0.21576148
179	0xbdc2560d	-0.09489069
180	0xbe44a601	-0.1920395
181	0x3e6a9d91	0.2291167
182	0x3da9c58a	0.08289631
183	0x3df527d4	0.11970487
184	0x3ebcd0f3	0.36878166
185	0x3edcba8e	0.4311108
186	0x3ef047ea	0.46929866
187	0x3f2e899b	0.6817872
188	0x3f20de09	0.628388
189	0x3d303b1b	0.043025117
190	0xbe369ee3	-0.17834048
191	0xbddbb5b6	-0.10728018
192	0x3d829ec5	0.06377939
193	0x3d464e5f	0.048414584
194	0x3d9ffc6a	0.07811816
195	0xbdddc154	-0.1082789
196	0xbdc9b85f	-0.09849619
197	0xba8d085d	-0.0010759939
198	0xbba43944	-0.0050117094
199	0xbe65d77c	-0.22445482
200	0x3d566345	0.052340765
201	0x3d5506c0	0.05200839
202	0xbc700870	-0.014650449
203	0xbcbcf094	-0.023063935
204	0xbd9af637	-0.07566493
205	0x3d3bca87	0.045847442
206	0xbb8d8858	-0.004319232
207	0x3be6c8e4	0.007042991
208	0xbec3e900	-0.38263702
209	0xbe8a8114	-0.27051604
210	0x3d62390c	0.055230185
211	0x3dc8ad58	0.09798688
212	0x3d964f45	0.07339338
213	0x3d42ede0	0.047590137
214	0x3d184125	0.0371715
215	0xbf4bd35f	-0.796194
216	0x3ac9dea3	0.0015401434
217	0x3d90ab0f	0.07063877
218	0x3f3b1d97	0.73092026
219	0x3ef57d89	0.47947338
220	0x39d93202	0.00041426724
221	0xbecb877c	-0.39751804
222	0xbcec139f	-0.02881795
223	0x3e3e3b4f	0.18577312
224	0xbe87a2e6	-0.2649147
225	0xbf9cff6c	-1.2265449
226	0xbfadafe5	-1.3569304
227	0x3d0595af	0.032613453
228	0x3d33414b	0.04376344
229	0xbe10bee7	-0.14135323
230	0xbec36dc4	-0.38169682
231	0xbf037b32	-0.51359856
232	0xbec23469	-0.3793061
233	0xbf684805	-0.90734893
234	0xbfcb4072	-1.5879042
235	0xbf968b3c	-1.1761241
236	0xbf3d156b	-0.73860806
237	0xbd5e2d5c	-0.054242477
238	0x3da53f9b	0.080687724
239	0x3d06a7cc	0.032874867
240	0xbe0514d1	-0.12996222
241	0xbf5456ec	-0.8294513
242	0xbdd51816	-0.10404985
243	0x3d69d4b7	0.057087626
244	0xbcba8aed	-0.022771323
245	0xbe6e46f8	-0.2326926
246	0xbce94fca	-0.02848043
247	0xbe5717bc	-0.21005148
248	0xbf165755	-0.5872701
249	0xbea316ea	-0.3185342
250	0xbef36dfc	-0.4754485
251	0xbf8cf99d	-1.1013676
252	0xbf99eb92	-1.2025015
253	0xbdd5d725	-0.10441426
254	0x3dc7005a	0.09716864
255	0x3dc621a1	0.09674383

blocks.0.to_q.spline_scaler f4 [128, 8]
0	0xbe4764b1	-0.19472004
1	0x3ee2d03a	0.4429949
2	0xbe6f7d3d	-0.23387618
3	0x3d4250c1	0.047440294
4	0x3dba6fee	0.0910338
5	0xbd6d2961	-0.05790079
6	0xbc09cdc6	-0.008410877
7	0xbd27efe8	-0.041000277
8	0x3e07dae3	0.13267092
9	0x3f1be1f6	0.60891664
10	0xbe58be5e	-0.2116637
11	0x3f3741ac	0.7158458
12	0x3e835f31	0.25658563
13	0x3f44f172	0.76930916
14	0x3f243606	0.64144933
15	0x3f187bee	0.595641
16	0xbd16a1ff	-0.036775585
17	0xbc3190f3	-0.010837781
18	0xbe56928b	-0.20954339
19	0xbefb4f80	-0.4908409
20	0x3ebc297d	0.36750403
21	0xbf0c3960	-0.5477505
22	0xbe706c0d	-0.23478718
23	0xbead36b4	-0.33830798
24	0xbdf77c87	-0.120842986
25	0x3c8ca415	0.017168084
26	0xbe845a50	-0.25850153
27	0x3e3a1ec9	0.18175806
28	0xbecea8b1	-0.40363076
29	0xbf1b0b2f	-0.6056394
30	0xbde4e8c4	-0.11177209
31	0xbf46e204	-0.7768862
32	0x3c70425b	0.014664258
33	0x3d3dffc4	0.046386495
34	0xbd9506ce	-0.072766885
35	0x3e6d05a9	0.2314669
36	0xbef3561e	-0.4752664
37	0x3e1293fe	0.14314267
38	0x3d9f0393	0.077643536
39	0x3f398a8a	0.7247702
40	0x3d802679	0.06257338
41	0x3da5bbf8	0.08092493
42	0x3e16a2e4	0.14710575
43	0xbf11b454	-0.56915784
44	0x3d183839	0.037162993
45	0xbe68b6a0	-0.22725916
46	0xbeb6446c	-0.35599077
47	0xbec717cc	-0.38885343
48	0xbebd07fd	-0.36920157
49	0x3e00c610	0.12575555
50	0x3e15bda2	0.1462312
51	0xbd691b5f	-0.05691087
52	0x3b60fc52	0.0034330082
53	0xbd9a2f63	-0.075285695
54	0x3bb75122	0.0055943886
55	0xbe43af82	-0.1910992
56	0x3edd7d60	0.43259716
57	0x3e5b2361	0.21400215
58	0xbe7ec484	-0.24879652
59	0x3e1af9ca	0.1513435
60	0xbdf8d4fd	-0.12149999
61	0xbdbd3529	-0.09238655
62	0x3ae2e716	0.0017311301
63	0x3d0e6840	0.03476739
64	0xbd6c388d	-0.05767112
65	0x3d08afbd	0.033370722
66	0xbef29986	-0.47382754
67	0x3e69257a	0.22768202
68	0xbe4bc842	-0.19900611
69	0xbd879f51	-0.06622184
70	0xbcaf7e0e	-0.021422412
71	0x3c874d99	0.016516494
72	0xbd517d46	-0.05114486
73	0x3c98d763	0.018657392
74	0xbd506738	-0.050879687
75	0xba0ace74	-0.0005295046
76	0xbd49fd9e	-0.049314134
77	0x3d2a6db3	0.041608524
78	0x3a3484fc	0.00068862713
79	0x3c4bbd05	0.0124352025
80	0xbe8923a5	-0.26785007
81	0xbc31e99e	-0.010858921
82	0x3ec1b9aa	0.37836963
83	0x3c94376d	0.018092835
84	0x3e58faa7	0.21189366
85	0xbc2653c6	-0.010151809
86	0x3b855b1e	0.0040697
87	0x3cfd6c0a	0.030935306
88	0x3e189120	0.14899111
89	0x3da1806e	0.07885824
90	0x3cdb948c	0.026804231
91	0x3c5dedcb	0.013545464
92	0x3cb1c698	0.021701142
93	0xbb00f243	-0.001967565
94	0x3d08ea92	0.03342683
95	0xbe60bb4c	-0.21946448
96	0xbe00339a	-0.12519684
97	0x3d15027c	0.036379322
98	0xbe8cb35b	-0.27480587
99	0x3c7ef1a0	0.015560538
100	0x3e577ce7	0.2104374
101	0x3e149ffb	0.14514153
102	0x3a22eecb	0.00062153925
103	0x3de537d2	0.111922875
104	0x3dcef1ec	0.10104737
105	0x3f024d6b	0.5089938
106	0x3eed5809	0.46356228
107	0x3f0aecf3	0.54267806
108	0xbe0f6241	-0.14002325
109	0xbe65e6ae	-0.22451279
110	0xbf1efde6	-0.6210617
111	0xbd07f50c	-0.03319268
112	0xbe41775b	-0.18893187
113	0x3b1cabc3	0.002390609
114	0x3df2761b	0.11838933
115	0xbd00f169	-0.031480227
116	0x3d812ca8	0.06307346
117	0xbcd1047b	-0.025514832
118	0x3ad15e45	0.0015973529
119	0x3d55481f	0.052070733
120	0x3dce5b70	0.10076034
121	0xbeaa6c56	-0.3328578
122	0x3e80fe21	0.25193885
123	0xbe2e0a6e	-0.16996166
124	0x3b61df73	0.0034465462
125	0xbe939c0d	-0.28829995
126	0xbe834858	-0.2564113
127	0xbea1f4b0	-0.31631994
128	0xbdb18878	-0.086686075
129	0x3a7b2263	0.0009580014
130	0xbdf344e4	-0.11878374
131	0xbd6e5587	-0.058187034
132	0xbca068a9	-0.019581156
133	0x3d730cd9	0.059338424
134	0x3c37ecd8	0.011225902
135	0xbe88d04a	-0.26721412
136	0x3f3493a2	0.7053777
137	0xbf23707e	-0.63843524
138	0x3ec2da2b	0.38057074
139	0xbf0279a0	-0.50966835
140	0xbc9bbc83	-0.019010788
141	0xbf218758	-0.63097143
142	0x3f08942c	0.5335109
143	0x3effc7bb	0.4995707
144	0xbd822493	-0.06354632
145	0xbba15f85	-0.004924717
146	0x3b045c92	0.0020196778
147	0xbb621436	-0.003449691
148	0x3dbb1a52	0.091358796
149	0x3ea4bafd	0.3217391
150	0x3c94621a	0.018113185
151	0x3f95751b	1.1676363
152	0xbcc5c517	-0.024141831
153	0xbc5994dd	-0.013280121
154	0xbede7a07	-0.43452474
155	0x3e9c4dda	0.30528146
156	0x3d0e66ad	0.034765888
157	0x3e4126fe	0.1886253
158	0xbd5acb87	-0.053416755
159	0xbe8c5728	-0.27410245
160	0x3b54a32d	0.0032445893
161	0xbc7f465b	-0.015580739
162	0x3e4f8455	0.20265324
163	0x3de5686a	0.11201556
164	0xbde771b6	-0.113009855
165	0x3d529e94	0.051420763
166	0xbb9adcba	-0.0047260197
167	0xbe865fa7	-0.26244852
168	0xbddd3111	-0.10800374
169	0xbe8e6a45	-0.27815452
170	0xbefe0886	-0.49615878
171	0x3f0156a5	0.50522834
172	0x3d7a3849	0.061088834
173	0x3dd324a1	0.10309721
174	0x3eea62ed	0.457786
175	0x3e843d3e	0.25827974
176	0xbe5bdc8b	-0.21470849
177	0xbedce7a1	-0.4314547
178	0xbe25e587	-0.16200839
179	0x3c3324c1	0.010934056
180	0xbd9ab992	-0.07554926
181	0x3e39be39	0.1813897
182	0x3ddfcdcc	0.109279245
183	0xbd064de2	-0.03278912
184	0xbf59e0ef	-0.85108846
185	0xbfa241d9	-1.2676345
186	0x3f728e85	0.9474872
187	0x3f5c2bec	0.8600452
188	0xbcb65f22	-0.02226216
189	0x3f8cf1ed	1.101133
190	0xbf68c02f	-0.9091825
191	0x3f64b406	0.89337194
192	0x3ea20592	0.31644875
193	0x3c1fdad6	0.009756764
194	0xbf274030	-0.6533232
195	0x3f181ab2	0.59415734
196	0x3c6e9f25	0.01456431
197	0x3e809be8	0.25118947
198	0x3c2cfc02	0.01055813
199	0x3edb96ef	0.4288859
200	0x3a94e3b2	0.0011359362
201	0xbe2262ff	-0.15858077
202	0xbea6ce6f	-0.3257937
203	0x3ea8bae4	0.32955086
204	0xbd24dd34	-0.04025002
205	0x3d9c98c2	0.07646324
206	0x3d98c214	0.074588925
207	0xbe05fb3d	-0.13084121
208	0xbe69ef40	-0.22845173
209	0x3a0e255c	0.0005422437
210	0xbe50c519	-0.20387687
211	0xbe888659	-0.26665
212	0x3d6ea432	0.058262058
213	0xbd5bfa6b	-0.053705614
214	0x3c4924a4	0.012276802
215	0xbf11655b	-0.5679528
216	0x3e217d21	0.15770389
217	0x3f7d2d36	0.9889711
218	0x3e582800	0.21109009
219	0x3d71fccd	0.05907898
220	0xbd25fd6e	-0.040524893
221	0xbeae9ef3	-0.34105644
222	0x3eb90cd6	0.36142606
223	0x3e6c4797	0.23074184
224	0x3e66b041	0.22528173
225	0xbede862a	-0.43461734
226	0xbe8368b9	-0.25665835
227	0xbe0512a8	-0.12995398
228	0xbdcb297c	-0.09920022
229	0x3d80e581	0.062937744
230	0xbcddb8ae	-0.027065601
231	0x3d393bcd	0.045223046
232	0x3ee7a352	0.4524179
233	0xbdc1b9a0	-0.09459233
234	0x3e5b61ad	0.21423979
235	0x3cb9c1dd	0.022675449
236	0x3dffdb22	0.12492968
237	0x3d8119f8	0.06303781
238	0x3d6b915d	0.057511676
239	0x3c8589b7	0.01630102
240	0x3b6e2259	0.003633639
241	0xbc179688	-0.009252198
242	0xbe613a25	-0.21994837
243	0xbc383318	-0.01124265
244	0xbdd58730	-0.104261756
245	0xbe621676	-0.2207888
246	0xbb9194b8	-0.0044427775
247	0xbe82af3a	-0.25524312
248	0x3e8565ae	0.26054138
249	0xbe9bbcaf	-0.30417392
250	0x3f223a2c	0.63370013
251	0x3f2b4bfa	0.66912806
252	0x3ed4616d	0.4148058
253	0xbeef23f1	-0.4670711
254	0x3e9c14ae	0.30484527
255	0x3f0cf751	0.55064875

blocks.0.to_q.grid f4 [8, 12]
0	0xc00ccccd	-2.2
1	0xbfe66666	-1.8
2	0xbfb33333	-1.4
3	0xbf800000	-1.0
4	0xbf19999a	-0.6
5	0xbe4ccccc	-0.19999999
6	0x3e4cccd0	0.20000005
7	0x3f19999a	0.6
8	0x3f800000	1.0
9	0x3fb33334	1.4000001
10	0x3fe66666	1.8
11	0x400ccccd	2.2
12	0xc00ccccd	-2.2
13	0xbfe66666	-1.8
14	0xbfb33333	-1.4
15	0xbf800000	-1.0
16	0xbf19999a	-0.6
17	0xbe4ccccc	-0.19999999
18	0x3e4cccd0	0.20000005
19	0x3f19999a	0.6
20	0x3f800000	1.0
21	0x3fb33334	1.4000001
22	0x3fe66666	1.8
23	0x400ccccd	2.2
24	0xc00ccccd	-2.2
25	0xbfe66666	-1.8
26	0xbfb33333	-1.4
27	0xbf800000	-1.0
28	0xbf19999a	-0.6
29	0xbe4ccccc	-0.19999999
30	0x3e4cccd0	0.20000005
31	0x3f19999a	0.6
32	0x3f800000	1.0
33	0x3fb33334	1.4000001
34	0x3fe66666	1.8
35	0x400ccccd	2.2
36	0xc00ccccd	-2.2
37	0xbfe66666	-1.8
38	0xbfb33333	-1.4
39	0xbf800000	-1.0
40	0xbf19999a	-0.6
41	0xbe4ccccc	-0.19999999
42	0x3e4cccd0	0.20000005
43	0x3f19999a	0.6
44	0x3f800000	1.0
45	0x3fb33334	1.4000001
46	0x3fe66666	1.8
47	0x400ccccd	2.2
48	0xc00ccccd	-2.2
49	0xbfe66666	-1.8
50	0xbfb33333	-1.4
51	0xbf800000	-1.0
52	0xbf19999a	-0.6
53	0xbe4ccccc	-0.19999999
54	0x3e4cccd0	0.20000005
55	0x3f19999a	0.6
56	0x3f800000	1.0
57	0x3fb33334	1.4000001
58	0x3fe66666	1.8
59	0x400ccccd	2.2
60	0xc00ccccd	-2.2
61	0xbfe66666	-1.8
62	0xbfb33333	-1.4
63	0xbf800000	-1.0
64	0xbf19999a	-0.6
65	0xbe4ccccc	-0.19999999
66	0x3e4cccd0	0.20000005
67	0x3f19999a	0.6
68	0x3f800000	1.0
69	0x3fb33334	1.4000001
70	0x3fe66666	1.8
71	0x400ccccd	2.2
72	0xc00ccccd	-2.2
73	0xbfe66666	-1.8
74	0xbfb33333	-1.4
75	0xbf800000	-1.0
76	0xbf19999a	-0.6
77	0xbe4ccccc	-0.19999999
78	0x3e4cccd0	0.20000005
79	0x3f19999a	0.6
80	0x3f800000	1.0
81	0x3fb33334	1.4000001
82	0x3fe66666	1.8
83	0x400ccccd	2.2
84	0xc00ccccd	-2.2
85	0xbfe66666	-1.8
86	0xbfb33333	-1.4
87	0xbf800000	-1.0
88	0xbf19999a	-0.6
89	0xbe4ccccc	-0.19999999
90	0x3e4cccd0	0.20000005
91	0x3f19999a	0.6
92	0x3f800000	1.0
93	0x3fb33334	1.4000001
94	0x3fe66666	1.8
95	0x400ccccd	2.2

blocks.0.to_kv.base_weight f4 [256, 8]
0	0x3dc51134	0.09622422
1	0x3ec82177	0.39088032
2	0xbe0cf89a	-0.13766709
3	0x3d01fd10	0.03173548
4	0x3e023781	0.12716486
5	0xbe2ac433	-0.16676407
6	0xbe06c679	-0.13161649
7	0x3de3fde3	0.111324094
8	0xbe3453ea	-0.17610136
9	0x3d2b08dc	0.041756496
10	0x3f01eccd	0.50751954
11	0xbdfb9ba6	-0.12285547
12	0x3ead5e37	0.33860943
13	0x3e9adfb2	0.3024879
14	0x3e9973b7	0.29971096
15	0x3e0cc1a5	0.13745745
16	0x3dedcd47	0.11611419
17	0x3ec78604	0.38969433
18	0xbe7ead2f	-0.24870752
19	0x3d948cce	0.07253419
20	0xbeb7cd6d	-0.35898915
21	0xbdadccfc	-0.08486363
22	0xbe3edff3	-0.18640117
23	0xbe5f75cb	-0.21822278
24	0xbec62a36	-0.3870408
25	0xbee5dfca	-0.448973
26	0x3ec4d046	0.3844015
27	0x3d55fbc8	0.05224207
28	0x3db54a81	0.08852101
29	0x3ec6c49d	0.3882188
30	0x3e4101bc	0.18848318
31	0xbdcdc0cf	-0.10046541
32	0xbcc1929c	-0.02362948
33	0x3f720bc5	0.9454921
34	0xbcd51097	-0.026008887
35	0xbdc5e7fc	-0.09663388
36	0xbe274fde	-0.1633906
37	0xbe930197	-0.2871215
38	0xbd29234a	-0.04129342
39	0xbe6603bb	-0.2246236
40	0xbd327be9	-0.0435752
41	0x3ddb3320	0.10703111
42	0xbed4e20c	-0.4157871
43	0xbe530159	-0.20605983
44	0xbe5c6523	-0.21522956
45	0xbecfcc99	-0.40585783
46	0x3e0dc9b4	0.13846475
47	0xbe536e90	-0.20647645
48	0x3da98b77	0.08278554
49	0xbe6be8cb	-0.23038022
50	0xbdd03be2	-0.10167672
51	0xbd2fc30b	-0.042910617
52	0x3e747915	0.23874314
53	0xbec4dfc5	-0.38451973
54	0xbd9c7a4d	-0.076405145
55	0x3e8405de	0.25785726
56	0x3e3986c0	0.1811781
57	0x3f0b4e54	0.54416394
58	0x3d80d2e5	0.06290225
59	0x3c875bf6	0.016523343
60	0xbe4da342	-0.20081809
61	0x3e111a8d	0.14170285
62	0x3b81026d	0.0039370568
63	0xbe87db7a	-0.26534635
64	0xbd9b21db	-0.07574817
65	0x3eae5464	0.3404876
66	0x3e4bcb86	0.19901857
67	0x3ea49536	0.3214509
68	0xbe1c7110	-0.15277505
69	0xbda10186	-0.07861619
70	0xbea65280	-0.32484818
71	0x3da56375	0.080756105
72	0x3d2c4e25	0.042066712
73	0xbf14c8bc	-0.58118796
74	0x3ea0e82c	0.31427133
75	0x3d32c8e7	0.043648627
76	0x3e32b5ff	0.17452239
77	0x3ec83764	0.3910476
78	0xbd7f4045	-0.06231715
79	0xbc4e1258	-0.012577616
80	0x3ebd35e2	0.36955172
81	0xbdaecb2f	-0.08534848
82	0xbdcaee61	-0.099087484
83	0x3e9eb54b	0.3099769
84	0xbb502fbc	-0.0031766733
85	0x3ee44b0e	0.44588512
86	0xbcec83d4	-0.028871454
87	0xbdf6b398	-0.120459735
88	0x3d487c59	0.048946712
89	0x3db597e1	0.08866859
90	0xbe63f9b4	-0.22263223
91	0x3e98bfa0	0.29833698
92	0x3e15f12f	0.14642785
93	0xbe43ae84	-0.19109541
94	0xbe4faaaf	-0.20279954
95	0x3e8b9e22	0.27269083
96	0x3e519ce1	0.20470001
97	0x3e013c3d	0.12620635
98	0x3f064a49	0.524571
99	0xbe770f02	-0.24126819
100	0x3c8493a1	0.016183676
101	0x3dd08e1a	0.10183354
102	0xbe403b7c	-0.18772691
103	0xbdcad97c	-0.09904763
104	0x3e0e5873	0.13900928
105	0x3e887723	0.26653394
106	0x3ed2aa4d	0.41145554
107	0xbdb5b6b4	-0.088727385
108	0x3e6479c3	0.22312073
109	0x3dd63b6b	0.10460552
110	0x3e71ed64	0.23625714
111	0x3e33fa4d	0.17575951
112	0x3da3166c	0.07963261
113	0x3edd6cb7	0.43247005
114	0x3e949abe	0.2902431
115	0xbe4cb8d3	-0.1999238
116	0x3e0849b2	0.13309363
117	0x3d2e5e37	0.04257032
118	0x3dbba1f7	0.09161752
119	0xbecec3ec	-0.40383852
120	0xbe24c5df	-0.16091107
121	0x3e740971	0.23831727
122	0xbf0443f9	-0.5166622
123	0x3e985981	0.29755786
124	0xbe761e32	-0.24034956
125	0xbd8d4b6d	-0.06899152
126	0xbc0f8250	-0.008759096
127	0xbd0e56c8	-0.03475073
128	0xbe1c7f61	-0.15282966
129	0x3dc47d37	0.09594195
130	0xbeab3e1a	-0.33445817
131	0xbe365888	-0.1780721
132	0xbe10212b	-0.14075153
133	0xbe8e498b	-0.27790484
134	0x3eb51875	0.35370222
135	0x3d216e0d	0.039411593
136	0x3e5c1e7f	0.21496008
137	0xbcd5fb5d	-0.026120836
138	0xbf12adec	-0.57296634
139	0x3da9f0dd	0.08297894
140	0xbe195f82	-0.1497784
141	0x3e0e38ee	0.13888904
142	0xbe6e8e9b	-0.23296587
143	0xbed0b3ca	-0.40762168
144	0xbee351e1	-0.44398406
145	0xbf92725a	-1.1441147
146	0x3e573124	0.2101484
147	0xbd9c6bc0	-0.07637739
148	0x3e3c7442	0.18403724
149	0x3e95d1a7	0.29261515
150	0x3d80211c	0.06256315
151	0xbe95f046	-0.29284877
152	0x3e6d2927	0.2316023
153	0x3f03d9d3	0.5150425
154	0xbe9e3d90	-0.30906343
155	0xbd7db656	-0.061941467
156	0xbd9b0e03	-0.07571032
157	0xbe3bbd8d	-0.18334027
158	0xbe4b3e28	-0.1984793
159	0xbe56b83f	-0.20968722
160	0xbe078d4b	-0.13237493
161	0xbdf4ddc2	-0.119563594
162	0x3e2d1743	0.16903405
163	0x3e42f8b3	0.19040184
164	0x3e2ad171	0.16681458
165	0xbe0b667a	-0.1361331
166	0x3e9c80db	0.3056706
167	0x3e283eff	0.16430281
168	0x3e316607	0.17324077
169	0xbf06f07a	-0.5271069
170	0xbeb6a9b9	-0.35676363
171	0x3d4c60dc	0.04989706
172	0xbe65b703	-0.22433095
173	0xbe93b8b0	-0.28851843
174	0x3ca58abe	0.020207759
175	0x3e6a799d	0.22897954
176	0x3ced9ed4	0.0290064
177	0xbe3e4fbe	-0.18585107
178	0xbec293f8	-0.38003516
179	0xbc4543c8	-0.012040086
180	0xbe8053eb	-0.25064024
181	0x3e7c7b7e	0.24656484
182	0x3cf51cd2	0.02992097
183	0xbe168dc2	-0.14702514
184	0x3e8dbe4f	0.27684256
185	0x3e616bcd	0.22013779
186	0xbf1d4e5c	-0.6144769
187	0xbe490436	-0.19630513
188	0x3e8c2751	0.27373746
189	0xbe7a3572	-0.2443445
190	0x3d595781	0.053061966
191	0xbe589220	-0.21149492
192	0xbec4fcb4	-0.38474047
193	0x3e7717d9	0.24130191
194	0x3e82f920	0.25580692
195	0x3e9a6dea	0.30161983
196	0xbe9a47d6	-0.3013293
197	0x3ea9174e	0.33025593
198	0x3e61b520	0.2204175
199	0xbd8e861b	-0.06959172
200	0x3e02e627	0.12783109
201	0x3dbae465	0.09125594
202	0xbebcf43b	-0.36905083
203	0x3e00a4cf	0.1256287
204	0x3d9f0851	0.07765258
205	0x3d5e32f6	0.05424782
206	0x3e3cc5b0	0.18434787
207	0x3e6e2d4e	0.2325947
208	0xbe682b7b	-0.22672836
209	0xbdec5cbf	-0.115411274
210	0x3eb4d265	0.35316768
211	0x3dfcbdcf	0.123408906
212	0x3df4c9fb	0.11952587
213	0xbc9b47d4	-0.018955149
214	0xbdb01ac4	-0.08598855
215	0x3da25719	0.07926769
216	0x3d43e5c9	0.047826562
217	0xbed17d3c	-0.4091586
218	0x3f0dfcf7	0.5546412
219	0x3d29c99e	0.041452043
220	0xbe4777c7	-0.19479285
221	0xbed8639f	-0.42263505
222	0xbe80eb18	-0.25179362
223	0x3e81e333	0.25368652
224	0xbd541a1b	-0.05178271
225	0xbeb371c2	-0.35047728
226	0xbeb629ff	-0.35578915
227	0x3e3fcd6f	0.1873071
228	0xbe7e26e0	-0.24819517
229	0xbec8e889	-0.3923991
230	0xbcae241a	-0.021257449
231	0x3eb631d1	0.35584882
232	0xbdd6371c	-0.1045973
233	0xbefc02e5	-0.49220958
234	0x3d244f1f	0.04011452
235	0xbe8257f9	-0.25457743
236	0x3e8ee2c5	0.27907386
237	0x3c6b2802	0.0143528
238	0x3e770fb1	0.2412708
239	0x3ea6ccff	0.32578275
240	0x3e079489	0.13240255
241	0xbf1eccf0	-0.6203146
242	0x3d4e1d83	0.050321113
243	0x3d810755	0.063002266
244	0x3ea5ba9a	0.32368928
245	0x3efd3971	0.49457887
246	0xbea65768	-0.3248856
247	0xbe60e3a3	-0.21961837
248	0xbc992663	-0.018695062
249	0xbe92b332	-0.2865234
250	0x3d51aaee	0.051188402
251	0x3e820177	0.25391743
252	0xbe781b4c	-0.24229163
253	0x3e2576c9	0.16158594
254	0xbc8259ba	-0.015911926
255	0x3e668f73	0.22515659
