weights/vanilla_vit_5epochs.pth (torch, 12264 bytes, 29 tensors)

v_class f4 [1, 8]
0.07634816 0.88561845 0.680314 0.3874252 0.41382068 0.45922023 0.42276335 -0.6315524
00000000: 6d5c 9c3d e4b7 623f 0f29 2e3f 995c c63e
00000010: 4ee0 d33e ea1e eb3e 7074 d83e 6bad 21bf

linear_mapper.weight f4 [8, 16]
-0.7372919 -0.41482675 -0.15373796 -0.23504394 0.37436384 0.33877537 0.6048993 0.69376814
0.549751 0.6680548 0.3446072 0.2833809 0.6332897 0.31579483 0.1740423 0.23739846
-0.48334968 -0.09435475 -0.0037161426 0.042979218 0.08048334 0.06928412 -0.013690642 0.008564107
0.04256094 0.05217024 -0.014552855 -0.08262775 -0.042306673 -0.07409593 0.19104476 -0.113899335
-1.5443543 -1.0196152 -0.6743159 -1.1179754 -0.8514843 -0.427793 -0.3820779 -0.78600997
0.08613666 -0.044472326 0.2101758 -0.73462784 0.5258935 0.27927583 0.36006537 0.02910506
0.11682726 0.22242408 0.631758 0.48280317 0.48646605 0.5883092 0.5137611 0.3698511
0.11941744 0.48604453 0.16408138 0.1827615 -0.73198706 -0.539959 -0.1888997 -0.41174498
-0.0020473795 0.6670136 0.55903155 -0.14407456 -1.8887228 -0.73541796 -0.7042627 -1.63572
-1.4972612 -0.76652884 -0.468019 -1.673153 -0.987317 -0.07517658 -0.22376496 -0.89283806
-0.5567627 -0.3789304 0.06333415 0.00031188564 -0.8493017 -0.404874 -0.26042303 -0.6999077
-0.36865065 -0.33423743 -0.1862438 -0.24286108 -0.3074889 -0.18421076 -0.008794076 -0.054048326
-0.2507419 0.2534467 0.7792266 0.4428842 -0.01923707 0.60555947 0.5744786 0.3669035
-0.17324124 0.52703696 0.47246414 -0.023348581 0.2757623 1.0251431 0.36193073 -0.13252333
0.09826669 0.10042915 0.19477192 -0.25092426 -0.79602516 -0.44007182 -0.4024365 -0.893124
-1.1269947 -0.46311355 -0.36132008 -1.4086335 -0.8473752 -0.21079835 -0.11467194 -0.92970157
00000000: 29bf 3cbf 2c64 d4be 7c6d 1dbe 5caf 70be
00000010: 9eac bf3e f773 ad3e aeda 1a3f ca9a 313f
00000020: 7bbc 0c3f a405 2b3f 5b70 b03e 4d17 913e
00000030: 461f 223f dcaf a13e 2538 323e 9518 733e
00000040: 9c79 f7be 103d c1bd 878a 73bb fa0a 303d
00000050: 73d4 a43d d5e4 8d3d b74e 60bc 7850 0c3c
00000060: 6154 2e3d 76b0 553d 196f 6ebc bd38 a9bd
00000070: c349 2dbd 9bbf 97bd 3da1 433e 0e44 e9bd
00000080: 67ad c5bf c082 82bf f89f 2cbf d119 8fbf
00000090: e0fa 59bf af07 dbbe b79f c3be f337 49bf
000000a0: 6b68 b03d 9d28 36bd 5338 573e 9210 3cbf
000000b0: f5a0 063f 3efd 8e3e 7d5a b83e bc6d ee3c
000000c0: 2143 ef3d 23c3 633e e4ba 213f fa31 f73e
000000d0: 1412 f93e 6f9b 163f d985 033f 205d bd3e
000000e0: 2191 f43d d4da f83e f304 283e d525 3b3e
000000f0: 8163 3bbf c13a 0abf ec6e 41be 3dd0 d2be
00000100: 542d 06bb 67c1 2a3f b11c 0f3f 4888 13be
00000110: abc1 f1bf 5a44 3cbf 8f4a 34bf 465f d1bf
00000120: 41a6 bfbf 3c3b 44bf 30a0 efbe e129 d6bf
00000130: cfc0 7cbf 2ef6 99bd a422 65be 0991 64bf
00000140: 0088 0ebf 2a03 c2be 56b5 813d 9584 a339
00000150: d66b 59bf a54b cfbe 2b56 85be 272d 33bf
00000160: c7bf bcbe 2b21 abbe b2b6 3ebe 93b0 78be
00000170: 2f6f 9dbe bfa1 3cbe 0715 10bc c761 5dbd
00000180: 3e61 80be c4c3 813e 657b 473f b8c1 e23e
00000190: 0f97 9dbc f205 1b3f 0811 133f c7da bb3e
000001a0: 2766 31be e5eb 063f d2e6 f13e 8645 bfbc
000001b0: b730 8d3e e437 833f fc4e b93e 32b4 07be
000001c0: 0c40 c93d ccad cd3d 4a72 473e 2579 80be
000001d0: 4ec8 4bbf 1851 e1be 280c cebe c6a3 64bf
000001e0: 5d41 90bf 381d edbe f2fe b8be 1a4e b4bf
000001f0: 95ed 58bf 86db 57be 1fd9 eabd ec00 6ebf

linear_mapper.bias f4 [8]
0.16174348 0.14468311 -0.12627678 0.005483017 0.052842777 0.05888203 0.01119409 -0.58512104
00000000: 15a0 253e cf27 143e b34e 01be e1aa b33b
00000010: ab71 583d 492e 713d 6b67 373c 7eca 15bf

blocks.0.q_mappings.0.weight f4 [4, 4]
-0.6369723 0.2811153 -0.07314288 0.037569705 -1.2311404 -0.20748015 0.9944054 0.4692677
0.6580534 -0.6169045 -0.9018697 -0.731647 -0.9064583 -0.09693272 0.92859834 -0.326211
00000000: 9e10 23bf 58ee 8f3e efcb 95bd b1e2 193d
00000010: 0296 9dbf ad75 54be 5a91 7e3f db43 f03e
00000020: 3076 283f 74ed 1dbf efe0 66bf 384d 3bbf
00000030: a70d 68bf a984 c6bd 9fb8 6d3f 2105 a7be

blocks.0.q_mappings.0.bias f4 [4]
0.38050774 0.5237546 -0.96013385 0.01880782
00000000: e9d1 c23e c814 063f 55cb 75bf db12 9a3c

blocks.0.q_mappings.1.weight f4 [4, 4]
0.33080226 -0.09694539 0.1729271 -0.28262863 0.14833319 -0.17367683 -0.050607752 -0.1187682
-0.14943163 0.39430654 -0.006867892 -0.38355392 -0.23786138 0.18030895 -0.65482146 -0.2942171
00000000: ea5e a93e 4e8b c6bd cd13 313e b3b4 90be
00000010: a8e4 173e 57d8 31be 134a 4fbd be3c f3bd
00000020: 9b04 19be 8ce2 c93e 0e0c e1bb 2e61 c4be
00000030: ef91 73be e9a2 383e 61a2 27bf a0a3 96be

blocks.0.q_mappings.1.bias f4 [4]
-0.42525828 0.23320062 0.20321275 -0.20635909
00000000: 74bb d9be 25cc 6e3e 0117 503e cc4f 53be

blocks.0.k_mappings.0.weight f4 [4, 4]
0.1150216 -0.50041234 0.30352223 0.014220626 -0.6219571 -0.40641913 0.814374 0.6784781
-0.13230284 0.9021186 -0.26143062 -0.37455213 -0.46259597 0.30798405 0.40957075 0.5019593
00000000: 7290 eb3d 061b 00bf 4467 9b3e a1fd 683c
00000010: 9538 1fbf 2b16 d0be d17a 503f beb0 2d3f
00000020: 657a 07be 3ff1 663f 3cda 85be 4cc5 bfbe
00000030: 61d9 ecbe 16b0 9d3e 42b3 d13e 6880 003f

blocks.0.k_mappings.0.bias f4 [4]
-0.35275602 0.32915235 -0.16729085 0.75651133
00000000: 709c b4be a886 a83e 4b4e 2bbe baaa 413f

blocks.0.k_mappings.1.weight f4 [4, 4]
-0.41880503 -0.054384265 -0.6708817 -0.10179808 -0.0367985 0.20137697 0.37230346 0.19405743
0.15971085 0.27168998 0.47288647 0.36662108 -0.28555286 0.4826699 0.22811584 -0.2133921
00000000: 9d6d d6be 09c2 5ebd e7be 2bbf 837b d0bd
00000010: 06ba 16bd c435 4e3e 8f9e be3e feb6 463e
00000020: 3e8b 233e f31a 8b3e 2d1e f23e c2b5 bb3e
00000030: fc33 92be 8220 f73e 3397 693e 7583 5abe

blocks.0.k_mappings.1.bias f4 [4]
-0.18717945 -0.42381468 0.138809 -0.4149738
00000000: f8ab 3fbe 3dfe d8be f223 0e3e 7277 d4be

blocks.0.v_mappings.0.weight f4 [4, 4]
0.62198704 0.59038675 -1.1803449 0.26424578 -0.3687283 -0.021065917 1.2808635 -0.6682121
1.0892148 2.6738746 0.16888468 -0.69296443 -0.5776854 0.7468079 1.0370681 -0.0075254943
00000000: 8b3a 1f3f 9623 173f 8b15 97bf 394b 873e
00000010: f5c9 bcbe 6e92 acbc 56f3 a33f f30f 2bbf
00000020: 646b 8b3f c320 2b40 1bf0 2c3e 1e66 31bf
00000030: 31e3 13bf cd2e 3f3f a6be 843f 6c98 f6bb

blocks.0.v_mappings.0.bias f4 [4]
0.2185305 0.37338966 0.08839832 0.8322617
00000000: 76c6 5f3e ee2c bf3e 2e0a b53d 1a0f 553f

blocks.0.v_mappings.1.weight f4 [4, 4]
-0.94612044 -0.9115715 0.12892325 -1.2495472 1.7441053 -0.30790955 -1.3999902 1.4437083
1.6252277 0.7381439 -1.1814963 0.83718306 1.283436 0.93507737 -0.06878121 0.9864539
00000000: f334 72bf c05c 69bf 7504 043e 2af1 9fbf
00000010: d83e df3f 52a6 9dbe e132 b3bf 6fcb b83f
00000020: 7607 d03f 00f7 3c3f 453b 97bf a151 563f
00000030: a147 a43f 3b61 6f3f 2add 8cbd 3e88 7c3f

blocks.0.v_mappings.1.bias f4 [4]
0.053739216 0.21719281 -0.40166777 -0.057675883
00000000: a71d 5c3d cb67 5e3e 66a7 cdbe 8c3d 6cbd

blocks.1.q_mappings.0.weight f4 [4, 4]
-0.33685377 -0.38286477 -0.14334454 0.6406781 -0.29464066 0.23087804 -0.27212957 -0.3675033
0.6737853 -0.25780886 -0.031891648 0.39453542 -0.828926 0.64532804 -0.1753426 -0.3508852
00000000: 1978 acbe da06 c4be e9c8 12be 7b03 243f
00000010: 24db 96be 4b6b 6c3e 9154 8bbe 6429 bcbe
00000020: 327d 2c3f 86ff 83be d1a0 02bd 8c00 ca3e
00000030: 7f34 54bf 3834 253f 038d 33be 3aa7 b3be

blocks.1.q_mappings.0.bias f4 [4]
-0.47672167 -0.50786716 -0.27477843 0.0021658067
00000000: dd14 f4be 9503 02bf c2af 8cbe 35f0 0d3b

blocks.1.q_mappings.1.weight f4 [4, 4]
-0.21221906 0.04877032 0.2965929 0.9122267 0.9940895 -0.24884461 -0.2909087 -0.80681497
0.18094417 -0.49538016 -0.4380974 -0.25626373 -0.47802076 0.20905808 0.42921203 0.26592794
00000000: f44f 59be 63c3 473d 06db 973e b087 693f
00000010: a67c 7e3f 1fd1 7ebe fcf1 94be 6d8b 4ebf
00000020: 6e49 393e 78a2 fdbe 4d4e e0be 0035 83be
00000030: 23bf f4be 5213 563e aec1 db3e b527 883e

blocks.1.q_mappings.1.bias f4 [4]
-0.007489834 -0.25734463 -0.2838599 -0.24566936
00000000: 486d f5bb adc2 83be 1656 91be c090 7bbe

blocks.1.k_mappings.0.weight f4 [4, 4]
0.35521638 -0.10846042 -0.56134415 0.4757049 -0.34113365 0.4588805 0.16632654 -0.22789277
0.11904172 -0.03577658 0.20546676 0.2583807 -0.38663846 0.44786996 -0.4603499 0.17326443
00000000: ecde b53e 7f20 debd 40b4 0fbf 988f f33e
00000010: 12a9 aebe 63f2 ea3e 8151 2a3e b95c 69be
00000020: 25cc f33d 778a 12bd e165 523e 7a4a 843e
00000030: 7af5 c5be 364f e53e fbb2 ebbe 3b6c 313e

blocks.1.k_mappings.0.bias f4 [4]
-0.42606854 0.3003897 -0.16764449 -0.36946735
00000000: a825 dabe aecc 993e ffaa 2bbe d32a bdbe

blocks.1.k_mappings.1.weight f4 [4, 4]
0.026188415 0.30818906 0.54422486 -0.2790506 0.60790503 -0.7625063 -0.7817679 -0.647984
0.53119445 -0.41266516 -0.02181396 0.14941584 0.06618507 0.12284035 0.13734086 0.22963592
00000000: 1689 d63c f5ca 9d3e 5252 0b3f b8df 8ebe
00000010: aa9f 1b3f 9d33 43bf f121 48bf 48e2 25bf
00000020: 5cfc 073f d948 d3be 31b3 b2bc 7700 193e
00000030: 0a8c 873d b993 fb3d 15a3 0c3e ae25 6b3e

blocks.1.k_mappings.1.bias f4 [4]
-0.29502657 -0.24959056 -0.13443387 0.018077474
00000000: b90d 97be ab94 7fbe 08a9 09be 3617 943c

blocks.1.v_mappings.0.weight f4 [4, 4]
1.0697452 -0.9552457 2.8273954 -1.149906 0.73170865 -0.9702819 -2.0562491 -1.2988781
-0.99607044 0.5650725 -2.7843082 0.2436592 0.48530918 -1.1073465 -1.8160167 -1.3627857
00000000: 69ed 883f fb8a 74bf 0cf4 3440 1f30 93bf
00000010: 4251 3b3f 6564 78bf 9699 03c0 a341 a6bf
00000020: 79fe 7ebf 97a8 103f 1b32 32c0 cc81 793e
00000030: 727a f83e 88bd 8dbf 3c73 e8bf c36f aebf

blocks.1.v_mappings.0.bias f4 [4]
-1.2652321 -0.8327786 -0.51930124 -0.6372759
00000000: 20f3 a1bf fa30 55bf edf0 04bf 8324 23bf

blocks.1.v_mappings.1.weight f4 [4, 4]
-1.145557 0.10227504 0.62991583 1.5841056 1.1260929 -1.0259274 -1.4256212 -0.854178
-0.85407054 2.0324554 2.4579258 1.0128764 0.011155259 1.7258098 1.5477551 0.27772224
00000000: 9da1 92bf 9375 d13d 2a42 213f f9c3 ca3f
00000010: d023 903f 9751 83bf c17a b6bf 69ab 5abf
00000020: 5ea4 5abf c013 0240 a84e 1d40 efa5 813f
00000030: 8cc4 363c 56e7 dc3f d71c c63f 9c31 8e3e

blocks.1.v_mappings.1.bias f4 [4]
1.6212784 -0.36552674 -0.88774925 -0.17830262
00000000: 0d86 cf3f 5226 bbbe 8943 63bf f694 36be

mlp.0.weight f4 [10, 8]
0.5749829 -0.07669022 -0.42013457 -0.48412207 -0.826772 1.1349263 -0.7827165 -0.43684188
0.11410771 -0.20518494 0.22282413 0.2550557 1.0264124 -1.3405144 2.0938022 1.5698729
0.22374506 0.98294604 0.22737402 1.0595789 -0.92113185 -0.017479865 0.06063151 0.39808676
0.7686312 -0.20485042 -0.7810743 -0.1067748 0.33025852 -0.088677555 0.082725346 0.14598522
-1.0095878 0.8399501 1.097917 1.0911232 0.23006992 0.33105066 -0.7271335 -0.24591777
0.16085505 -0.055747263 -0.43228635 -0.16383992 -0.48598322 0.5050623 0.111523576 0.0031903475
-0.07684458 0.61120117 0.16535357 0.79306567 0.29239613 0.084836505 -0.76514715 -0.18815619
-2.1243997 -1.3503155 2.5681865 -1.8093321 -0.01718165 0.42350152 -0.6977797 -0.17679414
0.44737262 -0.038315598 -0.4820042 -0.0895303 0.7588472 0.15660357 -0.78613853 -0.36825976
-1.3420082 -0.2518 -0.027271762 -0.3784547 0.80322886 0.0647632 -1.3362403 -0.5838942
00000000: 1432 133f c30f 9dbd e11b d7be d9de f7be
00000010: 54a7 53bf 4445 913f 1c60 48bf bda9 dfbe
00000020: 4eb1 e93d 001c 52be 022c 643e a996 823e
00000030: 7b61 833f fa95 abbf db00 0640 98f1 c83f
00000040: 6d1d 653e 5aa2 7b3f bcd4 683e 48a0 873f
00000050: 4ccf 6bbf ef31 8fbc bf58 783d 07d2 cb3e
00000060: 04c5 443f 4fc4 51be 7cf4 47bf bfac dabd
00000070: a517 a93e 949c b5bd e86b a93d 267d 153e
00000080: 2c3a 81bf f806 573f 8b88 8c3f eda9 8b3f
00000090: 7397 6b3e 797f a93e 6c25 3abf ded1 7bbe
000000a0: 30b7 243e 3e57 64bd a354 ddbe a7c5 27be
000000b0: cbd2 f8be c34b 013f 7966 e43d 2615 513b
000000c0: b160 9dbd ae77 1c3f 7252 293e 5a06 4b3f
000000d0: f2b4 953e c3be ad3d afe0 43bf 04ac 40be
000000e0: 2af6 07c0 23d7 acbf 2b5d 2440 3298 e7bf
000000f0: 88c0 8cbc 31d5 d83e b1a1 32bf 8609 35be
00000100: 060e e53e d1f0 1cbd 41c9 f6be a95b b7bd
00000110: cf43 423f b05c 203e 6040 49bf 8b8c bcbe
00000120: edc6 abbf eeeb 80be 0869 dfbc d0c4 c1be
00000130: 68a0 4d3f 92a2 843d ec09 abbf 177a 15bf

mlp.0.bias f4 [10]
-0.2254819 -0.44693735 -1.8312454 0.015694888 0.2353163 -0.41202405 0.8125329 0.88027865
1.122492 1.3413097
00000000: bae4 66be f9d4 e4be 4066 eabf 9192 803c
00000010: c2f6 703e d1f4 d2be 2802 503f f159 613f
00000020: d1ad 8f3f 09b0 ab3f
