weights/vanilla_vit_10epochs.pth (torch, 12396 bytes, 29 tensors)

v_class f4 [1, 8]
00000000: 40a4 10be 4de4 02be 2638 ff3e 53c2 e93e
00000010: 3aa4 383f e170 1a3f 8f83 5f3f 3c84 cf3e
-0.14125156 -0.12782402 0.49847525 0.4565607 0.7212559 0.6032849 0.8731012 0.40530574

linear_mapper.weight f4 [8, 16]
00000000: 3d84 533f 3073 babe a1ec 1ebf 28d3 963d
00000010: 7f83 a73f 8c03 4e3f da85 c23e 5058 923f
00000020: 0d51 173e b27e c8be 02a5 87bd 982b e23e
00000030: e4b0 95be 7ae0 fcbd 2026 b4bd 72de 36bc
00000040: b077 62be 8906 313e d518 0a3e cdbf ce3d
00000050: c0bc 05bf 0cb7 db3d e3b2 8dbe 9acc 0ebd
00000060: f009 013d c148 683e 548a 37be a438 fd3d
00000070: 9b4e 843e 4911 b73e 564f b63e f839 e63e
00000080: 242e 17bf 3cf8 80be a054 eebe 7b41 07bf
00000090: ef43 093f 47bd e33e f63f b13e 07dc 653d
000000a0: b7ca 023f 1484 0bbe d22c a9be 098b df3e
000000b0: 64a5 863f ee90 943f 92d9 823f c890 a03f
000000c0: 492d a8be a4f8 a6be 71f3 0fbf ff0d 7fbe
000000d0: b538 6fbf e00f 97bf 2836 a6bf ee15 67bf
000000e0: e1dd 073e bb58 1abf 9f39 02bf 4188 bcbe
000000f0: d88d 083f b610 483e 66e4 2c3f d427 3c3f
00000100: 7682 8abe 86a5 62bd 7b31 a63d bbba 11bf
00000110: 4125 6b3e fec6 f8be 8397 6cbe b936 22be
00000120: 2f7d 863f ecf5 a1be d880 88be 3d93 3d3f
00000130: b09d bb3f 249c 973f af15 be3f e0e1 df3f
00000140: 2883 903e bb7b 263c 903e 2fbd 1aab a3be
00000150: 2978 4abe 4085 c4be cc17 d4be c422 8bbf
00000160: 0415 c0bf be0e 8abf c6ab 88bf 97d1 0fc0
00000170: 18c2 11be f906 023e ebc2 633d bf77 85be
00000180: a951 4dbf bcb4 19bf f1d9 0ebf e4b5 99bf
00000190: 813c 513e c718 47bd 5919 90be d84d 33bf
000001a0: b3a2 743f bb08 16bf f783 60bf 656f a0bc
000001b0: b580 4c3f d2d3 38bf a20f 90bc bb0e 283e
000001c0: 8fce e83e b791 763e 47c0 103c 6845 e9bc
000001d0: 01ee bb3e c717 6bbf 9159 6cbf 046f b9be
000001e0: a834 923e d4df 24bf 49d6 72be c5c7 383f
000001f0: da55 9c3f 14f2 8b3f 09dc cc3f 2cb2 c43f
0.82623655 -0.36416006 -0.6207982 0.073644936 1.3087004 0.8047416 0.37992746 1.1433201
0.14777012 -0.3915916 -0.066232696 0.44173884 -0.2923652 -0.12347503 -0.08796334 -0.0111614335
-0.2211597 0.17287649 0.13486035 0.10095177 -0.52241135 0.10728273 -0.27675542 -0.034863092
0.031503618 0.22684003 -0.17923862 0.12364319 0.2584122 0.35755375 0.35607404 0.44966102
-0.5905478 -0.25189388 -0.4654894 -0.5283429 0.53619283 0.44480345 0.3461911 0.056118038
0.5109057 -0.13624603 -0.33042008 0.43660763 1.0519223 1.1606729 1.0222647 1.2544184
-0.3284705 -0.32611573 -0.5623084 -0.24907683 -0.93445903 -1.180172 -1.2985277 -0.9026784
0.13268234 -0.6029164 -0.5086917 -0.36822703 0.53341436 0.19537625 0.6753601 0.7349827
-0.2705266 -0.055333637 0.081149064 -0.56925553 0.2296343 -0.4858932 -0.23104672 -0.15841188
1.0506953 -0.31632936 -0.266608 0.7405279 1.4657497 1.1844525 1.4850367 1.7490807
0.28225064 0.010161336 -0.042784274 -0.31966478 -0.197724 -0.38382912 -0.41424406 -1.0869985
-1.5006413 -1.0785749 -1.0677421 -2.2471673 -0.14234197 0.12697972 0.05560581 -0.26067922
-0.8020273 -0.60041404 -0.558013 -1.2008634 0.20433237 -0.048607614 -0.2814434 -0.70040655
0.9556076 -0.5860707 -0.8770136 -0.019584367 0.7988389 -0.7219821 -0.01758558 0.16411869
0.45470092 0.24079023 0.008834905 -0.028475478 0.3670502 -0.91833156 -0.9232417 -0.3621751
0.285558 -0.64404035 -0.23714556 0.72179824 1.22137 1.0933251 1.6004649 1.5366874

linear_mapper.bias f4 [8]
00000000: 12ed 293e 6b9f 9cbd 1410 37be f70a a8bd
00000010: b838 8dbc 7d18 db3e b016 31be 91cc 963e
0.16594341 -0.07647594 -0.17877227 -0.082052164 -0.01723896 0.4279212 -0.17293811 0.29452947

blocks.0.q_mappings.0.weight f4 [4, 4]
00000000: 063e 373f d3ac fcbd 6a0b 88bd 92d6 d03d
00000010: 5230 eb3f 8cfa 123f 347c b63f 1a99 d13d
00000020: 92ba 0540 7d16 02bf 55c3 d93e f71b 1ebf
00000030: 6511 a63f 5142 f83d 6d69 953d d01b dabe
0.71579015 -0.12337651 -0.06642802 0.10197176 1.8374121 0.57413554 1.4256654 0.1023428
2.0895123 -0.50815564 0.4253184 -0.6176142 1.2974058 0.12122024 0.07295499 -0.42599344

blocks.0.q_mappings.0.bias f4 [4]
00000000: 3fd6 ca3e 8aa9 d9be 0906 79bd afe1 02bf
0.39616582 -0.4251216 -0.06079677 -0.51125616

blocks.0.q_mappings.1.weight f4 [4, 4]
00000000: b395 1e3f c296 d6be 5a03 4abf fb74 113f
00000010: 94db 10bf 5a02 f1bf 059d 26be 187d 83bf
00000020: b367 4e3f 3f0d e2be 5881 6dbf 8451 353d
00000030: c665 0cbf bd21 103e f67a 473f 2c01 2fbf
0.6194717 -0.41911894 -0.78911364 0.56819123 -0.5658505 -1.8828843 -0.16270836 -1.027255
0.8062698 -0.4415073 -0.9277549 0.044267192 -0.54842794 0.1407537 0.77922 -0.68361163

blocks.0.q_mappings.1.bias f4 [4]
00000000: e719 5a3e 4d30 87bf cf8d 853e c36b d5be
0.21298943 -1.0561615 0.26084754 -0.41683778

blocks.0.k_mappings.0.weight f4 [4, 4]
00000000: 9125 03be 8585 053f c072 493e bf1f 943d
00000010: 23e0 80be b236 d63f cd30 2fbf 7565 86be
00000020: ce7a 673f 2578 813f eb0b 21be 445d 9b3d
00000030: da71 0a3f dc30 073e c32e 19be 52a6 973c
-0.12807299 0.5215686 0.1967268 0.072326176 -0.25171003 1.6735442 -0.6843384 -0.2624928
0.9042176 1.011479 -0.15727203 0.075861484 0.54079974 0.13202232 -0.14959244 0.018511925

blocks.0.k_mappings.0.bias f4 [4]
00000000: db6b 07bf cdc9 5abe eaf8 aa3e 8d4c fc3d
-0.5289895 -0.21366043 0.3339303 0.123192884

blocks.0.k_mappings.1.weight f4 [4, 4]
00000000: 8c84 e2be 891b 20bf 9be4 c0be 74ff adbf
00000010: 7f35 823f afdd 21bf 83b4 da3d acf4 023f
00000020: 09e1 27bf b124 86bf 887a c1bd 294d 20bf
00000030: 8c2a 123f df59 973d ff5c b33e c921 2d3f
-0.4424175 -0.62542015 -0.37674412 -1.3593583 1.0172576 -0.6322889 0.10678961 0.5115459
-0.6557775 -1.0479947 -0.09447199 -0.6261774 0.5709617 0.073901884 0.35031888 0.6762968

blocks.0.k_mappings.1.bias f4 [4]
00000000: 2433 8fbe 709d b63e a20f 39be dee2 eabd
-0.27968705 0.3566699 -0.1807237 -0.11469053

blocks.0.v_mappings.0.weight f4 [4, 4]
00000000: 6d30 c1bf 7c45 7a3e a33a 9b3e 29d4 883f
00000010: 38b0 94bf 31a7 c6be d4aa 16bf 9953 603f
00000020: fa8b 613f 45ba 843f 6d1c 173f 9412 13bf
00000030: f291 c83e 94eb 1ac0 daf5 d6bf 0a28 3abf
-1.5092903 0.24440569 0.30318174 1.0689746 -1.1616278 -0.38799432 -0.58854413 0.8762756
0.8810421 1.0369345 0.5902775 -0.5745022 0.39173847 -2.4206285 -1.6793778 -0.72717345

blocks.0.v_mappings.0.bias f4 [4]
00000000: 8e80 4c3e a348 43be 5514 12be 3d3d d83d
0.19970915 -0.19070677 -0.14265569 0.10558555

blocks.0.v_mappings.1.weight f4 [4, 4]
00000000: b2e6 ecbe 31c2 48bf 046e 95bf cd86 c43e
00000010: d13f 7cbf 3212 363e 200d 4bbf 31b7 51bf
00000020: 6b57 87bf 7468 8abf a6d0 b1be c02c 93bf
00000030: bc78 d83e 198d 01bf 144c 6f3f d23b 0cbe
-0.46269757 -0.7842131 -1.1674199 0.38384095 -0.98534876 0.17780378 -0.793169 -0.8192015
-1.0573553 -1.0813127 -0.347295 -1.1498032 0.42279613 -0.5060592 0.9347546 -0.13694695

blocks.0.v_mappings.1.bias f4 [4]
00000000: cd21 e63e 7a7e f9be 8452 743d 9104 00bf
0.44947663 -0.48729306 0.059649006 -0.5000697

blocks.1.q_mappings.0.weight f4 [4, 4]
00000000: b00e af3e 0691 633f 1550 7bbe 062a 4c3d
00000010: 6894 42be 8337 10bf 0f69 4d3c 84bf c2be
00000020: 0a37 7e3e 00e1 073f 7d64 bd3e 13cc b63d
00000030: 989e 1dbe 8f34 623f d582 60bd 6810 d8be
0.34190893 0.88893163 -0.24542268 0.049844764 -0.19001925 -0.56334704 0.012537255 -0.3803674
0.24825683 0.530777 0.3699073 0.08925643 -0.1539253 0.8836145 -0.05481227 -0.42200017

blocks.1.q_mappings.0.bias f4 [4]
00000000: 3871 7ebe 0cc5 ab3c fc28 48be 8dcf b2be
-0.24847877 0.020967983 -0.19546884 -0.34923974

blocks.1.q_mappings.1.weight f4 [4, 4]
00000000: f96c d33b 164c 7fbc 29ea 93be 8c84 013f
00000010: b1a8 273f 7faf 00be ba77 a2bc 6353 a6be
00000020: bb55 d7be c315 ddbe ae53 293e c24d a2be
00000030: 1128 73be 84de 843d c466 0dbe 96cd edbd
0.0064521995 -0.015582105 -0.28889588 0.50592875 0.6549178 -0.12566946 -0.01983248 -0.32485494
-0.42057595 -0.43180665 0.16535828 -0.3169995 -0.23745753 0.06487754 -0.13808733 -0.11611478

blocks.1.q_mappings.1.bias f4 [4]
00000000: 07c2 1cbe 0729 403d 0e54 74be cb4d c1be
-0.1530839 0.046914127 -0.2386019 -0.37754664

blocks.1.k_mappings.0.weight f4 [4, 4]
00000000: a89f 5fbe fd0b 283f e830 d0be db69 0c3e
00000010: 6de2 583d 734e 3c3e ea56 963e e326 5e3e
00000020: e746 59be 436e f33e aea1 a83e 012f 0dbe
00000030: 5a71 9f3d 54fa de3d 0aac 893e 0f5b d9be
-0.21838248 0.6564329 -0.40662313 0.13712256 0.05295031 0.18389301 0.29363185 0.21694522
-0.21218453 0.4754506 0.32935852 -0.13787462 0.07785292 0.1088759 0.26889068 -0.42452285

blocks.1.k_mappings.0.bias f4 [4]
00000000: dfd3 b0be dea8 d8bd e746 bb3e 5967 823e
-0.34536645 -0.10579084 0.36577532 0.25469473

blocks.1.k_mappings.1.weight f4 [4, 4]
00000000: 1943 94bd 8144 a4be 1109 863d 53c4 7abe
00000010: d24d 7dbe 34b4 8c3d 841d 0c3f fbc3 653f
00000020: 2bb3 a4be 0fb0 d5be 7dbf ec3e 7922 7cbe
00000030: 8804 7a3d 1373 0b3e d450 ecbc d0e1 f2bc
-0.0723936 -0.32083514 0.06544698 -0.24488954 -0.24736717 0.068703085 0.5473254 0.8975217
-0.32167944 -0.41735885 0.46239844 -0.24622525 0.061039478 0.13618116 -0.028847136 -0.029648691

blocks.1.k_mappings.1.bias f4 [4]
00000000: 9ff9 b6bd b033 0cbe 7a59 8ebe c531 ebbe
-0.0893433 -0.13691592 -0.2780264 -0.4593641

blocks.1.v_mappings.0.weight f4 [4, 4]
00000000: c069 0bc0 f9e3 dcbf d98a 0a40 7c56 03bf
00000010: b7b6 06c0 d6b3 23bf 87bf 373f bb3e 0040
00000020: 7b68 2940 196f b53f 686b babf 3c63 9dbf
00000030: cffb 5ebe dff6 953e e232 a0bf fa6c 6a40
-2.1783295 -1.7257072 2.1647246 -0.5130384 -2.104902 -0.6394628 0.7177662 2.0038288
2.647002 1.4174529 -1.4564028 -1.2295909 -0.21775745 0.2928991 -1.2515528 3.6629014

blocks.1.v_mappings.0.bias f4 [4]
00000000: 66f4 0abf d2fe d3be bb7c 91be 634f 513f
-0.5427917 -0.4140535 -0.28415474 0.8176176

blocks.1.v_mappings.1.weight f4 [4, 4]
00000000: 6d10 1f3f b805 9a3f 122d 2e3f 9202 4fbf
00000010: 4b4e 88bf d8cc 6d3f b006 aa3f db74 6e3f
00000020: 2e51 febe 7f88 6f3e 137c 8ebf d0da 8dbf
00000030: a13a 9b3f 0cd5 3a3f 0873 983f b591 49bf
0.6213444 1.2032995 0.6803752 -0.80863297 -1.0648893 0.9289069 1.3283291 0.9314706
-0.4967131 0.23391913 -1.1131614 -1.1082401 1.2127267 0.72981334 1.1910105 -0.78737956

blocks.1.v_mappings.1.bias f4 [4]
00000000: d460 ff3d 14db 71bf e525 113f 3803 223f
0.124696404 -0.9447491 0.5669845 0.6328616

mlp.0.weight f4 [10, 8]
00000000: 6fbd 6a3f bc9c 903f de94 5ebf 572b 26bf
00000010: 55d1 9fbe 7054 883f f0bf 21be 2297 2ebf
00000020: 64ad 6bbe a77c 9c3e 3488 88be 60e8 6a3f
00000030: fdf4 f9bf 5ed3 fabe 8840 a23f 4573 5cc0
00000040: c3d5 a23e 18aa 403f c9da bfbe 1067 ef3e
00000050: e96a ae3e d22c 0dbf 57bd 16bf 41b1 e13e
00000060: c735 8d3e c67a 423e f8c2 b2be 5cc6 0dbf
00000070: 50a4 7d3e 1610 a0be 1ab5 82bf 3bb9 893e
00000080: 7655 c2be 3977 68be 1604 a8bd 6848 a4be
00000090: 5376 3c3f 6140 5bbf 5035 463f c860 223f
000000a0: 86c6 063e 5e4c ab3e b7d2 033e 4411 8abc
000000b0: d914 9fbe d43d 093f 7723 9abe 3b59 d2bd
000000c0: 23f2 3bbe 21bd 823f 07d1 11bf a1e2 4040
000000d0: 4967 c13d 8a6a 39bf f108 c53d 431b c93e
000000e0: 4195 79c0 69eb d3bf 003c 3040 33f2 cf3e
000000f0: 1af4 4c3f 6280 edbd 54fb 58bf 2ff4 3d3f
00000100: 3879 573f 1ac4 83be 82ca 64be 21dd 89bf
00000110: 0051 14bf cd07 1a3d 3399 18bf b053 2ebd
00000120: 78bd adbe 4109 9fbf bed5 083f 53ea 9fbf
00000130: ebb9 193f 221b 283e fbce 073e 0f57 c03e
0.916953 1.1297832 -0.86945903 -0.6490988 -0.31214395 1.0650768 -0.15795875 -0.6819936
-0.23015362 0.30563852 -0.26666415 0.91760826 -1.952789 -0.48989385 1.2675943 -3.4445355
0.31803712 0.7525954 -0.37471607 0.46758318 0.3406594 -0.55146515 -0.5888266 0.44080546
0.2758009 0.18992147 -0.34914374 -0.553808 0.24769711 -0.31262273 -1.0211518 0.26899132
-0.37955827 -0.2270173 -0.08203904 -0.32086492 0.7361805 -0.8564511 0.774251 0.63428926
0.13161668 0.334567 0.1287335 -0.016853936 -0.31070593 0.5360997 -0.30105183 -0.102709256
-0.18354087 1.0213968 -0.56959575 3.0138323 0.09443528 -0.7242819 0.09620846 0.39278612
-3.8997347 -1.6556216 2.753662 0.4061447 0.8005997 -0.11596753 -0.84758496 0.7420072
0.8416934 -0.2573555 -0.22342876 -1.0770608 -0.57936096 0.037605096 -0.59608763 -0.04256028
-0.33933616 -1.2424699 0.53451145 -1.2493385 0.60049313 0.164166 0.1326255 0.3756642

mlp.0.bias f4 [10]
00000000: c6d6 87bf 9dda a23e 5b93 a0be f613 9f3d
00000010: 9418 df3e 701e 773d 81d7 923f 24a4 3e3d
00000020: 9f9c dc3e d71a c03e
-1.0612419 0.31807414 -0.31362423 0.07767479 0.4357344 0.06033176 1.1472017 0.046543255
0.43088242 0.37520477
